src/main/python/saved_models/cpp_1_66_CNNClassifier1_128embs_147id_16hd_0hl_Falsebid5kernel0.5dropout_2.pt (torch, 320715 bytes, 9 tensors)

emb.weight f4 [147, 128]
000000 a1 e0 14 be 81 58 96 3f e0 15 92 3f f9 59 af 3e
       -0.14538814 1.1745759 1.1412926 0.3424833
000010 0f 90 cc 3f 03 0c 96 be ee 12 84 bf 8a c4 9f bf
       1.5981463 -0.2930604 -1.0318277 -1.2481854
000020 ba 35 d6 be 86 ec 4c bf 84 14 47 3f 97 04 bd bf
       -0.41837865 -0.80048406 0.7776568 -1.4767026
000030 71 1f 60 bf e7 31 f3 3e e5 48 a5 be 15 e7 5b bc
       -0.87547976 0.4749901 -0.32282177 -0.0134217935
000040 68 9b 28 bd d7 10 16 40 5e a4 b5 3f b5 bd de be
       -0.041163832 2.3447778 1.4190786 -0.4350411
000050 9d 9f 03 3f 06 2a 80 bf cb 0b 9d be 10 9f 67 3f
       0.51415426 -1.0012825 -0.3067306 0.90477085
000060 78 3e e2 3f 84 16 92 bf 1a 0f 9f bf 0c 87 e4 be
       1.7675314 -1.1413121 -1.2426484 -0.44634283
000070 c4 7e 9a bf 5d 0a 0b bf d9 0b d0 3d 75 f5 89 bd
       -1.2069936 -0.5431269 0.1015851 -0.0673627
000080 cf 2d b9 3f c0 ce eb bf 48 6f d1 be 17 a3 45 c0
       1.4467105 -1.842247 -0.40905213 -3.0880792
000090 77 96 0b bf 3a bc d1 3f f0 fb 06 c0 58 aa 28 3f
       -0.54526466 1.6385567 -2.109127 0.65884924
0000a0 d0 76 5c 3f 90 88 29 bf 55 79 b4 3d 7d fc 64 40
       0.86118793 -0.66224 0.08812205 3.5779107
0000b0 63 e5 bf be 7e 5e a5 3f 4c 90 30 bf 8b a2 43 40
       -0.37479696 1.2919462 -0.6897018 3.0567958
0000c0 aa c7 0a 3f 69 2a 03 3f 60 5f aa 3f 3e 8f 01 be
       0.54210913 0.5123659 1.3310356 -0.12652299
0000d0 2f 09 2f bf f5 8b cc 3f 6c 22 bb 3e f3 0c 5d 3e
       -0.6837339 1.5980211 0.365497 0.21586971
0000e0 59 75 c3 3f 0d 21 72 3f d1 81 97 bf ae b6 ee 3f
       1.5270187 0.9458168 -1.1836492 1.86495
0000f0 5e 2d cd be 26 a9 69 3f e5 c2 d8 3f 9d 09 70 bf
       -0.40073675 0.91273725 1.6934477 -0.9376467
000100 51 90 9a 3f 24 3e e7 3f 98 3e c1 3f a8 1e 09 40
       1.2075292 1.8065839 1.5097227 2.142496
000110 c1 09 3b 3f 5c 14 2b 3f 4a 0b 66 bf 86 e5 6b 3e
       0.7306176 0.6682794 -0.89860976 0.23036775
000120 0d 28 9d 3f e5 41 48 bf 30 8b 2b bf 01 88 f0 bd
       1.2277848 -0.7822555 -0.6700926 -0.11744691
000130 06 81 8c bd 23 a5 1c 3f 24 62 97 3f 7f cd c4 bf
       -0.06860547 0.6118948 1.1826825 -1.5375212
000140 79 2c 55 be 93 1c 18 3e 9f bb 50 3f 8a b4 21 bf
       -0.20817746 0.1485465 0.8153629 -0.63166106
000150 86 8b 7f 3f db 8d 9e bf d8 c0 3e bf 37 9e b0 3f
       0.9982227 -1.2387041 -0.74513006 1.3798283
000160 06 19 97 3f c8 10 9c 3f 88 c8 14 3f bd 8c 02 c0
       1.1804512 1.2192621 0.58118486 -2.03984
000170 29 cb 04 bf 60 e2 4e 3e 16 73 4d 3e 48 4d 33 3f
       -0.518725 0.20203543 0.20063433 0.70039797
000180 d2 1c 58 3f c6 7a 07 be df 10 6d be 4c 28 d8 ba
       0.84418976 -0.13230428 -0.23150967 -0.0016491502
000190 a6 fc d4 be 85 c9 17 be ef 9a ef bd 27 4c 88 bf
       -0.41599005 -0.14822967 -0.11699473 -1.064824
0001a0 6e 05 d5 bf 06 3f 90 3f d4 1f b1 bf e9 c8 f3 be
       -1.6642282 1.1269233 -1.3837838 -0.4761422
0001b0 5f b5 09 be 08 42 56 be ac 87 94 3f 74 a9 89 bb
       -0.13448094 -0.20923626 1.1603904 -0.0042011086
0001c0 96 14 1d bf 7d df 3d 3f a9 bb 42 bf 9c 2c 8a bf
       -0.61359537 0.7416914 -0.76067597 -1.0794864
0001d0 63 3f f6 3d 5a 53 aa 3e 8c 48 36 bf 98 14 48 be
       0.12023809 0.33266717 -0.7120445 -0.19539106
0001e0 70 3f 29 3f 5f 1a ed bd 1a 2c b4 3f e5 db 8b 3f
       0.6611242 -0.115772955 1.4075959 1.0926481
0001f0 69 f2 80 3e b7 ca 3b bf 37 de 65 be 01 dd a4 3f
       0.25184944 -0.73356193 -0.2244805 1.2879945
000200 50 fe 82 be d4 15 2a 3f 1c 8b d6 be 11 b2 8e bf
       -0.2558465 0.6643956 -0.41903007 -1.1148092
000210 32 c9 74 3d 5b e1 16 3f fb 54 25 bf 43 70 99 be
       0.059762187 0.58937615 -0.64582795 -0.2996846
000220 1e 79 bb be 10 f4 c3 3e f2 92 57 3e 8a 93 2e c0
       -0.36615843 0.38272142 0.21052149 -2.727755
000230 98 67 ac bd 2e 9e b2 bf 64 14 2d be a9 13 49 bf
       -0.084181964 -1.3954523 -0.1690231 -0.78545624
000240 97 01 a3 3f e7 87 11 bf 31 fb 01 c0 3f d7 28 3f
       1.273486 -0.56847996 -2.0309565 0.6595344
000250 eb d9 b4 3f 86 af 80 3f 1b 69 6e 3f 33 3e f4 3e
       1.4129003 1.0053566 0.9312913 0.47703704
000260 12 1f 90 bf e7 e3 c0 3e 5a d6 6c bf 04 42 6f bf
       -1.1259482 0.37673876 -0.92514575 -0.93460107
000270 c8 32 ed 3e f2 db c7 3f 05 e3 3a 3f 0d 71 03 3e
       0.46327806 1.5613997 0.73002654 0.12836094
000280 80 5c 69 3f 45 f3 a0 bf c7 4d 0c 3d 87 e0 18 3f
       0.9115677 -1.257424 0.03425386 0.597176
000290 67 37 f2 bf 00 8b ff bc 19 9f d8 bf f8 76 e2 3d
       -1.8923157 -0.03119421 -1.6923553 0.11057848
0002a0 5e 10 22 bf eb bd 67 3f b6 94 c2 3f 1b 84 41 3e
       -0.63306224 0.90524167 1.5201633 0.1889805
0002b0 72 24 ff 3f 22 b3 71 3f 37 2f 9d 3f 06 13 59 3f
       1.9932997 0.9441396 1.2280034 0.8479465
0002c0 5f 9d 3d 3f d6 c1 cd 3f bc 0e 4e be e0 8c dc be
       0.74068254 1.6074779 -0.20122808 -0.4307623
0002d0 83 b6 76 3f a9 97 c0 3f 2f 55 0c bf 4d d0 90 bf
       0.9637224 1.5046283 -0.5481748 -1.1313568
0002e0 92 56 af 3f f6 c0 1c bf a2 7f 88 be 79 66 a0 3d
       1.3698294 -0.61231935 -0.26659876 0.07832045
0002f0 10 7b e0 bd 1d 6c 6b bf f9 ee 31 3f 49 ef d4 bf
       -0.10960972 -0.9196184 0.6950527 -1.6635524
000300 89 07 c9 bf 8d 9e 50 bf 37 af e8 3f c7 25 45 be
       -1.5705425 -0.8149193 1.8178471 -0.19252692
000310 79 22 13 bf 9f 6c cc bf 1b 4f 5f 3f 1c e3 30 bf
       -0.57474476 -1.5970649 0.8723008 -0.6909654
000320 cb 5f ff bf 36 cc f8 3d 28 cd dc 3d 45 46 13 bf
       -1.9951109 0.12148325 0.10781318 -0.575291
000330 5a 41 7b bd bf b6 87 3f f6 97 3e bf 02 d4 8d bf
       -0.06134162 1.0602645 -0.74450624 -1.1080325
000340 bd 7c 00 3f a8 80 9e bf 10 76 43 3f cd 51 b4 be
       0.50190336 -1.2383013 0.76352024 -0.3521866
000350 0e e2 88 bf 74 7c 0d 40 a6 10 84 3f 77 a4 b9 be
       -1.0693986 2.210721 1.0317581 -0.3625829
000360 10 34 03 bf 5e 7c 2a bf 1d 7e bd 3e 26 be 9d bc
       -0.51251316 -0.6659602 0.3701028 -0.019255709
000370 14 90 af bf 84 fe da 3f b1 43 ad 3f e6 33 48 c0
       -1.3715844 1.7108922 1.3536283 -3.1281676
000380 c8 6f e1 3f a3 c3 c5 3e 1c 5b 54 3f 45 0e 88 3e
       1.7612238 0.3862582 0.8295152 0.26573387
000390 2c 81 88 bf de 88 4f 3e 60 8a 07 bd 9c f2 48 bf
       -1.066442 0.20267054 -0.03309095 -0.7849519
0003a0 c0 fe 1a 3d 4c a3 34 3f 84 40 ea 3f 77 4d 84 bf
       0.037840605 0.7056167 1.8300939 -1.033614
0003b0 c5 9a c9 3e fd e9 6d 3f d8 c9 48 3f 1b 85 b7 bf
       0.39375892 0.9293516 0.7843299 -1.4337496
0003c0 3f 32 25 c0 c6 be dc be fa 64 2a bf 33 6a c6 3d
       -2.5811918 -0.431143 -0.6656033 0.09688225
0003d0 8b 5f 09 3f 95 6f 08 be 6f d3 87 bf c0 03 99 be
       0.5366141 -0.13323815 -1.06114 -0.29885674
0003e0 a9 a3 cb bf 02 5e 06 3f c2 9c cd 3c c2 a6 22 3f
       -1.590932 0.52487195 0.025099162 0.635357
0003f0 ed 8f 02 c0 6c e4 0b bf 8c 1e 89 bf 6e 84 06 bf
       -2.0400345 -0.5464542 -1.0712447 -0.5254582

conv1.weight f4 [16, 128, 5]
000000 e6 c8 8d be 73 fb 23 3d fd b4 2a be 3e f9 3d bd
       -0.27692336 0.040034723 -0.16670604 -0.046380274
000010 2a 99 4c 3d 19 6c 5f bd 53 e1 80 3c e0 7a eb 3c
       0.049950756 -0.05454645 0.015732443 0.028745115
000020 1f f3 8e bd 41 5f c4 3d 56 6c 78 bd 52 1a 6f 3e
       -0.069799654 0.09588481 -0.060650192 0.23349884
000030 18 a3 b7 be e8 60 ac 3d 8c 21 77 3d 73 8e cf bd
       -0.35866618 0.08416921 0.060334727 -0.10134592
000040 2b fa 77 3d 66 08 f4 bd 23 d0 5b 3d a2 61 ed 3b
       0.060541313 -0.119156644 0.05366529 0.0072443048
000050 06 03 72 3d 94 cf be 3d 4c 53 67 be 66 a3 95 bc
       0.059084915 0.09316936 -0.22590369 -0.018266391
000060 77 cc 0a bc e3 91 cd 3d 97 2e c2 bc ac 1d 6a be
       -0.0084716 0.10037591 -0.023703856 -0.22862881
000070 20 d2 92 3d 5d bc ce 3c a4 95 99 bd 8b ab b6 3c
       0.071689844 0.025236303 -0.07499245 0.022298595
000080 af a4 cb 3d 68 e1 bb 3c cc eb 05 be 4c 5d 6e 3e
       0.0994352 0.02293463 -0.1307823 0.23277777
000090 4a 65 88 3e 42 26 3f 3e e2 7b 5a 3e 88 1f 22 bc
       0.26639777 0.18666938 0.2133632 -0.009895213
0000a0 77 cd 60 be 27 00 38 be b7 7e db bd 62 f3 e6 bc
       -0.21953379 -0.17968808 -0.10717528 -0.028192226
0000b0 66 06 b0 ba 20 2d 0f 3e e8 d4 2f 3e fa 8f 98 3d
       -0.0013429641 0.13982058 0.17171061 0.07449336
0000c0 f0 e1 0d 3e 37 d3 3a bc 46 93 32 3d f8 74 89 3d
       0.1385572 -0.011402897 0.043597482 0.06711763
0000d0 3d cb 3e 3c 91 70 5a bd e2 14 8c bd 4c 6c 77 3e
       0.0116451355 -0.053330008 -0.068399206 0.24162406
0000e0 85 40 83 3e 88 8b 1a 3e c7 49 f3 3d 68 c6 05 be
       0.25635162 0.1509229 0.11879306 -0.13063967
0000f0 72 d9 05 3e bb ff 3f 3e fa d9 7f 3d ff a1 cd 3d
       0.1307123 0.18749897 0.062463738 0.10040664
000100 05 b8 33 3d 0b c9 47 be 17 89 62 3c 17 40 b1 bc
       0.043876667 -0.19510286 0.01382663 -0.021637006
000110 a2 fd af 3d 79 70 82 3d 8f ce 34 be 43 b3 72 3d
       0.085932985 0.06369109 -0.17656921 0.05925299
000120 e1 e8 8e be d4 e9 3a bc 42 3e 45 bc a5 9e 8f 3c
       -0.27912048 -0.011408288 -0.012038769 0.017531702
000130 c7 73 de be 44 5c 1e 3d a7 86 ac bd 7b 7e ec bd
       -0.43447706 0.03866221 -0.084241204 -0.11547562
000140 33 e8 ab 3d 26 fe 91 3d 14 04 a0 3d c9 1d 2e 3c
       0.08393898 0.07128553 0.07813278 0.0106272185
000150 05 e1 25 bc ef 15 3d 3d 35 d3 47 3d 11 5d 5f 3d
       -0.01012445 0.046163496 0.048785407 0.054532114
000160 68 37 f8 3d 4c 85 35 3d d4 99 ac bd 91 2a 1a be
       0.12119943 0.044316575 -0.08427778 -0.150553
000170 65 4e 1a bd b6 f9 48 3c ec 9f 33 3d af a2 18 3d
       -0.03767242 0.012266567 0.043853685 0.037264522
000180 38 d7 5c bc 87 2b 57 bd 5a 21 43 3d a3 aa 68 3d
       -0.0134790465 -0.052531745 0.04763923 0.056803357
000190 0e 0d 17 3e 3b e5 99 3d 88 43 a9 3e 09 ab 2d 3e
       0.14751074 0.07514425 0.33059335 0.16959776
0001a0 13 3d 20 3e cb 9e c1 bd 7f 67 72 bd 44 02 7e be
       0.15648298 -0.094541155 -0.059180733 -0.24805552
0001b0 db 6f 1f 3c 4b 21 09 be 92 f4 7f 3c 8c e5 92 be
       0.009731258 -0.13391607 0.015622275 -0.28690755
0001c0 94 81 8b bd 02 17 74 bd e8 d4 64 bc 6f ba f6 3d
       -0.068118244 -0.059592254 -0.013966776 0.12047278
0001d0 02 7e 3c 3d 23 b7 08 bc ad 09 de bd 24 37 ae 3a
       0.046018608 -0.008344444 -0.10841689 0.001329158
0001e0 e1 2c 0d 3d 10 9c 0e 3a 14 26 ba bc d3 d3 03 be
       0.034466628 0.0005440125 -0.022723235 -0.12873773
0001f0 5a 5e 45 3d 0f 89 19 3e 24 99 f7 bd f6 55 a6 bd
       0.048185684 0.1499369 -0.12089756 -0.081218645
000200 34 a3 aa 3d 1d 6a 86 bd 4c 33 03 3d 0b c6 49 3e
       0.0833191 -0.06563208 0.032031342 0.19704454
000210 37 00 0e 3e ae a3 bb 3c a8 1d 28 be 59 e9 f0 3d
       0.1386727 0.022905197 -0.16417563 0.117632575
000220 d4 e6 db bc d4 35 13 3c 03 8b 00 3e 3a 54 f7 3d
       -0.026843466 0.008985002 0.12553029 0.12076612
000230 10 dc 53 be 97 a5 d0 bc 73 b1 32 bd 81 bb 3d bd
       -0.20689416 -0.025469584 -0.04362626 -0.046321396
000240 5b 9c 50 bd 68 75 ed bb b5 f5 ef 3c 89 06 cc 3c
       -0.050930362 -0.007246662 0.029291967 0.02490546
000250 63 72 62 3d 70 f5 83 bd 01 a7 17 be a0 24 9a 3c
       0.05528487 -0.06443298 -0.148098 0.018816292
000260 1e 6a a7 be 77 16 f7 bd b2 f2 9a 3d e1 f3 a0 bd
       -0.32698148 -0.12064832 0.07565822 -0.07859016
000270 b2 11 3d 3e bc b1 3d be a0 14 77 3d 5d 47 a7 bd
       0.18463781 -0.18524832 0.060322404 -0.08167908
000280 46 b7 cb 3d 9a 9c c9 3c e0 f7 08 be cf c6 27 bc
       0.09947066 0.024610806 -0.13375807 -0.010240271
000290 36 e7 98 3c ee 7f 04 be fe ee 9a be a2 94 35 be
       0.018664937 -0.12939426 -0.30260462 -0.1773248
0002a0 e3 68 aa 3d f5 f2 19 3c ea 08 14 3c e4 20 d6 3d
       0.08320787 0.009396304 0.009035328 0.10455492
0002b0 12 fe 04 be 60 3c bf 3d d6 d4 51 bc fe af 80 3c
       -0.12987545 0.093376875 -0.012807092 0.01570892
0002c0 c4 bf 27 3e e2 09 7a bd 9d dc 89 3d d0 9c 7a 3c
       0.16381747 -0.06104458 0.06731532 0.015296176
0002d0 fe 99 26 3e 10 39 25 bc fe e2 60 be 90 64 47 bd
       0.16269681 -0.010084406 -0.2196159 -0.04867989
0002e0 02 fc 63 3d a8 5c 05 3e 66 d3 34 be e6 79 87 bc
       0.055660255 0.13023627 -0.17658767 -0.016537618
0002f0 f9 43 14 3e 51 46 9e 3c 39 9f 4c bc 76 bb b2 3d
       0.14479055 0.019320639 -0.0124891335 0.087271616
000300 02 1d 74 3e 59 b4 a1 bd fa 59 1a 3d e2 ac d5 3b
       0.2383919 -0.07895727 0.037683465 0.0065208534
000310 74 05 6d 3d f0 60 89 ba a5 d6 a4 3b c8 c4 fa 3b
       0.05786653 -0.001048116 0.0050304704 0.0076528527
000320 43 12 11 3e 3d d4 a7 bd 2c 43 15 3e 0c ae 9e bd
       0.14167123 -0.08194778 0.14576405 -0.077480406
000330 1b 38 50 bd a3 ab 0a 3c 19 1f 95 be 6b 00 32 3e
       -0.050834756 0.008463773 -0.29125288 0.17382972
000340 15 c9 a2 3c 9f ab 2d be 49 17 14 3e 29 2a 4e be
       0.019871274 -0.1696 0.14462008 -0.2013327
000350 08 d8 8d 3e cb bf cc bd 21 cc 82 3d 01 af c8 bd
       0.2770388 -0.09997519 0.06386591 -0.09799004
000360 9c 8e 2a 3d 9f 5f a4 bd 30 43 06 be b8 3f ce 3d
       0.04163991 -0.08026051 -0.13111567 0.10070747
000370 b5 d6 99 bd d1 27 bc 3c b3 27 48 be 31 ab 9c bd
       -0.07511655 0.022968205 -0.19546394 -0.0764984
000380 51 71 09 3e 44 51 e1 bd eb 7f 6e 3e c1 8f dc bc
       0.13422133 -0.11001828 0.23290984 -0.026924016
000390 e6 14 04 be 75 cc 86 3d 2f 0a e2 bd d9 2f 42 3e
       -0.12898597 0.06581966 -0.110370986 0.18963565
0003a0 a5 ad 14 bd dd fd ce bb 06 ed c1 3b 3c 50 ab 3e
       -0.036298413 -0.006316884 0.005918148 0.3345965
0003b0 bc 33 fb 3d 29 b5 48 bd ca 2d 80 3d 6f e4 1a bc
       0.12265727 -0.049000893 0.062587336 -0.009453877
0003c0 df f5 ed bb ee 26 25 bd 6a cc db 3e 50 ca 3b 3d
       -0.007261976 -0.04032033 0.42929393 0.045847237
0003d0 a0 3d 8d bd 80 a9 42 bd e6 4c 0e be e1 62 02 be
       -0.0689652 -0.04752493 -0.13896522 -0.12733032
0003e0 0b 4b 8f bd 62 e3 17 3d d4 74 18 bd 2e 0d f4 bd
       -0.06996735 0.037082084 -0.03722079 -0.11916576
0003f0 00 30 6c 3d 42 30 9f bd d0 e7 7d 3d 00 60 d8 3c
       0.057662964 -0.07772876 0.06198865 0.026412964

conv1.bias f4 [16]
000000 f3 62 12 be f3 cf 1e be bb 28 68 be 17 bc 81 be
       -0.14295559 -0.15509014 -0.22671787 -0.25338814
000010 00 fc ac be ec a0 bd be 59 c7 d7 bd 9b 58 02 be
       -0.3378601 -0.37036836 -0.105360694 -0.12729113
000020 3c 37 94 be 5e cb 8a be 34 65 06 bf a1 9f 89 be
       -0.2894839 -0.27108282 -0.52498174 -0.268796
000030 53 a2 ba bd 73 c0 54 be 3d 09 7e bd d7 3b 32 bb
       -0.09112992 -0.20776539 -0.06202053 -0.0027196312

conv2.weight f4 [16, 128, 3]
000000 f3 fa f3 3d 19 f6 f1 bd e1 79 93 3c ec 65 18 be
       0.11913099 -0.118145175 0.018002452 -0.1488263
000010 c4 af b9 3d bd f4 a7 bd f9 64 10 bd 20 0d fb bd
       0.09066728 -0.08200977 -0.035252545 -0.12258363
000020 00 52 a3 bd 20 eb 58 3e 31 af b6 3c 9f 59 a0 39
       -0.07974625 0.21183443 0.022300335 0.0003058435
000030 8c 81 47 bc c2 db 34 bd d2 5f c3 bd 72 58 eb 3d
       -0.0121768825 -0.04415489 -0.09539761 0.11491479
000040 ce 11 1c bd bc e2 a5 3c 9f 62 0a bd 37 0a 3e 3e
       -0.038102917 0.020249717 -0.03378546 0.18558584
000050 d1 8b 19 3c 29 a1 15 3d 7f 4b 06 be f1 be e3 3c
       0.009371714 0.036530647 -0.13114737 0.027801009
000060 ac 0d a6 bd 24 87 02 3c ee 55 0c 3c 19 79 77 bd
       -0.081080765 0.00796679 0.008565409 -0.060418222
000070 93 88 b5 bc 2a b6 fd 3c 72 37 85 3b a2 7e 23 be
       -0.02215985 0.030970652 0.0040654475 -0.15966275
000080 a0 c4 83 3d 97 82 64 3e f4 f1 62 3e 73 c5 49 b9
       0.064339876 0.22315441 0.2216261 -0.0001924241
000090 c6 61 14 bd 19 fd f5 3c 0a 2a 4e 3d a8 ef 3e 3d
       -0.036226057 0.030027913 0.05033306 0.046615273
0000a0 17 d1 20 bd 44 a8 72 bd 67 e2 93 bd e7 7a f8 bd
       -0.039261904 -0.0592425 -0.07220917 -0.12132817
0000b0 98 8b dd 3d 97 c2 cf 3b 5b dd 9c 3c f1 67 07 3e
       0.10817641 0.0063403356 0.01914852 0.13223244
0000c0 5b 8d 05 3e 07 df 3c 3d 79 cd 5c 3d bd 85 ae 3d
       0.13042204 0.046111133 0.05390689 0.08521602
0000d0 34 d1 25 be aa 10 fc bc 69 da 83 bd 46 bc 4f bd
       -0.16193086 -0.030769665 -0.06438143 -0.05071666
0000e0 ea 49 fe bc 96 ee 6e be 60 8a a3 bd d3 23 1c 3b
       -0.031041104 -0.23333201 -0.07985377 0.0023825064
0000f0 30 cc e9 3d 06 07 8b bd 60 70 34 bd 3d 62 18 3d
       0.11415899 -0.06788449 -0.04405248 0.037203062
000100 23 f9 42 be 7f 29 15 3e d7 10 a9 be d2 85 45 3d
       -0.1904035 0.14566611 -0.3302066 0.048223324
000110 fe 7a 28 3c 3a 96 ab 3c 11 00 2b 3e 92 b2 f3 bd
       0.01028323 0.020945657 0.16699244 -0.11899294
000120 78 14 06 be b5 b2 ea bc 77 32 11 bd b7 fd 1d be
       -0.13093746 -0.028649667 -0.035448518 -0.15428816
000130 ae 7b 73 bd 8e fc 5e 3b c7 17 aa 3c 0a cb 57 3e
       -0.059444122 0.0034025046 0.020763291 0.21073547
000140 dd 42 2e 3d b4 ef 66 be cd 41 7a 3c c1 31 0f bd
       0.042544235 -0.22552377 0.015274477 -0.03495956
000150 f1 84 86 3d 59 ad 01 be f8 7f 8f 3d c7 3d 62 3e
       0.06568325 -0.12663783 0.0700683 0.22093879
000160 3d 2e 3d 3d b4 62 04 3e 25 ab 07 bd 80 49 0e 3e
       0.046186674 0.12928277 -0.0331222 0.13895226
000170 9f 90 18 bd db e7 5d 3e 58 3b 5c be 18 71 ef bd
       -0.037247296 0.21670477 -0.21507013 -0.11691493
000180 31 cf 03 3e 16 a9 21 bd 5f ef 85 bd 32 e4 9b bd
       0.12872006 -0.039467894 -0.06539797 -0.07611884
000190 f6 33 5d bb 8a 14 30 3c 35 58 10 bd 77 8f 9f bd
       -0.0033752895 0.010747084 -0.03524037 -0.077910356
0001a0 6b 08 3d 3b 96 6a d4 bd f2 ab 57 be f2 40 33 3d
       0.0028844129 -0.10371892 -0.21061686 0.04376311
0001b0 09 e7 9d 3d 66 03 68 3b 84 3a ee bc 4b 59 cc 3b
       0.07710082 0.0035402416 -0.029080637 0.0062362305
0001c0 e1 12 3c 3d 10 00 20 3d 27 25 90 be 37 ed 00 3d
       0.04591644 0.03906256 -0.28153345 0.031476226
0001d0 b9 e7 ce 3d 97 df 08 3e 92 95 e0 bc cb 25 44 3c
       0.10102791 0.13366543 -0.02741507 0.011971901
0001e0 ea 28 9d be 85 db 57 bd 6b 9d d5 3c 97 ef 9e be
       -0.30695277 -0.052699585 0.02607604 -0.31042168
0001f0 cf 12 0f be d3 fc b4 3c 76 ba 05 be c0 92 83 3e
       -0.13972019 0.022093212 -0.1305941 0.256979
000200 ba d4 e3 3d 4b 55 8c bd c5 3e 78 bd a3 8f 50 3d
       0.11124559 -0.06852206 -0.060606737 0.050918233
000210 8b dc 0e be 88 32 f8 bd a8 9a 2d 3c 52 31 4d 3e
       -0.13951318 -0.12119013 0.010595955 0.20038345
000220 e6 7d 89 3e 99 f8 4a 3e 44 7e 10 3e 29 ec e6 bd
       0.26853865 0.19821395 0.14110667 -0.11275513
000230 89 59 bf bc 99 12 27 3d 0a 3f 19 be 6a a7 c7 bd
       -0.023358123 0.04078922 -0.14965454 -0.097487286
000240 aa 78 d2 bb 31 2e 37 3e 1c 95 c8 3d a1 1b 6c bd
       -0.0064230757 0.17888714 0.09794065 -0.057643536
000250 d5 cb 31 be c9 13 82 bd 44 af bb bd 4f 1d 46 be
       -0.17362912 -0.0635143 -0.09164289 -0.19347118
000260 86 07 27 be db f6 1d bb 41 74 1a be bd 4e 53 bd
       -0.16311464 -0.0024103436 -0.1508341 -0.051588763
000270 75 7a a6 bc 4a 82 02 3e 01 c5 13 3d 48 16 4c bd
       -0.020322064 0.12745014 0.03607655 -0.049825937
000280 36 a9 46 3d 1b e4 61 3c f1 1f 1a 3d f6 7a 9d bd
       0.048501216 0.013787295 0.037628118 -0.076894686
000290 66 26 98 3c 56 eb 29 be 7d 3f f6 3d b5 5b 45 3d
       0.018572997 -0.1659368 0.12023828 0.04818316
0002a0 e2 ec 3a bd a3 3f 06 bd a7 5c 4a bd 75 34 86 3d
       -0.045636065 -0.032775532 -0.049404766 0.06552974
0002b0 71 5a f1 3c 42 21 88 bd 45 4b b1 be d1 ec 16 be
       0.029462071 -0.066469684 -0.3462774 -0.14738776
0002c0 a2 56 f8 bd d6 11 ce bd 9e 18 49 3d d8 5c 15 3d
       -0.12125899 -0.10061996 0.049095742 0.036465496
0002d0 dc d2 49 3e 9e 7f 3d bd 19 b5 0a 3d ed 0b 1f 3b
       0.19709343 -0.046264283 0.033864114 0.0024268583
0002e0 83 15 9c 3d 63 64 94 3b f2 99 c9 3d 3a 66 80 3e
       0.076212905 0.0045285686 0.09843816 0.25077993
0002f0 24 26 41 3d 92 9a 1e 3d 35 a3 3e bd 9f eb 96 bb
       0.047155514 0.03872163 -0.046542365 -0.004605725
000300 86 46 86 bc 62 a6 16 be ee 4f cc bd 8f 98 1d bd
       -0.01639105 -0.14711908 -0.09976183 -0.03847557
000310 0a 96 74 be b3 19 0f 3d 1e 23 6b 3d 41 d5 66 be
       -0.2388536 0.034936618 0.057406537 -0.22542287
000320 b8 fc 3b 3d 7a ca be bb 78 01 3f 3c f2 0c 8d bd
       0.04589531 -0.005822477 0.011658065 -0.06887235
000330 30 8f 25 3e b1 44 9a bd 13 48 1b bd 59 a8 38 3d
       0.16167903 -0.07532633 -0.037910532 0.045082424
000340 ec 5f 61 be 50 69 9e bd 06 49 68 bd b9 61 33 bc
       -0.22009248 -0.077349305 -0.056710266 -0.010948592
000350 f5 c0 21 3d c3 a9 89 3d ad d4 c1 bd fe d9 71 ba
       0.03949066 0.067218326 -0.09464393 -0.0009225904
000360 0e 73 02 bc 03 43 3d 3b 1b fb f5 bd a4 d9 91 3d
       -0.0079620015 0.0028879053 -0.12010785 0.0712159
000370 c5 de 5f 3d a1 08 0e 3d 82 98 5d bc 77 f0 29 3c
       0.05465581 0.034676198 -0.01352513 0.010372273
000380 dd 62 e1 bc 64 7c 3a 3e 42 9f 83 bc b2 f1 9d bd
       -0.027512962 0.18211514 -0.016067151 -0.07712115
000390 83 35 ee 3c 61 1a 89 3d f9 72 04 bd ec 4b 32 bd
       0.02907825 0.066944845 -0.03233621 -0.043529436
0003a0 e4 a2 2d be 2f ea 87 bc a7 b0 e9 bd 36 76 cf bc
       -0.16956669 -0.01659116 -0.11410647 -0.025324922
0003b0 c8 dd ad 3d 09 35 79 bd c2 5f 1a be bf 15 7f bd
       0.08489567 -0.060841594 -0.15075591 -0.062276598
0003c0 ba 55 42 be 2b 2a b3 be 27 50 43 3c 77 eb 4f be
       -0.18978015 -0.3499311 0.011920965 -0.20304666
0003d0 2b 3c 94 3d bc 57 bc 3d f4 e5 82 be d9 b3 93 3e
       0.07238039 0.091964215 -0.25566065 0.2884815
0003e0 3a 7a 18 3d f8 49 f4 3c e5 0a 9c bd 80 f9 cd 3d
       0.03722594 0.029820427 -0.076192655 0.10057354
0003f0 c6 1b d9 bd ee 30 a4 bd 6a 26 09 bd 74 0f 43 3e
       -0.106010005 -0.08017145 -0.0334839 0.19048864

conv2.bias f4 [16]
000000 5b e0 9b 3d e8 bc 82 bd 98 9d f7 be d1 42 8d be
       0.07611152 -0.06383687 -0.48362422 -0.2759004
000010 0a 0a 5e be c9 2e 95 be 30 5b f4 bd 0c 01 ed be
       -0.21683517 -0.29137257 -0.11931455 -0.4628986
000020 24 70 8f be 39 0d 10 bd 8a e3 9f be 07 1c 2c 3e
       -0.28015244 -0.03516886 -0.31228286 0.16807567
000030 0b 68 ac be 79 39 c0 be d4 f7 46 be 48 5e 59 be
       -0.33673128 -0.37543848 -0.19430476 -0.21227372

conv3.weight f4 [256, 32, 5]
000000 d4 16 05 3d cb d3 35 bd ad 8a 9f be e3 15 95 bc
       0.032492474 -0.044391435 -0.3116049 -0.018198913
000010 30 e5 51 3d 48 c5 98 3d 6c db 34 bc 50 ad 9a bd
       0.05124396 0.074595034 -0.011038642 -0.07552588
000020 a2 94 94 bd a3 74 51 bd e6 87 03 be b2 f0 88 bd
       -0.07254912 -0.051136624 -0.1284481 -0.06686534
000030 f9 08 bf bb 60 31 24 3e 95 04 dd 3c 16 6b 95 3c
       -0.005829927 0.1603446 0.026979724 0.01823954
000040 7b 43 8a 3d 07 34 bc bd a4 6c b8 3d 9b e5 f5 3d
       0.06751152 -0.09189611 0.090050966 0.120066844
000050 c6 51 7d bd e2 8e 7a 3c 24 24 34 3a 9d 7a dc 3d
       -0.061845563 0.015292855 0.00068718405 0.10765574
000060 a6 9d 02 be 70 69 55 be d7 79 e1 3c f3 b0 6b be
       -0.1275545 -0.20841002 0.027523918 -0.2301672
000070 34 35 fe bd 0d 1a f9 3c fd c4 22 ba 92 94 c9 bd
       -0.124124914 0.03040793 -0.0006209163 -0.09842791
000080 71 dc 47 bd 6d 45 36 bc fb 43 61 bd 43 17 3a 3e
       -0.048794214 -0.011124951 -0.05499647 0.18172936
000090 47 ad 65 be 56 cb 90 3c 4f d2 26 be f1 e1 02 be
       -0.22429381 0.017675083 -0.16291164 -0.12781502
0000a0 c4 e9 d0 bb 99 51 f3 3c e8 af 7d 3d eb cd cd 3d
       -0.0063755233 0.029701995 0.061935335 0.10049041
0000b0 2d e7 1d 3c f6 e8 af 3d 32 01 02 bd 2b 3d f8 3d
       0.009637636 0.08589356 -0.03173942 0.12121042
0000c0 84 10 83 be e7 56 28 be e2 fb 4b bd 07 9c f6 3d
       -0.25598538 -0.164394 -0.04980076 0.120414786
0000d0 5f 63 14 bd e5 a7 40 3d 61 77 11 be fc 45 e2 bd
       -0.03622758 0.047035117 -0.14205696 -0.11048505
0000e0 52 4c 8a 3d a8 17 1c be 14 3e 4e be 2f a0 0f bd
       0.06752838 -0.15243399 -0.20140868 -0.035064872
0000f0 00 05 cd 3b 2f e5 e6 3d b1 6f 65 be e7 ad ee be
       0.0062566996 0.11274182 -0.22405888 -0.46617052
000100 b5 3a 25 3c d7 ee c0 3c 29 62 d2 bb 22 7c 35 be
       0.010084798 0.023551388 -0.006420393 -0.17723134
000110 e6 72 04 3e b9 74 df bd a2 70 b9 3c 76 00 88 3d
       0.12934455 -0.10910935 0.022636715 0.06640713
000120 0b 15 e6 bd 0d f3 98 3d c0 6f c8 bd 17 0f a3 3c
       -0.112344824 0.07468233 -0.097869396 0.019904656
000130 59 bc 6f bd 7c d5 98 bd 48 14 80 3c 54 79 ef 3c
       -0.05852923 -0.07462594 0.01563467 0.029232658
000140 b0 5d 3a 3e 26 03 06 be 25 f9 34 be 1a bd 1d be
       0.18199801 -0.13087139 -0.17673166 -0.15404168
000150 66 ef 5f bd 2b 30 6b be 10 a9 64 bd 0d bc 48 3e
       -0.054671668 -0.22967593 -0.055825293 0.19602986
000160 64 ea 0f be 38 07 4b 3c fd 7f 11 be a7 17 44 3b
       -0.14054257 0.012391858 -0.1420898 0.0029921324
000170 b1 3e 50 be 23 f4 02 be 9d 0a 1e be f7 74 36 3c
       -0.20336415 -0.12788443 -0.15433736 0.011136285
000180 be a4 2b bd b8 99 37 be fc aa 2b 3e 36 5f a3 bb
       -0.041905157 -0.17929733 0.16764444 -0.0049857153
000190 7c 03 c4 bd ef 52 7e 3c b5 a0 04 be 7c a3 56 be
       -0.09570977 0.015522703 -0.1295193 -0.20960802
0001a0 e4 d1 5e 3d b9 ae b9 3d 97 77 3a be 99 23 c2 3e
       0.054399386 0.09066529 -0.18209682 0.37917784
0001b0 4b 42 20 3e aa 95 56 3d 71 27 0e bd 9b 7a ce bd
       0.15650289 0.052388825 -0.034705583 -0.10081979
0001c0 bc 3e e2 3d 28 85 aa 3d 82 3d 44 bd cd 16 d0 3d
       0.11047122 0.08326179 -0.04791022 0.10160599
0001d0 b0 a7 ae 3d 7a 96 9a be 77 85 05 bd cb 58 93 3d
       0.085280776 -0.3019293 -0.032597985 0.0719467
0001e0 54 4d 09 3e e0 17 36 be e0 11 5c 3c 63 4f 4b be
       0.13408405 -0.17782545 0.013431996 -0.19854502
0001f0 fb 71 0b 3d 16 a5 9d bd 3e da 04 be 62 69 a5 bd
       0.034044247 -0.07697503 -0.12973878 -0.08076741
000200 66 0e 56 3e a0 90 6c 3c 17 a1 eb 3c 3d 65 10 bb
       0.2090393 0.014438778 0.028763337 -0.0022033
000210 2c 56 85 bc cf 35 18 be ab e0 22 be 48 08 46 bc
       -0.016276442 -0.14864276 -0.15906017 -0.012086935
000220 e9 2f e5 39 16 5d 04 be 4f 9f ff bd 43 cc 91 bd
       0.0004371398 -0.12926134 -0.124815576 -0.07119038
000230 68 57 ab 3d ef fc 97 bd 3b 2f 5f 3e f0 80 38 be
       0.08366281 -0.0742129 0.2179536 -0.18017936
000240 0e ec b0 3d c1 89 c8 3d 7e e0 87 be f7 2b 2a bf
       0.08638774 0.097918995 -0.2653846 -0.66473335
000250 1e 12 11 bd 41 51 1a 3d aa 0f 9b 3c 8f 24 1b be
       -0.03541767 0.037675146 0.018928368 -0.15150665
000260 20 f0 53 3d 00 05 cc 3d 39 f8 e1 bd 4a 9f f3 bc
       0.051742673 0.09961891 -0.11033673 -0.02973904
000270 3b ce f6 bd 23 4d 0d bf 1a d3 1b bd 77 72 e4 3b
       -0.12051054 -0.55195826 -0.03804312 0.006971653
000280 d3 27 3a be ea 80 3d be 48 bf d3 be 09 16 00 bf
       -0.18179254 -0.18506208 -0.41356874 -0.5003362
000290 df 58 80 3d f5 06 a6 be a7 b0 9c bd dc 7d 65 be
       0.06266951 -0.32427183 -0.07650881 -0.22411293
0002a0 29 65 30 be b8 32 1a be bb d7 4d be db 05 e3 be
       -0.1722609 -0.1505841 -0.20101826 -0.44340405
0002b0 83 54 17 bf 91 d5 25 be 05 72 25 3e 28 b1 6d be
       -0.5911333 -0.1619475 0.16156776 -0.23212111
0002c0 aa f6 a7 be d1 8d 90 bc 3a 72 d9 be d1 f7 63 be
       -0.32805377 -0.017645748 -0.4246996 -0.22262503
0002d0 62 1a b4 be 41 c7 01 be 85 2c cd bc 5c dd 41 bd
       -0.35176378 -0.12673666 -0.025045643 -0.047330245
0002e0 14 1e 4d be a8 37 1e 3d a4 4e 04 3e fc 7d 07 be
       -0.20031005 0.038627297 0.12920624 -0.13231653
0002f0 07 de 34 3c 78 76 9a 3a 62 14 3f bd 44 75 69 3d
       0.011039264 0.0011784574 -0.046650298 0.0569966
000300 7f 5d 90 bd 3c 4c cb bd 27 9c 84 be 2a b9 b6 be
       -0.07049083 -0.0992665 -0.25900385 -0.35688144
000310 c4 df 8b bc d2 dc 5b bd 42 2b 70 bd 43 5d 37 be
       -0.017074473 -0.053677388 -0.058635004 -0.1790667
000320 c7 e9 3f be a9 09 79 3d 18 09 a5 3d 0e f6 33 3d
       -0.18741523 0.06080023 0.08058375 0.043935828
000330 18 6d 3f 3d 2f fd c6 be 37 20 9b bd 53 99 0c be
       0.0467349 -0.3886504 -0.07574504 -0.13730364
000340 4d b6 eb 3d b8 ca 41 be 45 a0 ae bd 77 b9 de 3d
       0.115093805 -0.18924987 -0.08526663 0.10875218
000350 2c 78 00 3e 9c 65 42 bc 6e 66 f7 3d b3 a6 93 be
       0.12545842 -0.011865046 0.12080084 -0.2883812
000360 39 24 11 be 03 f9 dd be d1 33 dd bc f8 be 9f be
       -0.14173974 -0.43354043 -0.027002247 -0.31200385
000370 50 06 b8 3d 5d b1 51 be 43 7f a0 be 12 20 88 be
       0.08985579 -0.20477815 -0.31347093 -0.26586968
000380 56 95 18 be 5d c9 b4 bd b8 41 77 bd 69 57 0d bd
       -0.14900717 -0.088274695 -0.06036541 -0.03450719
000390 ba db 8d 3e 25 18 d7 3d 84 f5 87 be 8e 45 e1 bd
       0.277067 0.10502652 -0.265545 -0.10999595
0003a0 d4 93 25 be 3f 08 bc be 38 22 65 be f5 42 9d 3d
       -0.16169673 -0.3672504 -0.22376335 0.07678787
0003b0 fc 2d 74 bd a2 61 cd 3d 64 7e be 3c 3e cb b2 3c
       -0.059614167 0.100283876 0.023253627 0.021825429
0003c0 ef e8 25 3e 26 30 93 3d 8b 4a f0 bc 82 d7 9a bd
       0.16202138 0.07186918 -0.02933242 -0.07560636
0003d0 45 19 2d bd 9b d4 32 be 4f 86 b9 3d 77 15 01 3e
       -0.042260427 -0.17463915 0.090588205 0.12605844
0003e0 8a 2f a4 3d 05 3e 9d bd 1e 1a 06 bf 39 9f 0c be
       0.0801688 -0.07677845 -0.523836 -0.13732614
0003f0 6c 36 99 be 35 73 1b bd e7 de 88 bd e2 52 4a be
       -0.29924333 -0.037951667 -0.0668314 -0.1975818

conv3.bias f4 [256]
000000 24 f8 16 3e 32 fb 6e 3d d8 fb e5 bd 71 86 10 3e
       0.14743096 0.058345027 -0.11229676 0.14113785
000010 d4 1f 90 be 85 8e fe bc d7 49 8a 3e 06 9b 34 bc
       -0.28149283 -0.031073818 0.2700946 -0.011023289
000020 6a 70 9c 3d 85 5e 08 be 12 cd 4c bd 3c e3 40 3d
       0.07638629 -0.13317306 -0.050000258 0.047091708
000030 98 d4 e1 bd 55 19 b7 bd 3c 15 6c 3d 9f 13 3f 3e
       -0.11026877 -0.089403786 0.05763744 0.18659829
000040 63 e3 99 bd c0 0f f1 3c 4f 4d 37 bd 3b 98 5e 3e
       -0.07514074 0.029426455 -0.04475146 0.21737759
000050 cc 9b d3 3e d3 1e bb 3e 3d af 2f bd 02 86 1a bd
       0.413298 0.36546955 -0.04289173 -0.037725456
000060 39 6a 50 3e 5f 7d 8f bd b7 de 98 39 a7 a2 5d be
       0.2035302 -0.070063345 0.00029157635 -0.21644078
000070 34 70 1b bd 76 7b 12 be 75 5b 2b be 74 90 a0 3e
       -0.037948802 -0.14304909 -0.16734107 0.3136021
000080 15 94 d9 bd ae ad 15 be 55 ae b1 be 0f 3f 64 3e
       -0.106239475 -0.14617035 -0.34703317 0.2228968
000090 a2 01 ca bd 10 3c 66 be 91 8f c6 bd ed fb b8 bd
       -0.09863593 -0.2248385 -0.09695352 -0.09032426
0000a0 6b 6e 33 3d 59 93 f1 3d 3f e0 89 be 0b f1 32 bd
       0.043806475 0.117956825 -0.269289 -0.043686908
0000b0 18 ee e4 bc cf 49 a0 bd 72 e3 5c be 36 ca 5e be
       -0.027945563 -0.07826578 -0.21571139 -0.21756825
0000c0 70 19 02 be e7 52 cb 3d 1c 28 2a bd 51 e7 c3 3d
       -0.12705016 0.09927922 -0.041542158 0.095656045
0000d0 73 c6 32 be 9b 8b a6 be 1d 07 40 be fe d5 7c be
       -0.17458515 -0.32528386 -0.18752714 -0.24691007
0000e0 3a f4 46 3e f4 a3 bb be 19 bb 20 be 89 3f 7b 3e
       0.19429103 -0.36648524 -0.15696372 0.24535955
0000f0 66 11 27 bd 2b f8 ab bd d9 e1 fb 3d ce e7 1c be
       -0.040788077 -0.08396944 0.122989364 -0.15322801
000100 fb c2 b0 be 0c 40 11 be 3c d1 3d 3e 18 5e 36 3d
       -0.34523758 -0.14184588 0.18536848 0.04452333
000110 0e fb 74 bd a2 a3 8c bd af 6e 8c be 19 dd 9f be
       -0.059809737 -0.06867148 -0.27428195 -0.31223372
000120 a3 da f5 bd e6 58 53 3d 25 07 75 be d5 c2 5f 3d
       -0.12004592 0.051598452 -0.23928507 0.054629166
000130 6a fe 0b be 2c 2f c8 be 6b d9 22 be c7 1a f7 3e
       -0.1367127 -0.3909849 -0.15903251 0.48262617
000140 40 0f d7 3e 14 7b 93 bd 9e d5 83 3d 42 2e 90 3e
       0.42003822 -0.0720121 0.064372286 0.28160292
000150 9e 01 c7 bc bf ff f9 bd 7b 1c 36 bd 1c ab 8b 3d
       -0.024292763 -0.12206983 -0.044460755 0.06819746
000160 18 6e cf bc 9c ac e4 3d 23 a9 d8 3a bc b9 9a be
       -0.025321051 0.11165735 0.0016529899 -0.3021983
000170 73 d8 71 3e 0d 50 4f be 26 3b 6e be 9c 00 f8 bc
       0.23617725 -0.2024538 -0.23264751 -0.030273728
000180 56 30 a0 bc 51 09 02 be 47 08 18 be 28 5c 06 3e
       -0.019554298 -0.12698866 -0.14846908 0.13121092
000190 29 ce b1 bd e9 ea 5b bd 99 1d 9e bd 65 87 86 be
       -0.086819 -0.053690825 -0.07720489 -0.26275173
0001a0 66 ad 05 be c2 8d 2d be 08 77 75 be d3 c9 48 be
       -0.13054428 -0.16948608 -0.23971188 -0.1960824
0001b0 3f 73 1a be c5 92 30 be e8 5f ea bd 90 f4 2f be
       -0.15083025 -0.17243488 -0.11444074 -0.17183137
0001c0 a0 c1 78 3e f6 10 18 bf df ad 75 3e bd 68 fa bd
       0.24292612 -0.5940088 0.23992108 -0.122270085
0001d0 df 8e 73 3e e9 8a 32 be e8 30 e2 bd 00 1c 80 3e
       0.2378497 -0.17435803 -0.110444844 0.25021362
0001e0 f0 28 26 3e b4 18 06 be aa 1d 2c be 6b 3d ec 3d
       0.16226554 -0.13095361 -0.16808191 0.11535152
0001f0 8c d6 3d 3e aa 1c 85 be 4e 49 a6 be 69 a8 fd 3d
       0.18538874 -0.2599843 -0.32477802 0.12385637
000200 65 93 6e be 4e 13 e8 bd b5 0a c5 bd fb 8a ed 3d
       -0.23298414 -0.11331807 -0.09621183 0.11598774
000210 64 bf 74 3d a7 12 0d 3e 6f 07 9e 3d af 44 fe bd
       0.059752837 0.13776647 0.077162616 -0.12415444
000220 e4 8a 82 3e 95 b8 95 be 67 bb 94 3d 52 eb 93 bd
       0.2549659 -0.29242387 0.07262307 -0.07222618
000230 e7 39 d2 be 9a 9d 23 3f f7 56 ca bd 08 46 45 3e
       -0.410598 0.63912356 -0.098798685 0.19264996
000240 a6 df 12 be 6c ac 3b 3e d2 58 3b be 9a ea a5 3e
       -0.14343128 0.18327492 -0.18295601 0.3240555
000250 0e 10 c1 be 8c 49 4e 3d 16 20 6d 3d 10 c2 af bc
       -0.3770756 0.05036311 0.057891928 -0.02145484
000260 7e b2 7f 3e 6b 7b 9b bd ed 90 97 be 75 bb 48 be
       0.24970433 -0.075918995 -0.29602757 -0.19602759
000270 2c 6b a4 3d 25 86 30 be f3 a3 14 3d 81 7d ca bd
       0.08028254 -0.17238672 0.036289167 -0.09887219
000280 fb 2b 36 be 17 09 2b bd 84 ec 9b be 3c 25 b9 be
       -0.17790215 -0.041756716 -0.30453885 -0.3616122
000290 c7 b6 00 3e 8b 81 28 be 39 bd 2b be 78 fb 89 be
       0.12569724 -0.16455667 -0.16771401 -0.26949668
0002a0 a5 b6 80 3b 3a fc ae bd 70 a9 80 3d b5 82 e2 bd
       0.003928023 -0.08544202 0.06282318 -0.11060087
0002b0 b9 3c 52 be b6 40 25 3e 99 9d 2c be 95 7c a3 be
       -0.20530976 0.16137967 -0.16856994 -0.31930986
0002c0 96 de cc 3e 6b 94 4d 3e e5 ee 5f be 93 0d 99 be
       0.4001357 0.20076148 -0.21868475 -0.2989317
0002d0 7c ac 00 be 15 39 0e bd ba 22 29 be ee 8a cd 3e
       -0.12565798 -0.034722406 -0.16517153 0.40145057
0002e0 97 4b 6e 3e 61 7f b2 bc 8c 0b 94 3e cf 07 af be
       0.23271023 -0.021789255 0.2891506 -0.34185645
0002f0 12 d5 db 3e c4 ed 91 3e 3a 9c a1 be ae 94 82 be
       0.42935997 0.28501713 -0.31564504 -0.2550406
000300 13 40 fe 3e 2a a7 1b be 1d 48 60 be bf 45 65 3e
       0.4965826 -0.15200487 -0.21902509 0.22389887
000310 fa 3b 04 3e 7f 0b d1 3e 7c 65 0b 3e 2a 5a 91 3e
       0.12913504 0.40829083 0.13612932 0.28389102
000320 9d 23 77 be 89 33 49 3f 37 b8 65 3e 00 6f c7 3d
       -0.24134679 0.7859426 0.22433554 0.097379684
000330 38 2f 4a be e5 06 b9 be 4d af d7 3d 83 70 7e be
       -0.19744575 -0.36138073 0.10531483 -0.24847607
000340 30 b5 72 be fe 2e 2a bd ac 5b 5d 3e 58 81 60 be
       -0.2370193 -0.04154872 0.21617001 -0.2192434
000350 f7 1f 18 3e 1e bd c3 3c d0 37 10 bc c8 9e 10 3e
       0.14855944 0.023893889 -0.008802369 0.1412307
000360 9e a2 e9 bd 1b a0 72 be dc de 93 3e b7 8d 29 be
       -0.1140797 -0.23693888 0.28880966 -0.16557966
000370 ec fd 5b be 55 a4 27 3e ee e7 a4 be 4b bb 27 be
       -0.21483582 0.16371281 -0.32208198 -0.1638004
000380 19 52 d1 bd 56 6d 4d 3e 00 9b 85 bd 3d 90 b5 bb
       -0.10220737 0.2006124 -0.065237045 -0.005540876
000390 65 33 44 be 61 84 8c bd 44 49 dc 3d ec 6e 18 be
       -0.1916023 -0.06861187 0.10756162 -0.14886063
0003a0 ce 1d 93 be f2 a8 fb bd d2 3d 22 be dd ed b1 be
       -0.28733677 -0.12288083 -0.15843895 -0.34751788
0003b0 06 47 22 be a4 84 a7 bd 9c 59 b6 bd d1 cc 91 be
       -0.15847406 -0.08179596 -0.089038104 -0.28476575
0003c0 e5 a6 a9 bd 9e 73 bc 3d 9e ac a3 3e 9d 13 f9 bd
       -0.08283786 0.0920174 0.31967634 -0.12161944
0003d0 5b 76 00 be 96 83 ca 3e c8 43 34 be d3 2a ab bd
       -0.12545149 0.39553517 -0.17603981 -0.083577774
0003e0 70 28 49 be 4c 2e 78 be 65 22 ac bd 0b e8 34 be
       -0.19644332 -0.24236411 -0.08404998 -0.17666642
0003f0 b1 9f 15 3d e2 7f 0a be 55 e6 2c 3c df a9 b3 be
       0.036529247 -0.13525346 0.010552962 -0.3509054

fc.weight f4 [12, 256]
000000 b9 cd 4e 3d 62 17 1b be 1b 6c e5 bd 94 a9 0b bd
       0.05048916 -0.15145639 -0.1120226 -0.03409727
000010 55 f9 9e 3d 7e c8 69 3d ca 28 a6 bc 3c 8f 0f bd
       0.077624 0.05707597 -0.020283122 -0.03504871
000020 51 1a 70 3a e3 2c 00 bd 99 3c 5b 3d e8 ed e1 bd
       0.0009159195 -0.031292807 0.053524587 -0.11031705
000030 98 80 cd 3d 0c 7e 01 bd eb 88 16 3c 01 f5 3a 3d
       0.10034293 -0.03161435 0.009187917 0.04564381
000040 23 1c 81 3d a4 5a 82 3d 03 29 7e 3c cd 18 46 bd
       0.06304195 0.063649446 0.015512708 -0.048363496
000050 51 a7 bb bd 3a 3f 6c bc ff a1 b3 bc b6 59 bc bc
       -0.091627724 -0.014419371 -0.021927832 -0.022991996
000060 7e f2 a8 bc cf 34 a5 bd fd 1a 73 3d d6 79 18 3d
       -0.020623442 -0.08066713 0.05935191 0.037225567
000070 4d 8e 53 bd b6 6e 2e 3d a7 52 25 3c 00 5e 69 bd
       -0.05164938 0.04258605 0.010090507 -0.05697441
000080 d6 f4 41 bd 8b b7 f8 3c 1c a0 ae bb c6 ce 82 bd
       -0.047352634 0.030360958 -0.005329145 -0.06387095
000090 39 c0 00 3d 71 01 af be c1 58 43 3d 32 32 a0 3d
       0.031433318 -0.34180787 0.047692064 0.07822074
0000a0 a8 ab 2a bb 43 78 22 bd 72 0e a3 ba c9 39 88 3d
       -0.0026042257 -0.03966547 -0.0012440218 0.06651647
0000b0 81 63 9a bc ad 2d 35 3c e6 6b 96 3c e7 5d 9c bc
       -0.018846275 0.011058253 0.018361997 -0.019087745
0000c0 56 c3 14 3d df ca 06 be 99 a9 53 bd 30 12 97 bd
       0.0363191 -0.13163327 -0.051675413 -0.07376516
0000d0 f6 64 59 ba 1c 57 ad 3c 63 36 de bc 62 87 a1 bc
       -0.00082929374 0.021159701 -0.027125543 -0.019717876
0000e0 d8 14 a9 bd 3e 3e 63 bc 8f 4a 08 3d 5e 8b 1d bd
       -0.08255929 -0.01386982 0.03327423 -0.03846299
0000f0 aa d2 0d bd 7a 7a 50 3d 1c bb da ba d0 18 33 bc
       -0.034624733 0.050898053 -0.0016687843 -0.010931209
000100 89 d1 3a 3d c2 c9 aa 3d 87 64 47 bd fa 0d 6b bd
       0.045609985 0.083392635 -0.048679855 -0.057386376
000110 69 06 36 bd be 97 3c 3c 3c f8 a6 bd 96 b8 f4 bc
       -0.044439707 0.0115107875 -0.08152816 -0.029873174
000120 2a 41 ab bb 7f 56 c1 bd bd e6 65 3a 1e 89 12 3d
       -0.005226274 -0.09440326 0.00087700394 0.035775296
000130 0c c1 26 bb 54 b5 21 be e3 b2 da bd 92 13 94 3d
       -0.0025444655 -0.15791827 -0.10678651 0.07230295
000140 58 55 c8 3d f9 72 15 3d 13 b9 ac bd 2d ae 2a bd
       0.09781903 0.0364866 -0.084337376 -0.041670013
000150 fb e6 00 be 09 fe 52 3d 92 8b f7 3c 7f eb e3 bc
       -0.12588112 0.051511798 0.03021792 -0.027822254
000160 bd 17 ba bd 5f 51 fc bd fb 1b 42 bb b7 72 f8 bc
       -0.09086559 -0.12320208 -0.0029618728 -0.030328138
000170 54 c1 e1 bd 51 8c a2 3d e6 8a 66 bd 65 48 1f bd
       -0.110232025 0.079369195 -0.056284808 -0.0388874
000180 c6 ea 7f 3d 0c 6b 26 bd 23 da a7 bb 66 3d 37 bc
       0.062479757 -0.04062943 -0.0051224395 -0.011184072
000190 dc 85 3a 3d ae 30 51 bc 00 0f 89 3e ab 86 a2 3c
       0.045537814 -0.012767954 0.26769257 0.019839605
0001a0 83 52 bb bb 4d ad 5d 3d e0 35 72 bd db a0 b0 3d
       -0.0057166233 0.05412035 -0.05913341 0.08624431
0001b0 c1 c4 21 3d a9 9b cd bc 49 32 86 bc b6 ce 63 bd
       0.03949428 -0.025098639 -0.0163814 -0.055617057
0001c0 a4 68 69 bc 73 55 47 3e 46 eb 47 3d 29 9e 80 3c
       -0.01424614 0.1946619 0.04880836 0.015700417
0001d0 08 56 9d bc 09 56 90 ba 78 14 e8 bc 95 c7 82 bd
       -0.019206062 -0.0011011969 -0.028330073 -0.063857235
0001e0 5f 20 1e 3d 64 d1 35 3d cd ce 83 bd ba 5e 6d bd
       0.03860509 0.044389144 -0.064359285 -0.057951666
0001f0 9c 82 9a bd 24 a8 10 bd 0c 97 ca bc f0 7f 87 3d
       -0.07544443 -0.0353166 -0.024730228 0.06616199
000200 df bc fd 3b c7 b6 b1 3c 49 61 8b 3d 39 e7 82 bd
       0.0077434625 0.0216936 0.06805665 -0.063917585
000210 00 95 60 3b 69 75 89 3a 14 7a 09 bd 4c c3 4b 3b
       0.0034268498 0.0010487261 -0.03356369 0.0031091748
000220 f1 ca 2b be d4 ec 96 bd 7a 63 70 bc 93 59 ae 3c
       -0.16776635 -0.0736939 -0.014672155 0.021282947
000230 25 23 17 3e ab 34 bd bd af b1 0e be 1a 94 3f 3d
       0.147595 -0.09238561 -0.13934968 0.0467721
000240 0a 04 ba 3c 19 20 aa 3d 09 18 a9 3d e7 63 0f bd
       0.022707004 0.083069034 0.082565375 -0.035007384
000250 8f 10 ca bc 80 9e 1f 3c c0 3f 22 bd 76 1e 02 bd
       -0.024666099 0.009742379 -0.039611578 -0.03176733
000260 ad ad e2 bd 42 ee 03 be 5e 1b b4 3c 0b 4b c8 3c
       -0.11068282 -0.12883857 0.021985706 0.024449846
000270 e3 4d 3c bd 38 27 b7 bd 0f 44 eb bb e6 e5 c1 3c
       -0.045972716 -0.08943027 -0.007179744 0.023669194
000280 98 b0 87 bd be 20 39 bc 7c 23 92 be e0 ad 7d 3c
       -0.066254795 -0.01129931 -0.28542697 0.01548335
000290 15 5c 55 3d 86 ab 4f 3c b1 7c 06 3d c0 7d 3f bc
       0.05208977 0.012675172 0.03283376 -0.011687696
0002a0 dd c7 8b bd 26 80 a8 3d 56 f0 a8 3d 8c f9 2a bd
       -0.0682523 0.082275674 0.082489654 -0.041741893
0002b0 11 7f 45 3d 92 24 05 3e 13 63 a0 3c 7f 1a 1f bc
       0.048216883 0.13002232 0.019578492 -0.009710907
0002c0 46 54 57 3d ec 0b 3d be 7a be 6f 3d 97 ac a4 3c
       0.052570604 -0.18461579 0.058531262 0.020101829
0002d0 64 21 ec bd bc 96 4a be 3e 3e d4 3c 56 d2 7d bd
       -0.11529806 -0.19784063 0.025908586 -0.06196817
0002e0 2d ba 91 3d 87 ee 01 be 0a 24 ab bd ae e6 97 bd
       0.07115588 -0.12688647 -0.08356483 -0.074170455
0002f0 7a 73 e1 bd 5b c7 9e bd 3b b8 e1 3c c3 36 53 3a
       -0.110083535 -0.07752868 0.027553668 0.00080571714
000300 06 9e 18 be 22 d5 07 3d 31 5b 3f 3c 0b bf 39 be
       -0.14904031 0.033162244 0.011679457 -0.18139283
000310 c3 5d 16 3d ca 76 cd bd 6e ee db 3d cf 04 5c bd
       0.036710512 -0.10032423 0.10738836 -0.053715523
000320 c1 a8 2b 3c 7e eb 3c be 24 91 b4 3d bb 1c e8 bd
       0.010477246 -0.18449208 0.08816746 -0.11333605
000330 28 83 72 bd cd b0 e3 bd bd d7 c7 3d cd a9 2a bc
       -0.05920711 -0.111177064 0.09757946 -0.01041646
000340 4c 86 9b bd d8 b3 5e 3c e2 b1 60 3b da 54 40 bd
       -0.075939745 0.013592683 0.0034285714 -0.04695592
000350 17 bb a5 bb 8e 13 68 bd d3 4e 17 3d f7 5d 30 3d
       -0.0050577032 -0.056659274 0.036940407 0.04305836
000360 36 69 9a bd 97 91 9c 3d 6f fb eb bc 1c f0 b4 3c
       -0.07539599 0.076449566 -0.028806416 0.02208715
000370 b5 63 21 3c 84 6b 6e 3d e9 6d 14 3c d1 03 0b 3d
       0.009850432 0.058208004 0.009059408 0.033939186
000380 b0 02 e7 bd 1d d7 fb 3c 7b 54 cb 3c d1 ac cb bd
       -0.112798095 0.030742222 0.024820557 -0.099450715
000390 13 34 95 3d b5 4d e5 3c ff 1b 5d 3d 8d c0 ab 3d
       0.07285323 0.027991155 0.053981777 0.083863355
0003a0 32 00 80 bc 92 d1 9c bd 2f e6 b8 bd 96 06 34 3d
       -0.015625093 -0.0765716 -0.09028279 0.043951593
0003b0 05 ef c0 bc 73 19 68 3c 01 51 77 bc d1 fa 3e bc
       -0.023551473 0.014166224 -0.015094996 -0.011656479
0003c0 ef 6d d7 3c 48 ef ca bd 68 2c 64 bd 3b b4 47 3d
       0.026297538 -0.099089205 -0.05570641 0.048755866
0003d0 05 c8 84 bc 28 77 1e bd c9 d4 be 3c 11 69 25 3c
       -0.016208658 -0.038687855 0.023294823 0.010095851
0003e0 ee a6 23 be 0e c6 7f 3c 83 11 37 bd 50 e7 00 bc
       -0.15981647 0.015611185 -0.044694435 -0.007867649
0003f0 f4 65 6e 3d 78 8f b3 3d 34 30 02 bb b2 4f c2 bd
       0.0582027 0.08767599 -0.0019865157 -0.09487857

fc.bias f4 [12]
000000 7d a5 a5 3e 0b e4 49 3e 0c e3 59 be 19 62 85 be
       0.3235282 0.19715898 -0.21278018 -0.26051405
000010 51 77 34 be 81 5d c8 bd be f9 03 3e a4 88 85 be
       -0.1762364 -0.097834595 0.12888238 -0.2608081
000020 c7 e2 04 3d d8 13 c6 bd 09 f4 33 be d7 3c c9 be
       0.032442834 -0.09671754 -0.17573561 -0.3930423
