src/main/python/saved_models/cpp_1_37_CNNClassifier1_128embs_147id_32hd_0hl_Falsebid3kernel0.3dropout_1.pt (torch, 513355 bytes, 9 tensors)

emb.weight f4 [147, 128]
0.031026805 -0.85996026 -0.09909407 1.0347693 1.1102798 0.21125996 0.13934092 -0.7405658
-0.9201254 0.13702968 -1.4245148 0.0917184 1.7965182 -1.5830314 -0.06537675 1.0731244
-0.898926 -0.50529575 0.38101977 2.3569477 0.7000593 1.0496476 -0.03256564 -1.1131601
0.57077754 -0.19717367 1.3268735 -0.9300278 1.8707618 0.5531878 -1.2729101 0.50831395
1.2046905 -0.6447517 -1.4413095 -1.5748667 1.033838 -2.29617 -1.322086 -0.9343481
0.47763455 1.2798653 -0.8747473 0.5068834 -2.1764195 -2.279548 0.4506977 -1.6721958
0.61635256 1.5593172 1.3991923 0.7965045 0.1859297 1.4156238 -0.22111084 0.26576757
2.4441156 -1.4984816 -0.88443094 0.450917 0.4248245 -0.80770075 -0.38999587 0.79877496
-0.22693382 -0.90471494 -0.29768372 -2.0836632 0.80920464 1.4133471 1.9748971 -0.36832908
-0.07772292 0.71917063 -0.19820878 -2.1915495 1.0066298 1.4997871 1.1302991 1.2558737
-0.3597141 -0.00095549034 1.1619006 1.0822998 0.52872103 -0.14517115 1.21626 1.5305855
1.4891543 1.5629431 -0.2791677 -0.88029677 0.6042491 -0.39428875 -0.8481228 -0.110514335
1.021938 -0.07816057 -1.166913 -1.2696549 -0.7126587 -1.5575335 0.186504 -1.6169199
-0.447003 -0.20209776 0.30124104 0.87552345 -0.09251877 -1.0479674 -0.67731744 1.537916
-1.0367805 1.9308418 -0.019892579 0.6444215 0.8716274 1.318241 1.098633 1.2000346
-0.67217845 0.92612964 -1.4211562 0.07000699 0.5975253 -0.6393376 -1.1598165 -1.2976257
0.5770396 -0.80202013 1.5708468 1.3680234 0.6226501 0.14586385 0.37076056 0.40515321
0.28316242 -0.16194865 0.9560201 -0.87844104 1.0380661 -0.2513516 -0.27595717 0.8090752
0.53770775 -0.4562853 0.068604 0.36217597 0.48163953 -0.31098032 1.1355426 1.9948213
0.91156435 -0.54030734 0.29933602 -0.75112194 -1.0458764 0.65859824 -0.4283904 0.75896186
1.0671992 -0.0005991226 1.563874 -0.046952784 -0.4265305 1.5078796 1.9972107 0.80062515
2.0807118 0.89564705 1.4500109 0.35753793 0.504757 -0.90052205 -0.17275913 0.64926505
-0.032698665 0.53459793 0.63091284 2.4847689 -0.76111066 -2.4753199 0.6081059 -0.30291215
-1.1680869 0.78685534 -1.7712725 0.50283283 -2.0545015 -0.0005490673 -0.22758935 0.41285935
0.6323451 -1.3331319 0.22869062 0.5696996 0.9496472 0.031917077 0.69738793 -0.084765926
-0.20871186 1.2544303 -0.46850666 0.51331115 0.9388958 1.0991772 -0.5467224 -0.4420208
-0.46726003 -0.20863317 0.23342837 -1.2619749 -0.1538493 -1.0255147 0.422432 -0.63029605
-0.78606033 0.8744445 -1.3194009 1.4213828 -0.75643975 0.46326968 -0.051645312 -0.24179432
-2.055993 -0.21678145 2.4678626 -1.2727381 0.6909515 1.0879599 0.1615152 0.05419071
1.0411892 0.96050733 1.126614 -0.09137871 -1.674616 0.20871763 -0.046656437 2.2115445
-2.1286747 -0.59546083 -1.0789963 -1.1738824 1.1522845 1.1539209 -1.6868633 -0.053324018
0.86177987 0.63944733 1.8017031 0.21389158 0.8891054 0.48460254 -0.32870272 1.978811
00000000: ed2b fe3c 5b26 5cbf d5f1 cabd 5273 843f
00000010: a61d 8e3f 8854 583e 63af 0e3e b895 3dbf
00000020: 578d 6bbf 8251 0c3e 8056 b6bf dbd6 bb3d
00000030: 4ff4 e53f c6a0 cabf 3fe4 85bd 245c 893f
00000040: 0420 66bf 105b 01bf 0615 c33e 3bd8 1640
00000050: 1637 333f da5a 863f 8c63 05bd 087c 8ebf
00000060: 7a1e 123f e5e7 49be fed6 a93f 4d16 6ebf
00000070: 1f75 ef3f b79d 0d3f b8ee a2bf dd20 023f
00000080: 4c33 9a3f 730e 25bf d47c b8bf 3b95 c9bf
00000090: ce54 843f 73f4 12c0 1d3a a9bf 7031 6fbf
000000a0: 848c f43e a0d2 a33f 70ef 5fbf 1cc3 013f
000000b0: 754a 0bc0 1de4 11c0 d9c1 e63e 830a d6bf
000000c0: 48c9 1d3f b597 c73f bc18 b33f b8e7 4b3f
000000d0: 5b64 3e3e 2933 b53f e16a 62be b012 883e
000000e0: 646c 1c40 3fce bfbf 116a 62bf 98de e63e
000000f0: 9982 d93e 7ac5 4ebf 8aad c7be 847c 4c3f
00000100: 5761 68be 669b 67bf 006a 98be bd5a 05c0
00000110: 0928 4f3f 8fe8 b43f 6ec9 fc3f a195 bcbe
00000120: 322d 9fbd 911b 383f 3ef7 4abe 5942 0cc0
00000130: 3fd9 803f 06f9 bf3f a4ad 903f 78c0 a03f
00000140: 722c b8be df79 7aba 29b9 943f cd88 8a3f
00000150: 435a 073f bfa7 14be 68ae 9b3f 3aea c33f
00000160: 9c9c be3f 850e c83f 12ef 8ebe 215b 61bf
00000170: 12b0 1a3f 37e0 c9be 931e 59bf 5755 e2bd
00000180: ddce 823f a612 a0bd 685d 95bf 0d84 a2bf
00000190: cd70 36bf 425d c7bf e8fa 3e3e 3bf7 cebf
000001a0: 94dd e4be b7f2 4ebe 443c 9a3e 4e22 603f
000001b0: 7b7a bdbd cc23 86bf ad64 2dbf 6eda c43f
000001c0: 39b5 84bf d325 f73f c3f5 a2bc cff8 243f
000001d0: f922 5f3f 1fbc a83f 02a0 8c3f bc9a 993f
000001e0: e313 2cbf d516 6d3f 72e8 b5bf d35f 8f3d
000001f0: 6bf7 183f a1ab 23bf de74 94bf 9918 a6bf
00000200: deb8 133f 3151 4dbf 8211 c93f 641b af3f
00000210: ff65 1f3f 555d 153e 54d4 bd3e 3e70 cf3e
00000220: aafa 903e ded5 25be bcbd 743f 83e1 60bf
00000230: 5adf 843f 28b1 80be 424a 8dbe 8d1f 4f3f
00000240: 37a7 093f 3a9e e9be 4180 8c3d 216f b93e
00000250: 7599 f63e d038 9fbe 7659 913f 4e56 ff3f
00000260: 485c 693f 9551 0abf 9242 993e 8749 40bf
00000270: 47df 85bf e599 283f fd55 dbbe 534b 423f
00000280: fc99 883f 700e 1dba 062d c83f 9051 40bd
00000290: 3562 dabe 3302 c13f 9aa4 ff3f c5f5 4c3f
000002a0: 622a 0540 2049 653f f599 b93f 360f b73e
000002b0: c137 013f 9d88 66bf c5e7 30be 3c36 263f
000002c0: 09ef 05bd 69db 083f 8183 213f 7406 1f40
000002d0: 26d8 42bf a46b 1ec0 d4ac 1b3f 4d17 9bbe
000002e0: df83 95bf 5a6f 493f 0fb9 e2bf a7b9 003f
000002f0: f47c 03c0 48ef 0fba 2f0d 69be 4d62 d33e
00000300: 5ee1 213f 11a4 aabf e02d 6a3e d5d7 113f
00000310: 141c 733f 7bbb 023d 0488 323f c299 adbd
00000320: 90b8 55be 2c91 a03f 1be0 efbe 5c68 033f
00000330: 7a5b 703f d7b1 8c3f 00f6 0bbf 8d50 e2be
00000340: b53c efbe efa3 55be d907 6f3e 6588 a1bf
00000350: ac8a 1dbe 1144 83bf 0249 d83e 155b 21bf
00000360: 403b 49bf 98db 5f3f 21e2 a8bf dfef b53f
00000370: 09a6 41bf af31 ed3e 098a 53bd ee98 77be
00000380: 6495 03c0 f5fb 5dbe 76f1 1d40 15e9 a2bf
00000390: 33e2 303f 4542 8b3f 3e64 253e 14f7 5d3d
000003a0: b045 853f cfe3 753f e334 903f c324 bbbd
000003b0: d159 d6bf 13ba 553e d21a 3fbd f289 0d40
000003c0: 353c 08c0 1f70 18bf 8d1c 8abf c741 96bf
000003d0: 0f7e 933f aeb3 933f 23eb d7bf 496a 5abd
000003e0: 9b9d 5c3f d2b2 233f 359e e63f 6506 5b3e
000003f0: 699c 633f d31d f83e b94b a8be ae49 fd3f

conv1.weight f4 [32, 128, 3]
-0.08295561 -0.12350096 -0.13020922 -0.12302704 0.0061146286 0.034410197 0.023262534 0.021220349
-0.036871746 -0.032175105 -0.030945793 0.089143075 -0.100474514 -0.041290637 0.16026783 0.15525748
0.025922267 -0.04033856 -0.19133598 0.012953304 0.083245285 0.07217581 -0.05526593 -0.12867744
0.18553255 0.047582515 0.19381213 -0.07460965 -0.18991034 -0.08934155 -0.09973263 0.049838394
0.10336954 -0.18078059 0.043899283 -0.02373568 -0.077861406 -0.1160813 -0.015051383 0.037722964
-0.091018856 0.31667942 0.1020417 0.034728393 0.22287019 -0.13414593 -0.006921056 -0.05673552
0.15266575 0.12599985 -0.22263797 0.21125284 0.08001005 0.091862924 0.14069477 0.014680612
-0.10239162 0.014137625 -0.023364747 0.19906612 0.17011134 0.0009116128 0.016546762 -0.06758784
0.047571972 0.12050391 -0.14148448 -0.17145552 -0.15707673 0.075606 0.06447261 0.019383634
0.019323003 -0.13440037 -0.13990234 -0.03752013 -0.091487266 -0.061266582 -0.03154173 0.013908125
0.043845385 0.14898571 0.0635159 -0.06380142 0.014305223 0.14638913 0.17579024 -0.1798874
-0.12513609 0.08665516 -0.039649643 0.11387083 0.06436837 0.16979387 -0.09829591 0.22002801
0.020307217 0.10570731 0.1019142 -0.21668507 -0.041742682 -0.14451115 0.13570465 -0.054157045
-0.09407675 0.08784842 -0.07106928 0.0015376805 -0.063090384 -0.059528053 0.10778289 -0.19170365
-0.016782299 0.022896275 -0.034976643 0.12821782 0.17220414 -0.0017494662 -0.074966595 -0.0006949647
-0.05832484 0.06973116 0.079134084 -0.08042884 -0.09510394 0.23892881 -0.029572751 -0.0051141568
0.12298872 0.081973724 0.023864442 0.09056337 0.22439186 -0.012613319 -0.105255656 0.0022621113
0.09390185 0.055595208 0.12631132 -0.05867469 -0.12007268 0.008090075 -0.12617025 -0.03612213
-0.04191628 -0.01657196 -0.07507873 0.0058482676 0.124038644 0.08203572 0.061792832 -0.12453392
-0.07877003 0.104421385 -0.062078398 0.29395977 0.031297337 -0.29945967 -0.025332943 -0.064455375
-0.052613374 0.019044217 -0.06091411 -0.05665816 -0.08668316 0.05038931 0.020885022 -0.23375584
0.12390176 -0.052395858 0.18973474 0.13305424 0.18632884 0.028810553 -0.17065251 -0.029930772
0.2125908 0.038164683 0.1818149 0.17541698 -0.11013312 -0.11097198 0.020708812 0.15424421
0.1256622 0.022780925 -0.105509184 -0.08795464 0.0264052 -0.14608946 -0.21900865 -0.043264173
0.08152225 -0.02761739 -0.068603225 0.18816003 -0.056566067 -0.11318912 -0.10718793 -0.07523755
-0.35387117 0.09112646 0.02685145 -0.11109551 -0.07144921 0.10252053 0.02760458 -0.18808992
0.015365353 0.08443789 0.10223163 0.058095537 0.50978124 0.2405813 0.16308959 0.05270102
0.043090515 0.20096318 0.30720896 -0.0032655417 0.01534189 0.11882573 -0.022478074 0.012823692
-0.08733383 0.028176831 0.2456144 -0.008057452 -0.012186344 -0.043288223 0.1027755 0.025511943
0.014916137 0.026396751 0.17655036 0.01212142 -0.0037135908 -0.04425177 0.044081923 0.13039465
-0.07270921 -0.04973096 -0.2275022 0.17107376 0.1507491 0.22260465 0.12124758 0.018748857
0.25328112 -0.007793719 0.015761968 0.21975242 -0.12826636 0.05710884 -0.2590919 0.0787702
00000000: a1e4 a9bd 12ee fcbd 9155 05be 9af5 fbbd
00000010: 395d c83b b5f1 0c3d 1291 be3c 4cd6 ad3c
00000020: d406 17bd 0bca 03bd 0882 fdbc a590 b63d
00000030: 95c5 cdbd 5f20 29bd 401d 243e d1fb 1e3e
00000040: ef5a d43c 0c3a 25bd 94ed 43be 183a 543c
00000050: 817c aa3d e9d0 933d 875e 62bd 05c4 03be
00000060: 3ffc 3d3e e2e5 423d b076 463e f2cc 98bd
00000070: db77 42be b4f8 b6bd 9f40 ccbd 5823 4c3d
00000080: 69b3 d33d 8c1e 39be bccf 333d 5471 c2bc
00000090: cd75 9fbd 08bc edbd 139a 76bc 6583 1a3d
000000a0: 1868 babd ce23 a23e 3dfb d03d 5c3f 0e3d
000000b0: 1538 643e 8d5d 09be 07ca e2bb 8163 68bd
000000c0: 6954 1c3e 1b06 013e 35fb 63be aa52 583e
000000d0: 4fdc a33d a122 bc3d 4a12 103e f386 703c
000000e0: b3b2 d1bd 7fa1 673c 6d67 bfbc fdd7 4b3e
000000f0: ab31 2e3e 4df9 6e3a 138d 873c 7e6b 8abd
00000100: d4da 423d c1ca f63d 4fe1 10be 0992 2fbe
00000110: b9d8 20be 52d7 9a3d 370a 843d 6dca 9e3c
00000120: 464b 9e3c 40a0 09be 8f42 0fbe b5ae 19bd
00000130: ad5d bbbd abf2 7abd e731 01bd e8de 633c
00000140: 3897 333d b68f 183e a014 823d 52aa 82bd
00000150: 7460 6a3c 08e7 153e 5b02 343e 6734 38be
00000160: ad23 00be 4378 b13d aa67 22bd 1c35 e93d
00000170: 90d3 833d 72de 2d3e 5e4f c9bd 064f 613e
00000180: 525b a63c 137d d83d 64b8 d03d b1e2 5dbe
00000190: 60fa 2abd bbfa 13be 29f6 0a3e c7d3 5dbd
000001a0: 50ab c0bd dfe9 b33d c58c 91bd ff8b c93a
000001b0: 8835 81bd b0d3 73bd 47bd dc3d f64d 44be
000001c0: 087b 89bc f890 bb3c ab43 0fbd 884b 033e
000001d0: 4856 303e 584e e5ba 1688 99bd 4b2e 36ba
000001e0: 07e6 6ebd 36cf 8e3d 0d11 a23d e0b7 a4bd
000001f0: dbc5 c2bd c1a9 743e 8e42 f2bc a894 a7bb
00000200: 83e1 fb3d d7e1 a73d 5d7f c33c 4a79 b93d
00000210: fbc6 653e 18a8 4ebc 4790 d7bd ee3f 143b
00000220: 9d4f c03d cdb7 633d c157 013e df54 70bd
00000230: aae8 f5bd 3c8c 043c c632 01be ccf4 13bd
00000240: 68b0 2bbd ebc1 87bc e1c2 99bd d3a2 bf3b
00000250: f907 fe3d 5802 a83d 7b1a 7d3d a40b ffbd
00000260: 2e52 a1bd e1da d53d eb45 7ebd e581 963e
00000270: a331 003d c752 99be 0887 cfbc 2e01 84bd
00000280: 1f81 57bd 9e02 9c3c 1381 79bd 6312 68bd
00000290: f186 b1bd 0565 4e3d 1117 ab3c b15d 6fbe
000002a0: 35c0 fd3d 0a9d 56bd d349 423e 5f3f 083e
000002b0: fdcc 3e3e 1c04 ec3c 88bf 2ebe 6131 f5bc
000002c0: 67b1 593e 9252 1c3d af2d 3a3e 82a0 333e
000002d0: 798d e1bd 4745 e3bd 87a5 a93c 32f2 1d3e
000002e0: 97ad 003e 109f ba3c 3315 d8bd 9021 b4bd
000002f0: b84f d83c 7a98 15be ce43 60be c635 31bd
00000300: 23f5 a63d dd3d e2bc d97f 8cbd 06ad 403e
00000310: d2b1 67bd b3cf e7bd 5885 dbbd 2516 9abd
00000320: 9a2e b5be 82a0 ba3d 92f7 db3c 0b86 e3bd
00000330: f753 92bd 49f6 d13d 0023 e23c a59a 40be
00000340: f6be 7b3c c6ed ac3d d15e d13d 96f5 6d3d
00000350: 0681 023f f25a 763e f500 273e 06dd 573d
00000360: ae7f 303d 4bc9 4d3e 7e4a 9d3e b302 56bb
00000370: 8d5c 7b3c e85a f33d f023 b8bc 761a 523c
00000380: 14dc b2bd 19d3 e63c 5782 7b3e 6703 04bc
00000390: 3ba9 47bc fe4e 31bd f67b d23d 6cfe d03c
000003a0: d062 743c 003e d83c 9ec9 343e ec98 463c
000003b0: b75f 73bb 5841 35bd 3f8f 343d 2d86 053e
000003c0: 91e8 94bd b1b2 4bbd 56f6 68be f62d 2f3e
000003d0: f95d 1a3e 79f2 633e a750 f83d 3497 993c
000003e0: 10ae 813e 7462 ffbb 3e1f 813c c706 613e
000003f0: 4258 03be f6ea 693d b2a7 84be 4552 a13d

conv1.bias f4 [32]
-0.090211086 -0.25946987 -0.14414455 -0.24731681 -0.10830885 -0.026335735 -0.12257438 -0.052583963
-0.23617032 0.19676 0.1349489 -0.35797688 -0.093472295 -0.0024956611 -0.31503996 -0.14197624
-0.18501359 -0.2518541 -0.17882207 -0.1019943 -0.043550823 -0.10054036 -0.11893407 -0.09670205
-0.00071588426 -0.21636108 -0.20253678 -0.2504364 -0.21411493 -0.03395443 -0.340251 -0.17479284
00000000: 97c0 b8bd 3cd9 84be a19a 13be 9e40 7dbe
00000010: 08d1 ddbd 0abe d7bc 4708 fbbd 4862 57bd
00000020: a2d6 71be 747b 493e 0b30 0a3e bf48 b7be
00000030: 676e bfbd 3f8e 23bb eb4c a1be 3862 11be
00000040: 3474 3dbe 05f3 80be 221d 37be 63e2 d0bd
00000050: 5962 32bd 1be8 cdbd b593 f3bd b90b c6bd
00000060: 2eaa 3bba c28d 5dbe cd65 4fbe 3339 80be
00000070: f240 5bbe cd13 0bbd 6135 aebe e5fc 32be

conv2.weight f4 [32, 128, 3]
-0.1447769 -0.13463987 -0.1500769 -0.17094944 0.10188627 0.122278675 -0.09275737 -0.04760833
-0.08833211 -0.0611587 -0.0007817187 -0.20613834 0.045679335 0.036339153 -0.05913384 -0.1572978
-0.08606802 -0.05472991 0.034956682 -0.0035865684 0.19219741 -0.044202134 -0.09627412 -0.11576369
-0.06550786 0.09790912 -0.07852953 -0.039265066 0.015032385 0.06460703 0.036734756 0.047104727
0.054425348 0.037960436 -0.12182532 -0.110108554 -0.014788211 -0.0535963 -0.08258622 0.11685005
0.0008010488 0.1616231 0.07881086 0.06609689 0.12098516 0.057107355 0.077495076 -0.101747036
-0.1162157 0.15660203 -0.20717515 0.18358962 -0.05117019 0.02202399 0.013522853 0.04861916
-0.07934235 0.103022195 0.05699928 0.0889319 -0.00020093247 -0.019364152 -0.011281241 0.1621594
0.011845356 0.10176728 0.008661348 -0.14603297 0.08974538 0.14504471 0.106421195 -0.014773238
-0.09845346 0.055100124 0.075501725 -0.07902787 -0.18598086 0.09574591 0.099493526 -0.15269122
-0.01713247 -0.048229534 0.13192813 0.034524255 0.031999677 0.12293018 0.13151343 0.21208552
0.020140769 0.051599402 -0.051365294 0.018856782 0.1722149 -0.06343326 -0.116976924 0.18675072
0.12550122 -0.009721323 0.045515507 -0.07336077 0.027886122 -0.027765756 0.034769114 -0.027880635
-0.13580346 0.042172477 0.0076423925 -0.0625094 -0.10413418 -0.06933079 -0.197984 0.048820302
0.085233085 0.13703842 -0.056669526 0.036342613 0.16049561 -0.017995274 0.072551474 0.13763802
0.11970504 0.052408997 0.0066448217 0.08359794 -0.12889904 0.181977 -0.00917223 0.07264146
-0.059099242 0.09807907 0.034746796 0.1974644 -0.058799963 -0.03137403 0.093610846 0.0724333
-0.14973488 0.09477612 0.03176405 0.010794408 0.06454991 -0.07837209 0.040548947 0.008408961
0.1036219 0.04731064 0.032734327 0.04298671 -0.04895091 0.017501544 -0.022559624 -0.058190558
-0.09576124 0.06625186 -0.10560873 0.21020818 0.08020971 -0.00970884 0.013633492 0.11534267
-0.04144106 -0.20807151 0.055972055 0.0077034356 -0.18615626 -0.038863454 0.015455499 -0.21083522
0.052843116 -0.03181211 -0.080978446 -0.015706038 0.045472644 0.28109992 0.028922621 -0.0021826946
0.07489516 0.10092959 0.051435843 0.25097522 -0.058214623 -0.0059645376 0.06354682 0.038929466
0.079800084 0.12806559 0.0014036542 -0.16590488 0.079044476 0.18665887 -0.042369228 0.08371747
0.039474893 -0.08537396 0.029814865 0.14590457 0.0058154636 -0.10972056 0.013569475 0.00427025
0.0002388371 -0.02672184 -0.1452921 -0.27925563 0.1410398 0.093541466 0.094752595 -0.08094748
-0.042183362 0.12240487 -0.0030831075 0.054187622 -0.044370167 -0.15242772 -0.046968237 0.030574549
0.1153831 -0.10056954 0.08902651 -0.22911724 0.16179325 0.06574444 -0.01232337 0.08261436
0.08765655 -0.03174613 0.083981454 0.22093724 -0.05741742 -0.0039321305 0.06888614 0.07858472
0.08571451 -0.05106718 0.067775436 0.017075315 -0.11659587 -0.103567176 0.042051915 0.2729978
-0.045703996 0.029491888 0.010368035 0.06817113 0.08969791 0.13517296 -0.046400666 0.024254998
0.21991494 -0.08655972 -0.15975687 -0.0068784845 -0.107117176 -0.07217375 -0.13716628 -0.0036032097
00000000: 6540 14be 09df 09be c2ad 19be 5f0d 2fbe
00000010: c0a9 d03d 3e6d fa3d 93f7 bdbd f400 43bd
00000020: 77e7 b4bd 8c81 7abd 41ec 4cba ee15 53be
00000030: 411a 3b3d 5dd8 143d 5336 72bd ad12 21be
00000040: 6e44 b0bd 782c 60bd bd2e 0f3d a20c 6bbb
00000050: 66cf 443e 4c0d 35bd 5e2b c5bd 8315 edbd
00000060: fc28 86bd 9484 c83d 17d4 a0bd 68d4 20bd
00000070: 644a 763c b150 843d 2f77 163d e3f0 403d
00000080: 1ded 5e3d 677c 1b3d 8e7f f9bd 9880 e1bd
00000090: 414a 72bc cb87 5bbd f722 a9bd 144f ef3d
000000a0: 7afd 513a 8780 253e 9767 a13d ce5d 873d
000000b0: 11c7 f73d 67e9 693d bdb5 9e3d c060 d0bd
000000c0: 7f02 eebd 485c 203e b925 54be ebfe 3b3e
000000d0: d597 51bd a86b b43c f58e 5d3c e224 473d
000000e0: 3e7e a2bd 4dfd d23d 1478 693d ee21 b63d
000000f0: 66b1 52b9 92a1 9ebc f4d4 38bc 1d0d 263e
00000100: 0613 423c 5d6b d03d 54e8 0d3c ab89 15be
00000110: 6dcc b73d 9a86 143e 5bf3 d93d 740b 72bc
00000120: f8a1 c9bd abb0 613d a6a0 9a3d 5dd9 a1bd
00000130: c471 3ebe 6f16 c43d 43c3 cb3d 165b 1cbe
00000140: 6559 8cbc 558c 45bd 2b18 073e 4e69 0d3d
00000150: 1812 033d d1c2 fb3d 75ab 063e f22c 593e
00000160: 41fe a43c e559 533d 6a64 52bd 8a79 9a3c
00000170: 1a59 303e 4ce9 81bd 9991 efbd 953b 3f3e
00000180: 6483 003e 2f46 1fbc 786e 3a3d 2c3e 96bd
00000190: 7071 e43c 0375 e3bc 0f6a 0e3d ee65 e4bc
000001a0: 1010 0bbe 0cbd 2c3d 096d fa3b ee04 80bd
000001b0: 4d44 d5bd 4dfd 8dbd 51bc 4abe ccf7 473d
000001c0: af8e ae3d cd53 0c3e 4e1e 68bd fedb 143d
000001d0: f658 243e d36a 93bc de95 943d fbf0 0c3e
000001e0: ea27 f53d d1aa 563d cebc d93b 6635 ab3d
000001f0: 1cfe 03be 2e58 3a3e 1f47 16bc 0cc5 943d
00000200: 0c12 72bd aedd c83d a852 0e3d 1c34 4a3e
00000210: 3bd8 70bd 0e82 00bd 0bb7 bf3d e957 943d
00000220: 1a54 19be fb19 c23d 051b 023d 07db 303c
00000230: be32 843d 8c81 a0bd a716 263d bdc5 093c
00000240: b837 d43d cdc8 413d 6e14 063d d512 303d
00000250: c080 48bd 665f 8f3c f6ce b8bc 3959 6ebd
00000260: 781e c4bd 0eaf 873d 6449 d8bd d040 573e
00000270: fd44 a43d d411 1fbc 035f 5f3c c738 ec3d
00000280: 1abe 29bd b310 55be f442 653d 1a6d fc3b
00000290: bf9f 3ebe 492f 1fbd 1039 7d3c 30e5 57be
000002a0: 0672 583d 6a4d 02bd 07d8 a5bd f3a9 80bc
000002b0: 8641 3a3d 54ec 8f3e 22ef ec3c 8a0b 0fbb
000002c0: a262 993d 2cb4 ce3d 64ae 523d d37f 803e
000002d0: 7572 6ebd 2b72 c3bb d624 823d 8174 1f3d
000002e0: 3a6e a33d a023 033e d2fa b73a f8e2 29be
000002f0: 12e2 a13d 8123 3f3e 5b8b 2dbd 1174 ab3d
00000300: 6db0 213d 8bd8 aebd 4e3e f43c 0268 153e
00000310: a58f be3b 2cb5 e0bd 8152 5e3c 74ed 8b3b
00000320: 5970 7a39 c3e7 dabc 74c7 14be 98fa 8ebe
00000330: bd6c 103e ab92 bf3d a60d c23d cbc7 a5bd
00000340: 76c8 2cbd 68af fa3d f60d 4abb d7f3 5d3d
00000350: 7ebd 35bd 0316 1cbe c461 40bd 7a77 fa3c
00000360: fa4d ec3d 67f7 cdbd 8853 b63d b69d 6abe
00000370: 21ad 253e 05a5 863d f6e7 49bc b831 a93d
00000380: 4785 b33d 3b08 02bd 78fe ab3d 5f3d 623e
00000390: 872e 6bbd 1ad9 80bb 2d14 8d3d 07f1 a03d
000003a0: 178b af3d d22b 51bd d9cd 8a3d 88e1 8b3c
000003b0: d1c9 eebd 071b d4bd a13e 2c3d 5ec6 8b3e
000003c0: 1d34 3bbd f998 f13c b1de 293c 4e9d 8b3d
000003d0: 8ab3 b73d c86a 0a3e a00e 3ebd 6bb2 c63c
000003e0: 6231 613e 3946 b1bd 4e97 23be e964 e1bb
000003f0: 4060 dbbd d5cf 93bd 5175 0cbe d423 6cbb

conv2.bias f4 [32]
-0.07750636 -0.25688586 -0.00681584 -0.13605876 -0.21568082 -0.25387874 -0.11058095 -0.19820625
-0.08495282 -0.0039644954 -0.042441905 -0.23273198 -0.18628052 -0.054530557 -0.10604158 -0.25322738
-0.31497243 -0.1273495 -0.17034376 -0.3049392 -0.23102912 -0.29963127 -0.20818369 -0.23755454
0.12572831 -0.13425383 -0.059096593 -0.0031913114 -0.12203561 -0.111882694 -0.27054238 -0.23056546
00000000: a8bb 9ebd 8b86 83be 6957 dfbb fd52 0bbe
00000010: 6fdb 5cbe 65fc 81be 4478 e2bd 94f6 4abe
00000020: befb adbd 99e8 81bb 90d7 2dbd 4b51 6ebe
00000030: 52c0 3ebe 6f5b 5fbd 542c d9bd 05a7 81be
00000040: 1144 a1be e867 02be 986e 2ebe fe20 9cbe
00000050: e692 6cbe 4569 99be 1b2e 55be 7f41 73be
00000060: ecbe 003e d679 09be 450f 72bd 5225 51bb
00000070: ceed f9bd c122 e5bd 8884 8abe 5a19 6cbe

conv3.weight f4 [256, 64, 5]
-0.029400792 0.075654455 -0.10984737 0.091888584 0.058625065 -0.014593971 0.08693826 -0.10387366
0.110468514 0.10403984 -0.19028892 -0.07008929 -0.094325475 -0.062329803 -0.098767236 0.17476067
-0.10132589 -0.03633809 0.055938475 0.078952596 0.093854 -0.08621591 0.099847764 0.025553323
-0.06780699 0.02336686 0.042810123 0.04472776 0.11181252 -0.008543729 0.08549918 -0.04343235
-0.19735156 -0.022853091 0.06425033 -0.057138517 -0.049944773 -0.06974589 0.051591035 0.041327566
-0.19042557 -0.038371325 -0.09099139 -0.18925755 0.048434857 -0.054171715 0.24329227 0.0045721238
-0.046507146 0.04287569 0.057748653 -0.047897477 -0.15716402 -0.115126535 0.0022652536 -0.08494826
-0.067296356 -0.078977965 -0.030036002 -0.13715951 0.027061937 -0.14522788 0.050247997 0.033980053
0.07974253 0.09578858 -0.08382141 -0.05890895 -0.06931132 0.11964971 0.028732797 -0.052785095
-0.030255115 -0.15148936 0.051409267 0.00090706476 -0.042103767 -0.034282327 0.06441616 -0.008391165
-0.03671124 0.056456983 -0.15902038 0.027157463 0.058028843 0.019292422 -0.04412139 -0.09244637
-0.14064424 -0.054901138 -0.13116293 -0.027324466 -0.0570478 0.019159645 0.08616976 0.01162127
-0.066617936 -0.09934434 -0.10462996 -0.0039089257 0.11509892 -0.04546565 -0.11114557 -0.09180988
-0.03984862 -0.027880082 -0.12229073 -0.044910904 0.11272866 0.030329201 -0.051189657 -0.026753167
-0.11146547 -0.044275615 0.10839753 0.11479072 0.053500902 -0.14152296 -0.008818986 -0.10014235
-0.007687557 -0.123339884 -0.018391782 0.05204883 0.113001555 0.09823085 0.11959258 -0.031233575
-0.10488065 -0.0572955 -0.11393503 -0.10930844 -0.04288134 0.0077039786 -0.08320304 -0.0058036977
-0.10637822 0.07006256 -0.06506921 -0.05352369 -0.20204686 -0.09842145 -0.12749459 -0.11101677
0.010497023 0.038668014 -0.0828723 -0.01737176 -0.04607678 0.21911938 -0.12125959 -0.03158624
-0.06336315 -0.1256558 -0.008536876 -0.17013778 0.058460694 -0.13044818 -0.09118366 -0.16131571
-0.0864103 -0.2925919 -0.08332313 -0.031734478 -0.17512636 0.077685215 -0.0045123845 -0.22672237
-0.3296724 -0.13299574 -0.12730198 -0.16889267 0.0071451603 0.027037947 -0.1279997 -0.12215075
-0.24213 -0.11809103 -0.13178983 -0.041664436 -0.06721242 -0.011686205 0.04394452 -0.11264999
-0.068232104 0.0073328298 -0.051509578 0.02639462 0.05462195 0.03018007 0.01523671 0.03171933
-0.06082059 0.016445082 0.003904401 0.031155158 -0.093598984 -0.029417481 0.03472698 0.007523189
0.056234285 0.025517995 0.24433167 0.10281161 0.027055325 0.17717935 0.007404173 0.051165923
-0.087867655 -0.027310425 0.1114928 0.038484145 0.13575248 0.0715374 0.070426166 0.11220606
-0.19950157 -0.061244365 -0.12499593 0.040170837 -0.12945224 -0.0423263 0.03230442 0.084035106
-0.043233253 -0.12759376 -0.005580084 -0.053331096 -0.065560795 -0.0847926 0.04426958 0.1649605
-0.048921917 0.13599163 -0.06364349 0.016761892 -0.019920103 0.040472716 -0.22146049 -0.13863738
-0.019484011 0.11539843 0.13574308 -0.12255047 -0.050721645 0.015394002 -0.040844247 -0.05722505
-0.011847009 -0.03669152 -0.049029533 -0.03999393 0.09717818 -0.06772464 -0.10717468 -0.074030906
00000000: eed9 f0bc b9f0 9a3d a8f7 e0bd 1530 bc3d
00000010: d620 703d 8d1b 6fbc b00c b23d b7bb d4bd
00000020: 513d e23d d712 d53d 19db 42be f98a 8fbd
00000030: b72d c1bd 894d 7fbd 7a46 cabd 76f4 323e
00000040: f383 cfbd 40d7 14bd be1f 653d e6b1 a13d
00000050: 8736 c03d f891 b0bd fc7c cc3d 3455 d13c
00000060: 64de 8abd db6b bf3c ab59 2f3d 7534 373d
00000070: f6fd e43d fffa 0bbc 321a af3d 1fe6 31bd
00000080: 8716 4abe 6836 bbbc ad95 833d 140a 6abd
00000090: e492 4cbd efd6 8ebd 1f51 533d 1847 293d
000000a0: ecfe 42be 402b 1dbd b259 babd bbcc 41be
000000b0: a163 463d 29e3 5dbd 9c21 793e c1d1 953b
000000c0: 477e 3ebd 6b9e 2f3d da89 6c3d 2530 44bd
000000d0: 9bef 20be 76c7 ebbd a674 143b 5af9 adbd
000000e0: acd2 89bd 33bf a1bd 100e f6bc 8b73 0cbe
000000f0: ffb0 dd3c 9eb6 14be d8d0 4d3d ab2e 0b3d
00000100: 0d50 a33d ce2c c43d 8faa abbd 834a 71bd
00000110: 18f3 8dbd e80a f53d 0b61 eb3c 2f35 58bd
00000120: 93d9 f7bc 0720 1bbe 8692 523d 16c8 6d3a
00000130: 0075 2cbd a06b 0cbd 9fec 833d 197b 09bc
00000140: 865e 16bd 703f 673d 3dd6 22be 5479 de3c
00000150: a7af 6d3d 240b 9e3c a1b8 34bd 8654 bdbd
00000160: 0b05 10be 04e0 60bd 934f 06be 8fd7 dfbc
00000170: f4aa 69bd b0f4 9c3c c579 b03d 2467 3e3c
00000180: fc6e 88bd 0c75 cbbd 3c48 d6bd 7216 80bb
00000190: fcb8 eb3d 303a 3abd 4aa0 e3bd d206 bcbd
000001a0: 4e38 23bd c564 e4bc 9073 fabd 7ff4 37bd
000001b0: 49de e63d f274 f83c 3fac 51bd 7529 dbbc
000001c0: 0248 e4bd 595a 35bd 86ff dd3d 6617 eb3d
000001d0: c323 5b3d 65eb 10be 827d 10bc 6f17 cdbd
000001e0: e7e7 fbbb 9f99 fcbd 5daa 96bc 2731 553d
000001f0: 5c6d e73d 422d c93d f4ec f43d 8edd ffbc
00000200: abcb d6bd b0ae 6abd c556 e9bd 1add dfbd
00000210: 58a4 2fbd a871 fc3b 5b66 aabd f22c bebb
00000220: d3dc d9bd f67c 8f3d 0243 85bd a83b 5bbd
00000230: 5fe5 4ebe 2f91 c9bd f18d 02be c35c e3bd
00000240: b5fb 2b3c 5a62 1e3d f4b8 a9bd 394f 8ebc
00000250: 01bb 3cbd d560 603e f356 f8bd 9360 01bd
00000260: 8ac4 81bd eaab 00be 41de 0bbc 9938 2ebe
00000270: 7b74 6f3d 3594 05be 80be babd f22f 25be
00000280: e2f7 b0bd 9bce 95be 51a5 aabd 03fc 01bd
00000290: 5354 33be 6d19 9f3d a0dc 93bb e929 68be
000002a0: d2ca a8be 0930 08be 735b 02be 33f2 2cbe
000002b0: f321 ea3b af7e dd3c 5a12 03be 2c2a fabd
000002c0: edf0 77be b6d9 f1bd eaf3 06be 54a8 2abd
000002d0: aaa6 89bd 7f77 3fbc 2bff 333d 0ab5 e6bd
000002e0: 46bd 8bbd 3c48 f03b b5fb 52bd 8839 d83c
000002f0: 44bb 5f3d 323c f73c 65a3 793c 21ec 013d
00000300: 031f 79bd d6b7 863c fbe0 7f3b 1a39 ff3c
00000310: d3b0 bfbd eefc f0bc e13d 0e3d 1585 f63b
00000320: ec55 663d 1d0b d13c 1532 7a3e e58e d23d
00000330: 21a3 dd3c 816e 353e b49e f23b 5c93 513d
00000340: f5f3 b3bd 1dba dfbc 5656 e43d 8da1 1d3d
00000350: b302 0b3e 3382 923d 983b 903d 4acc e53d
00000360: 244a 4cbe 5fdb 7abd defd ffbd 2d8a 243d
00000370: 218f 04be 585e 2dbd a451 043d 991a ac3d
00000380: 5a15 31bd f0a7 02be 23d9 b6bb b571 5abd
00000390: bd44 86bd bea7 adbd 0554 353d 68eb 283e
000003a0: 5962 48bd 6441 0b3e 8557 82bd 3c50 893c
000003b0: 7c2f a3bc b8c6 253d 8ac6 62be f5f6 0dbe
000003c0: ef9c 9fbc 0356 ec3d 3c00 0b3e befb fabd
000003d0: 80c1 4fbd 2037 7c3c 4c4c 27bd d064 6abd
000003e0: f519 42bc d949 16bd 31d3 48bd add0 23bd
000003f0: 5b05 c73d 37b3 8abd 667e dbbd 849d 97bd

conv3.bias f4 [256]
0.004437888 -0.1003474 -0.1350003 -0.024948917 -0.013066275 -0.13903348 0.11295009 -0.22898437
-0.12908433 -0.00048826655 -0.06709199 -0.100705884 -0.09064595 -0.22895768 -0.05990423 -0.24302693
-0.021312242 -0.08252632 -0.14260824 -0.07142085 -0.16034377 -0.025035307 -0.06037277 -0.027704192
-0.13564119 -0.20689613 -0.1611883 -0.12095363 -0.036718838 -0.161486 -0.1441478 -0.087501846
-0.07056437 -0.2309361 0.24236014 -0.12895921 -0.10087041 -0.1514912 -0.09911734 -0.21221702
-0.019956892 -0.22182436 -0.1611672 0.008097729 -0.053462896 5.5773264e-05 -0.02160238 -0.07788999
-0.117995955 -0.1313096 -0.02011631 -0.12679525 -0.07151697 -0.07207693 0.13980597 -0.11143255
-0.22781445 -0.07495216 -0.18948625 0.017479239 -0.072081916 -0.11626099 -0.15481958 -0.20838754
-0.03496822 -0.08509474 -0.15453276 -0.11400074 -0.17110704 -0.17160441 0.018712414 0.050895687
-0.051038835 0.051028352 -0.08134028 -0.10324301 -0.1315221 -0.117603675 -0.10144803 -0.15594761
-0.21524878 -0.2137727 -0.072929196 0.025180016 -0.0062872106 -0.015652979 -0.17452204 -0.10904893
-0.12956735 -0.10611586 -0.039428614 -0.12070767 -0.076060124 -0.035383355 -0.074568234 -0.20237173
-0.07754616 -0.070372105 -0.022877153 -0.08327624 -0.031780887 -0.066928715 -0.19222914 -0.12839155
-0.2625968 -0.10532818 -0.012799164 -0.06363525 0.08298254 -0.0996959 -0.058339894 -0.19932671
-0.04005259 0.13441862 -0.061310336 -0.061679423 0.018680621 -0.068045616 -0.18815634 -0.09799346
-0.20131569 0.041324865 -0.1918995 -0.124607846 -0.043867443 -0.1560797 -0.18683396 -0.055008158
-0.110867314 -0.18000038 -0.18534645 -0.20037638 -0.021690683 -0.21194944 -0.11241084 -0.03416647
-0.1301452 -0.057372898 -0.13418488 -0.1660133 -0.053167913 -0.10997587 -0.20037098 -0.028432094
-0.06695106 -0.12233809 -0.06826993 -0.25732547 -0.12891594 -0.058712512 -0.13169242 -0.08705863
-0.06237588 -0.2193169 0.0034321807 0.026134621 -0.2297639 -0.27209562 -0.08752297 -0.2985476
-0.14117746 -0.007314493 -0.118716985 -0.09360387 -0.21031532 -0.03346004 0.07657046 -0.08628072
-0.09888147 -0.025752112 -0.15731366 -0.2546793 -0.15699239 -0.2338628 -0.15851592 -0.08729711
-0.108130686 -0.10541034 -0.2435034 -0.104377165 -0.29669982 -0.07446755 -0.2176678 -0.009712767
-0.16024119 -0.21231203 0.053949676 -0.17950834 0.085115746 0.020797722 -0.30620056 0.29192725
-0.05892466 -0.15797196 -0.08048429 -0.055422653 -0.1263054 -0.020709235 -0.20436533 -0.12768587
-0.10801452 -0.20329626 0.008375216 -0.16981456 -0.0996381 -0.058071654 -0.1466689 -0.037128076
0.21074507 -0.11379363 -0.12553176 -0.09609577 0.03978878 -0.085573055 0.013264147 0.029397758
-0.12347301 -0.15547036 -0.12044688 -0.14071299 -0.159195 -0.076663055 0.047818687 -0.024631703
-0.12711327 -0.06584707 -0.1164577 -0.06866507 -0.1334835 -0.17158866 0.012156286 -0.13101426
0.0105277905 -0.23148511 -0.07905184 -0.15893357 -0.20230255 0.046698444 -0.13769424 -0.07549064
-0.24743818 -0.12442746 -0.26554596 -0.22665253 0.23918006 -0.19662178 -0.15380141 0.021411335
-0.048801824 -0.13810213 -0.08208359 -0.10586287 -0.232588 -0.108305655 -0.047783833 -0.06952394
00000000: b46b 913b f082 cdbd 853d 0abe ac61 ccbc
00000010: ee13 56bc cb5e 0ebe 6052 e73d e17a 6abe
00000020: af2e 04be 07fe ffb9 8667 89bd e33e cebd
00000030: 95a4 b9bd e273 6abe 235e 75bd 0ddc 78be
00000040: 0397 aebc 8f03 a9bd e507 12be 1845 92bd
00000050: 2831 24be d816 cdbc 7049 77bd e7f3 e2bc
00000060: 86e5 0abe 94dc 53be 8c0e 25be 89b6 f7bd
00000070: 7e66 16bd 965c 25be 7b9b 13be 2b34 b3bd
00000080: 0d84 90bd 837a 6cbe 422d 783e e20d 04be
00000090: 2595 cebd 8220 1bbe 08fe cabd 6b4f 59be
000000a0: a37c a3bc ed25 63be 0409 25be 56ac 043c
000000b0: e9fb 5abd 16ee 6938 79f7 b0bc c984 9fbd
000000c0: dda7 f1bd 0676 06be f6ca a4bc 9dd6 01be
000000d0: 7d77 92bd 129d 93bd 4c29 0f3e c036 e4bd
000000e0: 3148 69be 8580 99bd af08 42be 9f30 8f3c
000000f0: af9f 93bd 3e1a eebd 0689 1ebe 8b63 55be
00000100: d63a 0fbd 2746 aebd d63d 1ebe 3879 e9bd
00000110: af36 2fbe 11b9 2fbe c74a 993c ff77 503d
00000120: 190e 51bd 1b03 513d bc95 a6bd 1271 d3bd
00000130: bbad 06be 32da f0bd fcc3 cfbd bbb0 1fbe
00000140: 2d6a 5cbe 3be7 5abe e75b 95bd 5246 ce3c
00000150: f204 cebb ad3a 80bc e8b5 32be 0c55 dfbd
00000160: 4ead 04be 4653 d9bd e67f 21bd 9535 f7bd
00000170: 69c5 9bbd 23ee 10bd 3bb7 98bd 893a 4fbe
00000180: 85d0 9ebd 401f 90bd de68 bbbc bc8c aabd
00000190: ad2c 02bd ec11 89bd b7d7 44be 1379 03be
000001a0: 1673 86be 4db6 d7bd 96b3 51bc 3353 82bd
000001b0: c0f2 a93d 5d2d ccbd d0f5 6ebd 4d1c 4cbe
000001c0: 2f0e 24bd 09a5 093e 8c20 7bbd 90a3 7cbd
000001d0: 1a08 993c 805b 8bbd 0eac 40be ccb0 c8bd
000001e0: b325 4ebe 4344 293d 4d81 44be 6632 ffbd
000001f0: 59ae 33bd 5bd3 1fbe 6751 3fbe 3c50 61bd
00000200: 670e e3bd 0552 38be 76cb 3dbe 772f 4dbe
00000210: a9b0 b1bc 4609 59be a837 e6bd 24f2 0bbd
00000220: c944 05be d8ff 6abd c367 09be 64ff 29be
00000230: 99c6 59bd 073b e1bd 0d2e 4dbe 6cea e8bc
00000240: a31d 89bd 648c fabd 1bd1 8bbd 2ac0 83be
00000250: 8a02 04be 887c 70bd 61da 06be cc4b b2bd
00000260: da7d 7fbd 9c94 60be 70ee 603b 4618 d63c
00000270: 3a47 6bbe 1e50 8bbe 3e3f b3bd 3bdb 98be
00000280: d390 10be 6aae efbb e421 f3bd 63b3 bfbd
00000290: e65c 57be 650d 09bd f9d0 9c3d f2b3 b0bd
000002a0: 5e82 cabd 18f6 d2bc d516 21be 5365 82be
000002b0: 9dc2 20be bb79 6fbe ff51 22be d4c8 b2bd
000002c0: 9f73 ddbd 60e1 d7bd f558 79be b2c3 d5bd
000002d0: 0ae9 97be 7182 98bd 4fe4 5ebe 4c22 1fbc
000002e0: 4416 24be 5368 59be 56fa 5c3d 09d1 37be
000002f0: 2a51 ae3d fc5f aa3c 52c6 9cbe 7d77 953e
00000300: fc5a 71bd 67c3 21be f3d4 a4bd dd02 63bd
00000310: 3456 01be 6aa6 a9bc 2545 51be 16c0 02be
00000320: b736 ddbd e52c 50be 3438 093c dee3 2dbe
00000330: 0f0f ccbd 8bdc 6dbd 5f30 16be 9c13 18bd
00000340: 8ecd 573e a20c e9bd 668b 00be dccd c4bd
00000350: 8ff9 223d ed40 afbd dd51 593c 91d3 f03c
00000360: 6bdf fcbd 9f33 1fbe dbac f6bd 1117 10be
00000370: 0404 23be 8501 9dbd 87dd 433d 6dc8 c9bc
00000380: fb29 02be d4da 86bd 6081 eebd 46a0 8cbd
00000390: e6af 08be f0b4 2fbe 292b 473c 9a28 06be
000003a0: c17c 2c3c 6f0a 6dbe eee5 a1bd 7bbf 22be
000003b0: 6628 4fbe de46 3f3d b8ff 0cbe d69a 9abd
000003c0: 6f60 7dbe d3d3 febd a4f5 87be 9a17 68be
000003d0: 9eeb 743e 3857 49be 1e7e 1dbe d366 af3c
000003e0: 6ce4 47bd a56a 0dbe 711b a8bd a2ce d8bd
000003f0: 8c2b 6ebe 5bcf ddbd fbb8 43bd 9162 8ebd

fc.weight f4 [8, 256]
-0.03555271 -0.031122882 0.01742452 0.051538285 0.032717057 -0.03930664 -0.02508683 0.04265782
0.021712797 0.06646705 -0.008142613 -0.11949395 0.013085105 0.009506686 0.055110097 0.04423368
0.032625508 -0.08025854 0.043739714 -0.026296072 -0.19628578 -0.1362515 0.0022572456 0.013205268
0.03824832 -0.052307274 0.009295538 -0.022327786 0.0074950517 -0.005806554 -0.028949527 0.06032753
0.0697723 -0.0014005053 -0.03594038 0.08201796 0.052754242 -0.05680828 -0.07544184 0.051704857
0.009423364 -0.0030708094 -0.05973814 -0.0880733 -0.048356142 0.044207346 0.0028481067 -0.03516666
-0.20957275 0.00018494394 -0.045324195 -0.025136767 -0.022321086 -0.0051476057 -0.09105927 0.03914769
-0.009819452 0.025742017 0.012550016 0.0029354952 0.0045662955 0.044756643 -0.0290993 0.046241254
-0.082141444 -0.022218006 -0.03457736 -0.012717521 -0.008339965 0.006687669 -0.0646416 -0.10803183
-0.011399113 -0.0895443 0.013429462 -0.015668105 0.07701889 -0.019534232 -0.11935625 0.005210974
0.020751813 -0.0622024 0.012711124 -0.09283239 -0.0036320284 -0.009561991 0.012447632 0.05730606
0.03423797 -0.015280672 -0.08016523 -0.09374155 0.030462109 -0.0028546958 0.030846957 0.036372934
-0.13752648 0.0030681323 -0.052235175 0.03582208 0.0699092 -0.042251885 0.0034678464 -0.05280835
0.05276799 -0.036782376 -0.13497025 0.007872877 -0.0036652982 -0.071832545 0.043380957 -0.056380935
-0.020960588 -0.12019592 -0.047860604 -0.037354656 0.013998168 0.027519133 0.02753269 0.034046665
0.061562184 0.038948044 0.058826603 -0.02561973 0.060199972 -0.018610647 0.05639384 -0.028051484
-0.023314923 0.02810077 -0.0050967135 0.05725261 0.0077242902 -0.047155004 0.03089201 -0.15558307
0.051030055 -0.00044990232 -0.007632218 -0.0006867061 0.01381382 0.03837328 0.031304147 -0.061960194
-0.12756553 0.030311856 0.04991666 0.00950755 0.023961695 0.04728968 0.054537907 -0.0051154373
0.0045362012 0.018584525 -0.032556854 0.044949822 0.03629849 0.0037233697 0.008264274 0.014160503
0.052193496 -0.04338521 0.028832396 -0.11566829 0.0073397197 0.06651921 0.07001349 0.05775125
0.013394001 -0.004073147 -0.0066337553 -0.0023116858 -0.0031029566 -0.023269957 0.037987664 0.05466113
0.038450636 0.014023357 0.013386747 0.019510144 0.052326247 -0.050809644 0.048811886 -0.024933355
-0.008669399 0.049069818 0.05162253 -0.026886625 -0.16284312 0.045484014 0.00538348 -0.020956988
-0.0023278515 -0.058868546 0.022997828 0.005151184 0.035929535 0.0059823333 0.033215556 0.018140482
0.02234037 0.026400732 0.019100694 0.06309133 0.013026819 0.011886303 0.068924494 -0.00078099826
0.032979682 0.016569907 0.043041643 -0.022564108 0.03949195 0.05739521 0.039261524 0.0095315585
0.014864944 -0.056049928 -0.059006833 -0.0368322 -0.0068160687 -0.041459017 -0.03506766 -0.018098267
0.02986773 -0.033390213 0.0074639204 0.06666085 0.06752687 -0.07070813 -0.06841233 0.021434162
-0.03762656 0.029855385 0.038294673 0.010791195 -0.008582766 0.058556076 0.0413176 0.00010762394
0.028881183 0.0006717383 0.061439194 0.020512667 -0.06849074 -0.033333655 0.05623772 -0.022129362
-0.018580908 -0.010085324 0.010449272 0.06526581 -0.0071416227 -0.01907468 0.0045327195 0.011497825
00000000: b89f 11bd 6af5 febc debd 8e3c cf19 533d
00000010: 5202 063d 0000 21bd e582 cdbc f7b9 2e3d
00000020: 09df b13c e01f 883d 9868 05bc 3eb9 f4bd
00000030: e962 563c eec1 1b3c 20bb 613d 602e 353d
00000040: 53a2 053d 975e a4bd 6a28 333d dc6a d7bc
00000050: 24ff 48be 8385 0bbe 4cee 133b e95a 583c
00000060: 45aa 1c3d 2740 56bd 504c 183c c3e8 b6bc
00000070: 0d99 f53b e844 bebb 8f27 edbc 001a 773d
00000080: c8e4 8e3d 2991 b7ba 3836 13bd 08f9 a73d
00000090: d514 583d cdaf 68bd 4081 9abd 79c8 533d
000000a0: 7464 1a3c a23f 49bb fbaf 74bd c65f b4bd
000000b0: 1711 46bd c312 353d 4da7 3a3b ea0a 10bd
000000c0: 3d9a 56be 83ed 4139 dda5 39bd 9feb cdbc
000000d0: b6da b6bc 3fad a8bb 487d babd 5459 203d
000000e0: c4e1 20bc ece0 d23c 959e 4d3c 7061 403b
000000f0: dda0 953b be52 373d a861 eebc 7867 3d3d
00000100: c639 a8bd 8902 b6bc fda0 0dbd 265d 50bc
00000110: 59a4 08bc 3c24 db3b d162 84bd cb3f ddbd
00000120: 58c3 3abc 0163 b7bd 3f07 5c3c 665a 80bc
00000130: 14bc 9d3d 4106 a0bc 0d71 f4bd d1c0 aa3b
00000140: b5ff a93c f2c7 7ebd 5142 503c e81e bebd
00000150: 5307 6ebb e6a9 1cbc 27f1 4b3c c2b9 6a3d
00000160: 1d3d 0c3d c95b 7abc ab2d a4bd 92fb bfbd
00000170: ac8b f93c d915 3bbb c2b2 fc3c c9fb 143d
00000180: bed3 0cbe b812 493b 8df4 55bd 2cba 123d
00000190: 8e2c 8f3d 5010 2dbd cf44 633b 924d 58bd
000001a0: 3f23 583d 1ea9 16bd a435 0abe 3dfd 003c
000001b0: 8035 70bb f11c 93bd 3bb0 313d b2ef 66bd
000001c0: 8ab5 abbc 4729 f6bd 7b09 44bd 3201 19bd
000001d0: 9258 653c ce6f e13c 3c8c e13c 8474 0b3d
000001e0: a128 7c3d fc87 1f3d 2af4 703d 78e0 d1bc
000001f0: 3f94 763d 5b75 98bc 3afd 663d 3acc e5bc
00000200: f0fe bebc 9633 e63c 5502 a7bb b681 6a3d
00000210: 0b1c fd3b 9b25 41bd 3e11 fd3c 2b51 1fbe
00000220: e404 513d dee0 ebb9 af17 fabb 1104 34ba
00000230: 5c53 623c 4d2d 1d3d c738 003d f9c9 7dbd
00000240: 8aa0 02be 9250 f83c 6975 4c3d 8ec5 1b3c
00000250: 514b c43c d3b2 413d 2463 5f3d 669f a7bb
00000260: 6aa4 943b 933e 983c 565a 05bd 4e1d 383d
00000270: baad 143d c703 743b e166 073c 7401 683c
00000280: d9c8 553d b1b4 31bd eb31 ec3c 7fe3 ecbd
00000290: 0882 f03b 393b 883d 3c63 8f3d 938c 6c3d
000002a0: 8372 5b3c 0978 85bb f95f d9bb a77f 17bb
000002b0: f95a 4bbb a3a0 bebc f498 1b3d 59e4 5f3d
000002c0: 6a7e 1d3d 39c2 653c 1654 5b3c bdd3 9f3c
000002d0: 0c54 563d c61d 50bd f9ee 473d 0941 ccbc
000002e0: 180a 0ebc 6ffd 483d 2572 533d 5741 dcbc
000002f0: 59c0 26be 724d 3a3d e767 b03b fdad abbc
00000300: de8e 18bb 2520 71bd f165 bc3c 43cb a83b
00000310: d92a 133d 7307 c43b 090d 083d 599b 943c
00000320: 2703 b73c 5946 d83c 0f79 9c3c 0736 813d
00000330: 706e 553c c5be 423c 4928 8d3d e8bb 4cba
00000340: b415 073d 9dbd 873c 6f4c 303d 5dd8 b8bc
00000350: 50c2 213d 3d17 6b3d b1d0 203d 412a 1c3c
00000360: 188c 733c 9c94 65bd 26b1 71bd 5cdd 16bd
00000370: 5459 dfbb eed0 29bd 1ba3 0fbd d142 94bc
00000380: 2bad f43c 2dc4 08bd e793 f43b 7c85 883d
00000390: 874b 8a3d 6dcf 90bd c31b 8cbd b296 af3c
000003a0: 4f1e 1abd 4893 f43c e0da 1c3d 8dcd 303c
000003b0: bb9e 0cbc 7fd8 6f3d a53c 293d 2ab4 e138
000003c0: 3b98 ec3c 9817 303a aaa7 7b3d 2e0a a83c
000003d0: e044 8cbd df88 08bd 8659 663d a348 b5bc
000003e0: fd36 98bc ea3c 25bc 6c33 2b3c 15aa 853d
000003f0: 4604 eabb 8142 9cbc 3587 943b 6061 3c3c

fc.bias f4 [8]
-0.26414052 0.42187762 -0.15887837 -0.37182677 -0.11001977 0.056365494 -0.12470894 -0.004923483
00000000: 6d3d 87be 5800 d83e 03b1 22be 1460 bebe
00000010: 0c52 e1bd 81df 663d 6767 ffbd 2b55 a1bb
