src/main/python/saved_models/cpp_1_37_CNNClassifier1_128embs_147id_16hd_0hl_Falsebid5kernel0.5dropout_1.pt (torch, 316619 bytes, 9 tensors)

emb.weight f4 [147, 128]
-0.1850202 -1.2437537 0.43583512 -0.17351104 -1.2031051 0.27998602 0.7936454 2.0134313
-1.942947 -0.86571217 1.5509393 0.288845 -0.9116208 2.5242732 1.1918784 0.43535253
-3.046024 -0.6543968 1.3594115 0.3464098 -1.0132769 2.1635077 -0.020660032 2.2527068
-0.08871463 0.29476476 -1.0740521 -0.019108862 -1.4036999 -0.29678017 -1.0612005 0.30177894
-0.22536692 -1.2678487 0.26634538 -0.0054539545 -0.8296796 0.09258368 -1.4458807 -1.5343974
1.8648589 -2.0018635 -0.49495444 -0.4098171 0.10044771 -0.98628765 0.43949768 -0.24352247
0.9092964 0.12916018 -0.123106964 0.2619868 0.43038207 0.22558619 -1.0003866 0.44403052
-1.4143273 0.86672586 -0.3305454 1.3263998 -1.0737231 0.13104603 0.20178623 -0.065765455
-0.29365262 -0.81616026 -0.8834155 -1.0490831 -1.5733999 1.9693449 -1.9105979 0.42464277
1.5352654 -0.9875507 -0.2886456 0.18054008 -0.12954086 -0.8820306 -0.61177284 0.009372544
-0.023799699 -0.3239782 -1.9092692 0.21843682 1.6022806 -1.4980878 -0.8678609 0.945923
-1.3534362 -1.5910286 0.28150448 -1.9756362 0.84085834 -0.86360955 -2.352711 2.1471143
-0.25292304 0.09916035 -0.44924894 0.70718503 -0.04773533 -1.4714987 -0.15859824 -0.95999503
-0.29843748 -0.7555134 -0.18834944 2.4740813 -0.24631852 -0.9136732 0.012606298 0.68305975
0.79078025 -0.04810865 0.38746065 0.4969191 -0.42681602 0.8732302 0.34169462 1.0033475
0.2768063 -0.6247333 -1.7949975 0.8770715 -0.03761651 1.5536084 -1.4657505 0.4162352
1.9037308 -0.8538813 -0.3247351 0.00013403823 -0.45830506 -1.103737 -0.42679226 1.2016402
0.8286209 0.7664349 -0.44196108 -0.9096305 0.95016307 -1.8905884 0.40851358 -0.4445946
0.35225996 -1.4290177 -0.33057338 0.30605012 -0.6538084 1.0042015 0.7305073 0.3003203
-1.4753448 -0.9806068 0.92139006 -0.5875034 0.35437524 0.21894678 1.3857881 -1.0144157
-0.32252154 -0.3188039 -0.37895587 0.25385612 -1.0184952 0.3703506 0.21007794 0.22703865
-0.17607357 -0.5130588 -0.7414196 -0.5910148 1.94113 0.7747502 -0.64405787 0.018374369
0.66662186 -1.0918983 0.061123587 0.5795797 -0.71651524 0.9179315 0.7651622 -2.1063657
0.32814783 -0.16444752 1.0282191 1.2335484 1.001156 0.29169193 -0.075531445 0.11361229
0.3023214 -0.5683241 -0.7725669 -0.87771153 1.343429 0.5182033 0.6720742 1.5169959
-0.12948306 1.0676178 -1.1245916 -0.8962408 0.027354585 -0.9744863 1.0606452 0.50824666
0.23913167 -1.3213971 0.9251806 -0.10202422 0.9679058 -0.48161092 1.1187258 0.76771456
-1.788518 1.068457 0.09043493 -0.5641747 -0.9980052 0.4620662 1.107585 -1.461128
-0.50462013 -0.661365 0.08398672 -2.1716266 0.0058800946 0.31864715 0.8135981 -0.028386341
-1.0926573 -0.72030395 -1.5692666 1.3323723 -1.6646004 -0.4482552 0.8398243 -0.2771132
0.40592137 0.80297494 1.4724804 0.8872021 1.8646824 1.1221106 1.3864197 0.24056362
1.6174294 -0.67729735 -0.7634156 0.3829266 0.056716137 0.83880633 1.5499147 0.17842796
00000000: ef75 3dbe 5233 9fbf c825 df3e e1ac 31be
00000010: 59ff 99bf 545a 8f3e 582c 4b3f 0fdc 0040
00000020: 7db2 f8bf 509f 5dbf 2e85 c63f 7ee3 933e
00000030: fb5f 69bf b18d 2140 798f 983f 87e6 de3e
00000040: 0ff2 42c0 8c86 27bf 3201 ae3f a05c b13e
00000050: 0fb3 81bf e976 0a40 3a3f a9bc 592c 1040
00000060: 04b0 b5bd 68eb 963e 8a7a 89bf 308a 9cbc
00000070: 70ac b3bf 92f3 97be 6bd5 87bf c582 9a3e
00000080: 96c6 66be de48 a2bf 6c5e 883e 16b7 b2bb
00000090: e265 54bf 839c bd3d 9e12 b9bf 2267 c4bf
000000a0: b2b3 ee3f 881e 00c0 ab6a fdbe 8cd3 d1be
000000b0: 87b7 cd3d 597d 7cbf d705 e13e f45d 79be
000000c0: a6c7 683f 9142 043e 811f fcbd 2223 863e
000000d0: 0a5b dc3e 1100 673e ab0c 80bf f857 e33e
000000e0: ad08 b5bf bfe1 5d3f 3f3d a9be 78c7 a93f
000000f0: c26f 89bf ee30 063e 0da1 4e3e 0ab0 86bd
00000100: a359 96be e1ef 50bf 8527 62bf 5b48 86bf
00000110: 2b65 c9bf 7e13 fc3f 798e f4bf c76a d93e
00000120: 9483 c43f 1fd0 7cbf 5bc9 93be 80df 383e
00000130: 5ca6 04be c2cc 61bf 259d 1cbf 4c8f 193c
00000140: 96f7 c2bc 78e0 a5be ef62 f4bf e7ad 5f3e
00000150: 8817 cd3f 57c1 bfbf 222c 5ebf 0228 723f
00000160: 663d adbf d3a6 cbbf 5b21 903e a6e1 fcbf
00000170: 7e42 573f 8415 5dbf d192 16c0 526a 0940
00000180: 217f 81be 9514 cb3d f503 e6be 140a 353f
00000190: 1f86 43bd 125a bcbf 9467 22be 3cc2 75bf
000001a0: cccc 98be 5469 41bf adde 40be 5957 1e40
000001b0: ec3a 7cbe 7de6 69bf a58a 4e3c 01dd 2e3f
000001c0: 9370 4a3f 930d 45bd 3e61 c63e 2e6c fe3e
000001d0: a187 dabe 048c 5f3f 99f2 ae3e b16d 803f
000001e0: 8eb9 8d3e 86ee 1fbf 7ac2 e5bf c287 603f
000001f0: c513 1abd a4dc c63f b69d bbbf c81c d53e
00000200: 73ad f33f f797 5abf ae43 a6be 9d8c 0c39
00000210: f6a6 eabe 4147 8dbf 8484 dabe 59cf 993f
00000220: 8020 543f 1435 443f b948 e2be 8bdd 68bf
00000230: e33d 733f cdfe f1bf b128 d13e e7a1 e3be
00000240: 6b5b b43e 0dea b6bf ea40 a9be 9ab2 9c3e
00000250: fd5f 27bf ad89 803f 8702 3b3f 95c3 993e
00000260: 19d8 bcbf 0c09 7bbf 38e0 6b3f 9f66 16bf
00000270: ac70 b53e 9633 603e 8161 b13f 60d8 81bf
00000280: 8b21 a5be 443a a3be 8106 c2be 6ef9 813e
00000290: 0d5e 82bf 989e bd3e ac1e 573e d27c 683e
000002a0: a14c 34be d257 03bf adcd 3dbf bf4c 17bf
000002b0: f376 f83f 0756 463f fae0 24bf d885 963c
000002c0: bba7 2a3f 53c3 8bbf ba5c 7a3d 565f 143f
000002d0: 8b6d 37bf 8ffd 6a3f ace1 433f b2ce 06c0
000002e0: fe02 a83e ee64 28be af9c 833f eae4 9d3f
000002f0: e125 803f a558 953e 3bb0 9abd 8fad e83d
00000300: dfc9 9a3e b07d 11bf f2c6 45bf b4b1 60bf
00000310: 7bf5 ab3f f9a8 043f 0e0d 2c3f ec2c c23f
00000320: 3597 04be b3a7 883f 9ef2 8fbf 0970 65bf
00000330: b916 e03c ef77 79bf 39c3 873f 741c 023f
00000340: efde 743e 8a23 a9bf a3d8 6c3f 13f2 d0bd
00000350: adc8 773f b595 f6be 6832 8f3f f188 443f
00000360: 28ee e4bf 33c3 883f f335 b93d c16d 10bf
00000370: 457d 7fbf f193 ec3e 58c5 8d3f 3e06 bbbf
00000380: c92e 01bf 374f 29bf 3b01 ac3d eefb 0ac0
00000390: cfad c03b b825 a33e f747 503f 798a e8bc
000003a0: 32dc 8bbf d765 38bf badd c8bf 2d8b aa3f
000003b0: a011 d5bf b581 e5be bafe 563f c8e1 8dbe
000003c0: edd4 cf3e c48f 4d3f 3d7a bc3f ad1f 633f
000003d0: eaad ee3f 52a1 8f3f 3376 b13f 4f56 763e
000003e0: ed07 cf3f 5c63 2dbf 346f 43bf f50e c43e
000003f0: 2e4f 683d 03bc 563f 9b63 c63f d2b5 363e

conv1.weight f4 [16, 128, 5]
-0.07585135 -0.10731713 0.03874373 0.10318363 0.08835539 -0.26849955 -0.19959727 0.028965069
0.007900046 -0.16313832 -0.054157455 -0.015838297 0.011482321 0.14770035 -0.10262857 -0.051940713
0.03649116 -0.12610687 -0.053254154 0.04282706 0.11740033 -0.057753492 -0.1488063 0.0037492919
0.09739241 0.04579977 -0.038324825 -0.19175676 -0.016823154 -0.03762242 0.05264942 -0.1319255
-0.10893448 0.2134391 0.056571927 0.072810456 -0.2161756 -0.031372145 0.06447616 -0.022597114
-0.06830429 -0.10318798 -0.09929084 0.0668034 0.022799835 -0.007896073 0.040800642 -0.18649073
-0.09489104 -0.014434714 0.09453325 -0.014635516 -0.082125254 -0.057528697 -0.013973609 0.0901534
0.11829072 -0.06044886 -0.0018824236 -0.020437976 -0.04118884 -0.0399483 0.08504089 0.08927776
0.06923881 0.045381773 0.107633434 0.11406019 0.011516952 0.07062464 0.12534882 -0.030126436
-0.10926516 0.1709663 -0.016602248 0.015420128 -0.17179346 -0.14234123 -0.077289864 0.0067093596
0.32255942 -0.29499096 -0.28885832 0.10695059 0.17329688 -0.06331304 0.032304563 0.23118924
0.0043327766 0.043447204 0.03157595 -0.037904248 0.0060500293 0.12192028 -0.010309505 0.27029797
0.109988436 0.26968104 -0.023506636 -0.020322427 -0.11892021 0.10535778 -0.23288397 0.043900542
-0.09566621 0.13488221 0.034862027 -0.08283788 -0.031383075 0.03727976 -0.24848065 -0.118533045
0.11694718 0.14862205 0.12387683 -0.006071731 -0.038141448 -0.01618879 0.21251194 -0.12903892
0.07682422 -0.03273896 -0.052702527 0.0021760655 -0.005760632 0.009979183 0.114498496 0.42212012
-0.072915904 0.17939077 -0.13524763 -0.16503899 0.2027832 0.026253972 0.05576047 0.09361076
-0.009194951 0.020639597 0.03484709 0.06743668 0.04086607 0.003823582 0.048793845 -0.11434839
0.13873689 0.19860971 0.2313567 -0.19539168 0.019364374 0.13671382 -0.0011265785 0.22471806
-0.19009903 0.092665814 -0.09282452 0.16431531 0.29739553 0.27493688 0.03803168 0.06484883
-0.17546226 0.012137949 -0.2809443 -0.17433144 -0.16290453 0.0070367837 0.14770937 0.09319902
0.23644851 0.057849593 0.21481165 -0.15935856 -0.04223478 0.1006703 0.10408827 0.028569613
0.104887694 -0.11717002 0.047870286 -0.075608 0.0944391 -0.20111638 0.037082374 0.1334195
-0.0005318436 0.050079633 0.12360659 0.22833556 -0.02079992 0.080420926 -0.037350576 -0.062333427
-0.17738149 0.09196929 0.006526825 -0.26083276 0.09209525 -0.0013314008 -0.19946355 0.13759011
0.043412212 0.07561427 -0.0064836103 0.071592025 -0.053378712 0.18617316 -0.094577186 -0.2712483
-0.043534745 0.07473581 0.09651051 -0.08359544 -0.1561286 0.060951047 0.117364965 -0.20620276
-0.023706952 0.03181325 0.023983397 -0.045119602 -0.09473786 -0.13835092 0.1968438 0.05903269
0.040322576 0.054800544 -0.088074796 -0.007900347 0.112350024 0.04470769 0.06741427 -0.13592368
-0.089716256 0.15314472 0.17958392 0.17598392 0.10312525 -0.08960527 -0.046756417 0.008434987
-0.02381513 0.14211607 0.045201067 -0.24333166 -0.07044033 0.12562014 -0.065065786 -0.19288786
0.052788973 0.022572689 -0.15991202 -0.1753626 -0.3697371 0.039197423 -0.05248485 0.006063786
00000000: f457 9bbd 15c9 dbbd bfb1 1e3d f051 d33d
00000010: acf3 b43d c678 89be 3a63 4cbe 2748 ed3c
00000020: 326f 013c bb0d 27be 35d4 5dbd 51bf 81bc
00000030: 5820 3c3c c33e 173e ed2e d2bd c9bf 54bd
00000040: c177 153d 2922 01be 0721 5abd 6d6b 2f3d
00000050: 966f f03d ed8e 6cbd ae60 18be aeb6 753b
00000060: ac75 c73d 8a98 3b3d 7efa 1cbd e25b 44be
00000070: b6d0 89bc f719 1abd eba6 573d 7a17 07be
00000080: 0a19 dfbd c88f 5a3e f7b7 673d a61d 953d
00000090: 235d 5dbe 1480 00bd 140c 843d 951d b9bc
000000a0: 1fe3 8bbd 3854 d3bd ff58 cbbd 39d0 883d
000000b0: b8c6 ba3c 885e 01bc 931e 273d 6df7 3ebe
000000c0: 3c56 c2bd 947f 6cbc a69a c13d cec9 6fbc
000000d0: 4931 a8bd 36a3 6bbd 90f1 64bc 59a2 b83d
000000e0: 6842 f23d 3999 77bd a8bb f6ba 8b6d a7bc
000000f0: a1b5 28bd d4a0 23bd eb29 ae3d 42d7 b63d
00000100: 14cd 8d3d 3de2 393d eb6e dc3d 6498 e93d
00000110: 99b1 3c3c a7a3 903d 715b 003e b7cb f6bc
00000120: 6ac6 dfbd ca11 2f3e 7001 88bc b4a4 7c3c
00000130: a0ea 2fbe e6c1 11be 264a 9ebd 30da db3b
00000140: 8226 a53e 0e09 97be 3de5 93be e908 db3d
00000150: bd74 313e 44aa 81bd ca51 043d dfbc 6c3e
00000160: f7f9 8d3b b2f5 313d c955 013d 7c41 1bbd
00000170: 533f c63b 57b1 f93d 33e9 28bc 7f64 8a3e
00000180: 9e41 e13d a213 8a3e fd90 c0bc 387b a6bc
00000190: 708c f3bd d2c5 d73d 2379 6ebe 0ed1 333d
000001a0: a5ec c3bd 901e 0a3e 7ccb 0e3d e8a6 a9bd
000001b0: 8a8b 00bd a9b2 183d b671 7ebe 74c1 f2bd
000001c0: 0182 ef3d 6130 183e 23b3 fd3d 5ff5 c6bb
000001d0: 353a 1cbd 5a9e 84bc bb9c 593e c722 04be
000001e0: 0456 9d3d 4a19 06bd 9bde 57bd 529c 0e3b
000001f0: afc3 bcbb ba7f 233c 307e ea3d 2120 d83e
00000200: ef54 95bd 37b2 373e 5b7e 0abe fbff 28be
00000210: 66a6 4f3e 9212 d73c 1765 643d 00b7 bf3d
00000220: 6ba6 16bc 5f14 a93c d2bb 0e3d 3e1c 8a3d
00000230: 2e63 273d 1095 7a3b 0edc 473d 7d2f eabd
00000240: 0b11 0e3e 5860 4b3e c5e8 6c3e c214 48be
00000250: 09a2 9e3c b5fe 0b3e b4a9 93ba 7e1c 663e
00000260: 52a9 42be 93c7 bd3d c81a bebd 4642 283e
00000270: 3a44 983e 87c4 8c3e 1bc7 1b3d 77cf 843d
00000280: 61ac 33be 3fde 463c eed7 8fbe f183 32be
00000290: 72d0 26be d294 e63b 2041 173e 21df be3d
000002a0: 8f1f 723e b2f3 6c3d 96f7 5b3e e42e 23be
000002b0: 60fe 2cbd 3b2c ce3d 3b2c d53d d20a ea3c
000002c0: 5ccf d63d d6f6 efbd a213 443d 5ed8 9abd
000002d0: 4969 c13d 74f1 4dbe b0e3 173d 1f9f 083e
000002e0: 6b6b 0bba 4d20 4d3d 7425 fd3d ccd0 693e
000002f0: 9864 aabc bab3 a43d ebfc 18bd 5651 7fbd
00000300: 7ea3 35be 655a bc3d fade d53b df8b 85be
00000310: 6f9c bc3d 6682 aeba 2c40 4cbe 6ce4 0c3e
00000320: 01d1 313d a8db 9a3d 7774 d4bb d79e 923d
00000330: a3a3 5abd 2da4 3e3e afb1 c1bd 0fe1 8abe
00000340: 7d51 32bd 170f 993d 4da7 c53d 1634 abbd
00000350: 2de0 1fbe cea7 793d 0b5d f03d d126 53be
00000360: 1535 c2bc 9c4e 023d d478 c43c 55cf 38bd
00000370: ec05 c2bd ddab 0dbe 6c91 493e 43cc 713d
00000380: 4929 253d 8976 603d 8f60 b4bd 7570 01bc
00000390: c517 e63d 691f 373d 7e10 8a3d 942f 0bbe
000003a0: 28bd b7bd f8d1 1c3e d9e4 373e 2135 343e
000003b0: 5533 d33d f882 b7bd a883 3fbd e632 0a3c
000003c0: f317 c3bc e086 113e c124 393d ef2b 79be
000003d0: 0543 90bd 91a2 003e 3641 85bd 6584 45be
000003e0: 4039 583d 5cea b83c fabf 23be 4192 33be
000003f0: 2e4e bdbe 7a8d 203d 5bfa 56bd b9b2 c63b

conv1.bias f4 [16]
-0.3253456 -0.31624314 -0.18268892 -0.12095987 -0.34720817 -0.09606069 -0.27968162 -0.35437685
-0.12795927 -0.44033834 -0.1519439 -0.21679066 -0.34405255 -0.09330018 -0.45111716 0.03629012
00000000: b393 a6be 9fea a1be ce12 3bbe cfb9 f7bd
00000010: 45c5 b1be 78bb c4bd 6e32 8fbe e270 b5be
00000020: c107 03be 0774 e1be 2f97 1bbe 5ffe 5dbe
00000030: a827 b0be 2a14 bfbd d4f8 e6be f3a4 143d

conv2.weight f4 [16, 128, 3]
-0.049541276 0.2675572 -0.047772355 0.054794494 0.02474994 -0.25731418 0.08032169 -0.059729647
0.21180789 -0.074793644 -0.35871303 0.010209766 0.08122975 -0.005771897 0.054425206 -0.057183184
0.0618516 -0.14144391 -0.09643224 0.078531444 -0.052152593 -0.04532558 0.040476196 -0.03195669
0.00094939297 0.121011846 -0.103554055 0.035598956 -0.17025165 -0.027797122 0.059875563 -0.22483186
0.022163048 0.09079449 0.05391007 0.026344493 -0.06835096 0.040610943 -0.3721395 0.021857614
0.15897284 -0.0004921865 0.1298357 -0.09807241 0.017019063 -0.0012201432 0.085834116 -0.0968309
0.040257894 -0.059649576 -0.23744223 0.042753212 0.34843054 -0.05556191 0.09084702 0.13225566
-0.0075534116 0.01676929 0.08981751 -0.08563381 -0.0711645 0.049390268 0.2005495 0.07742046
-0.11304755 0.026523093 -0.038633186 0.09476035 -0.03156848 0.012758858 0.25679982 0.06887207
0.0324974 -0.118841775 -0.09372918 -0.07899404 0.17853758 0.12891468 -0.07821725 -0.09507082
-0.02763077 0.07820513 0.07311778 -0.008417789 0.06670539 -0.158343 -0.13106713 0.03836303
-0.040853817 -0.14748034 0.08449459 -0.11155767 0.18604277 -0.056589786 -0.0104117235 0.4707205
0.0036748142 -0.20522863 -0.16963518 0.0573129 0.25961423 -0.15982339 0.019421116 -0.035467815
-0.100440495 0.057076525 -0.2160865 0.035090458 -0.0021463004 0.17720175 -0.18170872 -0.10521491
0.2260405 0.00879629 0.0632117 -0.08372691 -0.17495875 -0.006239891 -0.106430195 0.01689504
-0.050728515 0.11201417 0.095073074 -0.022930516 -0.04205219 -0.28309518 -0.0044939895 -0.091143556
-0.02281026 -0.136456 0.06501881 -0.036522284 -0.03577959 -0.09453662 -0.17925006 -0.06792388
0.2757797 -0.15391687 -0.0601433 0.14996043 -0.032637615 0.09130858 0.04062545 -0.17586568
0.048190653 -0.032354195 0.12192961 0.00774001 -0.094245635 0.15221621 -0.079002425 -0.08546152
-0.20455457 0.04907334 -0.3541679 -0.27232328 0.04803961 -0.14229153 -0.06867791 0.1071219
-0.037992965 -0.10376971 0.0514971 -0.29414877 0.002866547 -0.023880688 -0.02183159 -0.054674067
0.10211334 0.0591608 -0.02382136 -0.022346685 0.17308068 0.14367019 0.07472927 -0.013976388
0.17809898 0.03321732 0.034225352 -0.11593142 0.07425003 0.113886245 -0.078157246 -0.023189181
0.097666256 -0.15331249 -0.12881961 -0.0076204212 -0.18990731 0.02108048 -0.15894428 0.18494703
-0.07272482 0.029006988 0.02675879 -0.0583461 -0.0027829872 -0.1620444 -0.010126134 0.0071826195
-0.24199453 0.045811888 -0.08347058 -0.02419573 0.06617296 -0.22698733 -0.089386925 -0.08127087
0.03705356 0.2024338 -0.06775297 0.05686746 0.053941727 0.11703391 0.056111097 0.019229565
0.08393874 0.17622812 0.22698152 0.026914202 -0.15177105 0.004427295 0.040453985 0.11524885
0.07260389 -0.028593443 0.14112043 0.13895863 0.08017272 -0.02970388 -0.09231774 0.06555267
-0.036844227 -0.101995304 0.006754726 0.17496279 -0.15967236 -0.024359237 0.1244751 -0.0013854299
-0.089151114 -0.04571804 0.0049940306 -0.051997762 -0.002019109 0.013924226 -0.056953244 0.23881768
0.056264844 -0.03101682 0.013824753 0.086293064 0.041525695 -0.06613495 0.13953273 0.042855237
00000000: cbeb 4abd 42fd 883e f2ac 43bd 3170 603d
00000010: 63c0 ca3c afbe 83be b37f a43d 13a7 74bd
00000020: 2be4 583e 692d 99bd 3ca9 b7be dd46 273c
00000030: c85b a63d 2e22 bdbb f7ec 5e3d ea38 6abd
00000040: 1a58 7d3d acd6 10be 447e c5bd 18d5 a03d
00000050: f59d 55bd 51a7 39bd 5eca 253d 05e5 02bd
00000060: afe0 783a 0fd5 f73d 2614 d4bd 36d0 113d
00000070: 7356 2ebe cab6 e3bc 1440 753d 533a 66be
00000080: 488f b53c 76f2 b93d ced0 5c3d 68d0 d73c
00000090: 97fb 8bbd a957 263d 1289 bebe bd0e b33c
000000a0: c7c9 223e 1406 01ba a6f3 043e 30da c8bd
000000b0: 906b 8b3c 36ed 9fba ccc9 af3d 474f c6bd
000000c0: 76e5 243d 1d53 74bd 0e24 73be fe1d 2f3d
000000d0: 7d65 b23e e394 63bd 010e ba3d 076e 073e
000000e0: 9c82 f7bb c05f 893c 3ef2 b73d c760 afbd
000000f0: b2be 91bd 734d 4a3d d95c 4d3e 9e8e 9e3d
00000100: 7985 e7bd f546 d93c d53d 1ebd b711 c23d
00000110: f34d 01bd 870a 513c 447b 833e cd0c 8d3d
00000120: fe1b 053d 5163 f3bd 16f5 bfbd a1c7 a1bd
00000130: 8ed2 363e 3602 043e 5e30 a0bd 7db4 c2bd
00000140: ed59 e2bc 032a a03d c6be 953d c4ea 09bc
00000150: d69c 883d ab24 22be 7636 06be 8d22 1d3d
00000160: 5556 27bd 1605 17be 800b ad3d 5978 e4bd
00000170: ff81 3e3e b1ca 67bd ef95 2abc 4702 f13e
00000180: 27d5 703b 7427 52be d8b4 2dbe eec0 6a3d
00000190: 28ec 843e bea8 23be 0819 9f3c b346 11bd
000001a0: bfb3 cdbd 13c9 693d c845 5dbe 03bb 0f3d
000001b0: f2a8 0cbb 6074 353e da11 3abe ea7a d7bd
000001c0: 2977 673e 501e 103c 2375 813d 0479 abbd
000001d0: 6328 33be 0078 ccbb 13f8 d9bd 7867 8a3c
000001e0: b4c8 4fbd af67 e53d acb5 c23d c7d8 bbbc
000001f0: eb3e 2cbd daf1 90be 5142 93bb 79a9 babd
00000200: 95dc babc 1fbb 0bbe 9528 853d 6498 15bd
00000210: 9f8d 12bd 6a9c c1bd 548d 37be ad1b 8bbd
00000220: ff32 8d3e 629c 1dbe d258 76bd 3a8f 193e
00000230: 05af 05bd feff ba3d df66 263d 2216 34be
00000240: 9063 453d d585 04bd 3bb6 f93d e99f fd3b
00000250: db03 c1bd 91de 1b3e 06cc a1bd 7306 afbd
00000260: c176 51be 2001 493d 7f55 b5be f56d 8bbe
00000270: 2fc5 443d dfb4 11be 01a7 8cbd ba62 db3d
00000280: 839e 1bbd 3785 d4bd a0ee 523d ab9a 96be
00000290: aedc 3b3b 6fa1 c3bc 2ad8 b2bc eaf1 5fbd
000002a0: cc20 d13d 9852 723d 0325 c3bc 6510 b7bc
000002b0: 103c 313e 471e 133e a90b 993d 38fd 64bc
000002c0: 945f 363e e20e 083d e22f 0c3d 746d edbd
000002d0: 6610 983d 313d e93d e810 a0bd 3df7 bdbc
000002e0: 3f05 c83d f3fd 1cbe 4ae9 03be bab4 f9bb
000002f0: 1077 42be f9b0 ac3c 4ac2 22be c162 3d3e
00000300: c0f0 94bd 10a0 ed3c 4035 db3c 52fc 6ebd
00000310: c762 36bb f8ee 25be 16e8 25bc 2e5c eb3b
00000320: 6acd 77be 3fa5 3b3d a0f2 aabd 2036 c6bc
00000330: b085 873d 5e6f 68be 7e10 b7bd 5871 a6bd
00000340: 79c5 173d ce4a 4f3e 12c2 8abd dbed 683d
00000350: 00f2 5c3d 79af ef3d c0d4 653d 5287 9d3c
00000360: 13e8 ab3d 2575 343e d86d 683e 2c7b dc3c
00000370: df69 1bbe d812 913b 14b3 253d 9707 ec3d
00000380: 59b1 943d cc3c eabc e081 103e 2c4b 0e3e
00000390: 9831 a43d 8d55 f3bc 1511 bdbd 7a40 863d
000003a0: f9e9 16bd eae2 d0bd c056 dd3b 7229 333e
000003b0: 2781 23be 068d c7bc cdec fe3d 5097 b5ba
000003c0: dc94 b6bd d742 3bbd f7a4 a33b 9bfb 54bd
000003d0: 0753 04bb 7022 643c ce47 69bd 9f8c 743e
000003e0: f775 663d fc16 febc 3881 623c 6bba b03d
000003f0: d916 2a3d c371 87bd abe1 0e3e f988 2f3d

conv2.bias f4 [16]
-0.28390074 0.12773283 -0.28147712 0.22541444 -0.41756994 -0.32279152 -0.41979092 -0.3181123
-0.09524645 -0.11026515 -0.11195376 -0.04914393 0.023230024 -0.028513828 -0.33420908 -0.18039471
00000000: 705b 91be 65cc 023e c51d 90be 0bd3 663e
00000010: bacb d5be ee44 a5be d6ee d6be 9edf a2be
00000020: 9210 c3bd b2d2 e1bd 0348 e5bd 254b 49bd
00000030: e44c be3c d595 e9bc 741d abbe 64b9 38be

conv3.weight f4 [256, 32, 5]
0.06484039 0.018589985 0.0058973813 -0.22750285 0.057492238 -0.15928093 0.107851595 0.02398052
-0.55798393 -0.029392758 -0.0013148865 0.07629988 -0.11110298 -0.22917572 -0.20388125 0.19702256
0.019529708 0.07307967 0.119229905 -0.47086886 -0.08882891 -0.18265061 0.03729795 -0.08554912
-0.33170375 -0.20871986 -0.2165478 -0.07070196 0.13768846 -0.14715381 0.04819037 -0.18805437
-0.004125029 -0.69188964 -0.16072093 0.00053362007 -0.039207067 0.04685366 -0.17340326 0.007287382
-0.13204926 0.18022612 -0.24460365 -0.25222367 0.020022033 0.0070407377 0.14176303 0.23329155
-0.322725 -0.16439909 0.0022658831 -0.2505397 0.14893053 -0.058497377 0.10381567 0.06671608
-0.09156808 0.05285551 -0.28407696 -0.40552452 0.09229991 -0.06121035 -0.10484568 0.16722725
-0.054576375 0.16487284 -0.033761837 -0.37713048 0.024127556 -0.3463106 0.06924016 -0.11550686
0.09119853 -0.055991128 -0.059343338 -0.070948884 0.032295663 0.052128326 -0.6584037 -0.21539356
0.22085883 -0.022724116 -0.42132688 -0.2717588 0.004402936 0.13622132 0.10130101 -0.06559047
-0.5306609 0.03744136 0.147073 -0.09039289 -0.32922515 -0.24276222 -0.21737742 0.09154412
0.021652345 -0.19337645 -0.4120292 -0.28275627 -0.09955898 -0.21013576 -0.3538625 -0.5890177
-0.27280152 0.107505076 0.015421937 0.078277975 -0.399336 -0.026202187 -0.01976634 -0.02980142
-0.066328704 0.049213376 0.1585122 -0.0117889345 0.17900807 -0.3801324 0.06253321 -0.05022588
0.18075228 -0.29008505 -0.3477897 -0.42539337 0.14081371 -0.17506771 -0.009310481 -0.066527426
-0.4650909 0.24500905 0.0132381115 0.052717816 -0.29563498 -0.5958888 0.047443714 0.039068844
0.14105797 -0.09069429 -0.36157945 -0.6005153 -0.113318846 0.098772556 -0.47851074 -0.33659637
-0.08962109 0.0038144717 -0.28527528 -0.21085054 -0.27067468 -0.36856702 -0.047119904 -0.13497049
-0.118360735 -0.3854587 -0.09254241 -0.012635586 0.041956045 -0.36009023 0.29379517 -0.20724615
0.005640019 0.037066612 -0.14947538 -0.2855786 0.0006007421 0.032278456 0.057912387 -0.09753716
-0.07619536 0.058920167 0.14515144 0.106954075 0.10447486 -0.23749146 0.19344042 -0.0768712
-0.052065868 -0.27501792 -0.34131727 0.03320929 -0.0603999 0.051938202 0.19790107 -0.38005388
-0.1267255 -0.1391256 -0.22181557 -0.3688268 -0.12422921 -0.017624663 0.04338147 0.02880089
-0.19838217 -0.49268508 0.04628402 -0.0079365065 -0.19146346 -0.1298377 -0.53613746 -0.014001558
-0.006608268 -0.44795197 -0.07295172 0.017539088 0.21016432 0.08131105 -0.083546676 -0.19069417
-0.422212 0.0427223 0.2004543 -0.41109183 -0.041217178 -0.038920555 -0.14178672 0.24285439
0.087880075 0.25260454 -0.25866148 -0.025131231 -0.3813871 -0.059980184 -0.047942787 -0.24696279
0.07488725 -0.23472449 -0.0070889876 -0.057185706 -0.21937148 0.10986212 -0.12651986 0.025375994
-0.12510468 -0.05483148 -0.098901294 0.13635424 0.08935047 0.05096406 0.15940854 0.09347408
0.17419544 -0.32943922 0.012040896 -0.004846589 -0.063918225 0.009462263 0.16271605 -0.034296878
-0.040683426 0.025797714 0.1552116 0.13408071 0.13687843 -0.26602834 -0.00023473582 -0.009064226
00000000: 0acb 843d 064a 983c d23e c13b 82f6 68be
00000010: fb7c 6b3d 8a1a 23be 4ce1 dc3d cc72 c43c
00000020: 09d8 0ebf 15c9 f0bc 4558 acba 1d43 9c3d
00000030: f689 e3bd 0aad 6abe 3fc6 50be 48c0 493e
00000040: c4fc 9f3c cbaa 953d cf2e f43d b915 f1be
00000050: eeeb b5bd c308 3bbe bcc5 183d 6134 afbd
00000060: 13d5 a9be a9ba 55be b5be 5dbe 30cc 90bd
00000070: 34fe 0c3e 7daf 16be 4463 453d 5391 40be
00000080: 402b 87bb ae1f 31bf 0794 24be a3e2 0b3a
00000090: 9797 20bd a0e9 3f3d a090 31be feca ee3b
000000a0: ec37 07be 328d 383e 6179 7abe 7623 81be
000000b0: 3f05 a43c fdb5 e63b 542a 113e fbe3 6e3e
000000c0: 363c a5be 3c58 28be 367f 143b bd46 80be
000000d0: 3f81 183e f29a 6fbd 4f9d d43d 71a2 883d
000000e0: 0c88 bbbd 057f 583d 8972 91be e9a0 cfbe
000000f0: bc07 bd3d b4b7 7abd 55b9 d6bd 9f3d 2b3e
00000100: 7a8b 5fbd 6dd4 283e da49 0abd 3f17 c1be
00000110: 27a7 c53c 9f4f b1be c9cd 8d3d dc8e ecbd
00000120: 4bc6 ba3d f456 65bd 0012 73bd a64d 91bd
00000130: 7548 043d 8384 553d 258d 28bf 2190 5cbe
00000140: d128 623e ed27 babc 28b8 d7be f823 8bbe
00000150: 8146 903b 9a7d 0b3e e776 cf3d 4c54 86bd
00000160: 65d9 07bf 1d5c 193d 4e9a 163e e81f b9bd
00000170: 3390 a8be a996 78be 3098 5ebe 7c7b bb3d
00000180: 4260 b13c 7a04 46be 7ef5 d2be 6ec5 90be
00000190: 94e5 cbbd d42d 57be 772d b5be ddc9 16bf
000001a0: a4ac 8bbe 9f2b dc3d 4bac 7c3c 3450 a03d
000001b0: c575 ccbe f8a5 d6bc 05ed a1bc 1c22 f4bc
000001c0: 58d7 87bd f793 493d 0651 223e 6026 41bc
000001d0: e44d 373e b7a0 c2be 6911 803d a7b9 4dbd
000001e0: 2017 393e 0786 94be 7e11 b2be 29cd d9be
000001f0: 7831 103e f344 33be fd8a 18bc 883f 88bd
00000200: 6520 eebe a7e3 7a3e aae4 583c a3ee 573d
00000210: 785d 97be 2b8c 18bf 5754 423d a706 203d
00000220: 8071 103e eebd b9bd f120 b9be 5fbb 19bf
00000230: b613 e8bd 4449 ca3d 5cff f4be 5c56 acbe
00000240: 438b b7bd 37fc 793b 9a0f 92be 34e9 57be
00000250: df95 8abe d1b4 bcbe cd00 41bd b435 0abe
00000260: 1d67 f2bd d85a c5be e086 bdbd 7d05 4fbc
00000270: 1ada 2b3d bf5d b8be 526c 963e 5638 54be
00000280: e9cf b83b 29d3 173d 1310 19be 5c37 92be
00000290: 1f7b 1d3a 6a36 043d 8a35 6d3d 90c1 c7bd
000002a0: 500c 9cbd 4656 713d 94a2 143e bd0a db3d
000002b0: eaf6 d53d f630 73be 3f15 463e a66e 9dbd
000002c0: 0543 55bd 26cf 8cbe 23c1 aebe 7706 083d
000002d0: e365 77bd 27bd 543d 94a6 4a3e 6c96 c2be
000002e0: 54c4 01be f176 0ebe 9f23 63be ded6 bcbe
000002f0: e26b febd 9961 90bc c5b0 313d d8ef eb3c
00000300: b224 4bbe 3841 fcbe 5094 3d3d 1f08 02bc
00000310: ff0e 44be 2df4 04be 4e40 09bf ca66 65bc
00000320: 2b8a d8bb f659 e5be b667 95bd 22ae 8f3c
00000330: 5135 573e 6886 a63d 851a abbd 5545 43be
00000340: 2c2c d8be 94fd 2e3d e443 4d3e a17a d2be
00000350: 58d3 28bd 296b 1fbd 8a30 11be d2ae 783e
00000360: 78fa b33d 6255 813e 476f 84be 03e0 cdbc
00000370: 2c45 c3be c8ad 75bd a85f 44bd d0e3 7cbe
00000380: 7d5e 993d 9e5b 70be bd4a e8bb 8f3b 6abd
00000390: eba2 60be 64ff e03d 6c8e 01be 51e1 cf3c
000003a0: 711b 00be f996 60bd c38c cabd 72a0 0b3e
000003b0: 61fd b63d b1bf 503d fe3b 233e 576f bf3d
000003c0: 4a60 323e 42ac a8be 2e47 453c 23d0 9ebb
000003d0: 8fe7 82bd 9c07 1b3c 099f 263e e27a 0cbd
000003e0: aaa3 26bd ba55 d33c caef 1e3e 744c 093e
000003f0: dc29 0c3e de34 88be 6b23 76b9 1f82 14bc

conv3.bias f4 [256]
0.022673342 0.04390439 -0.10722233 -0.1944263 -0.19359393 0.082254305 -0.14229344 -0.14122304
0.14440173 -0.28061244 0.12047206 0.060684208 -0.097484834 -0.27927333 -0.10035436 -0.016656693
-0.15593933 -0.1578227 -0.25143227 -0.119278274 -0.06453746 -0.19089666 -0.0873239 -0.105059184
0.05522901 -0.12401038 -0.08063504 -0.2686557 -0.13922495 -0.027366385 -0.13072108 -0.020585304
0.010578236 0.09657751 -0.14193846 -0.06875085 -0.009075728 -0.2757034 -0.11799321 -0.09723947
-0.21872914 -0.06752105 0.1932736 -0.20390326 -0.02143644 -0.32395127 -0.18136404 -0.09532719
-0.18465383 -0.0629083 -0.07563967 -0.15743095 0.033683915 0.27766728 -0.25352564 0.025571935
-0.13099939 -0.061095662 -0.22111063 -0.11194107 0.17046562 0.034329355 0.06496815 0.15608977
-0.06654256 -0.1407581 -0.1793715 0.0674973 0.0767949 -0.13150644 0.022999233 0.010277073
-0.2872111 0.03696273 -0.22543272 -0.13573255 -0.099406384 -0.108739875 -0.08234994 -0.28443837
-0.12195316 -0.19050552 -0.09170643 -0.24884515 -0.18107179 -0.06295918 0.21371734 -0.29845643
0.0788653 -0.22300285 -0.03917641 0.03839 -0.17438756 -0.19416496 0.018517654 -0.18400076
-0.19361106 -0.2120365 -0.2361447 -0.20602112 -0.11927244 0.10240529 -0.16524151 0.014935983
-0.10079627 0.08822276 -0.1402188 -0.17045079 -0.14484102 -0.21770968 0.057998925 0.1123344
0.022714961 -0.26154223 -0.0791863 -0.33603904 0.0841528 -0.24090075 -0.00057628495 0.03562903
-0.20433484 -0.14797595 -0.25990248 -0.20820169 0.054160234 0.20232244 -0.1998189 0.014988478
-0.11621202 -0.0093056895 -0.0024186117 0.19981685 0.10659512 -0.0256922 0.032047804 -0.25762177
-0.04240366 -0.12144659 -0.09196719 -0.1772775 -0.15166113 -0.15186764 -0.07535644 -0.043363415
-0.11794454 0.23092635 -0.112883195 -0.008006067 -0.18949737 0.09690959 -0.16189395 0.0001685696
-0.17587511 0.25344658 0.22903912 -0.1688816 -0.08473848 -0.115692325 -0.17299177 -0.08107769
0.10614133 0.045730907 0.27349216 -0.23284228 -0.18824936 0.038705796 -0.097603135 -0.08852434
-0.12200242 -0.14396676 0.081501715 -0.17765538 -0.17358889 0.020178063 -0.13772024 -0.043504506
-0.21236221 -0.10022862 0.12763165 0.129622 -0.26276305 -0.06394642 -0.22439396 -0.19966733
-0.1607489 0.27153376 -0.12403085 0.12569375 -0.15360697 -0.15895946 0.0068520675 0.1719011
-0.064655304 0.24766353 -0.21904711 -0.042638972 -0.34323502 -0.1480507 -0.1904531 -0.17869164
0.121774405 -0.3252282 -0.071942344 -0.2926852 -0.0039467807 -0.10751921 -0.149048 -0.07818813
0.15526 -0.10354471 -0.2507511 -0.17012691 0.1129857 -0.14668876 0.047403328 -0.023814358
-0.19045113 0.09941776 -0.21469432 -0.099776454 -0.20982234 -0.25403866 0.030412566 -0.18319264
-0.1458535 -0.14622138 -0.14760566 -0.23458461 0.013929081 -0.2069031 -0.14274374 -0.14047615
0.016366169 0.021060519 0.18851574 0.06677357 0.021513088 -0.17212014 -0.046159323 0.20461571
-0.006021049 0.064673394 -0.023521945 -0.05861221 -0.084018715 0.016067164 0.050675195 0.13614911
0.3800297 0.14552484 -0.13378389 -0.17953616 -0.15678632 -0.26450115 -0.059496716 0.04848463
00000000: 72bd b93c 17d5 333d 6297 dbbd b017 47be
00000010: 7d3d 46be f274 a83d 5fb5 11be c69c 10be
00000020: 0cde 133e 6fac 8fbe 0eba f63d 0190 783d
00000030: 21a6 c7bd eafc 8ebe 9686 cdbd 9e73 88bc
00000040: 8fae 1fbe 469c 21be bbbb 80be 2b48 f4bd
00000050: 372c 84bd 6a7a 43be dfd6 b2bd 4529 d7bd
00000060: d037 623d 27f9 fdbd fc23 a5bd 3d8d 89be
00000070: fc90 0ebe 782f e0bc bfdb 05be 83a2 a8bc
00000080: 5650 2d3c 6eca c53d 5158 11be 3fcd 8cbd
00000090: 5db2 14bc ff28 8dbe 6da6 f1bd 7d25 c7bd
000000a0: 88fa 5fbe 7a48 8abd 84e9 453e 04cc 50be
000000b0: 799b afbc f1dc a5be 7fb7 39be e73a c3bd
000000c0: e515 3dbe 11d6 80bd f9e8 9abd 9435 21be
000000d0: 25f8 093d 682a 8e3e 1dce 81be 3c7c d13c
000000e0: b424 06be 723f 7abd d36a 62be 5c41 e5bd
000000f0: 8a8e 2e3e f09c 0c3d 050e 853d ffd5 1f3e
00000100: 7747 88bd e422 10be 2aad 37be 063c 8a3d
00000110: a546 9d3d a0a9 06be e368 bc3c 2b61 283c
00000120: 550d 93be 3b66 173d d6d7 66be 79fd 0abe
00000130: 9395 cbbd 03b3 debd 16a7 a8bd e8a1 91be
00000140: 94c2 f9bd e113 43be 95d0 bbbd 43d1 7ebe
00000150: e26a 39be bef0 80bd b8d8 5a3e 48cf 98be
00000160: 2184 a13d dc5a 64be 7177 20bd d53e 1d3d
00000170: a792 32be 2ed3 46be 56b2 973c b26a 3cbe
00000180: fa41 46be 1920 59be ebcf 71be 33f7 52be
00000190: 1c45 f4bd ddb9 d13d 1235 29be 0eb6 743c
000001a0: 466e cebd 22ae b43d 8495 0fbe a78a 2ebe
000001b0: 3451 14be 49ef 5ebe 4890 6d3d 940f e63d
000001c0: ba14 ba3c dde8 85be 6d2c a2bd 4f0d acbe
000001d0: 4e58 ac3d b0ae 76be d411 17ba bfef 113d
000001e0: 273d 51be 0287 17be f011 85be d332 55be
000001f0: 1fd7 5d3d 9d2d 4f3e 539d 4cbe 3c92 753c
00000200: 9100 eebd e476 18bc 9281 1ebb ca9c 4c3e
00000210: 8b4e da3d 7378 d2bc 8f44 033d 00e7 83be
00000220: 76af 2dbd fdb8 f8bd 4b59 bcbd 3c88 35be
00000230: 0e4d 1bbe 3183 1bbe 7a54 9abd d69d 31bd
00000240: e88c f1bd f577 6c3e 4e2f e7bd e12b 03bc
00000250: 990b 42be 8978 c63d 87c7 25be 0fc2 3039
00000260: 9b18 34be c0c3 813e 3b89 6a3e 4cef 2cbe
00000270: 5e8b adbd 19f0 ecbd c124 31be 0f0c a6bd
00000280: a060 d93d 5550 3b3d 2a07 8c3e 356e 6ebe
00000290: 71c4 40be f889 1e3d 27e4 c7bd 404c b5bd
000002a0: 68dc f9bd 066c 13be 5fea a63d 4beb 35be
000002b0: 49c1 31be 774c a53c 8906 0dbe c831 32bd
000002c0: 7b75 59be aa44 cdbd dfb1 023e a1bb 043e
000002d0: e188 86be 57f6 82bd 88c7 65be 9875 4cbe
000002e0: 5c9b 24be 7906 8b3e e303 febd ddb5 003e
000002f0: 254b 1dbe 45c6 22be 4f87 e03b d806 303e
00000300: 006a 84bd 829b 7d3e e34d 60be 34a6 2ebd
00000310: 80bc afbe 9a9a 17be 2306 43be f1fa 36be
00000320: dc64 f93d 5084 a6be 8256 93bd d6da 95be
00000330: ff53 81bb 0833 dcbd 0aa0 18be 1921 a0bd
00000340: 7afc 1e3e 400f d4bd 7362 80be c035 2ebe
00000350: 0c65 e73d 9435 16be fe29 423d 5416 c3bc
00000360: 9f05 43be 8a9b cb3d d4d8 5bbe 9957 ccbd
00000370: abdb 56be 5b11 82be c623 f93c da96 3bbe
00000380: 9f5a 15be 0fbb 15be f025 17be f336 70be
00000390: cd36 643c 68de 53be 6a2b 12be fbd8 0fbe
000003a0: 5812 863c 1c87 ac3c 450a 413e 95c0 883d
000003b0: 373c b03c 4340 30be 8f11 3dbd c886 513e
000003c0: 384c c5bb 7c73 843d 18b1 c0bc 5b13 70bd
000003d0: 0112 acbd 499f 833c cb90 4f3d ac6a 0b3e
000003e0: 4193 c23e 7704 153e a5fe 08be 54d8 37be
000003f0: 988c 20be b26c 87be d4b2 73bd d297 463d

fc.weight f4 [8, 256]
-0.08308262 -0.035200924 0.04415987 0.057503283 0.03586105 -0.16944546 0.034510847 0.009705093
-0.0041799215 -0.023771146 -0.007333143 0.04995012 0.00960667 -0.0031537907 -0.011753402 -0.1395859
-0.008840431 0.031262666 0.004580937 -0.016764741 -0.031293586 0.054910827 -0.037874 -0.09362494
-0.08106342 0.04254251 0.012118587 0.060879935 -0.0752244 0.0467341 0.021463122 0.013972619
-0.033970434 -0.046429228 0.046788424 0.019210834 -0.09795825 0.06694933 0.00637159 0.059766132
0.031744357 0.024288356 -0.083703846 0.024002148 -0.02013949 0.012119115 0.010947101 -0.05219425
0.00974283 0.027799193 -0.009497252 0.006223598 -0.09573481 0.07085841 0.028548896 -0.006804763
0.042111784 -0.019770527 -0.038495246 0.03934086 0.07918116 0.0013213301 -0.026992572 0.018928723
0.017704802 -0.020731958 0.06556906 0.06656795 -0.06525808 -0.025805047 -0.070667855 -0.05435591
-0.013687776 0.022022277 0.0212762 0.07646386 -0.008489511 -0.02981279 0.026940782 0.064452864
0.016839026 -0.0456656 -0.050885323 0.01039199 -0.04688167 -0.028095026 -0.19526309 -0.004750274
-0.016947137 -0.0003982558 0.05909731 -0.009185626 0.034245037 0.0033216495 0.0009114031 0.007458117
-0.0100999465 0.018640788 -0.03404205 -0.004408077 0.022027988 -0.080378965 0.021388618 0.04764256
-0.045196492 0.029671062 -0.02655135 -0.03390027 0.07329338 0.102343276 -0.053230885 -0.02232222
0.051342756 -0.00914914 0.008155696 0.04680571 -0.028945092 0.041719124 -0.05961082 0.032899205
0.035984997 0.015049522 -0.03516757 -0.031483974 -0.08639336 -0.043276094 -0.014209074 -0.009761014
-0.023854712 -0.025257403 -0.071595475 0.04310276 -0.0070890374 0.009863067 0.001864593 -0.01816056
0.009184057 0.035561793 -0.033423293 -0.063804604 -0.026196335 -0.039844528 -0.023566488 -0.053829484
-0.027803946 -0.03124821 -0.05960217 0.032563113 0.07426749 -0.054233626 0.03769665 -0.09091241
-0.047631923 -0.037691686 -0.14201985 -0.06237565 -0.0992085 -0.07115567 0.015738757 -0.09782841
0.0029362396 -0.06367512 -0.032604165 0.05515627 0.06671763 0.022621514 -0.03184214 0.020170486
0.033530403 -0.050276726 -0.09153898 0.0127596315 0.057412747 -0.1763871 -0.023056254 -0.05626724
0.038195744 -0.011649304 -0.052879453 -0.06779339 0.010175946 -0.011598666 -0.0026309392 0.0024269924
-0.013991899 -0.04259618 0.055910613 -0.09288743 -0.02277364 0.023049459 -0.030633174 -0.16163188
-0.12029145 -0.035988446 0.058812153 -0.086056836 0.02561247 0.07606353 -0.0026782798 -0.042893827
-0.05866749 0.056545887 -0.023050994 -0.018140629 -0.05260227 0.003852643 0.04329024 -0.012304175
0.039185308 0.04176228 -0.06050408 0.02518251 -0.15594088 0.0050747874 0.05065042 0.01073525
0.06328836 -0.044296324 -0.012764096 -0.027596029 0.04674697 0.007666294 -0.05167013 0.028538156
0.0060293963 -0.008304384 0.008659919 -0.03087954 -0.050200917 0.02430669 0.05410681 -0.053366207
0.042109113 -0.11167346 -0.14974932 0.008176531 -0.06879548 -0.10275253 -0.04150909 -0.017627772
-0.019259261 -0.09755675 0.0534173 -0.03218078 0.08259714 -0.03497828 0.07362293 -0.024249174
-0.07750924 -0.054071475 -0.052878067 0.034920186 -0.016512835 -0.026652142 0.0059670326 -0.052705746
00000000: 3827 aabd d82e 10bd fbe0 343d 9088 6b3d
00000010: 09e3 123d 1c83 2dbe 3f5b 0d3d 1c02 1f3c
00000020: b9f7 88bb b5bb c2bc dd4a f0bb 7f98 4c3d
00000030: 4b65 1d3c d4af 4ebb 5791 40bc 9bef 0ebe
00000040: 75d7 10bc 480d 003d af1b 963b 3656 89bc
00000050: b42d 00bd 2dea 603d c421 1bbd 6fbe bfbd
00000060: 9404 a6bd 0e41 2e3d 0a8d 463c 3d5d 793d
00000070: 400f 9abd 416c 3f3d 6ed3 af3c 69ed 643c
00000080: 9524 0bbd 932c 3ebd 38a5 3f3d 0a60 9d3c
00000090: 569e c8bd bb1c 893d c5c8 d03b 55cd 743d
000000a0: 5f06 023d 60f8 c63c ec6c abbd 27a0 c43c
000000b0: 92fb a4bc 418f 463c 785b 333c a3c9 55bd
000000c0: 64a0 1f3c 22bb e33c 5d9a 1bbc 53ef cb3b
000000d0: 9d10 c4bd 371e 913d 60df e93c 7dfa debb
000000e0: 687d 2c3d cdf5 a1bc 31ad 1dbd e223 213d
000000f0: bb29 a23d 7b30 ad3a 871f ddbc 6910 9b3c
00000100: a909 913c 11d6 a9bc 1249 863d c754 883d
00000110: 07a6 85bd 1b65 d3bc 4fba 90bd 4da4 5ebd
00000120: b242 60bc 1068 b43c 6d4b ae3c 1699 9c3d
00000130: 9717 0bbc f439 f4bc eab2 dc3c ddff 833d
00000140: fff1 893c da0b 3bbd 216d 50bd 2a43 2a3c
00000150: fe06 40bd 8a27 e6bc 0cf3 47be 30a8 9bbb
00000160: b9d4 8abc fdcc d0b9 0510 723d 4f7f 16bc
00000170: 8644 0c3d 08b0 593b 3aeb 6e3a 3863 f43b
00000180: 3f7a 25bc 91b4 983c ad6f 0bbd a171 90bb
00000190: 0a74 b43c ba9d a4bd 2f37 af3c d824 433d
000001a0: f51f 39bd ba10 f33c 3782 d9bc 02db 0abd
000001b0: d71a 963d 5a99 d13d a108 5abd 17dd b6bc
000001c0: c84c 523d 46e6 15bc 789f 053c 58b7 3f3d
000001d0: 421e edbc ace1 2a3d 7a2a 74bd 51c1 063d
000001e0: 0165 133d 4592 763c df0b 10bd 57f5 00bd
000001f0: 00ef b0bd 4642 31bd 2dcd 68bc a9ec 1fbc
00000200: f56a c3bc 9de8 cebc a6a0 92bd 858c 303d
00000210: 284b e8bb b498 213c 5c65 f43a 74c5 94bc
00000220: ba78 163c 3ea9 113d dde6 08bd fdab 82bd
00000230: b299 d6bc 0434 23bd 820e c1bc 4e7c 5cbd
00000240: 1ac5 e3bc 3ffc ffbc 6821 74bd e660 053d
00000250: 8e19 983d 1424 5ebd cd67 1a3d 4930 babd
00000260: b119 43bd 9962 1abd a76d 11be 9c7d 7fbd
00000270: d32d cbbd 10ba 91bd 91ee 803c 435a c8bd
00000280: ed6d 403b 1a68 82bd f28b 05bd 8aeb 613d
00000290: 41a3 883d c150 b93c e76c 02bd 933c a53c
000002a0: 2d57 093d f8ee 4dbd ca78 bbbd c60d 513c
000002b0: a129 6b3d d29e 34be 78e0 bcbc 7a78 66bd
000002c0: 2473 1c3d b9dc 3ebc 2098 58bd 43d7 8abd
000002d0: 03b9 263c 5508 3ebc d66b 2cbb 2d0e 1f3b
000002e0: 473e 65bc 5579 2ebd 8702 653d c43b bebd
000002f0: c98f babc 38d2 bc3c 6cf2 fabc d482 25be
00000300: 5d5b f6bd 9f68 13bd 03e5 703d 913e b0bd
00000310: 3ed1 d13c 32c7 9b3d 1486 2fbb 70b1 2fbd
00000320: 524d 70bd a99c 673d 70d5 bcbc a89b 94bc
00000330: 7a75 57bd a07c 7c3b 1b51 313d 7397 49bc
00000340: c680 203d ed0e 2b3d 20d3 77bd 8d4b ce3c
00000350: f7ae 1fbe 674a a63b d176 4f3d e7e2 2f3c
00000360: 549d 813d 1070 35bd 8020 51bc 1111 e2bc
00000370: c079 3f3d 8935 fb3b 0fa4 53bd dac8 e93c
00000380: 3e92 c53b 1c0f 08bc 55e2 0d3c 17f7 fcbc
00000390: 7a9f 4dbd d31e c73c 1a9f 5d3d 8696 5abd
000003a0: 9b7a 2c3d 0eb5 e4bd e357 19be dbf6 053c
000003b0: a5e4 8cbd eb6f d2bd 7005 2abd 1e68 90bc
000003c0: 99c5 9dbc d5cb c7bd 19cc 5a3d fecf 03bd
000003d0: b028 a93d 6345 0fbd 9ec7 963d 34a6 c6bc
000003e0: 2abd 9ebd 0d7a 5dbd ac96 58bd 7808 0f3d
000003f0: ed45 87bc 9855 dabc 1987 c33b fbe1 57bd

fc.bias f4 [8]
0.056775797 0.2964281 -0.285534 -0.045372277 -0.06988003 -0.13192452 -0.21410856 0.014068706
00000000: bd8d 683d 6dc5 973e 8331 92be 48d8 39bd
00000010: 431d 8fbd 3917 07be 463f 5bbe 6e80 663c
