src/main/python/saved_models/csharp_1_66_CNNClassifier1_128embs_183id_16hd_0hl_Falsebid5kernel0.5dropout_0.pt (torch, 339147 bytes, 9 tensors)

emb.weight f4 [183, 128]
-1.6685323 -1.3113319 -1.1136583 -1.6460649 -0.34079286 -0.2664879 -1.2802947 -0.848224
-1.0235335 0.6304655 -0.11257638 0.55308664 -0.63533956 1.7207938 0.15358862 -0.38877493
-1.2149475 -1.7792131 0.45864958 0.6281929 1.1645743 -0.5216902 -1.3061026 0.23490535
1.325576 -0.51287913 -2.6137295 -0.9653013 0.54395324 -1.2108258 -1.2930565 -0.83181673
1.5861063 0.30979678 0.7864352 -0.4936772 0.4538832 -0.16931239 0.14493127 -0.23856474
-0.57665265 0.87207997 0.5164592 -0.9463567 2.0320866 -1.397487 1.3946441 0.013553756
-1.0032164 0.42221963 -0.61244166 0.12205221 1.2861556 0.7026118 0.7576521 1.2672422
0.40987006 1.2692118 -0.5525254 -1.3028151 1.6228807 -0.95002854 -3.1750193 -0.12459828
0.02589627 -1.3481731 -1.1582717 -0.46960223 -0.17294212 0.09356111 1.5511981 0.93291247
-0.7926044 0.62188464 -0.3740785 -0.80810076 -1.098538 -0.39690527 0.7560776 -0.30826014
-0.0051640556 -0.18811591 -0.64945143 0.22638828 -0.9401196 -0.3718275 0.24291512 0.39802104
-0.10945659 -0.7618551 -1.5183735 1.237688 -1.314226 -0.92863494 -0.10430365 2.3989577
0.9801717 1.1014409 0.19287243 -0.6865081 1.5840148 -0.6246798 -1.3340641 0.81730425
2.002986 0.13761722 0.28851008 -0.2085987 -2.0816104 -1.0877044 -1.0661563 -1.132572
1.3844789 -0.86075014 1.3495467 1.0555794 -0.4109008 0.76390105 0.7382674 0.349737
2.1550148 0.16492185 -0.20547213 2.1984608 -2.4821906 2.2847323 0.49976096 0.5509942
0.71236455 -1.7765073 0.35386458 1.1996132 -0.3029974 -1.7618417 0.6348446 -0.8043591
-1.6111118 -1.8716129 0.5430836 0.6606786 2.2952116 0.67490596 1.7133216 -1.7942734
-1.3632672 -0.9832196 1.5112667 0.64187074 0.4729638 -0.4285901 0.55137074 -1.5473709
0.5181121 0.10653535 0.26924077 1.324768 1.7460191 1.854969 -0.7063691 2.5570862
0.4175343 -0.2127186 -0.839958 -0.42001787 -0.6240363 -0.9772961 0.8748428 0.9872814
0.30957633 1.52069 1.2052339 -1.815591 -0.40346155 -0.9591452 -0.005207704 -0.07886314
0.8436543 1.1657013 0.5269322 1.6192533 -0.96397626 0.14152038 -0.16366096 -0.35822257
1.7222793 -0.3035756 0.2388742 1.3440012 0.10322569 1.1003542 -0.3416802 0.9473389
-0.56851596 0.8375962 1.7836607 -0.19542466 0.5149161 -1.8474776 -2.9167426 -0.5673299
-0.5412802 0.895174 -0.882507 0.53181124 -1.5457772 -0.17329982 0.72824633 0.05706102
0.9055172 1.0462948 -0.520597 1.3547838 0.23519313 1.9142433 1.8364111 1.3245324
-0.96900916 1.2516364 1.2103242 -0.5279206 0.21856615 -0.57430726 1.4571251 1.7709557
1.6499138 -0.43200457 -0.2710269 -1.4391626 1.2470404 1.2738512 0.39094925 0.3872105
-0.07982872 0.3417243 0.9488273 -1.3839359 1.7240863 -2.3647652 -0.9294909 0.2936253
0.21513203 0.9384637 1.4657077 -0.5564744 -0.7448408 -0.20215721 -0.2296679 0.0013313366
0.3752759 -0.5810679 -0.57230884 1.0097175 -0.10564939 -1.179696 -0.090779595 0.56311435
00000000: 7792 d5bf b9d9 a7bf 5b8c 8ebf 41b2 d2bf
00000010: 677c aebe 1a71 88be b2e0 a3bf 3525 59bf
00000020: 2503 83bf 3066 213f 728e e6bd 1697 0d3f
00000030: 9da5 22bf f942 dc3f 5646 1d3e 820d c7be
00000040: 6683 9bbf 41bd e3bf 1ed4 ea3e 40d1 203f
00000050: c510 953f 7d8d 05bf 5f2e a7bf 078b 703e
00000060: 79ac a93f 0c4c 03bf 5847 27c0 fc1d 77bf
00000070: 8540 0b3f 57fc 9abf e082 a5bf f1f1 54bf
00000080: 8805 cb3f af9d 9e3e d153 493f 42c3 fcbe
00000090: 6163 e83e 3a60 2dbe dd68 143e 514a 74be
000000a0: 829f 13bf a240 5f3f ac36 043f 6f44 72bf
000000b0: b50d 0240 dbe0 b2bf b383 b23f 9310 5e3c
000000c0: 6569 80bf 2c2d d83e fac8 1cbf 82f6 f93d
000000d0: bfa0 a43f 5ede 333f 7df5 413f fe34 a23f
000000e0: 7dda d13e 8875 a23f 4e72 0dbf a5c2 a6bf
000000f0: 8eba cf3f 1235 73bf 8433 4bc0 622d ffbd
00000100: 6a24 d43c f090 acbf 3f42 94bf b46f f0be
00000110: bd17 31be f89c bf3d a98d c63f 5ad3 6e3f
00000120: 1fe8 4abf d533 1f3f 3887 bfbe b1df 4ebf
00000130: e59c 8cbf 2b37 cbbe 4d8e 413f 46d4 9dbe
00000140: 3d37 a9bb 75a1 40be 7342 26bf 54d2 673e
00000150: aeab 70bf 2d60 bebe bebe 783e 6ac9 cb3e
00000160: c72a e0bd f008 43bf 105a c2bf 8f6c 9e3f
00000170: 8f38 a8bf 05bb 6dbf 279d d5bd 8688 1940
00000180: 88ec 7a3f 04fc 8c3f 5a80 453e ffbe 2fbf
00000190: ffc0 ca3f 04eb 1fbf 9dc2 aabf da3a 513f
000001a0: ec30 0040 87eb 0c3e 98b7 933e e69a 55be
000001b0: 1b39 05c0 e639 8bbf cf77 88bf 1ff8 90bf
000001c0: 9b36 b13f 1f5a 5cbf f2bd ac3f 3a1d 873f
000001d0: 9761 d2be 058f 433f 18ff 3c3f ba10 b33e
000001e0: c3eb 0940 46e1 283e 4967 52be 95b3 0c40
000001f0: 36dc 1ec0 0e39 1240 abe0 ff3e f50d 0d3f
00000200: 865d 363f 9764 e3bf bd2d b53e ed8c 993f
00000210: 7a22 9bbe 0784 e1bf 2d85 223f 7aea 4dbf
00000220: e938 cebf 0391 efbf 8707 0b3f 3c22 293f
00000230: bfe4 1240 a3c6 2c3f 1f4e db3f c0aa e5bf
00000240: 8a7f aebf 48b4 7bbf 3071 c13f a451 243f
00000250: 5028 f23e 2970 dbbe a226 0d3f 4010 c6bf
00000260: ffa2 043f 352f da3d edd9 893e ff91 a93f
00000270: 8e7d df3f a06f ed3f 9bd4 34bf 4da7 2340
00000280: 0ec7 d53e e8d2 59be 7d07 57bf 950c d7be
00000290: d8c0 1fbf 1430 7abf b3f5 5f3f 79be 7c3f
000002a0: ca80 9e3e f8a5 c23f 1b45 9a3f 4965 e8bf
000002b0: 8392 cebe 8a8a 75bf 63a5 aabb ff82 a1bd
000002c0: baf9 573f b335 953f 07e5 063f b143 cf3f
000002d0: 26c7 76bf b8ea 103e bd96 27be f368 b7be
000002e0: a673 dc3f 436e 9bbe 709b 743e 3b08 ac3f
000002f0: fe67 d33d 68d8 8c3f b5f0 aebe cd84 723f
00000300: 438a 11bf b46c 563f fe4e e43f 671d 48be
00000310: 8bd1 033f 257a ecbf e9ab 3ac0 883c 11bf
00000320: 5791 0abf 202a 653f fbeb 61bf c824 083f
00000330: 07dc c5bf 8275 31be 5a6e 3a3f d1b8 693d
00000340: facf 673f fdec 853f d845 05bf 8e69 ad3f
00000350: 78d6 703e ed05 f53f 850f eb3f 478a a93f
00000360: fc10 78bf 9f35 a03f e7eb 9a3f ce25 07bf
00000370: cecf 5f3e cd05 13bf 1383 ba3f adae e23f
00000380: 6030 d33f b42f ddbe 0ac4 8abe 7b36 b8bf
00000390: 059f 9f3f 8e0d a33f 802a c83e 7440 c63e
000003a0: 3d7d a3bd 7df6 ae3e 59e6 723f d024 b1bf
000003b0: dcae dc3f 5058 17c0 1ef3 6dbf 0e56 963e
000003c0: 924b 5c3e 283f 703f 4f9c bb3f 1b75 0ebf
000003d0: e3ad 3ebf 4d02 4fbe 102e 6bbe 3e80 ae3a
000003e0: 2a24 c03e dec0 14bf d582 12bf 6c3e 813f
000003f0: b55e d8bd 4700 97bf a7ea b9bd 4328 103f

conv1.weight f4 [16, 128, 5]
-0.06645735 -0.2307845 0.13583604 -0.12727647 -0.11750237 0.09121094 0.12594888 0.036542308
-0.16861235 -0.033991598 0.24680384 0.1871091 0.16602618 -0.22661181 -0.017578235 -0.0004608229
0.07642045 0.05201465 -0.0916627 -0.24834234 0.080407955 0.011985264 0.0032653117 0.16555096
0.05811077 -0.039701536 0.010538928 -0.19509695 0.05876394 0.16281949 0.11379271 -0.051949944
0.18062899 0.10189176 -0.05290912 0.0395075 -0.07632068 0.074767 0.023890743 0.0885843
0.008513129 0.0036639592 -0.23439234 -0.13529962 -0.010482505 0.017518384 0.11613624 -0.13988185
0.12340061 -0.09421234 0.22038051 0.1625849 0.08622294 -0.08125144 0.29911336 -0.044267867
-0.0984522 0.08674946 -0.015698701 0.06375955 -0.16999893 -0.11612245 0.058584403 -0.12679511
-0.058392223 0.091606095 0.26280427 0.06483788 0.02898204 -0.09264049 0.13456026 0.32586682
0.114185475 0.19515422 0.021449268 0.053919237 0.16276154 -0.080656186 -0.23830104 -0.08888153
0.04952349 0.059291676 -0.5441615 0.159794 0.026824078 0.10634652 0.07487167 0.08493252
-0.21557681 -0.04088992 -0.034179024 -0.10386824 0.019284856 0.1664194 -0.11278111 0.014495925
-0.010837351 0.16730134 0.06683902 -0.22983883 -0.11312238 -0.16324274 0.014943911 0.067927256
-0.16396953 -0.15184999 -0.10582818 0.21061975 -0.17376454 0.08778843 -0.09519082 -0.06825106
-0.11481218 0.04239736 -0.1589199 -0.12912035 0.014954769 0.125748 -0.09127054 -0.079439975
0.04159912 0.09646478 -0.14553793 0.19644138 0.037651416 -0.074358314 0.083082385 -0.17265491
0.07710277 -0.03171363 0.14656228 0.26156592 0.3311875 -0.14370534 -0.067792565 0.10373118
-0.21623148 0.19783123 0.05014147 -0.10964952 -0.15775597 -0.02479553 -0.0096641295 0.19060843
0.064196736 0.14741741 0.42483726 -0.07310772 -0.016177312 -0.20276959 -0.16345343 -0.03876863
0.15372682 -0.07025955 -0.18835641 0.07160266 -0.08254955 -0.29914904 -0.018882211 0.1258714
0.052119378 -0.10323065 0.17282507 0.18132316 -0.025108237 0.13271394 0.04275154 -0.0015766174
-0.029199807 0.08841269 0.11216677 -0.084818274 -0.083913825 0.11692911 -0.05043156 -0.048530716
-0.033948623 0.09791153 -0.11382373 -0.20731328 -0.012859559 -0.043537274 -0.0011428895 0.0122927725
0.06673109 0.082469635 -0.05168043 -0.06995035 -0.00041141617 0.12931111 -0.101910144 -0.2244319
0.17465037 0.232254 0.023630714 0.15149254 -0.08846645 0.04914672 0.056474097 -0.0077328156
0.049630616 -0.0590113 0.12598333 0.053945377 -0.12053778 0.14501841 0.20833796 0.12701906
0.098988615 -0.00019909789 0.06418582 0.16214007 -0.08762926 0.020206679 0.16440627 -0.06916608
0.1333098 -0.08673738 0.04473822 -0.12374525 -0.21191394 -0.10620553 -0.08774572 -0.009565982
-0.07786553 0.18803786 0.00038781494 -0.28960937 -0.010474933 0.08771694 0.11750721 -0.078820325
-0.21614797 -0.002109734 -0.018460218 0.0016449827 -0.071455285 -0.08356669 0.22749443 0.070937134
-0.21831033 -0.22784941 0.020117743 0.021048449 -0.09585246 0.19232714 0.091379784 0.24101424
0.23839547 0.16058159 -0.14973299 0.00034700625 -0.05943499 -0.0626129 0.0059447894 -0.11455655
00000000: cb1a 88bd c652 6cbe 9a18 0b3e c354 02be
00000010: 15a5 f0bd cdcc ba3d bef8 003e 63ad 153d
00000020: b7a8 2cbe c63a 0bbd 25ba 7c3e 8799 3f3e
00000030: c402 2a3e ed0c 68be 3b00 90bc 9a9a f1b9
00000040: 5382 9c3d 500d 553d a7b9 bbbd 744d 7ebe
00000050: edac a43d d75d 443c d7fe 553b 3186 293e
00000060: 8f05 6e3d 149e 22bd 78ab 2c3c 7fc7 47be
00000070: 75b2 703d 27ba 263e 270c e93d 77c9 54bd
00000080: cef6 383e a1ac d03d 3cb7 58bd 9ed2 213d
00000090: 044e 9cbd 711f 993d 85b6 c33c af6b b53d
000000a0: a77a 0b3c 091f 703b 8c04 70be fc8b 0abe
000000b0: d0be 2bbc b782 8f3c d6d8 ed3d 303d 0fbe
000000c0: 76b9 fc3d 66f2 c0bd 6eab 613e a87c 263e
000000d0: a795 b03d 2867 a6bd 6325 993e 3952 35bd
000000e0: 4fa1 c9bd b3a9 b13d 909a 80bc 5e94 823d
000000f0: 3314 2ebe 9bd1 edbd 33f6 6f3d 94d6 01be
00000100: af2c 6fbd fa9b bb3d 488e 863e b9c9 843d
00000110: be6b ed3c 4cba bdbd 2aca 093e 04d8 a63e
00000120: 13da e93d 82d6 473e 60b6 af3c 6bda 5c3d
00000130: f6aa 263e 122f a5bd 3005 74be 8507 b6bd
00000140: 25d9 4a3d d4db 723d 2b4e 0bbf 0aa1 233e
00000150: 2bbe db3c 34cc d93d 5156 993d 1af1 ad3d
00000160: 2bc0 5cbe 307c 27bd 4eff 0bbd dfb8 d4bd
00000170: 46fb 9d3c d969 2a3e c8f9 e6bd 5180 6d3c
00000180: 258f 31bc 0b51 2b3e e5e2 883d df5a 6bbe
00000190: b5ac e7bd 1b29 27be 4ed7 743c 721d 8b3d
000001a0: a1e7 27be 907e 1bbe 72bc d8bd b4ac 573e
000001b0: 55ef 31be 6cca b33d 68f3 c2bd 36c7 8bbd
000001c0: a622 ebbd dba8 2d3d e6bb 22be 2038 04be
000001d0: d904 753c 15c4 003e 0dec babd 6db1 a2bd
000001e0: d763 2a3d 548f c53d e507 15be ee27 493e
000001f0: 5f38 1a3d 2c49 98bd 1927 aa3d 73cc 30be
00000200: 0fe8 9d3d 27e6 01bd 6c14 163e f8eb 853e
00000210: 6891 a93e 7e27 13be d4d6 8abd 0371 d43d
00000220: c96b 5dbe 4594 4a3e 2461 4d3d ed8f e0bd
00000230: c88a 21be ff1f cbbc 4c56 1ebc db2e 433e
00000240: 9479 833d 97f4 163e 4584 d93e 80b9 95bd
00000250: 4886 84bc d5a2 4fbe 5660 27be dbcb 1ebd
00000260: 906a 1d3e 3de4 8fbd 81e0 40be 6aa4 923d
00000270: bd0f a9bd 102a 99be deae 9abc 6fe4 003e
00000280: 217b 553d 976a d3bd 0ef9 303e c7ac 393e
00000290: caaf cdbc 2ae6 073e 3d1c 2f3d 80a6 ceba
000002a0: 6f34 efbc b611 b53d b1b7 e53d 34b5 adbd
000002b0: 03db abbd 8778 ef3d 5391 4ebd 25c8 46bd
000002c0: b60d 0bbd d785 c83d 6a1c e9bd ef49 54be
000002d0: e6b0 52bc 2454 32bd 02cd 95ba a067 493c
000002e0: 4faa 883d d7e5 a83d dcae 53bd 2142 8fbd
000002f0: 58b3 d7b9 226a 043e 44b6 d0bd 7ad1 65be
00000300: 8cd7 323e fed3 6d3e 3395 c13c dc20 1b3e
00000310: e62d b5bd 124e 493d 6251 673d 8f63 fdbb
00000320: 7949 4b3d d5b5 71bd c601 013e d4f5 5c3d
00000330: 83dc f6bd b57f 143e 8c56 553e 4911 023e
00000340: 8bba ca3d efc4 50b9 db73 833d 0c08 263e
00000350: f876 b3bd 7a88 a53c 1e5a 283e f2a6 8dbd
00000360: 5d82 083e 5ea3 b1bd 6c3f 373d 266e fdbd
00000370: f8ff 58be 4982 d9bd 07b4 b3bd a3ba 1cbc
00000380: f777 9fbd ff8c 403e a453 cb39 ae47 94be
00000390: 0e9f 2bbc f0a4 b33d 9fa7 f03d 8d6c a1bd
000003a0: e555 5dbe 7743 0abb e239 97bc 769c d73a
000003b0: 2657 92bd 0325 abbd 4df4 683e 7d47 913d
000003c0: be8c 5fbe 5b51 69be f7cd a43c cc6d ac3c
000003d0: 4b4e c4bd 68f1 443e 5325 bb3d 70cc 763e
000003e0: f11d 743e 806f 243e 9b53 19be 64ee b539
000003f0: 1b72 73bd 313b 80bd 82cc c23b a09c eabd

conv1.bias f4 [16]
-0.3308613 -0.23117027 -0.24551173 -0.5677581 0.053087704 -0.4079665 -0.5577845 -0.1015139
-0.110347405 -0.34797814 -0.39054525 -0.14261949 -0.22544841 0.14705005 -0.15986072 -0.42549092
00000000: a766 a9be e6b7 6cbe 6d67 7bbe 9858 11bf
00000010: 7e72 593d fce0 d0be f7ca 0ebf 85e6 cfbd
00000020: d2fd e1bd 312a b2be 8cf5 c7be d80a 12be
00000030: f3db 66be 4a94 163e 87b2 23be f2d9 d9be

conv2.weight f4 [16, 128, 3]
0.06323144 -0.11493923 0.09998397 -0.12809323 -0.0469104 -0.20503952 0.21750827 -0.03154468
-0.14133032 -0.07122619 -0.08902441 0.0033010496 0.0060945693 -0.16306624 0.099397756 -0.06626794
0.2217678 -0.11019991 0.17297845 0.009970681 0.08427818 -0.0329576 -0.24048932 0.19884777
-0.13043632 -0.15850276 -0.29109392 -0.089817554 -0.099455275 -0.07021028 -0.169145 -0.26220816
0.04176631 0.07267306 -0.075138986 0.11371001 0.034305617 0.1725709 0.30515793 0.18612038
0.08511257 0.15060492 -0.12856692 -0.21184215 -0.3076261 -0.07216988 -0.095827326 0.0631328
-0.24256116 0.0003744753 -0.07834588 0.03243546 0.03577577 -0.09648722 -0.13967286 0.20598519
-0.23914245 0.06730006 -0.12575212 -0.011688012 0.07219139 -0.0024410847 0.0020455448 0.009652631
-0.0013886978 -0.120762736 0.10601516 0.06574532 -0.31567478 0.20311506 0.0871224 0.025039596
0.050116085 0.09501164 -0.032488517 -0.050855648 0.05589524 -0.15614708 0.055320263 0.03564141
-0.1880994 0.071005076 -0.04874876 0.102325015 -0.014434766 0.060699794 0.083739504 -0.033441085
0.020510076 -0.22736374 -0.010030544 0.33407658 -0.032368507 -0.13489231 -0.067844555 0.02616982
-0.08327616 0.0031068097 -0.19124606 -0.09266477 -0.016892124 -0.072238036 0.22197388 -0.10780365
0.07909193 -0.008381777 -0.067697726 0.09519108 0.03239751 -0.09146336 0.22265683 -0.08161436
-0.110173024 -0.024260709 0.20125738 0.28399387 -0.1604802 -0.18735692 -0.33081377 -0.00919641
0.062430248 0.110046156 -0.04416912 0.01940477 0.016125036 -0.0006191638 -0.16875648 -0.033896
-0.11642616 0.16592087 -0.01474478 -0.0513749 -0.07798861 0.051831376 -0.059948806 -0.15972978
0.0069919056 -0.159753 -0.09430841 -0.061618537 -0.32738256 -0.16302122 -0.0042081815 0.014618837
0.06818164 -0.003706494 -0.0679643 -0.1796925 -0.13377303 0.012499394 0.023589583 -0.027324995
-0.15883173 -0.11412215 0.13630332 -0.16249713 -0.005772776 0.046799775 -0.13029586 -0.05537808
0.016333507 0.056529958 0.094260454 0.0654417 -0.037454717 -0.023189923 0.054201767 0.11140429
-0.26860118 0.045653243 0.12658207 -0.05241518 0.014461603 -0.11422144 -0.21744794 0.2893003
-0.07960983 0.09271729 0.08294258 0.17513326 -0.2012913 -0.08483589 -0.12118692 0.014587192
0.15964465 0.002487006 -0.0897517 -0.068850055 0.19986533 0.14017594 -0.105799325 0.3137548
-0.11255274 -0.20198084 -0.07558815 -0.10284315 -0.20390834 0.06552538 0.19999854 0.18758176
-0.021799305 -0.07596386 0.06554731 0.013317783 0.058370113 0.20424673 0.05943354 0.07966109
0.17302112 -0.05175774 0.14811742 -0.055383157 0.049548242 -0.13046195 0.10508863 0.030026605
0.14211725 0.50432664 -0.10332983 -0.07551751 -0.47971606 0.015371842 0.0574914 -0.033070967
0.16990417 0.17456408 -0.21279977 0.31772655 -0.12434877 0.11207798 0.09989167 0.18239525
0.08284537 0.049117796 0.09422741 0.03041252 0.06306735 0.09380527 0.08890425 0.18073805
0.007046696 -0.030485272 0.097219385 -0.14543192 -0.16794044 0.008162606 -0.096086554 0.061349865
-0.01793774 0.117270395 0.11286792 0.04315193 0.058179338 -0.1135081 0.0840878 0.06374478
00000000: 7c7f 813d 4265 ebbd 65c4 cc3d df2a 03be
00000010: 1f25 40bd e1f5 51be 7dba 5e3e ff34 01bd
00000020: e5b8 10be 09df 91bd 6e52 b6bd 6c56 583b
00000030: f4b4 c73b d6fa 26be 0d91 cb3d 7cb7 87bd
00000040: 1917 633e 7eb0 e1bd 4321 313e 115c 233c
00000050: 0a9a ac3d 8cfe 06bd d542 76be c09e 4b3e
00000060: 1991 05be 8c4e 22be 430a 95be 44f2 b7bd
00000070: 35af cbbd 68ca 8fbd 5934 2dbe 2640 86be
00000080: 2613 2b3d 9dd5 943d 78e2 99bd cbe0 e83d
00000090: 0c84 0c3d 6db6 303e a93d 9c3e 5796 3e3e
000000a0: 804f ae3d 2d38 1a3e 0ca7 03be 26ed 58be
000000b0: 2b81 9dbe cdcd 93bd 1e41 c4bd c54b 813d
000000c0: f461 78be 3955 c439 ce73 a0bd 0bdb 043d
000000d0: 9d89 123d 179b c5bd 6706 0fbe c8ed 523e
000000e0: c2e1 74be 9dd4 893d 2ac5 00be 137f 3fbc
000000f0: 14d9 933d 9bfa 1fbb 8c0e 063b 1226 1e3c
00000100: f704 b6ba 7452 f7bd 7a1e d93d 7ba5 863d
00000110: 20a0 a1be 65fd 4f3e 3b6d b23d d71f cd3c
00000120: 8646 4d3d 7695 c23d ae12 05bd 034e 50bd
00000130: 68f2 643d 05e5 1fbe 8097 623d bafc 113d
00000140: 219d 40be 1c6b 913d c8ac 47bd c78f d13d
00000150: cc7f 6cbc 59a0 783d 9e7f ab3d 85f9 08bd
00000160: bf04 a83c 0ad2 68be 2757 24bc 160c ab3e
00000170: d794 04bd 3621 0abe 16f2 8abd 1762 d63c
00000180: b18c aabd 9e9b 4b3b 02d6 43be 07c7 bdbd
00000190: 5a61 8abc 89f1 93bd 1f4d 633e 29c8 dcbd
000001a0: f3fa a13d b953 09bc 1ba5 8abd 8af3 c23d
000001b0: 40b3 043d 2451 bbbd 2700 643e 6e25 a7bd
000001c0: 65a2 e1bd 65be c6bc 6a16 4e3e a567 913e
000001d0: ec54 24be 7eda 3fbe 6c60 a9be 8aac 16bc
000001e0: dcb6 7f3d e15f e13d aeea 34bd c1f6 9e3c
000001f0: a718 843c 614f 22ba 80ce 2cbe 88d6 0abd
00000200: d770 eebd 29e7 293e 1794 71bc 7d6e 52bd
00000210: 7eb8 9fbd 234d 543d e18c 75bd 3490 23be
00000220: 5b1c e53b 4a96 23be c524 c1bd b863 7cbd
00000230: b09e a7be 09ef 26be c9e4 89bb d983 6f3c
00000240: d1a2 8b3d a7e8 72bb de30 8bbd 5001 38be
00000250: ccfb 08be 42ca 4c3c f13e c13c abd8 dfbc
00000260: c9a4 22be e0b8 e9bd 1993 0b3e a665 26be
00000270: 8e29 bdbb 1fb1 3f3d 476c 05be 20d4 62bd
00000280: d9cd 853c f58b 673d a00b c13d 4c06 863d
00000290: 1e6a 19bd cbf8 bdbc ac02 5e3d ef27 e43d
000002a0: 1886 89be e5fe 3a3d bb9e 013e 4db1 56bd
000002b0: 5cf0 6c3c eeec e9bd acaa 5ebe 2b1f 943e
000002c0: 7b0a a3bd 90e2 bd3d cddd a93d 2256 333e
000002d0: 4e1f 4ebe 70be adbd d930 f8bd 1eff 6e3c
000002e0: e379 233e 09fd 223b bdcf b7bd 4201 8dbd
000002f0: 7fa9 4c3e 488a 0f3e 51ad d8bd 78a4 a03e
00000300: 0d82 e6bd 11d4 4ebe f6cd 9abd 6e9f d2bd
00000310: 59cd 50be 2c32 863d 6bcc 4c3e 6f15 403e
00000320: 7594 b2bc f192 9bbd ab3d 863d d532 5a3c
00000330: 8015 6f3d 0e26 513e 9570 733d 5b25 a33d
00000340: 732c 313e edff 53bd 18ac 173e 73d9 62bd
00000350: 19f3 4a3d d197 05be b538 d73d 5bfa f53c
00000360: 2f87 113e 8d1b 013f 979e d3bd eda8 9abd
00000370: 589d f5be 2eda 7b3c 1a7c 6b3d 6c75 07bd
00000380: 5cfb 2d3e edc0 323e 2fe8 59be 0ead a23e
00000390: 91aa febd 2489 e53d 0194 cc3d d2c5 3a3e
000003a0: d5aa a93d be2f 493d 4dfa c03d ad23 f93c
000003b0: 7429 813d fa1c c03d 6e13 b63d 6513 393e
000003c0: f8e7 e63b 40bc f9bc f51a c73d 1bec 14be
000003d0: 94f8 2bbe 73bc 053c 07c9 c4bd ff49 7b3d
000003e0: 2bf2 92bc 762b f03d 4c27 e73d 14c0 303d
000003f0: 754d 6e3d ef76 e8bd 3936 ac3d a08c 823d

conv2.bias f4 [16]
-0.3810051 -0.4359463 -0.36797714 -0.60167545 -0.22228512 -0.45752642 -0.52650857 -0.5085617
-0.26013756 -0.6572632 -0.7888422 -0.48569503 -0.22629397 -0.09303475 0.33511043 -0.52445805
00000000: 1a13 c3be 5a34 dfbe 8067 bcbe 6707 1abf
00000010: b69e 63be e740 eabe 44c9 06bf 1931 02bf
00000020: c030 85be 6742 28bf 90f1 49bf 05ad f8be
00000030: 9bb9 67be 0189 bebd 9893 ab3e e242 06bf

conv3.weight f4 [256, 32, 5]
0.04820861 0.03895424 -0.19761068 -0.32163435 0.24552818 -0.0020762153 -0.052533228 -0.012600147
-0.43185884 -0.5370383 0.08830086 -0.062107094 0.077922285 -0.1334423 -0.15273081 -0.0024398644
0.061629 -0.08736483 0.07580467 -0.011578827 -0.019922484 0.0786455 0.12518908 -0.03125115
-0.2134509 -0.0065692617 0.059634052 -0.11809946 0.024061933 -0.41502726 -0.100954406 -0.042741213
-0.34786242 0.09186694 -0.2210652 0.087908775 -0.1980938 -0.027638968 -0.56788266 -0.28285137
-0.13721624 -0.042939294 -0.25871396 -0.41620192 -0.5642665 0.08356716 0.030181719 -0.054381955
0.14624892 -0.32311115 0.08368801 -0.025591388 -0.009809626 -0.038428947 -0.30211797 -0.0051119532
0.11258435 -0.37630877 -0.43795076 0.15125458 -0.04623296 0.08014715 -0.3338017 -0.32836446
0.25027272 -0.13107394 -0.07857011 -0.2963675 -0.59837437 -0.07363978 0.06830552 0.027171321
-0.04395486 -0.045192633 -0.13611625 -0.014219228 -0.0869775 0.07513624 -0.18787044 -0.2978863
0.0017073886 0.081919454 -0.7698094 -0.22352423 -0.525168 0.06913172 0.27124774 -0.4927199
-0.862817 0.105678454 0.053312495 0.015896335 0.045756627 0.04996314 -0.3454068 0.04529225
-0.057615392 0.09584122 -0.5363874 -0.40060025 0.08276703 -0.3025758 0.13070054 -0.35551634
-0.33121645 0.12347378 0.103917226 0.090244636 -0.75865746 -0.19840513 -0.024061473 0.03409026
-0.08206801 -0.6289041 -0.1171317 0.029363995 -0.04156306 0.06026316 0.0017924962 -0.45563543
-0.1185703 -0.033050854 -0.24463145 -0.073303945 -0.22194323 0.07589365 0.09091033 -0.40862152
-0.3015589 -0.02028793 -0.11970259 0.07391738 0.022442888 -0.7776096 -0.41493496 0.024286266
0.097542234 0.3770697 -0.6663378 -0.29188904 -0.05344123 0.08630909 -0.32757786 -0.74054754
-0.36491588 0.054335073 -0.011426811 -0.43087453 -0.26956275 0.3944332 0.17399749 0.045856524
-0.39358002 -0.7274198 -0.38340044 0.08336199 -0.014487372 -0.3942551 -0.0041825613 0.12717506
-0.065214925 -0.56834763 -0.5312038 0.028520381 -0.16505575 -0.07696743 -0.15854922 -0.09093445
-0.09801543 -0.0034768316 -0.21711276 -0.04293079 -0.24408269 -0.41244528 0.0884444 -0.08608128
0.010716986 -0.06217457 0.093208976 -0.08711355 0.040109005 -0.19457322 -0.36894974 -0.13471362
0.074934945 -0.24165757 -0.31243452 0.09425761 -0.037666794 0.061007157 0.39969647 0.0560647
0.12625265 -0.054775048 0.098206855 -0.037175294 0.03696544 -0.2165998 0.09543885 -0.09794341
-0.12924255 0.028823953 -0.008701723 -0.2760243 -0.31385222 -0.37623066 0.061283536 -0.18161085
-0.17741288 -0.02362246 -0.10801767 -0.20968659 -0.15676552 0.015279505 -0.17726937 0.13906443
-0.07952219 -0.06341044 0.11402223 -0.028971897 0.19239627 -0.3460006 -0.09366084 -0.19035968
-0.048279554 0.030562732 0.03132742 -0.31558925 -0.046452396 0.030214043 -0.35875094 -0.36702377
-0.22163829 -0.05539076 0.035577215 0.10408153 -0.019368447 -0.63694495 -0.39341894 -0.10531122
0.044701543 -0.2990719 0.007058408 -0.24757555 -0.059316486 -0.23923379 -0.15167207 0.08251821
-0.0383279 -0.11842015 -0.4817052 0.06966198 -0.09032485 -0.058319148 0.14836144 -0.034684975
00000000: 6476 453d 7b8e 1f3d 745a 4abe 42ad a4be
00000010: bd6b 7b3e 1d11 08bb 152d 57bd d970 4ebc
00000020: 9a1c ddbe 587b 09bf 15d7 b43d 0264 7ebd
00000030: b895 9f3d 19a5 08be 7765 1cbe 22e6 1fbb
00000040: b16e 7c3d 55ec b2bd 7b3f 9b3d 1fb5 3dbc
00000050: 7a34 a3bc e410 a13d 9131 003e 3501 00bd
00000060: df92 5abe f642 d7bb d642 743d 21de f1bd
00000070: 881d c53c 747e d4be 2fc1 cebd 6911 2fbd
00000080: 061b b2be bc24 bc3d ea5e 62be 8409 b43d
00000090: 1ad9 4abe 1e6b e2bc c260 11bf e5d1 90be
000000a0: 6a82 0cbe 1de1 2fbd 2876 84be 6b18 d5be
000000b0: c573 10bf 4225 ab3d a73f f73c 9dbf 5ebd
000000c0: 47c2 153e d36e a5be 9f64 ab3d 08a5 d1bc
000000d0: 8eb8 20bc ac67 1dbd 35af 9abe 2c82 a7bb
000000e0: a092 e63d 8bab c0be 153b e0be 7be2 1a3e
000000f0: c65e 3dbd 3024 a43d 0ee8 aabe 631f a8be
00000100: bf23 803e 3f38 06be 5ee9 a0bd 7bbd 97be
00000110: 102f 19bf 74d0 96bd c4e3 8b3d 6496 de3c
00000120: 030a 34bd e91b 39bd 0f62 0bbe c4f7 68bc
00000130: 4221 b2bd 07e1 993d 1c61 40be 8e84 98be
00000140: 74ca df3a 63c5 a73d 3b12 45bf 89e3 64be
00000150: 6971 06bf ee94 8d3d fce0 8a3e c845 fcbe
00000160: 93e1 5cbf f26d d83d 345e 5a3d 0839 823c
00000170: 4d6b 3b3d 26a6 4c3d 29d9 b0be 5e84 393d
00000180: 1efe 6bbd 6748 c43d af50 09bf 7a1b cdbe
00000190: c381 a93d 37eb 9abe 5dd6 053e 3d06 b6be
000001a0: 3495 a9be d2df fc3d 8ed2 d43d 2ed2 b83d
000001b0: 6037 42bf b72a 4bbe 911c c5bc 3aa2 0b3d
000001c0: 4613 a8bd dcff 20bf bfe2 efbd c38c f03c
000001d0: 073e 2abd 81d6 763d 31f2 ea3a 0c49 e9be
000001e0: fcd4 f2bd 5560 07bd ab80 7abe 6120 96bd
000001f0: 1645 63be 216e 9b3d 322f ba3d d736 d1be
00000200: ee65 9abe df32 a6bc a226 f5bd ff61 973d
00000210: 26da b73c 6c11 47bf 5b72 d4be fef3 c63c
00000220: 39c4 c73d 480f c13e 1d95 2abf 7b72 95be
00000230: 31e5 5abd d2c2 b03d 49b8 a7be 8694 3dbf
00000240: 41d6 babe 748e 5e3d 8537 3bbc 969b dcbe
00000250: 2104 8abe 26f3 c93e 662c 323e 0dd4 3b3d
00000260: 5283 c9be 2f38 3abf 104d c4be b1b9 aa3d
00000270: 715c 6dbc cedb c9be de0d 89bb 2e3a 023e
00000280: 678f 85bd 3b7f 11bf f9fc 07bf 93a3 e93c
00000290: 6004 29be 1aa1 9dbd ba5a 22be d73b babd
000002a0: 50bc c8bd 8edb 63bb cf52 5ebe 32d8 2fbd
000002b0: d0f0 79be 072c d3be 5622 b53d 624b b0bd
000002c0: 4c96 2f3c c3aa 7ebd 59e4 be3d 9768 b2bd
000002d0: 5749 243d 343e 47be fbe6 bcbe 5ef2 09be
000002e0: 7e77 993d 1575 77be 6bf7 9fbe 220a c13d
000002f0: 7f48 1abd a4e2 793d 04a5 cc3e 19a4 653d
00000300: 6048 013e cd5b 60bd ad20 c93d 1f45 18bd
00000310: 1369 173d 57cc 5dbe 7275 c33d 8e96 c8bd
00000320: 2958 04be 3620 ec3c ac91 0ebc 0f53 8dbe
00000330: 3db1 a0be 4ea1 c0be 7204 7b3d 32f8 39be
00000340: b9ab 35be e483 c1bc 5e38 ddbd 15b8 56be
00000350: 2487 20be e456 7a3c 1a86 35be e866 0e3e
00000360: 88dc a2bd 55dd 81bd 7d84 e93d 7956 edbc
00000370: 8703 453e fe26 b1be 41d1 bfbd a6ed 42be
00000380: c8c0 45bd b25e fa3c 2e51 003d ea94 a1be
00000390: de44 3ebd 7183 f73c 34ae b7be 8aea bbbe
000003a0: 26f5 62be 6ce1 62bd 6ab9 113d b228 d53d
000003b0: 94aa 9ebc d30e 23bf 356e c9be 69ad d7bd
000003c0: f718 373d f41f 99be 384a e73b 7284 7dbe
000003d0: d8f5 72bd b4f9 74be ec4f 1bbe 4fff a83d
000003e0: b7fd 1cbd 4386 f2bd 10a2 f6be f1aa 8e3d
000003f0: 3cfc b8bd 0fe0 6ebd 10ec 173e d511 0ebd

conv3.bias f4 [256]
0.10350268 0.30185917 0.035443332 0.5629229 0.19281392 0.07817693 0.17397478 -0.13683511
-0.23174058 -0.15721786 -0.18496166 0.11505197 -0.34954438 -0.07731635 -0.34881476 0.30470115
-0.09432411 -0.3298083 0.38798103 0.13706847 -0.2875524 -0.18844225 -0.047367327 -0.2818918
-0.25580665 -0.0040983334 -0.06435719 -0.19577397 -0.3312309 -0.028403522 0.0036403956 -0.072035566
-0.3768974 0.19270596 -0.14184056 0.2206169 -0.111435756 0.047486875 -0.28328803 -0.17633769
0.16050324 -0.047848094 -0.015183539 -0.05154383 -0.23376337 -0.35127488 -0.23283087 0.044678934
0.04828333 -0.4819038 -0.05205369 -0.29081807 -0.016763106 -0.2539256 -0.027777987 -0.23565555
0.080056004 -0.27301532 -0.07722292 0.6702477 0.38872942 0.5073367 0.20327362 0.26474693
0.17179549 -0.10007653 -0.16320175 -0.18514524 -0.054252185 0.18599316 0.4775468 -0.14401275
-0.07985589 0.078440584 -0.12200522 0.22843266 -0.28339413 -0.11257728 0.060971174 -0.2319421
-0.20108388 0.17845592 -0.026319431 -0.14409772 -0.16727719 -0.07290038 -0.18475637 -0.20289786
0.011612744 -0.08809042 -0.26941818 -0.20773412 -0.08818977 0.24544258 0.1920131 -0.25307083
-0.09128989 -0.37327692 0.30664948 0.08558336 0.119494766 -0.10618867 -0.05573674 0.17247838
0.37810272 0.03901465 0.07528612 -0.38313815 -0.057468925 -0.35268143 0.10191635 0.23361501
-0.12722392 0.122866936 0.41168746 0.31569567 0.19339553 0.31278995 -0.10534052 -0.29671422
-0.2182382 0.5029927 0.28597376 -0.116305284 -0.15153477 0.13787314 -0.17547263 0.5418459
-0.031606548 0.5595028 0.3245783 -0.12903821 0.061336625 -0.08138971 -0.01739532 -0.26584867
-0.10346493 0.036769085 0.52634716 -0.09292658 0.17497043 0.15998058 0.06728685 0.13175653
0.112605505 0.08395697 -0.1327635 -0.026569182 -0.30963874 0.31827962 0.24886549 -0.18971908
0.18175785 0.57526624 -0.26257432 0.16020551 0.52026546 0.1960955 0.17640033 -0.12133654
0.022649765 -0.118617125 0.12549551 -0.11490351 0.14168818 -0.08708243 0.14308907 -0.13130528
-0.14182203 -0.4701192 -0.20498109 0.46679538 -0.29487982 -0.3057238 -0.08205449 0.27317995
0.2346896 0.13448925 0.17954905 -0.3770601 -0.19263552 -0.07598205 -0.014510943 0.011788048
0.6281742 -0.24809647 0.084453836 -0.3148643 -0.20808305 -0.21197648 0.47852552 0.14379251
0.21662 0.028564412 -0.28639165 -0.33850437 -0.032568455 -0.29183733 -0.032643437 -0.21234491
-0.18841054 -0.3450945 -0.017829675 -0.21319635 -0.30427995 0.63129085 -0.026572315 -0.15226018
-0.3539636 -0.07436294 -0.08860779 -0.33913276 -0.11388476 0.14889413 -0.31555694 -0.1839088
-0.23463047 0.14605749 0.4880767 -0.23359708 -0.31318483 -0.10331067 -0.24682708 -0.36210778
0.29910982 -0.24462578 0.0054471157 -0.14360748 -0.06304163 -0.24178171 -0.23097812 -0.02253013
-0.38538122 -0.30280253 0.37397683 -0.10830397 0.029512221 0.35306236 0.21038339 -0.13993351
-0.17821264 0.18574242 0.04141839 -0.03323036 -0.32126206 0.08378126 -0.20891978 0.5486715
-0.16946203 0.13703766 -0.0976198 -0.015577816 0.0021320374 -0.3417856 0.0066629867 -0.35532665
00000000: 37f9 d33d 498d 9a3e 072d 113d b71b 103f
00000010: 0371 453e 3a1b a03d 7226 323e 811e 0cbe
00000020: 674d 6dbe b8fd 20be 9766 3dbe 5ea0 eb3d
00000030: 7bf7 b2be 0958 9ebd d997 b2be ca01 9c3e
00000040: 002d c1bd a2dc a8be 73a5 c63e ad5b 0c3e
00000050: 113a 93be 01f7 40be 3e04 42bd 1f54 90be
00000060: 17f9 82be 504b 86bb b4cd 83bd f978 48be
00000070: 1997 a9be 81ae e8bc b493 6e3b 6287 93bd
00000080: b2f8 c0be b654 453e a73e 11be 66e9 613e
00000090: 6e38 e4bd 9981 423d 210b 91be de91 34be
000000a0: f65a 243e 5dfc 43bd 61c4 78bc a01f 53bd
000000b0: aa5f 6fbe 4dda b3be 376b 6ebe 4201 373d
000000c0: bec4 453d 18bc f6be 4036 55bd 1be6 94be
000000d0: c852 89bc 8902 82be a98e e3bc b04f 71be
000000e0: 67f4 a33d aac8 8bbe 0d27 9ebd 5a95 2b3f
000000f0: 8b07 c73e d1e0 013f f626 503e e98c 873e
00000100: 28eb 2f3e ecf4 ccbd 5c1e 27be b796 3dbe
00000110: 8a37 5ebd fe74 3e3e 0481 f43e 1478 13be
00000120: 7c8b a3bd 75a5 a03d dfdd f9bd 40ea 693e
00000130: 0919 91be eb8e e6bd e9bc 793d 3b82 6dbe
00000140: efe8 4dbe 26bd 363e d99b d7bc 5a8e 13be
00000150: b64a 2bbe cb4c 95bd c630 3dbe 75c4 4fbe
00000160: 6143 3e3c c068 b4bd 2ef1 89be 41b8 54be
00000170: d79c b4bd 4d55 7b3e 159f 443e 8092 81be
00000180: 32f6 babd 271e bfbe 2901 9d3e 5446 af3d
00000190: acb9 f43d 7279 d9bd 354c 64bd 2c9e 303e
000001a0: ae96 c13e d3cd 1f3d 9c2f 9a3d af2a c4be
000001b0: 8964 6bbd a992 b4be 85b9 d03d c638 6f3e
000001c0: fd46 02be a9a1 fb3d b3c8 d23e dda2 a13e
000001d0: 7a09 463e 0126 a03e c5bc d7bd edea 97be
000001e0: d679 5fbe 21c4 003f 276b 923e 7731 eebd
000001f0: ee2b 1bbe 9e2e 0d3e 19af 33be 6ab6 0a3f
00000200: de75 01bd 933b 0f3f 202f a63e 9822 04be
00000210: 1d3c 7b3d a6af a6bd a180 8ebc 511d 88be
00000220: 6ce5 d3bd 2e9b 163d b0be 063f 4a50 bebd
00000230: 732b 333e f3d1 233e b0cd 893d 2feb 063e
00000240: b79d e63d a2f1 ab3d 28f3 07be 9da7 d9bc
00000250: f888 9ebe 8cf5 a23e 98d6 7e3e b845 42be
00000260: bb1e 3a3e a644 133f 2470 86be ea0c 243e
00000270: 1e30 053f 42cd 483e 4aa2 343e 4b7f f8bd
00000280: 008c b93c 89ed f2bd e581 003e 8852 ebbd
00000290: b516 113e 4658 b2bd f185 123e e474 06be
000002a0: cb39 11be 77b3 f0be 90e6 51be ceff ee3e
000002b0: 7dfa 96be d487 9cbe 2f0c a8bd 3ede 8b3e
000002c0: 7852 703e 8db7 093e b5db 373e 050e c1be
000002d0: 3f42 45be 7a9c 9bbd 4ebf 6dbc a822 413c
000002e0: 06d0 203f 000d 7ebe 22f6 ac3d e535 a1be
000002f0: b913 55be 5d10 59be 4c01 f53e 583e 133e
00000300: a2d1 5d3e eaff e93c eda1 92be 7250 adbe
00000310: 8066 05bd b46b 95be 20b5 05bd f270 59be
00000320: b1ee 40be 3ab0 b0be 8a0f 92bc 2550 5abe
00000330: 95ca 9bbe 479c 213f 2fae d9bc 18ea 1bbe
00000340: b83a b5be 994b 98bd 0078 b5bd cfa2 adbe
00000350: 6a3c e9bd b477 183e ae90 a1be 9752 3cbe
00000360: f842 70be 1890 153e 30e5 f93e 1334 6fbe
00000370: c359 a0be 8b94 d3bd 3dc0 7cbe 3166 b9be
00000380: ec24 993e 2e7f 7abe b87d b23b d70d 13be
00000390: f81b 81bd a095 77be 8785 6cbe 1b91 b8bc
000003a0: b050 c5be ef08 9bbe e479 bf3e 79ce ddbd
000003b0: 9dc3 f13c 97c4 b43e be6e 573e bb4a 0fbe
000003c0: 607d 36be 4333 3e3e 54a6 293d 8f1c 08bd
000003d0: 767c a4be 8295 ab3d 11ef 55be bc75 0c3f
000003e0: 7487 2dbe 9a53 0c3e e4ec c7bd 193a 7fbc
000003f0: a7b9 0b3b 86fe aebe 2f55 da3b 60ed b5be

fc.weight f4 [12, 256]
0.078291565 -0.0153335845 0.021846185 -0.21626218 -0.04688188 0.12954211 -0.0012116374 0.13408071
-0.0266368 -0.011589466 -0.056617405 -0.2659013 0.008235465 0.039944217 0.028039668 -0.06924261
0.030512024 0.04020075 -0.08914863 -0.07220853 0.02024669 0.05749459 -0.05634667 0.041536465
-0.009545676 -0.032769464 0.010308793 -0.006200608 0.040915806 -0.055802893 0.02252263 0.12741348
0.040380266 -0.08554418 0.018910442 0.028934164 0.02838934 0.04627918 0.0025849328 0.099707104
-0.03455139 -0.0057285544 -0.018836632 -0.056387283 -0.11288458 0.024433307 -0.011329981 -0.02512231
0.100949235 0.02217625 0.042973734 0.03361862 -0.11872371 -0.02098022 0.015383558 0.042330913
0.015098798 -0.09450034 0.051345747 -0.35437667 -0.01783878 0.026466476 -0.07111805 0.019521689
-0.11405484 0.040412996 -0.02967164 0.115387015 0.04185536 0.021837983 -0.247091 -0.13325572
0.058248404 -0.116286084 -0.055536237 0.020981941 0.017911768 -0.044977926 -0.02047608 0.04058954
0.022681085 0.024697883 0.050054457 -0.020595068 0.029674495 -0.0068410267 -0.099713214 -0.010725934
-0.009771165 -0.055982243 -0.09225898 -0.09064626 -0.022487989 0.04089335 0.016416945 0.08548545
-0.06049098 -0.016015667 0.030896373 0.035138883 -0.034604065 0.052657355 -0.03173305 -0.040987544
0.013107418 0.015127261 -0.038773466 -0.1011771 -0.06732131 -0.04131706 -0.034184095 -0.028842302
0.13928205 -0.05121986 0.27910978 -0.09026408 -0.093628936 0.028189613 0.03262029 0.06811384
0.004727727 -0.2849128 0.0044882856 -0.06766514 0.026823483 -0.001751164 0.024484226 -0.13302885
-0.0055903737 0.01144929 0.019495541 0.046093065 -0.0014857808 0.02345123 0.02552375 0.08275417
-0.0015228007 0.07291798 0.018319657 -0.014267997 0.039003067 0.011664301 -0.018094642 0.009394338
0.05067515 -0.020116024 0.0055940947 0.021929108 -0.02317085 -0.101243354 -0.04778393 0.0129191745
-0.11668558 -0.004685596 -0.067512095 -0.11552447 -0.25216606 0.017626014 0.036097627 -0.02093834
-0.04020937 0.054634724 -0.026578944 -0.009647416 -0.01064919 -0.11224009 -0.066449255 0.040937204
-0.006269359 0.021955026 0.048456825 -0.08763528 0.016468057 -0.089418 0.003936633 -0.14954247
-0.27351308 0.017001344 -0.05723031 0.066717476 -0.018714523 -0.062836245 -0.017208984 -0.08053793
-0.13588974 0.02324954 -0.029841764 0.010739592 -0.084938064 -0.059746567 0.089068055 0.00084953837
-0.18544036 -0.017081587 0.052136403 0.013469921 0.005777767 0.041054267 0.0014590773 0.025283815
0.020499894 0.01620822 0.016002283 -0.061933808 0.10339437 0.059171945 0.012555538 -0.06303629
-0.014756784 -0.021808065 -0.0018819649 0.011665651 -0.026905887 -0.027061664 -0.017499974 0.027136099
0.067132875 0.018996293 -0.007763119 -0.0031725392 0.023300659 -0.058454596 -0.0021522243 0.059824333
-0.2192047 0.0024103974 0.028133795 -0.021952994 0.048914406 0.06284254 -0.049468677 0.0140984235
0.014176947 0.049598694 -0.0725365 -0.1309973 0.017697508 0.014889156 -0.008796296 0.031441845
-0.09148956 -0.0039041254 -0.1081234 0.026566448 -0.00908885 -0.12254692 -0.0115888 0.06961275
-0.018646035 -0.006942379 0.06050323 0.20452552 -0.008354182 0.037024453 -0.11574378 0.06657424
00000000: 5457 a03d b739 7bbc c5f6 b23c d573 5dbe
00000010: 3707 40bd b0a6 043e cecf 9eba 744c 093e
00000020: 6b35 dabc bee1 3dbc a7e7 67bd 3724 88be
00000030: 0bee 063c 8c9c 233d 72b3 e53c 12cf 8dbd
00000040: 5af4 f93c 8ba9 243d 8f93 b6bd 11e2 93bd
00000050: 63dc a53c 727f 6b3d c4cb 66bd 2422 2a3d
00000060: 7865 1cbc 4639 06bd 36e6 283c 782e cbbb
00000070: 5597 273d 9391 64bd 6181 b83c ae78 023e
00000080: c765 253d c931 afbd 12ea 9a3c 5707 ed3c
00000090: c390 e83c 3d8f 3d3d fa67 293b 3d33 cc3d
000000a0: c285 0dbd 99b6 bbbb 484f 9abc 5af6 66bd
000000b0: 0830 e7bd 5c28 c83c 62a1 39bc 4dcd cdbc
000000c0: 79be ce3d f8aa b53c 3a05 303d aeb3 093d
000000d0: 6b25 f3bd b6de abbc 520b 7c3c 2e63 2d3d
000000e0: f360 773c 6589 c1bd eb4f 523d dc70 b5be
000000f0: a222 92bc 39d0 d83c 57a6 91bd f3eb 9f3c
00000100: 9595 e9bd 1988 253d f011 f3bc 0750 ec3d
00000110: 8770 2b3d 92e5 b23c 6c05 7dbe 3074 08be
00000120: e195 6e3d 6627 eebd f779 63bd 52e2 ab3c
00000130: b3bb 923c c63a 38bd 74bd a7bc 3841 263d
00000140: afcd b93c 3753 ca3c e705 4d3d fdb6 a8bc
00000150: ed17 f33c b12a e0bb 7136 ccbd d4bb 2fbc
00000160: 3d17 20bc a34d 65bd 47f2 bcbd bfa4 b9bd
00000170: bb38 b8bc c97f 273d d47c 863c ff12 af3d
00000180: 64c5 77bd 4a33 83bc 641a fd3c caed 0f3d
00000190: febc 0dbd 3daf 573d 84fa 01bd 8ee2 27bd
000001a0: 7fc0 563c 55d8 773c edd0 1ebd f035 cfbd
000001b0: c1df 89bd 143c 29bd 9f04 0cbd b146 ecbc
000001c0: f49f 0e3e eacb 51bd 7ae7 8e3e 60dc b8bd
000001d0: 87c0 bfbd e7ed e63c da9c 053d 457f 8b3d
000001e0: 0ceb 9a3b 17e0 91be 7812 933b 0594 8abd
000001f0: ecbc db3c 5087 e5ba 2593 c83c b738 08be
00000200: 742f b7bb ce95 3b3c 1db5 9f3c 15cc 3c3d
00000210: 88be c2ba cb1c c03c 2f17 d13c 057b a93d
00000220: b698 c7ba 0656 953d 1b13 963c 51c4 69bc
00000230: aec1 1f3d a01b 3f3c 373b 94bc b6ea 193c
00000240: bf90 4f3d 5cca a4bc ab4e b73b aca4 b33c
00000250: cbd0 bdbc ad58 cfbd 15b9 43bd f2aa 533c
00000260: d9f8 eebd a189 99bb c843 8abd 1898 ecbd
00000270: e91b 81be 6e64 903c 1bdb 133d e286 abbc
00000280: 95b2 24bd a9c8 5f3d 16bc d9bc 3210 1ebc
00000290: f179 2ebc 22de e5bd 8c16 88bd c5ad 273d
000002a0: 326f cdbb 07db b33c aa7a 463d 207a b3bd
000002b0: 05e8 863c c920 b7bd dffe 803b a921 19be
000002c0: e809 8cbe 6746 8b3c 546a 6abd 2ca3 883d
000002d0: 334f 99bc 4ab0 80bd dbf9 8cbc 12f1 a4bd
000002e0: ae26 0bbe d275 be3c b776 f4bc 1df5 2f3c
000002f0: 02f4 adbd d1b8 74bd 5069 b63d 8eb3 5e3a
00000300: 14e4 3dbe afee 8bbc fb8c 553d f2b0 5c3c
00000310: 6c53 bd3b 8528 283d 833e bf3a 0120 cf3c
00000320: 65ef a73c 1ac7 843c 3817 833c 4eae 7dbd
00000330: 6dc0 d33d 485e 723d beb5 4d3c 2c19 81bd
00000340: 70c6 71bc d4a6 b2bc 43ac f6ba 4921 3f3c
00000350: bc69 dcbc 6cb0 ddbc 1b5c 8fbc 864c de3c
00000360: f67c 893d 1d9e 9b3c c361 febb 60ea 4fbb
00000370: 06e1 be3c 166e 6fbd 550c 0dbb 5c0a 753d
00000380: 3277 60be c2f7 1d3b d878 e63c c4d6 b3bc
00000390: 795a 483d 97b3 803d ab9f 4abd 13fd 663c
000003a0: 6d46 683c 0028 4b3d 048e 94bd 2824 06be
000003b0: 5dfa 903c a6f1 733c 571e 10bc 2ac9 003d
000003c0: e15e bbbd 5bdc 7fbb cd6f ddbd e1a1 d93c
000003d0: 66e9 14bc e1f9 fabd f3de 3dbc 2191 8e3d
000003e0: 92bf 98bc e57c e3bb 3cd2 773d 236f 513e
000003f0: fbdf 08bc f4a6 173d 130b edbd 1358 883d

fc.bias f4 [12]
-0.28264785 -0.467552 -0.68592757 -0.56798756 -0.16702151 0.167806 0.315872 -0.048251443
0.101368144 0.36747563 0.32375714 -0.4362715
00000000: 38b7 90be fa62 efbe f398 2fbf a267 11bf
00000010: b007 2bbe 56d5 2b3e fab9 a13e 4ea3 45bd
00000020: 1a9a cf3d c425 bc3e 7fc3 a53e fa5e dfbe
