src/main/python/saved_models/csharp_1_66_CNNClassifier1_128embs_183id_32hd_0hl_Falsebid5kernel0.3dropout_2.pt (torch, 568651 bytes, 9 tensors)

emb.weight f4 [183, 128]
000000 98 e5 2c bf 63 9c 8b bf 49 81 f8 3e ad 64 6a 3f
       -0.6753783 -1.09071 0.48536137 0.9155987
000010 f4 d2 74 3f 77 ec 65 bf 80 02 85 3f 92 96 c0 be
       0.9563439 -0.8981394 1.0391388 -0.37614876
000020 06 f4 01 bf 9e 93 0b bf 48 1f c2 3f 04 04 5c bc
       -0.50762975 -0.5452212 1.5165796 -0.013428692
000030 b9 c6 78 bf 54 8a b8 3e b2 50 b6 be 3b 61 3a be
       -0.97178227 0.36043036 -0.3560844 -0.18201153
000040 b4 10 0d c0 fe 01 88 be 26 16 f9 3d 40 35 2a bf
       -2.2041445 -0.2656402 0.121624276 -0.66487503
000050 01 b8 0f 3f 52 40 8b bc d7 af 8b 3d 30 07 cb bf
       0.5614014 -0.016998444 0.06820648 -1.5861568
000060 ca d8 c5 3f b2 83 a9 bf 6b 01 9f 3e 16 8b 35 40
       1.5456784 -1.3243315 0.3105577 2.8366141
000070 3a f3 58 3f eb b6 84 bf 0b 57 86 3f e6 cf e0 be
       0.84746134 -1.0368322 1.0495313 -0.43908614
000080 7a be 16 bf c4 56 76 bf 36 b8 16 3f e0 3e 0e 3f
       -0.58884394 -0.96226144 0.58874834 0.5556469
000090 e4 89 1d 3f 0c 3a 64 3f ab a4 35 3f 38 4b cb 3e
       0.6153853 0.8915107 0.7095439 0.39705825
0000a0 d8 ca 55 bf 9b 1b 2c bf c3 bf 0f be 31 fc ec 3f
       -0.8351264 -0.6722962 -0.14037995 1.8514463
0000b0 2b 3f 82 3f 49 88 b3 3f 58 52 81 be 2c 32 5c 3f
       1.0175527 1.4025966 -0.25258136 0.86014056
0000c0 17 a9 75 3e 0e f7 30 be a3 1c 49 3f 33 c6 18 40
       0.23990284 -0.17281744 0.7855932 2.3870971
0000d0 9d 3a 2e 3e b6 56 fc bf 28 6c 9c 3f 67 e1 f3 3e
       0.17014547 -1.9713962 1.2220507 0.47632906
0000e0 ef e0 62 c0 29 02 9e 3f a4 96 5d bf 2c 27 fa 3d
       -3.5449789 1.2344409 -0.86557984 0.12214503
0000f0 05 22 9f 3f 00 89 96 bf fc 2c cf bf 04 40 79 bf
       1.2432257 -1.1760559 -1.6185603 -0.97363305
000100 18 be 45 3f 45 04 73 be d3 f0 4b be 9f dd 22 be
       0.77243185 -0.23732097 -0.19916086 -0.15904854
000110 3c d3 94 3c 48 11 3d bf 2f 09 79 be 33 95 4c 3c
       0.01816713 -0.73854494 -0.2431991 0.012486744
000120 df c7 92 3e f2 64 1a 3f 24 22 c9 3f c3 0b 83 be
       0.28668115 0.6031028 1.5713544 -0.2559491
000130 77 eb e6 3f 83 c0 07 c0 e9 86 42 bf a5 a8 37 c0
       1.8040608 -2.121125 -0.75987107 -2.8696682
000140 1f 06 91 bf 2b bd cc 3f 51 61 f0 be 71 e1 a8 3c
       -1.1329993 1.599523 -0.46949247 0.020615311
000150 cd be e4 bd af 23 1c 40 a5 7c 1d 3f 9d a1 ec 3e
       -0.11169205 2.439678 0.6151832 0.4621705
000160 f4 6d 50 bf d9 6c 34 3f 5d bc ae 3e be ba 95 3e
       -0.81417775 0.7047859 0.34128085 0.29244035
000170 73 3c c9 3f a4 a5 2a bf a6 5a cd 3e ef d9 15 c0
       1.5721573 -0.66659 0.40108222 -2.3414266
000180 98 e0 b0 bf f8 94 27 bd 60 84 3b bf 77 ec 0c bf
       -1.381854 -0.040913552 -0.73248863 -0.55048317
000190 9e 49 8b bf 4d 8c a5 bf 57 1b c4 bf 1e 88 0e 40
       -1.0881841 -1.2933441 -1.5320843 2.227058
0001a0 ea d3 e6 be e8 3f a2 3f 64 8b 40 3f 3b e5 62 3f
       -0.45083553 1.2675753 0.75212693 0.8863103
0001b0 e8 95 79 3f 46 12 c1 3e 1f 59 49 3f b5 13 f6 3d
       0.97494364 0.37709254 0.78651613 0.120154776
0001c0 54 e6 88 bf 56 eb a8 bf 5a 67 22 bf fb 53 80 3f
       -1.069529 -1.3196819 -0.6343895 1.0025629
0001d0 6f 6b 8d 3f fc 3f 04 c0 d9 1f a6 3f 2a 01 03 bf
       1.1048411 -2.0664053 1.2978469 -0.5117365
0001e0 3a fb cd bf 6c 1d de 3f 9c 07 85 3f ca e3 df 3d
       -1.6092293 1.7352729 1.0392947 0.10932119
0001f0 e5 f4 75 bf 71 01 63 3f fc 77 07 bd 56 90 29 40
       -0.96076804 0.88674074 -0.03307341 2.6494346
000200 f3 c3 98 be d0 ce 51 3f 80 c4 80 3d 12 3a 38 bf
       -0.29836997 0.81956196 0.062874794 -0.7196361
000210 bc a4 12 3f c8 02 27 be fa e0 ac 3f fa db b8 3d
       0.57282615 -0.16309655 1.3506157 0.09026332
000220 f2 6f 16 3f eb 54 80 3f b0 85 99 be 71 2b 74 3f
       0.58764565 1.0025915 -0.29984808 0.95378786
000230 a4 cd c9 3e 8c e7 3f 3e 9f ca 04 bf 37 ed 8c be
       0.39414704 0.18740672 -0.51871675 -0.2752473
000240 32 18 4f 3f 7f b4 66 bf 3c 39 36 3e 2b be 12 3f
       0.80896294 -0.90119165 0.1779527 0.57321423
000250 15 dd 04 40 f1 f1 59 bd e9 2d 5b bf 3a d1 a9 3e
       2.0759938 -0.05320925 -0.8561693 0.3316744
000260 b2 14 cd bf 22 e4 85 bf 2e 33 5b 3f e1 05 98 bf
       -1.6021941 -1.0460246 0.8562497 -1.1876794
000270 bf f2 57 bf 4f 98 d8 3e ae 44 73 be b0 f0 1a c0
       -0.84354776 0.42303702 -0.23756668 -2.4209404
000280 c0 6c 2a 3f 5c 9b e4 be cf 76 dd be 25 2f 35 bf
       0.6657219 -0.4464978 -0.43254706 -0.7077506
000290 7d 53 d2 3e b6 72 96 bf 15 69 68 bf 4a 97 f2 3e
       0.41079322 -1.1753757 -0.9078534 0.4738105
0002a0 bb 39 2c 3f 0f f3 a2 3f 45 f9 11 be 55 ab 84 be
       0.6727559 1.2730426 -0.14255245 -0.25911966
0002b0 1a db 83 3e 3a 34 91 3f 6f d0 1f c0 58 3e 33 3f
       0.257531 1.1344063 -2.4970968 0.70017004
0002c0 8c 0e d2 bf d0 05 23 c0 a7 11 2f bf 76 5f c4 3f
       -1.6410689 -2.5472298 -0.6838631 1.5341632
0002d0 9e 4a a6 bf f6 3b 9c 3f 1c a1 e4 bd 56 a8 27 bf
       -1.2991521 1.2205799 -0.11163542 -0.65491235
0002e0 be ac 8b bf b8 23 3c be dc c7 d0 bf 1f cc d7 3f
       -1.0912092 -0.18373 -1.6310992 1.6859168
0002f0 fc a0 09 bf 6c 81 d9 3f 7f 40 b4 3e 28 f9 81 3f
       -0.5376127 1.6992621 0.35205457 1.0154161
000300 2d a0 b6 3e cb ac 82 bf d3 e8 e4 3e eb 49 80 bf
       0.3566908 -1.0208982 0.4470888 -1.0022558
000310 5f 83 bd be 57 0e 68 3f ec f3 23 3f b9 1b 10 3f
       -0.3701429 0.9064688 0.6404407 0.562923
000320 54 e1 19 c0 a3 4e ee 3e 73 47 d1 3f f5 ac b7 bf
       -2.404378 0.4654437 1.634993 -1.4349657
000330 a8 31 0f 40 9c 92 d1 3d a1 b8 03 bf 92 86 3c be
       2.2374058 0.10233042 -0.51453596 -0.1841071
000340 86 15 08 bf ee c6 0a bf c0 8e be bd 48 b2 87 3c
       -0.5315784 -0.5420979 -0.09304571 0.016564503
000350 15 cf a5 bf c6 4e 8b 3f 9f 39 94 3f 86 c5 d4 3f
       -1.2953821 1.0883415 1.1580085 1.6622779
000360 81 3f 92 bf 09 58 93 bf 66 e7 d2 3e c8 2e b2 3d
       -1.142563 -1.1511241 0.41192168 0.08700329
000370 24 c0 c5 3d 2b d8 2b 3f 79 24 53 3f 30 0b 06 be
       0.096557885 0.6712672 0.8247753 -0.13090205
000380 f5 e1 ef 3e 5e 58 d8 3f 3a a0 cd 3f 64 59 b1 3f
       0.4685208 1.6901968 1.6064522 1.3855405
000390 32 8f 13 be b0 f7 1e 3f 2e 00 1c bf 6e 67 26 bf
       -0.14410093 0.6209669 -0.60937774 -0.6500157
0003a0 c4 dc e3 3e 8d ed 24 3f c9 d4 8e 3e 21 6d 18 3e
       0.44504368 0.64424974 0.27896717 0.1488538
0003b0 97 62 5e bf 31 91 a0 3e e2 28 29 bf 1f cb c7 bd
       -0.86869186 0.31360772 -0.6607801 -0.09755539
0003c0 26 d2 b5 3f 62 55 5d bd 8c e7 fd 3e f2 4a 33 be
       1.4204757 -0.054036506 0.4959072 -0.17509058
0003d0 43 6e f0 be 73 4c 61 be 03 00 bb 3e 31 fb 7c bf
       -0.46959123 -0.2200182 0.36523446 -0.9882079
0003e0 ff a0 a3 3e 05 4b 31 3f 0a bc 04 bf 29 06 f8 3f
       0.31958768 0.69255096 -0.51849425 1.937688
0003f0 d5 0c 8e 3e 60 16 3c be 44 3f 9b 3d 19 59 b1 3f
       0.27744165 -0.1836791 0.07580426 1.3855315

conv1.weight f4 [32, 128, 5]
000000 45 d8 51 3e 68 71 b3 be a1 56 d3 3d 9c 6a 6d 3e
       0.20492657 -0.3504746 0.103192575 0.231852
000010 0c 4d 0a be d7 98 99 bd fd 3e 8a bb 17 fc 10 bd
       -0.13505954 -0.07499855 -0.0042189346 -0.03539666
000020 4f 88 f3 bc 7d 0e 0b 3c 66 d2 8e 3e 0e 52 9d 3e
       -0.029728083 0.008487341 0.27894896 0.30726665
000030 be 32 75 be e0 21 8f 3d ee c0 e5 bd 41 06 24 3e
       -0.23945138 0.06988883 -0.11218439 0.1601801
000040 f8 95 d6 3e 5e 6c c2 bd 4b 5d 9e bd f3 6e 01 3e
       0.41911292 -0.09493326 -0.07732638 0.1263998
000050 46 07 80 bd bb 72 6b 3d 9c a5 55 3c d1 fd da 3c
       -0.06251387 0.057482462 0.013039973 0.026732357
000060 90 1d 04 3c 75 37 9c 3e 3c 31 b3 be 15 b6 01 3d
       0.008063689 0.3051106 -0.349985 0.031667788
000070 67 bc f1 3c 5f 26 da bc 98 b1 7a be 5c ab 5b be
       0.029508783 -0.026629625 -0.24481809 -0.21452087
000080 81 b8 d0 3c f6 13 eb bb f1 48 63 3d cb 49 84 3e
       0.025478603 -0.0071740104 0.055489484 0.2583755
000090 41 f3 01 3d ec 7b d5 3d ad 96 57 be 0f 93 d8 bd
       0.031726126 0.10424027 -0.21053572 -0.10574924
0000a0 85 c5 75 3d 24 b7 57 3e 87 24 d9 3d b6 80 b6 bb
       0.060002822 0.21065956 0.1060267 -0.0055695428
0000b0 ad 6a d4 bd f9 bf 48 bd a5 c3 23 3e 82 d5 81 bd
       -0.10371909 -0.049011204 0.15992601 -0.063395515
0000c0 46 24 e0 bc 29 79 ed 3d b2 17 2a 3a 04 71 63 3c
       -0.027361047 0.11595375 0.0006488516 0.0138819255
0000d0 81 2d c7 bc 1d d8 d2 bd c1 85 cf bc 53 d2 91 bd
       -0.02431369 -0.102951266 -0.025332334 -0.07120194
0000e0 91 ab 44 be ad 49 ad bd be f8 9b 3c f3 d2 ae bc
       -0.19206072 -0.08461318 0.019039508 -0.021340823
0000f0 3a 2a 37 3d d9 11 10 3e d1 28 15 bd 8b 90 00 3e
       0.044718005 0.14069308 -0.03641588 0.12555139
000100 1b cf 91 3d 3a 4c 8c bd d9 2d 0c be 6a b3 a8 3d
       0.0711958 -0.068504766 -0.13689364 0.082373455
000110 80 61 ab bd 9b 5c 2e bd f1 b6 6f 3d 47 f6 bb 3e
       -0.08368206 -0.042568784 0.058524076 0.36711332
000120 b3 cf d6 3d 63 a3 b8 bc 58 9d fc bc b0 b5 81 3c
       0.10488834 -0.022538846 -0.030836746 0.015833706
000130 8f 9d 08 3e ed d5 a6 3d e4 bb 15 bd 34 54 99 3d
       0.13341354 0.08146272 -0.03655614 0.074867636
000140 41 ba 92 bc 62 f1 00 3e 69 34 48 bc c0 ca d8 3c
       -0.017911078 0.1259208 -0.012219527 0.026463866
000150 6d 94 52 3c f0 a9 34 3e d7 91 50 bd 7e 4c cb 3c
       0.01285277 0.17642951 -0.050920334 0.024816748
000160 7c de 39 3d 43 f5 e0 bc 85 19 26 be 03 aa 6c bd
       0.045378193 -0.0274607 -0.16220672 -0.057779323
000170 bc 9a 8a bd f5 18 3a be d4 58 ad 3c 04 fb 90 3d
       -0.067677945 -0.18173583 0.02116052 0.070791274
000180 50 1f 81 3e c1 db 11 bd 71 1d ae 3c 3a 02 aa bc
       0.25219202 -0.035609964 0.021254273 -0.020753015
000190 7e 07 17 bd cf f6 ec 3b c6 fa 22 bc cf 21 c2 3c
       -0.03687238 0.0072315703 -0.009947484 0.023697762
0001a0 20 0d dd 3d 28 d8 d6 3d fa bd 12 be b2 b4 b5 3d
       0.10793519 0.10490447 -0.14330283 0.088723555
0001b0 12 41 9d bc ab 67 97 bc 2d 82 9c be 78 f2 5c be
       -0.019196067 -0.01848205 -0.30568066 -0.2157687
0001c0 90 4a bc 3d 68 24 ef bc 41 e0 a9 3d b5 66 a2 bc
       0.09193909 -0.029192165 0.08294726 -0.019824365
0001d0 7a 63 b3 3e ed ea ef 3c 25 c2 22 3b 5f 72 11 bd
       0.35036832 0.029286826 0.0024834957 -0.035509463
0001e0 be 95 1b be 4c 35 f1 3e 8f 3d 86 bd 61 63 96 bd
       -0.15193841 0.47110975 -0.0655471 -0.07343174
0001f0 4c 4b 3b 3b 82 6d 51 bd 3e 92 a1 3b 68 3b ea 3d
       0.0028578816 -0.051129825 0.0049307635 0.11437112
000200 fa 68 9b bc ab dd 09 bc 21 4d 0c 3d 5b e9 19 be
       -0.018970955 -0.008414666 0.034253243 -0.15030424
000210 70 59 28 3d 37 50 1c be d1 3d 8d bd cd d6 ab be
       0.04110092 -0.15264975 -0.06896556 -0.33562317
000220 c9 a6 dd 3d 38 90 0d 3d 4e af 02 3b a1 43 23 3d
       0.10822827 0.034561366 0.0019940916 0.039859418
000230 b0 65 f2 3b 8a 2f b0 bd 8e 4c 49 be 9c ce 98 3c
       0.007397376 -0.08602817 -0.1965811 0.018653207
000240 f8 19 71 3c b2 8a 4c bd ca 47 b4 bd a4 b2 1b 3e
       0.014715664 -0.049936958 -0.08802755 0.15204865
000250 fd 92 d7 bd 51 11 4e 3e 4e ae db 3c 34 2c 08 3e
       -0.10526083 0.20123793 0.026816513 0.13298112
000260 64 cb 64 3d 33 af 39 be a1 6f cf bd 90 62 70 be
       0.05585803 -0.1813324 -0.101287134 -0.23475099
000270 7b 6f a7 bd dd 16 64 3c ff 6f 65 3e 49 22 8e bc
       -0.0817556 0.013921467 0.22406004 -0.017350333
000280 bd 21 30 be ee 1b cb bc da 79 f6 bd 4c 95 bb bd
       -0.1720037 -0.024793591 -0.1203496 -0.091593355
000290 9f 21 60 bd b5 e7 49 3e 02 27 bd bd 9e fb 46 bd
       -0.054719564 0.19717295 -0.09235956 -0.048579805
0002a0 68 ca 14 bd c4 84 08 be 3c d7 8a be e7 8d 81 be
       -0.036325842 -0.13331896 -0.27117336 -0.25303575
0002b0 aa 3c 38 be f0 d3 b0 3d a0 6f 02 bd 6f 5f a1 3d
       -0.17991892 0.08634174 -0.031844735 0.07879531
0002c0 64 1e 6b bd bb 86 12 3d 5d cd 0b 3e c6 3c 30 bd
       -0.05740203 0.03577302 0.13652559 -0.043026708
0002d0 3a 88 10 3e 3b 01 de 3d fb 80 3a 3d 7c 1f b8 3d
       0.14114466 0.108400784 0.04553316 0.0899038
0002e0 11 30 48 3a 53 9d b9 bd 8a 0b 26 be 4c 3e a1 bc
       0.0007636557 -0.0906321 -0.1621534 -0.019683026
0002f0 71 ee 17 be 20 09 a4 bd 42 a5 b4 be 1d d0 f1 bb
       -0.14837052 -0.08009553 -0.35282332 -0.0073795454
000300 13 31 02 bd b9 e4 86 be 8a 72 09 3e fc f6 df bd
       -0.031785082 -0.26346377 0.134226 -0.109357804
000310 7a 17 be 3d c3 d6 1a bd 37 f0 39 3e 78 57 62 3e
       0.092818215 -0.03780247 0.18158041 0.22103679
000320 4e 76 95 bd 6f 02 4a be cf 7a e1 bd fc f9 ad bd
       -0.072979555 -0.19727491 -0.11009752 -0.08494946
000330 a4 93 27 be 95 5f 80 bd 1c a2 a1 bd f3 86 e6 3d
       -0.16364914 -0.06268231 -0.07892248 0.11256208
000340 6c 6c 91 3c 52 94 87 3d 11 d1 a1 bd d3 f8 e4 3c
       0.017751895 0.06620087 -0.079012044 0.02795068
000350 47 b5 f3 bd a3 de 75 bd 5d 92 5c 3d fb 8a ab 3d
       -0.1189981 -0.060026776 0.05385052 0.08376118
000360 7c 22 04 3d 29 5d f2 3d f1 66 b4 bd 69 ed 17 bd
       0.03225945 0.11834175 -0.08808697 -0.037091646
000370 e9 67 fd 3d dd c6 b1 3d 9c 1b 37 bd d6 7f 87 3d
       0.12373335 0.08680508 -0.044704065 0.0661618
000380 13 b0 fc bc 93 41 1d be 9e f4 8c 3d 8b de 87 bd
       -0.030845677 -0.15357046 0.068825945 -0.066342436
000390 61 0b 58 bd 0d 27 b5 bd d2 b6 a9 3d a9 50 1c 3e
       -0.052745227 -0.08845339 0.08286823 0.15265144
0003a0 d6 c3 b5 3d f4 cf 87 3d 99 7f 9d bd 9c 98 09 3e
       0.08875243 0.06631461 -0.07690353 0.13437122
0003b0 35 a7 94 3e ae f2 95 bd 80 29 14 be bd 77 6e bd
       0.2903382 -0.07321678 -0.14468956 -0.05821966
0003c0 c4 22 1d be fb 7c b0 be 2c 20 06 be 5c e5 0b 3e
       -0.15345293 -0.34470353 -0.1309821 0.13661712
0003d0 e2 e4 c3 ba f4 bc 2b be d0 7c 73 be 05 af 2f bc
       -0.0014945532 -0.16771299 -0.23778081 -0.01072288
0003e0 ec 53 9c 3b 4c 2a ff 39 7c 28 26 be fe c8 5a bc
       0.0047707465 0.00048668904 -0.16226381 -0.013353584
0003f0 86 1a 08 3c 5e 2d 32 bd 6d 98 0f 3d 82 9a 55 be
       0.008307105 -0.043500297 0.035057474 -0.20859721

conv1.bias f4 [32]
000000 c4 c5 0e 3b 79 8a 10 be 28 15 c1 bd 83 4a 8c bd
       0.0021785358 -0.14115323 -0.09427863 -0.068501495
000010 c3 f0 6f be fd 4c 16 be 5c d0 2d be 7f 5f 1c be
       -0.23431687 -0.14677806 -0.16974014 -0.15270804
000020 ca 8d 81 be 73 7e c8 bd 9a 23 af bd af 33 cf bd
       -0.2530349 -0.09789743 -0.08551712 -0.1011728
000030 26 2c 06 be 9b e8 8f bd 61 d2 a6 bd f6 12 08 be
       -0.13102779 -0.07026788 -0.08145595 -0.13288483
000040 10 eb 60 be c1 09 e5 bd b7 0f 63 be ef 2f 28 be
       -0.21964669 -0.11183501 -0.22173963 -0.16424535
000050 29 94 72 be bb de 4a be 88 91 85 be 33 c6 2e be
       -0.23689331 -0.19811527 -0.26087594 -0.17067795
000060 15 8c 70 bd 6c 0f 7f be 91 d6 8c be e5 c3 f5 bd
       -0.058727343 -0.24908227 -0.2750745 -0.120002545
000070 cc 7a 56 be 17 ad 4d be 42 66 4e be d5 3b 02 be
       -0.20945281 -0.2008556 -0.20156196 -0.12718137

conv2.weight f4 [32, 128, 3]
000000 20 01 c5 bb a8 4f c9 3d e1 0c 22 be 38 b2 74 3e
       -0.006012097 0.09829646 -0.15825225 0.2389611
000010 68 24 7c bb a8 06 45 be da c1 13 3e 5d 97 d7 bc
       -0.0038473848 -0.1924082 0.14429417 -0.026317293
000020 9b 09 b4 3b b3 49 e2 bc 86 c0 a5 3d 75 af 6b 3d
       0.005494309 -0.027623033 0.080933616 0.057540376
000030 1d 6f 83 bc e4 52 00 be ab 56 0f be 4b 8d 16 be
       -0.016044194 -0.1253162 -0.13997905 -0.14702336
000040 81 12 05 3e 4b 42 41 be c5 d7 ec 3d a5 c5 9b 3c
       0.1299534 -0.18872945 0.11564592 0.019015143
000050 3a 19 b6 bd 20 dd 98 bd db 42 1b bd 83 cc e9 3d
       -0.0889153 -0.07464051 -0.037905555 0.11415961
000060 a5 9e 4b 3c fe a2 bb 3c 82 b2 2e 3a 65 14 37 bd
       0.0124279605 0.02290487 0.0006664173 -0.044697184
000070 e4 a2 86 be 93 8b 21 be 9d 93 17 3e ee 53 8d 3d
       -0.2629615 -0.157759 0.14802404 0.06900774
000080 65 0e 2a 3e 45 b8 e2 3d f0 37 a5 bd 94 4e ce 3d
       0.16607054 0.11070303 -0.0806731 0.10073581
000090 9c a5 27 3e d6 7e 5a 3d 04 b8 b5 3b f1 31 64 be
       0.16371769 0.053343616 0.005545618 -0.22284676
0000a0 f7 be 34 be fd da 13 be 14 c8 83 3d 0b f0 24 3c
       -0.17650972 -0.14439006 0.06434646 0.010066996
0000b0 cd 86 d4 3d 7d 1e 07 bd 5c 7a e9 3d 8a 44 92 3e
       0.10377274 -0.03298806 0.11400291 0.28567916
0000c0 9b 63 a1 bd 46 27 0e 3d d1 6c 0c be f4 5b 49 be
       -0.07880326 0.034705423 -0.13713385 -0.19663984
0000d0 81 3b aa 3d c5 70 76 3d 5e 97 49 be 0f f4 cf bd
       0.08312131 0.06016614 -0.19686648 -0.10153972
0000e0 2c 78 f2 bc 7d 8c 5c 3e a5 9c e6 3d a4 fb 1f 3d
       -0.029598318 0.21537967 0.11260346 0.039058343
0000f0 70 de f7 bd e7 68 8a 3e b4 92 3f be 41 eb 47 be
       -0.121029735 0.2703316 -0.18708307 -0.19523336
000100 06 13 90 bb 90 53 63 be 38 75 ae 3d 99 55 0e be
       -0.004396799 -0.22199845 0.085184515 -0.1389984
000110 75 56 ee 3c 21 73 12 3e 53 ba 83 bc 31 2c b6 bd
       0.02909396 0.1430173 -0.016080057 -0.088951476
000120 be 9c 37 3e b5 22 5b 3d 3c 5d 1e 3d 03 96 e3 3d
       0.17930886 0.053499896 0.038663134 0.11112597
000130 a1 56 54 3e fc 43 1b 3e 55 d3 4b be 7d d2 3c bd
       0.20736171 0.15162653 -0.19904836 -0.046099175
000140 fc d1 e0 3d c2 8d 07 3e 02 77 10 bd 3d 3a 13 be
       0.10977551 0.1323767 -0.035269745 -0.14377685
000150 b3 60 7e be 6e f6 fe bd be 05 bc 3d cd 16 17 bc
       -0.24841575 -0.124493465 0.09180783 -0.009221745
000160 71 c1 f6 3d 90 3c 11 3e 52 2a d2 ba 19 0e 2d 3e
       0.12048615 0.14183259 -0.0016034341 0.16899909
000170 a7 60 fd bd 70 55 ab 3e 26 f5 a0 3d 46 2e 25 3e
       -0.123719506 0.3346362 0.07859258 0.16130933
000180 d9 c0 b1 bd 3a d4 8b bd 82 05 35 bd 0b 78 7b bd
       -0.08679361 -0.068275884 -0.044194706 -0.06139378
000190 d1 8b 15 3d a3 9b 5e 3b 1e 84 61 3d 59 7f f1 3d
       0.036510292 0.0033967278 0.055057637 0.11791868
0001a0 b0 85 0d be 31 38 e2 bd 49 21 db 3d 01 d3 81 be
       -0.13820529 -0.11045874 0.10699708 -0.25356296
0001b0 0e 7a 96 3e f5 c0 92 3d fc 9e ec bc bf df 16 be
       0.29389995 0.0716571 -0.028884403 -0.1473379
0001c0 a5 f0 b9 bc f2 22 80 3d 8d 20 f2 bd d8 dd 82 3d
       -0.022697756 0.06256665 -0.11822615 0.063899696
0001d0 71 55 08 3e 24 f0 cd bc f3 59 40 be a1 c4 8c be
       0.13313843 -0.025138922 -0.18784313 -0.27493766
0001e0 99 11 be 3d ec db d0 bd df 3a bf 3c f7 4a a4 3d
       0.092807 -0.10198197 0.023343502 0.08022111
0001f0 b7 00 8e 3d 7e a4 7d 3e d6 2b 0d be 74 e1 18 be
       0.0693373 0.2476978 -0.13786253 -0.14929754
000200 13 91 14 bd 14 db d7 bd fd e1 75 bd db 7c 89 3c
       -0.036271166 -0.10539833 -0.060029972 0.016783169
000210 86 42 42 be 4e ca 26 bc 16 ee 79 be a9 3e e5 bc
       -0.18970689 -0.010180069 -0.24407229 -0.02798398
000220 f1 60 06 bc 0f 12 5d bb fa ad 25 be 5d 97 bc bc
       -0.008201824 -0.0033732688 -0.16179648 -0.023021394
000230 56 16 31 3c ab 46 85 3e 8a e2 47 3b 3f 20 a3 3d
       0.010808548 0.26030478 0.0030500018 0.07965135
000240 49 91 1e 3d 07 27 d3 bd 41 f6 1c be 6c a2 01 be
       0.038712773 -0.10310178 -0.15328313 -0.12659615
000250 63 85 ab bc 3b 44 04 bc 5f 33 9b bd a9 8f 6e be
       -0.020937627 -0.008072908 -0.07578158 -0.2329699
000260 23 68 12 3e ba 43 82 3d 3d 00 ba bd 48 28 e1 bd
       0.14297538 0.06360574 -0.09082077 -0.10994011
000270 11 cd 87 3e b7 4b 2a 3c 21 9f 52 3d 69 df 61 bd
       0.2652364 0.010394028 0.05142129 -0.0551447
000280 c2 ee fa 3d db 34 c8 3d d9 db 08 be 3d fa 92 3d
       0.12252571 0.097757064 -0.13365115 0.071766354
000290 9f 88 09 3e 35 a9 7d bd eb 12 6f bd a5 ef ef bc
       0.13431023 -0.061928947 -0.05836765 -0.029289076
0002a0 cd d9 8d 3e 5c 8f 49 3e bb fc a4 3e 52 9d cb be
       0.2770523 0.19683594 0.32224068 -0.39768463
0002b0 8b 61 77 bc c1 05 b9 bd fb 00 f8 3c 38 6e 4b bc
       -0.01509894 -0.090343006 0.030273905 -0.012416415
0002c0 48 63 08 bd 14 32 af bd 0c 4b be bd cd 97 d0 bd
       -0.033297807 -0.085544735 -0.09291658 -0.10185204
0002d0 5c 71 80 bd 1c e9 1d be 1a 2d e1 bd 87 62 9b be
       -0.062716216 -0.15420955 -0.109949306 -0.30348608
0002e0 9c e9 76 bd 82 ca 2e be 8b 09 81 bd 05 b9 12 3d
       -0.06028138 -0.17069438 -0.06300648 0.03582098
0002f0 ce fc 20 be 7a 38 fd bd 1f 90 d3 bd 3f 26 3f 3d
       -0.15721437 -0.12364288 -0.10330223 0.046667334
000300 36 09 9f bd f4 78 0f bd 9d 64 b5 bc 88 8b e0 bd
       -0.07765429 -0.03502746 -0.022142703 -0.109641135
000310 32 82 13 bd 0a e8 e5 3d 7f b9 5a 3e cc c0 68 3b
       -0.036012836 0.112258986 0.21359824 0.0035515307
000320 62 d4 1b bd be c7 09 be 73 ab fc bd 5f 92 4d bc
       -0.03804434 -0.13455102 -0.12337389 -0.012547105
000330 a1 28 22 3e 0c d7 f4 bd f9 e5 e0 bd 25 df fd bc
       0.15835811 -0.119550794 -0.10981364 -0.030990193
000340 a5 7e 91 3d c8 3a 46 3d 3d 32 62 3e 29 f9 61 3e
       0.07104234 0.048395902 0.22089477 0.22067703
000350 36 47 ca bd e1 4e a3 3c 34 02 a2 3d c5 79 98 3d
       -0.09876864 0.019935073 0.079105765 0.07445101
000360 60 27 8e be ee a0 15 3d c2 57 dd bd e6 57 63 3d
       -0.27764416 0.036530428 -0.10807754 0.05550375
000370 73 c0 7b 3e 4b 6b 4a 3e e4 29 bd bc 79 cf 89 3d
       0.24585132 0.19767492 -0.023091264 0.067290254
000380 31 3c 4d 3e 3d f7 cf bd f8 d1 ae bd 0e 0b 39 3d
       0.20042492 -0.10154579 -0.08536142 0.04517656
000390 fe 34 22 bd d3 32 44 bd 0b d8 27 bd db 47 9e 3e
       -0.03960132 -0.047900032 -0.04097752 0.30914196
0003a0 d4 77 85 3d 8d 40 84 bd ac 2e c6 3d 2b b1 51 3e
       0.06516996 -0.064576246 0.09676871 0.2047774
0003b0 68 c0 f9 ba 65 6d c3 bd fc 7f 04 3e c7 bb 02 be
       -0.0019054534 -0.0954235 0.12939447 -0.12766944
0003c0 d0 f1 ac be ba ac b7 bd 12 49 98 bd 40 12 57 3c
       -0.33778238 -0.08968492 -0.07435812 0.01312691
0003d0 e2 5c 8d 3e a8 ff 55 3d e9 e1 6d bd a9 18 b1 bd
       0.27609926 0.052245766 -0.058076773 -0.08647282
0003e0 d3 5c 79 3d 15 11 72 be a5 6b 4b 3d 14 c3 93 bc
       0.06087954 -0.23639329 0.049663205 -0.018037356
0003f0 28 e8 b0 bd 51 08 25 be ef 11 46 be a4 70 1f 3e
       -0.0863803 -0.16116454 -0.19342779 0.15570313

conv2.bias f4 [32]
000000 e3 e3 a5 3b 8b ad 84 be 4e ba 14 be 18 09 89 be
       0.0050625666 -0.25913653 -0.14524195 -0.2676475
000010 97 d9 6d bd 99 17 81 bd 8e 3c a5 be 7f fa 22 be
       -0.058068838 -0.06303329 -0.32272762 -0.15915869
000020 08 74 64 be c6 bf 75 be 4b f7 e2 bc be e4 6b be
       -0.22309887 -0.23998937 -0.02770581 -0.23036477
000030 22 69 08 be 41 dd 0a be 64 11 a9 bb 31 79 79 be
       -0.13321355 -0.13560964 -0.005159544 -0.24362637
000040 57 a8 61 be 00 48 82 be e0 c4 31 bd 07 fc 49 be
       -0.22036873 -0.25445557 -0.043400645 -0.19725047
000050 e6 22 27 be ca 75 ca be ec f1 b5 bd c3 33 7d bd
       -0.16321906 -0.3954299 -0.088840336 -0.061816942
000060 40 6f 9b bd 0f d9 f9 bd c7 31 89 be e2 83 a1 be
       -0.07589579 -0.12199604 -0.2679579 -0.3154593
000070 b0 7b 21 be 17 62 4f be ba 9d 73 be 04 02 ae 3b
       -0.1576984 -0.20252262 -0.23790637 0.005310299

conv3.weight f4 [256, 64, 5]
000000 f3 0c 45 be b0 16 c9 bb 48 a2 1c be 46 ca 2c be
       -0.19243221 -0.0061367378 -0.1529628 -0.16874036
000010 e8 53 14 be 24 07 96 bc e8 23 db bd 61 2b 53 be
       -0.14485133 -0.018313952 -0.10700208 -0.20622016
000020 1d 4d 0e 3e 9a 2d 74 be bf 77 87 3c ed e7 51 3c
       0.13896604 -0.2384552 0.016536592 0.012811643
000030 95 70 15 be 5b b0 57 bd c0 af 2c 3d b0 20 cf 3d
       -0.14593728 -0.05265842 0.042159796 0.101136565
000040 76 f0 7e 3d a2 bc 33 be 0d 42 a0 3c 6c d4 b2 bd
       0.06224104 -0.17552426 0.019562745 -0.087319225
000050 44 64 49 bd f5 60 93 bd 7a ca be bc b0 2e 49 be
       -0.049167886 -0.071962275 -0.023289908 -0.19646716
000060 fd 77 17 be 13 ab 5b be 67 8e 26 bc 95 9d 06 bd
       -0.14791866 -0.21451978 -0.010165787 -0.032865126
000070 5b 57 c8 3d 8c 36 2a 3d 07 7b c5 bd 5b 66 a1 bd
       0.09782287 0.041555926 -0.09642606 -0.07880851
000080 c4 7f 68 3e 33 2b 80 3b f6 75 13 3a 8a 39 32 be
       0.22704989 0.0039113997 0.00056251825 -0.17404762
000090 da 23 3f 3e 9d cd 39 be ba ac a0 3d 0a a9 06 bd
       0.1866602 -0.18144841 0.07845445 -0.032876052
0000a0 fc cf 3a bd 06 cd 0e bd a2 9b 40 3c b4 04 30 be
       -0.045608506 -0.034863494 0.011755856 -0.17189294
0000b0 b4 73 ce bc 9f 04 ad bd 79 ed 20 be eb 7f da bd
       -0.025201656 -0.08448147 -0.15715589 -0.1066893
0000c0 ab aa 75 bd d6 b0 46 bd de 57 b7 3c 54 5a 34 bd
       -0.059977215 -0.048508488 0.022380766 -0.044031456
0000d0 70 8b d0 bc c1 2f d2 bd f3 4f 21 be 93 87 08 3e
       -0.025457114 -0.102630146 -0.15753154 0.13332967
0000e0 fc d6 c0 bc 91 dc 9b 3d 92 dd 72 be e5 4f a2 3d
       -0.023540013 0.07610429 -0.23717335 0.07925395
0000f0 cf 22 4c 3e 49 dd 85 be 9e 79 1a be 36 23 9e bd
       0.19935153 -0.2614539 -0.15085456 -0.0772156
000100 bd 33 8f 3c 4f 23 8a 3c d5 d8 82 bc 08 d3 c5 bd
       0.017480725 0.01686254 -0.015972534 -0.09659392
000110 f7 35 51 be 7c 91 fa bd 8e 97 68 bd 22 25 38 be
       -0.20430742 -0.1223478 -0.05678516 -0.17982915
000120 53 7b 3c 3d 32 a5 6d be 06 ad 2a be 4b 62 74 bd
       0.04601605 -0.23207548 -0.16667566 -0.059664052
000130 ad d7 1d b9 92 dc 7c bd 31 8a 2e be 4c 14 29 bd
       -0.00015053032 -0.06173379 -0.17044903 -0.041279122
000140 d0 dc 4e 3d 8a 9d e2 3d ca 7b 73 bd bc 8c a9 bc
       0.050503552 0.110652044 -0.059444226 -0.02069699
000150 14 ca 9d 3d ba b8 61 bb d7 66 24 be e8 91 7a bd
       0.07704559 -0.003444238 -0.16054855 -0.061174303
000160 1b d2 29 bd 55 42 12 be a3 47 d4 3d 9a 1b 11 bd
       -0.041460138 -0.14283116 0.10365226 -0.035426714
000170 db a5 40 3d b1 4a 05 be 94 42 09 be b7 cf 6f bd
       0.047033172 -0.13016774 -0.13404304 -0.0585477
000180 21 0a 61 3d 9b 06 8c bd 70 d6 c8 3c cb f9 63 be
       0.0549413 -0.068371974 0.024516314 -0.22263257
000190 e8 98 cc bd e7 8c 9a bd ab 99 1a be c1 9f d2 bc
       -0.09990102 -0.07546406 -0.15097682 -0.025710942
0001a0 53 16 97 3c 7d 41 4d be 11 70 28 be 0c 0d f6 3d
       0.018443262 -0.20044513 -0.16449 0.12014207
0001b0 75 d7 fe bd 9e 9d 1e bd ce b5 f1 bd 56 82 36 3d
       -0.12443439 -0.038724534 -0.118022546 0.04455789
0001c0 c3 0a 36 3d 24 6a 5a be 5f bf 09 be cc 0b 82 bb
       0.044443857 -0.21329552 -0.13451909 -0.0039686915
0001d0 58 73 83 bc 1e cb 8d be 1c 2c 66 bd d6 ae 5a be
       -0.016046211 -0.2769403 -0.05619441 -0.21355757
0001e0 ba e6 86 3d 3b f0 0b be 1f b8 33 be 45 54 fa bd
       0.06586976 -0.1366586 -0.17550705 -0.122231044
0001f0 f3 9b de 3c a9 32 64 bd 3e 14 68 3c 57 3d f8 bc
       0.027173972 -0.055712376 0.014164982 -0.030302687
000200 56 28 54 bd ef 4d 27 bd 4c a4 8f 3d f8 09 41 3e
       -0.05179628 -0.040845808 0.07013759 0.18851459
000210 eb 93 d4 3c 1a 31 53 bd 34 b7 19 be c9 c7 19 be
       0.025949439 -0.0515605 -0.15011293 -0.15017618
000220 8a 04 13 3e 83 4d 35 be b4 62 aa 3d e6 23 0c 3e
       0.143572 -0.1770535 0.083196074 0.13685569
000230 67 83 01 be 31 cd c1 3d 14 a0 13 3c 79 de 05 bc
       -0.12647782 0.09462965 0.009010334 -0.008170717
000240 9c 70 67 3d dc 9b 5d 3d 10 ae 01 bd 94 93 4b 3d
       0.056503877 0.054103717 -0.03166014 0.04970129
000250 c9 82 24 be c9 cf 6b be 83 41 53 be 5b d0 1b bd
       -0.16065516 -0.23028482 -0.2063046 -0.0380405
000260 ce 5a 80 3d 20 ab 05 be 4e 4f 3e be 5e 62 46 3b
       0.062673196 -0.1305356 -0.1858494 0.0030271034
000270 0a a8 13 3e 94 c3 b1 3c 99 f5 08 3e 9c d8 fe 3d
       0.1441957 0.021699704 0.13374938 0.12443659
000280 9a a4 7d bd 76 02 5f bd 8c 98 29 be 4f 48 7b be
       -0.061924554 -0.054445706 -0.16562098 -0.24539302
000290 f4 2d 14 be 76 a4 01 be 09 52 29 bb e6 7d 0a bd
       -0.14470655 -0.12660393 -0.002583625 -0.033811472
0002a0 ae 50 76 3d af b9 75 bd 03 f2 9c 3c ff f5 48 be
       0.060135536 -0.059991535 0.019158369 -0.1962509
0002b0 e0 97 31 3d 85 06 a1 3d 87 33 36 bb 29 68 18 bd
       0.04335773 0.078625716 -0.0027801709 -0.03720871
0002c0 0c 33 31 3c 78 be 89 3d 3a 05 81 bc ba 05 8d 3d
       0.010815393 0.06725782 -0.015749563 0.06885858
0002d0 7f 66 9d bd 50 54 32 be 04 a6 58 bd fb f8 b5 39
       -0.07685565 -0.17414975 -0.0528927 0.00034708515
0002e0 c3 a6 84 bd 46 0f ad 3d 54 2e 92 3b 8f 3b 59 bd
       -0.0647712 0.08450179 0.004461089 -0.053035315
0002f0 0c d6 11 be 42 f5 11 be c1 f4 0a be fa d1 1e 3c
       -0.14241809 -0.14253715 -0.13569929 0.009693617
000300 c0 f6 9a 3b 6a f1 8f bd 00 68 6e bc 1b 07 ec bd
       0.004729122 -0.07028468 -0.014551163 -0.11524793
000310 f5 76 0b 3d 18 3f 11 be 80 65 96 bd 5b 9d 55 bd
       0.034048993 -0.14184225 -0.07343578 -0.05215202
000320 ea 31 e2 bd fa 02 9d bd d0 f9 79 bd 0e b6 b2 3c
       -0.110446766 -0.07666583 -0.061029255 0.021815326
000330 5c 41 10 3d d3 e5 a6 bd 1a 5f 9c bd 96 06 bb bc
       0.03521858 -0.08149304 -0.07635327 -0.022830289
000340 48 8d 5b bd 44 7a 23 be 7b 80 13 3e c5 1b c0 3c
       -0.053601533 -0.1596461 0.1440448 0.023450742
000350 33 27 e3 bd c2 4f c3 3d 07 49 b3 bc f4 a9 a8 bd
       -0.11091461 0.09536697 -0.021885408 -0.08235541
000360 48 00 af 3d 8d cf 58 bd 68 01 8a be 1c 72 01 be
       0.085449755 -0.05293231 -0.26954198 -0.12641186
000370 21 00 23 bd 44 9f 4f be b3 48 04 be 21 a6 ea bd
       -0.039795045 -0.20275599 -0.12918358 -0.11457468
000380 2c de 75 be 24 7c a9 bd 06 ce 36 3d 56 c9 a0 3d
       -0.24010533 -0.08275631 0.044630073 0.07850902
000390 70 75 a1 be 9c 7f e6 bd e0 89 64 3e 5d 51 77 be
       -0.3153491 -0.11254808 0.2231822 -0.24152131
0003a0 dc 3a be bd ce d7 76 bd 72 93 07 be ed 4e 03 be
       -0.0928857 -0.0602644 -0.1323984 -0.12823077
0003b0 4a b1 80 3d b5 67 65 3d bc 89 03 3d 71 1e 4b bc
       0.06283815 0.056007106 0.032113776 -0.0123973945
0003c0 a3 bf 8f bd 91 14 12 bd 74 8c 64 3c 88 87 ee bc
       -0.07018974 -0.035664145 0.013949502 -0.02911736
0003d0 7e 9a a4 bd 68 12 66 3d 41 62 13 be e6 f2 06 be
       -0.080372795 0.056169897 -0.1439295 -0.13178596
0003e0 a1 db 95 3c ba 85 18 3d 0a 12 86 bc f9 41 89 3c
       0.018293204 0.037236907 -0.016366024 0.016755091
0003f0 ad b3 4c bd 70 30 c6 bb 3c 51 e1 bc 6e c8 b1 bd
       -0.04997604 -0.0060482547 -0.027504556 -0.08680807

conv3.bias f4 [256]
000000 d1 e1 20 3e ee bc 32 be 95 a6 6f be 76 0f d0 bd
       0.15711142 -0.17454883 -0.2340339 -0.10159199
000010 eb 8b 37 3e fc 3e 24 be 91 04 1c 3e 97 19 6a be
       0.17924468 -0.16039652 0.15236117 -0.22861324
000020 a2 0a 66 bd 9f e6 e2 3b c3 5c cf bd da 82 fb 3d
       -0.056162484 0.006924465 -0.10125115 0.12280817
000030 f5 6c 10 be 67 21 ab 3d e8 71 ac be 2f 89 84 be
       -0.14104064 0.0835598 -0.33680654 -0.25885913
000040 6e ba 27 3e e4 6d f2 3b 53 4b d7 bd 10 07 86 be
       0.16379711 0.007398354 -0.10512414 -0.26177263
000050 9a 23 c4 bd 20 06 88 bc 0d 27 29 be c3 5c 26 be
       -0.09577103 -0.016604483 -0.16518803 -0.16246323
000060 2e 6d 87 3e fc 34 d0 bd 86 c3 fa 3e 1e c3 e5 3c
       0.26450485 -0.10166356 0.48977298 0.02804714
000070 e9 7f 68 3c f0 ee 95 bd 9a e9 9b bd 40 f1 36 be
       0.014190652 -0.07320964 -0.07612915 -0.17865467
000080 d2 b3 6a 3e 00 b0 ef 3e f3 a8 54 bd ea 67 a6 3d
       0.22920159 0.46813965 -0.051918935 0.08125289
000090 a9 4a 9d 3e d9 ae 5a 3d 7c a8 a4 bd 44 fb 82 be
       0.30721024 0.053389404 -0.08039948 -0.25582325
0000a0 a3 a0 cf bb 78 8a 15 be 33 ee 10 be 40 a3 e1 bc
       -0.006336288 -0.14603603 -0.14153366 -0.027543664
0000b0 37 86 db bd bf e2 91 be 1e da b5 be a0 8b 81 bd
       -0.10718959 -0.28493306 -0.35517973 -0.063254595
0000c0 19 8b ac bd 1b b4 79 be c4 a2 86 3e 59 4e 5e bd
       -0.08424968 -0.24385111 0.26296055 -0.054273937
0000d0 73 e1 2b be 08 1b d5 bd 2a ed d6 3d c5 9b be be
       -0.16785221 -0.104055464 0.10494454 -0.37228218
0000e0 b7 f4 a1 3e 93 16 a3 bc 55 e3 e4 bd 45 01 a1 bc
       0.31632015 -0.019908225 -0.11176173 -0.019653926
0000f0 7f 77 bb bd de 65 1a be d7 14 8c 3d d4 8f 84 bc
       -0.091536514 -0.15077922 0.068399124 -0.016181864
000100 58 8d e4 bd fb d3 1a be 65 10 ba bd 0c 67 40 bd
       -0.11159772 -0.15119927 -0.09085158 -0.046973273
000110 a2 38 cb 3c 7f 6b 29 be e3 ba 1f be 79 8e 58 be
       0.024807278 -0.16544913 -0.15598635 -0.21148099
000120 90 2c a3 bd dc b5 3c be d7 b7 2b be 95 a2 26 be
       -0.07967484 -0.18428749 -0.16769348 -0.16272958
000130 b1 63 4c be b5 05 dd bc 07 d2 aa ba a2 ff c6 bc
       -0.19959904 -0.02698026 -0.0013032564 -0.024291817
000140 a7 11 4b bd e1 a8 b8 bd fd 83 26 3b 86 2f 05 3f
       -0.04957738 -0.09016586 0.002540826 0.5202564
000150 64 28 d1 3d c6 31 8c be 7b fe 6d be d7 b1 11 3e
       0.10212782 -0.27381724 -0.23241608 0.14227997
000160 09 a4 f4 bc 57 05 47 3e ab 38 4c bd 17 dc 55 be
       -0.029863374 0.1943563 -0.04985873 -0.20884739
000170 79 c8 4e be 4a ef aa bd 0d 7e fc ba da e6 54 be
       -0.20193662 -0.08346422 -0.001926364 -0.20791188
000180 fc 9f db 3e 93 ec 57 be 65 2f 89 be 83 39 4e 3e
       0.42895496 -0.2108634 -0.26793972 0.20139126
000190 26 9b b3 bd 72 82 58 be 07 eb 8f 3e 22 6a 06 3e
       -0.087698266 -0.21143511 0.28109 0.13126424
0001a0 27 3b 77 bd 5b 1c 3e be 42 09 f7 bd bc a9 70 be
       -0.060359146 -0.18565504 -0.12062313 -0.23502249
0001b0 28 3f 81 bd ed ef bc bd 1a 1c b0 bc 08 ee 81 3e
       -0.06310874 -0.0922545 -0.021497775 0.25376916
0001c0 5e eb ab bb 51 35 75 be 6b cd ab bd d0 bc e8 bd
       -0.005246564 -0.2394612 -0.0838879 -0.11364138
0001d0 1b cd 17 3c c3 04 4d be ae c0 8a be ab a4 e7 bc
       0.00926521 -0.20021348 -0.27100128 -0.028276762
0001e0 38 33 6e 3e ad 64 b5 bd 08 43 27 be 39 51 29 be
       0.23261726 -0.08857093 -0.16334164 -0.1653489
0001f0 23 75 60 be 47 55 ed bd 12 c2 80 bd 4c 59 05 be
       -0.21919684 -0.11588531 -0.06287016 -0.13022345
000200 28 fc a3 bc ab 6a 9f bd 67 b9 67 be 51 b0 7b be
       -0.020017698 -0.07784017 -0.22629319 -0.24578978
000210 a5 b3 80 be 0c 68 3c be 83 bd b9 3d c8 f9 74 be
       -0.25137058 -0.18399066 0.090693496 -0.23923409
000220 7b ea 1b be a2 77 d1 bd 1d da c7 bd fd 92 01 be
       -0.15226166 -0.10227896 -0.09758399 -0.12653728
000230 99 d9 13 bd 4e 32 c1 3d 31 62 f3 3e 5e 24 08 be
       -0.03609619 0.09433423 0.47535852 -0.13295123
000240 7e ba 60 be f7 32 aa bd f2 f6 b4 3d ec ce dc bd
       -0.21946141 -0.08310502 0.088361636 -0.10781655
000250 f2 20 d5 3e 2c e4 12 3d 6a bc be bd 42 1a 9a 3d
       0.41626698 0.035862133 -0.09313281 0.075245395
000260 6e ea 83 bb b7 6d c8 bd 66 71 0b be 8a 12 a4 3d
       -0.004025749 -0.097865514 -0.13617477 0.080113485
000270 5f f7 24 be 48 e8 fe 3e 41 00 a1 be a0 45 8b 3d
       -0.1610999 0.49786592 -0.31445506 0.06800389
000280 80 00 be be 37 3e e8 bd a9 cb 75 bc ab 73 87 be
       -0.37109756 -0.113399915 -0.01500217 -0.26455435
000290 e3 a4 86 be c8 24 a5 be d2 45 8c bd 37 31 92 bd
       -0.26297674 -0.32254624 -0.06849255 -0.07138293
0002a0 32 27 4c be a6 27 a6 3e d9 3c 91 be db cc 3d 3d
       -0.19936827 0.32452124 -0.28366736 0.046337944
0002b0 f3 47 48 3c 38 e5 2a be 73 73 ce bc af e8 82 3e
       0.012224185 -0.16689003 -0.025201535 0.25568148
0002c0 c4 e4 08 be ac 5f 1d be be 31 20 bd 9b c1 b7 bd
       -0.13368517 -0.15368527 -0.039109938 -0.08972474
0002d0 3a 71 4d be 41 07 31 be 14 08 aa 3c 58 7d 64 3e
       -0.20062724 -0.17287923 0.020755805 0.2231344
0002e0 f0 37 8d 3e 78 3f ff bc 54 6a e8 3d 67 ad 8c 3d
       0.2758174 -0.031158194 0.113484055 0.06869011
0002f0 87 f7 46 be aa 2c 1b 3d e9 9b 05 be 02 62 2c be
       -0.19430362 0.03788439 -0.13047756 -0.16834262
000300 4e 7b 88 be ed 0b 70 be 95 9b 69 be 49 7a 85 bd
       -0.26656574 -0.2344205 -0.22813256 -0.06517465
000310 62 f5 f1 bd 11 50 fe bd 6a aa 8b 3b a8 de 74 bd
       -0.11814381 -0.12417615 0.0042622583 -0.059782654
000320 c7 45 9b be 53 57 ce bd 47 61 0d be de 5c 47 be
       -0.30326673 -0.100752495 -0.1380664 -0.1946902
000330 9c af 09 3e 83 b0 70 be 2c ad 9d 3e 97 80 35 be
       0.13445896 -0.23504834 0.30796182 -0.17724834
000340 87 13 af bd 70 5f 90 be 38 7b f2 3d 28 2c 12 bc
       -0.085486464 -0.28197813 0.11839908 -0.0089216605
000350 0f d9 c4 bd 5d 07 b4 3e 1f 80 92 3e 9d 0c 46 be
       -0.09611713 0.35161868 0.28613374 -0.19340749
000360 f5 c9 ad bd 7a e2 d3 3d 02 7c 73 bc 23 3f ef bd
       -0.08485786 0.10345931 -0.014861109 -0.11681964
000370 7e cf 96 bd cd 13 f6 3d c8 6f 83 be 0e b0 57 3d
       -0.07363795 0.120154954 -0.2567122 0.052658133
000380 8d 97 22 be 37 8c 03 3e bc d8 42 be 9e 26 c2 bd
       -0.15878125 0.12846456 -0.1902799 -0.09480022
000390 d4 c3 c2 bd 47 4f c9 3d 20 29 48 be 19 69 13 be
       -0.095100075 0.09829574 -0.19546938 -0.1439556
0003a0 9a dc 9d bd 35 a2 8f bd bd d9 c9 be aa 2c e0 3e
       -0.07708092 -0.070133604 -0.39423934 0.43784076
0003b0 7d b3 ba bd b6 d9 65 be 93 bd 58 3e 0d 07 a4 bd
       -0.09116266 -0.22446331 0.21166067 -0.08009157
0003c0 8e e1 c6 bd e8 98 53 3e 16 33 25 be 5d 52 3e 3d
       -0.0971099 0.20663798 -0.16132769 0.046465266
0003d0 42 a9 b0 bd a3 21 10 bc 00 2b 3e bd 89 d5 18 be
       -0.08626033 -0.008797082 -0.046427727 -0.14925207
0003e0 fa 00 b1 3d e9 38 4d bd 71 13 fe bd 3c 67 1d be
       0.086427644 -0.050103102 -0.12406052 -0.15371412
0003f0 9e d4 01 3e 10 a1 66 3d dc b9 49 bd 22 27 47 be
       0.12678763 0.056305945 -0.049249515 -0.19448522

fc.weight f4 [12, 256]
000000 4f 77 e7 3c 6f df 10 bd b6 9a 64 bb 5a 6d 2d 3c
       0.028255133 -0.035369333 -0.0034882254 0.0105851535
000010 ce 7e 3b bd fb e0 95 3d ad 63 28 3d 43 03 d1 bc
       -0.045775227 0.07318302 0.041110683 -0.02551425
000020 ca f3 de 3d 3e 15 01 3c a3 f8 2c bd 24 68 12 be
       0.10886343 0.0078786 -0.042229306 -0.14297539
000030 eb 4f bb 3c 92 d4 56 3d f2 ec 7b bd 8e 0f 3b 3d
       0.022865256 0.052448817 -0.061505266 0.04566913
000040 12 ff 9e bd d8 1b c7 bc ec 35 8d bc 03 5d 8b bc
       -0.077634946 -0.02430527 -0.017237626 -0.017012125
000050 d0 42 da 3b fd 4d 92 3d 0b 2e fe bc 55 a7 7b 3d
       0.0066607967 0.07143781 -0.031027814 0.061438877
000060 a8 0d 78 be 91 e1 3c 3d af 23 ac bd 4b b6 87 3d
       -0.2422396 0.046113554 -0.084052436 0.066265665
000070 c0 c1 87 3d 12 96 01 be d7 fd c2 bd ea 97 bd bd
       0.06628752 -0.12654904 -0.09521072 -0.09257491
000080 17 e4 04 be 9d d6 8a be d1 b7 1f 3d f9 b0 a6 bd
       -0.12977634 -0.27116862 0.03899366 -0.081392236
000090 d4 82 17 bc 79 d9 42 3d 48 c7 64 3d 70 ed bd 3c
       -0.0092475 0.04757068 0.055854112 0.023184508
0000a0 18 23 1b bd 6c 2a 6b bd b7 62 92 bb 7c 58 51 bc
       -0.037875265 -0.057413504 -0.004467334 -0.012777444
0000b0 34 f8 9e bd 81 4e 8e 3d bc 96 bb 3c 07 02 48 3d
       -0.07762185 0.06948567 0.022899024 0.04883006
0000c0 94 d2 33 bd 69 72 f5 3c 28 ac a1 bb d5 04 e1 bd
       -0.043901995 0.029961782 -0.0049338527 -0.1098725
0000d0 a9 97 59 39 c4 98 37 bd 01 92 87 bd 54 1e 8e bd
       0.0002075123 -0.044823423 -0.06619645 -0.069393784
0000e0 91 07 82 be 36 df 34 bd db 36 fa 3c 43 46 28 3d
       -0.25396398 -0.044158183 0.030543735 0.04108263
0000f0 c4 37 11 3d db 35 05 bd af 4c 8a 3d 27 39 7b be
       0.035453573 -0.032522064 0.067529075 -0.2453352
000100 c3 4a 0c be ce 3f 9f bd 00 47 a6 3d 4c 47 75 3c
       -0.13700394 -0.07775842 0.08119011 0.014970612
000110 3b a3 0f bc e4 d0 8f 3d 9d 47 2b bd b3 7c 80 3d
       -0.0087669445 0.070222646 -0.041816343 0.062737845
000120 47 a6 cb 3c 2a 3d 25 bc 5f 5c 1b 3d e5 5f 4e 3b
       0.02485956 -0.010085383 0.03792989 0.0031490263
000130 0a a6 ba bc 67 b6 0b bc ac 98 eb 3c 20 60 89 3d
       -0.022784252 -0.008527375 0.028759323 0.067077875
000140 ae 07 0a 3d 50 94 3b bc 65 0c 12 3d 9a fa 81 be
       0.03369873 -0.011448935 0.03565635 -0.25386506
000150 e6 54 01 3d 18 75 ac bd e5 7c 84 bc f5 0b d1 bb
       0.031575106 -0.08420771 -0.016172836 -0.006379599
000160 08 b6 45 bd 8a a3 fd 3c bd cb 83 bd bf e0 5c 3d
       -0.0482693 0.03096177 -0.06435344 0.053925272
000170 0b 10 4b 3a 6e 63 9f 3b 85 44 83 3d 62 b5 6c bd
       0.0007746226 0.004864148 0.064095534 -0.057790168
000180 ee d6 37 bd 08 2e 9d bd 49 98 99 bc 69 a5 13 be
       -0.044882707 -0.076747954 -0.018749373 -0.14418568
000190 1a 50 80 3d 1d d5 c8 3b 17 fb e9 bd cc e5 2f be
       0.06265278 0.0061289207 -0.11424845 -0.17177504
0001a0 0d 59 26 3c 8e ad 51 bc 7c 11 c0 3c 7a b8 13 bc
       0.010153067 -0.012797726 0.023445837 -0.009016151
0001b0 68 b9 83 bd 83 6d c1 3c c8 e1 13 bd 6b d1 fe 3c
       -0.06431848 0.02361179 -0.036103994 0.031105718
0001c0 6d 28 e2 3c e7 1c e0 3c 61 e3 30 ba 87 f0 42 3b
       0.027607167 0.027357532 -0.0006747749 0.0029745416
0001d0 ca 93 6d bd 76 85 5a 3d f8 20 c0 bb 91 3a bf bc
       -0.05800227 0.053349935 -0.005863305 -0.023343356
0001e0 e2 82 dc bd ca 47 a0 3c 0e 86 ac bd 2b 13 80 3c
       -0.107671514 0.019565482 -0.084240064 0.01563414
0001f0 8a d4 d2 bb 4b ee cc 3c 09 3e 2f 3c 11 09 dc bc
       -0.006434028 0.02501597 0.010695943 -0.026859792
000200 22 22 80 3b e5 47 e0 bc 3a 81 1d bc 4d 1d a4 ba
       0.003910319 -0.027378032 -0.00961333 -0.0012520939
000210 97 96 c2 bd ec 39 fe 3c 36 db ed 3c b6 3e c4 3d
       -0.09501379 0.031033479 0.029035192 0.09582274
000220 bd a9 a0 3d 52 a8 2a 3e 54 a1 19 3d 2d 68 57 3d
       0.07844875 0.16665772 0.03750737 0.052589584
000230 f6 cc 6d bc 7a 41 19 3e 93 35 e0 bd dc a6 95 3c
       -0.0145141985 0.14966384 -0.109477185 0.018268041
000240 2c 70 96 3d a0 82 c4 bd 0e 05 f0 3d 1a 16 72 3c
       0.07345614 -0.09595227 0.11719714 0.014775777
000250 58 35 a7 bd eb be 31 3e 39 a4 23 be 5b 87 c3 bd
       -0.081644714 0.17357986 -0.15980615 -0.095473014
000260 56 3b 31 3d 0b fb 2b 3d 94 38 65 3d 6c d2 47 bd
       0.043269478 0.04198746 0.05596216 -0.04878466
000270 50 92 ce 3b c9 4b 8d be 92 41 4b 3d 15 27 9c 3d
       0.006304063 -0.27596882 0.04962308 0.07624642
000280 72 42 72 bc 23 08 aa 3c 9b c1 6e bc 1f c5 67 bd
       -0.01478635 0.020755833 -0.014572526 -0.056584474
000290 fc 86 52 ba 28 97 ad 3c fd 37 58 3d 88 5a 13 be
       -0.00080309785 0.021190241 0.05278777 -0.14390004
0002a0 36 52 1d 3d f1 ed 31 bd 5b be ed bd 60 92 64 bc
       0.03840848 -0.04343981 -0.11608573 -0.013950914
0002b0 ea 9f 29 3c 53 55 91 3c 0c a3 7b 3b 2d a7 5e bd
       0.010353068 0.017740881 0.0038396744 -0.05435865
0002c0 f7 44 ef ba 84 38 ee 3c 91 23 ce be cb fa 52 bd
       -0.0018254806 0.029079683 -0.4026151 -0.051508706
0002d0 ac 1b 29 be b8 f1 8c bc 61 2c 56 3c 71 fe 26 3d
       -0.16514462 -0.017205104 0.013072104 0.040769998
0002e0 66 f8 e4 bb bc 3f a6 3c 3e 18 10 bd 0b 21 d8 bd
       -0.006987619 0.020294063 -0.03517937 -0.105531774
0002f0 0d 33 ef bb ae aa a5 3c 30 1a 6a 3d ec ad ae 3c
       -0.007299787 0.020222988 0.05715388 0.021323167
000300 51 fb c7 bc 1a 48 72 3c 29 9b 90 3b ea 18 ea 3c
       -0.02441183 0.014787698 0.004413028 0.028576333
000310 00 81 13 be a3 c8 84 3c 60 2f 81 3d ea af 69 bd
       -0.14404678 0.016208952 0.06307864 -0.05705253
000320 f5 36 6a 3c b1 8e d7 3d d1 d1 11 3e 36 a9 94 3c
       0.014295329 0.10525263 0.14240195 0.018147092
000330 66 d3 2e be b2 15 11 bc 20 f3 89 3c 48 5f 00 3d
       -0.1707283 -0.00885527 0.016839564 0.031340867
000340 f3 fe bb bb ae de 1a 3d de 19 31 3d 6d e4 18 3c
       -0.0057371794 0.03781002 0.04323756 0.009331805
000350 bd 5b 3b bb 5f c6 6e 3d b2 dd 86 bd 46 f0 16 bd
       -0.0028588616 0.05829465 -0.06585254 -0.036850236
000360 a5 3d 02 be b5 0c 84 bd 6f 72 78 bd 43 38 95 bc
       -0.12718828 -0.06447736 -0.060656007 -0.018215304
000370 e5 93 b4 bd 5f 1e 41 bd a6 77 6c bc a5 92 ee 3d
       -0.08817271 -0.047148105 -0.014432823 0.11649064
000380 27 fd 8b bc 3e 15 78 3c b3 e7 f7 3c 50 2c a1 bd
       -0.017088486 0.015141783 0.03026185 -0.0786978
000390 7f e6 eb 3a c0 33 1b 3d d5 92 92 bd af ff 2c 3c
       0.001799777 0.03789115 -0.07156912 0.010559007
0003a0 b7 71 b4 3c da 33 57 bb d2 82 02 bd bd 37 89 be
       0.02202688 -0.0032837302 -0.03186304 -0.26800337
0003b0 44 ae 99 bd 31 4c 0b bd 94 bb 4b be a6 76 0c bc
       -0.07503942 -0.03400821 -0.19895774 -0.00857321
0003c0 f4 16 b0 3d 62 6d 37 3d 59 f3 2d bd f7 73 f8 3b
       0.08598128 0.04478205 -0.042468403 0.0075821835
0003d0 f1 05 b7 3d 1b 8a c0 bd fd 04 ba bc 5a d0 8d 3c
       0.0893668 -0.094013415 -0.022707457 0.017311264
0003e0 fb 19 11 3b 11 4b 16 3d 3a 7d 6b 3c 09 d7 a1 3d
       0.002214073 0.036692683 0.014373118 0.07902343
0003f0 5d cf ad bd c0 18 1a 3d c4 4d 1b 3d d7 ef c8 bd
       -0.08486817 0.03762126 0.03791596 -0.09811371

fc.bias f4 [12]
000000 0f 6a be be 15 0e 9d be 92 a0 e6 be 65 2f de be
       -0.3719029 -0.30674806 -0.4504438 -0.43395534
000010 8a 9c 78 be 3a bf 34 3e c6 cd 2f 3e fe d5 1a 3c
       -0.24278465 0.17651072 0.1716834 0.009450434
000020 eb b7 77 3e cc b1 bf 3e cb ca cf 3e 1e b6 fc be
       0.24191253 0.37440336 0.40584406 -0.49357694
