src/main/python/saved_models/csharp_1_55_CNNClassifier1_128embs_183id_16hd_0hl_Falsebid5kernel0.5dropout_1.pt (torch, 338123 bytes, 9 tensors)

emb.weight f4 [183, 128]
0	0x3d7e4b57	0.06208357
1	0x3e8598a6	0.26093024
2	0xbfeb7eb0	-1.8398037
3	0x3fddda6a	1.733228
4	0xbfd48e75	-1.6605974
5	0x3f95c57a	1.170089
6	0xbefdd414	-0.49575865
7	0xbee33eeb	-0.4438394
8	0xbf7e2d67	-0.9928803
9	0xbfd1070b	-1.6330274
10	0x3f67e00c	0.90576243
11	0x3f21fc8a	0.6327597
12	0x3f2069ac	0.6266124
13	0x3e24d4bd	0.16096778
14	0x3e9a35b6	0.30119103
15	0x3dcb26a8	0.099194825
16	0x3f0e690b	0.5562903
17	0x3fa37788	1.2770853
18	0x3de73ad5	0.11290518
19	0xbccd1b24	-0.025037356
20	0xbf13e40f	-0.57769865
21	0xbf90aa9e	-1.1302068
22	0x3fbce1c3	1.4756397
23	0xc02d4e93	-2.7079208
24	0x3fa839f1	1.3142682
25	0xbf3d6f79	-0.7399822
26	0xbf018f8d	-0.50609666
27	0x3f0103a2	0.5039617
28	0xbe3df2a9	-0.18549599
29	0x400ae07e	2.169952
30	0x3ea24bd7	0.31698486
31	0x3ee227dc	0.44171035
32	0x402be9f1	2.6861537
33	0x3f82ceea	1.0219395
34	0xbfc8a598	-1.5675535
35	0x3f29789d	0.66199666
36	0x3e91302e	0.2835707
37	0xbf440657	-0.76572174
38	0xbfed4d94	-1.85393
39	0xbf01071f	-0.5040149
40	0x40187b73	2.3825347
41	0x3f9b5e22	1.2138102
42	0x3e9a00e9	0.3007882
43	0xbf9009cc	-1.125299
44	0xbf8fcc73	-1.1234268
45	0x3eeb92ef	0.4601054
46	0x3f6ef4b7	0.93342155
47	0xbefa9f47	-0.48949644
48	0x3f60d7bb	0.8782918
49	0x3e066335	0.13123782
50	0xbf5f3bb1	-0.87200457
51	0xbe732e80	-0.23748207
52	0xc0081a67	-2.1266115
53	0x3b7e24ed	0.0038779334
54	0xbe70dd36	-0.23521885
55	0x3e8e9624	0.27848923
56	0xbf48bfb0	-0.7841749
57	0x3fabbb22	1.3416483
58	0xba79c5b2	-0.0009528055
59	0xbf1c5f87	-0.61083263
60	0x3fa059ed	1.2527443
61	0x3f3899ed	0.7210987
62	0x3faee945	1.3664938
63	0xbf42b647	-0.76059383
64	0x3f06b007	0.52612346
65	0x3ff68302	1.925873
66	0xbef393a0	-0.47573566
67	0xbc15c8e7	-0.009142137
68	0x3fc306cb	1.5236448
69	0x3e7a9271	0.24469925
70	0xbf948af6	-1.1604908
71	0xc0157476	-2.3352332
72	0x3f44ce6a	0.7687746
73	0x3f632526	0.8872856
74	0x4018f427	2.3899019
75	0xc04f6388	-3.24045
76	0xbe3cd846	-0.18441877
77	0x3e43b53f	0.19112109
78	0x3f86133e	1.0474622
79	0x3f231733	0.63707274
80	0xbfaa1094	-1.3286309
81	0x40124b74	2.2858553
82	0x3f3715a2	0.71517384
83	0x40141689	2.3138754
84	0x3f861ff1	1.0478498
85	0x3eebb5d3	0.46037158
86	0x3f258502	0.6465608
87	0xbf8bb0f4	-1.0913377
88	0xbf054a2b	-0.52066296
89	0xbdd1d6a4	-0.102460176
90	0x40486e11	3.131718
91	0xbdaf5ebc	-0.08562991
92	0x400cd2a5	2.2003567
93	0x3f47a472	0.779853
94	0xbf8e552d	-1.1119744
95	0xbe30c461	-0.17262413
96	0x3ecd3bd5	0.4008471
97	0xbf2e54c5	-0.680981
98	0xbfb0a5b7	-1.3800572
99	0xbdbd3425	-0.092384614
100	0xbc7e3a0e	-0.015516771
101	0x3faa1223	1.3286785
102	0x3f96ce76	1.1781757
103	0xbf257904	-0.6463778
104	0xbf365893	-0.71228904
105	0x3fbd53ad	1.4791161
106	0x3f3543c3	0.7080652
107	0x3eaa9fd7	0.33325073
108	0x3f62ee1e	0.8864459
109	0x3f029079	0.510017
110	0xbfa61e92	-1.2978079
111	0xbf24dafc	-0.64396644
112	0x3e14a133	0.14514618
113	0xbee69fe7	-0.4504387
114	0xbffc8b5f	-1.9730033
115	0xbeb2872c	-0.34868753
116	0xbe41a62c	-0.18911046
117	0x4006b20a	2.1046166
118	0xbd8f241a	-0.06989308
119	0xbf590626	-0.84775007
120	0x3f50b6af	0.81528753
121	0x3f47dddb	0.780729
122	0x3f95cb55	1.1702677
123	0x3f59af52	0.8503314
124	0xbf62f873	-0.88660353
125	0x3f26f63f	0.6521949
126	0xbf792e3c	-0.97336173
127	0xbf41e94d	-0.75746614
128	0xbf1d4878	-0.61438704
129	0xbd7c4982	-0.06159354
130	0x3fa34c35	1.2757632
131	0x3f5caeed	0.86204416
132	0xbf6e68d4	-0.93128705
133	0x3f6c0e12	0.9220897
134	0xbf8de077	-1.1084126
135	0xbead4f9a	-0.33849794
136	0x3fac3b00	1.3455505
137	0xbecf8137	-0.4052827
138	0xbf2cc91c	-0.6749437
139	0x3f0cae64	0.549536
140	0x3e9556ce	0.2916779
141	0x3fe2d5c5	1.7721487
142	0x3e960c39	0.293062
143	0xbf161f85	-0.58641845
144	0x3fd39799	1.6530639
145	0x3fac20c9	1.3447505
146	0x3e0f6151	0.14001967
147	0x3e436208	0.19080365
148	0x3e3a46c6	0.1819106
149	0xbf43b8c4	-0.76453805
150	0xbf98e2b0	-1.194418
151	0xbd9de242	-0.07709171
152	0x3d2154ab	0.039387386
153	0x3f1a9247	0.6037945
154	0x3e49dfb5	0.19714244
155	0xbf2a2b58	-0.6647239
156	0xbdc55957	-0.09636181
157	0xbf8fe167	-1.1240662
158	0x3f6ce097	0.92530197
159	0x3e9aab66	0.30208892
160	0xbfd9c211	-1.7012349
161	0x3f14027d	0.57816297
162	0xbfff9ae2	-1.9969141
163	0x3f363c09	0.71185356
164	0x3fa4dac7	1.2879266
165	0xbf068070	-0.5253973
166	0xbf48fe90	-0.7851343
167	0xbe84ee84	-0.25963223
168	0x3e337af2	0.17527369
169	0x3f734120	0.9502125
170	0x3efab0c5	0.4896299
171	0x3f5cab9f	0.86199373
172	0xbfcf20c0	-1.618187
173	0x3dce3278	0.1006822
174	0xbde08f65	-0.1096485
175	0xbf542866	-0.82874143
176	0x3e6702e2	0.22559693
177	0x3dbc1501	0.09183694
178	0xbe015cdd	-0.12633081
179	0x3f8204ac	1.0157676
180	0xbfbd89d8	-1.4807692
181	0x3fb51847	1.4148034
182	0xbfa5f0d5	-1.2964121
183	0xbef6f34a	-0.4823249
184	0xbf2d7d5e	-0.6776942
185	0x3d77b909	0.060479198
186	0x3de76b0b	0.11299714
187	0xbfd3a011	-1.6533223
188	0xc00efc10	-2.2341347
189	0x3dd58d30	0.1042732
190	0xbddb5424	-0.10709408
191	0x3f633978	0.88759565
192	0x3d804325	0.06262807
193	0x3d749d81	0.05972052
194	0x3ff8d387	1.9439553
195	0xc02c3edc	-2.6913366
196	0x3f61e138	0.8823428
197	0xc012f001	-2.2958987
198	0x3f4cfa18	0.8006911
199	0x3eb89744	0.36052907
200	0xbdfe7caf	-0.12426125
201	0xbf29eaa8	-0.6637368
202	0x3f81b668	1.0133791
203	0xbe695056	-0.22784552
204	0xbfb46c56	-1.4095562
205	0xbeecc0f9	-0.46240976
206	0xbea343e3	-0.3188773
207	0x3fa961fc	1.3233027
208	0xc0038fc5	-2.05565
209	0x3ebb7904	0.36615765
210	0x3e2a70fd	0.16644664
211	0x3f769a43	0.96329135
212	0x3f936059	1.1513778
213	0x3de5a2a0	0.11212659
214	0xbfbd085f	-1.476818
215	0x3f32da34	0.698642
216	0x3f84f109	1.0386058
217	0xbfaad897	-1.3347348
218	0xbfa07883	-1.2536777
219	0xbec421ff	-0.38307187
220	0x3ebd5dbb	0.36985573
221	0x4000786c	2.00735
222	0xbf327713	-0.6971294
223	0x3f09a9a3	0.5377447
224	0xbf8ae3c4	-1.0850759
225	0xbe2f8c1f	-0.17143296
226	0x3f2b0465	0.6680358
227	0x3e9a9122	0.30188853
228	0xbf416144	-0.7553904
229	0xc00bebb4	-2.1862612
230	0xbf6f6640	-0.93515396
231	0xbfa728c9	-1.3059322
232	0x3ff8ce19	1.9437896
233	0x3f4f9daf	0.8109998
234	0xbf7abf68	-0.9794831
235	0x3dc21deb	0.09478363
236	0x3f68e760	0.9097805
237	0xbc9284bc	-0.017885558
238	0x3e9cc7e1	0.30621246
239	0x3f3b02f5	0.7305139
240	0x3f6f975e	0.93590343
241	0x3f8520b4	1.0400605
242	0xbf3500dc	-0.70704436
243	0x3e79a9e3	0.24381213
244	0x3e3f5d2b	0.18687885
245	0xbe17c65b	-0.1482176
246	0x4021d808	2.5288105
247	0xbf312603	-0.69198626
248	0x3e87d441	0.26529124
249	0xbd8d19a3	-0.068896554
250	0xbf49e2fe	-0.7886199
251	0x3faebfdc	1.3652301
252	0x3ef92317	0.48659584
253	0xbcde4898	-0.027134225
254	0x3d57222e	0.05252283
255	0x3f06fd3f	0.5273017

conv1.weight f4 [16, 128, 5]
0	0x3df714a0	0.12064481
1	0xbe94226b	-0.2893251
2	0x3cc8fcf6	0.024534684
3	0x3d20ed23	0.03928865
4	0x3d43b311	0.047778193
5	0xbd019442	-0.03163553
6	0x3b0d0ce3	0.0021522574
7	0x3e027f43	0.12743859
8	0xbe1aa665	-0.15102537
9	0xbe0e8541	-0.1391802
10	0xbd292066	-0.041290663
11	0xbc8798de	-0.016552385
12	0x3ba146ab	0.0049217544
13	0x3d30b415	0.04314049
14	0xbd5ceeb8	-0.053938597
15	0xbc880820	-0.016605437
16	0x3bff48c4	0.0077906568
17	0xbe4efaba	-0.20212832
18	0x3dbbcdba	0.091700986
19	0xbdfea8ad	-0.12434516
20	0x3defed90	0.11715233
21	0x3d37106f	0.044693407
22	0x3e02abf0	0.12760901
23	0xba4c73fc	-0.00077992654
24	0x3d4a533c	0.049395785
25	0xbcb28e89	-0.021796482
26	0xbe4f1daf	-0.20226167
27	0xbe9acd65	-0.3023483
28	0x3e1dce2f	0.15410684
29	0xbe4b2e96	-0.1984199
30	0xbcdbd085	-0.026832828
31	0x3c95cfd8	0.018287584
32	0xbd78b04d	-0.06071501
33	0x3d9d56b8	0.07682556
34	0xbd2e9dda	-0.042631008
35	0xbe030ca2	-0.12797788
36	0xbdbbb2de	-0.091649756
37	0x3dc52897	0.096268825
38	0x3c0b538e	0.008503808
39	0xbd1dede2	-0.03855694
40	0x3ddb72a0	0.10715222
41	0x3d17b58e	0.03703838
42	0xbe1efebc	-0.15526861
43	0x3bdd5171	0.0067540933
44	0x3e1b1fa7	0.15148793
45	0xbdd8eb22	-0.10591723
46	0xba18eb03	-0.00058333593
47	0xbd712797	-0.058875646
48	0xbda92a54	-0.082600266
49	0x3cebfe87	0.028807892
50	0xbd457fe5	-0.048217673
51	0x3e524280	0.2053318
52	0xbe49f4c6	-0.1972228
53	0xbd8164f1	-0.06318081
54	0x3d9bc324	0.076055795
55	0xbd9f7cdf	-0.07787489
56	0xbe1df892	-0.15426853
57	0xbda7ffd7	-0.082030945
58	0x3db043b6	0.08606665
59	0xbdcd93dc	-0.100379676
60	0x3deb2edf	0.11483549
61	0x3d07cbf0	0.033153474
62	0x3e4ae74a	0.19814792
63	0xbcf49246	-0.029854905
64	0xbdd3d6b8	-0.10343689
65	0x3db89692	0.09013094
66	0xbedde9c3	-0.4334241
67	0x3e66f777	0.22555338
68	0xbc883afa	-0.016629685
69	0xbe31c0d2	-0.17358711
70	0xb89326b1	-7.016713e-05
71	0xbcbe66fc	-0.023242466
72	0x3e12ac70	0.14323592
73	0xbd9023f3	-0.07038107
74	0x3cde8eb9	0.027167665
75	0x3d33aef3	0.043868016
76	0xbe621250	-0.22077298
77	0xbde83582	-0.11338331
78	0x3ceb6ef7	0.028739436
79	0xbe1d2087	-0.1534444
80	0x3e5dcdc1	0.2166052
81	0xbd766d52	-0.06016285
82	0x3d96c6d6	0.07362144
83	0xbc0842e9	-0.008316734
84	0x3a8e64b1	0.0010863749
85	0xbe0e333f	-0.13886736
86	0xbdfaee10	-0.12252438
87	0x3e31a304	0.17347342
88	0x3c545166	0.01295886
89	0xbdf866be	-0.121289715
90	0x3dc15605	0.09440235
91	0x3dcdcfb4	0.10049382
92	0xbcbd43da	-0.023103643
93	0x3d3117d4	0.043235615
94	0xbd638ae2	-0.05555237
95	0xbd183f38	-0.037169665
96	0x3e530f32	0.20611265
97	0x3ba54adc	0.0050443243
98	0xbd201b0e	-0.0390883
99	0xbe021d1e	-0.1270642
100	0x3daef2ba	0.0854239
101	0x3d98a786	0.074538276
102	0xbccee74f	-0.02525678
103	0xbc9cf3a7	-0.019159151
104	0x3d2f76be	0.04283785
105	0xbb140a27	-0.002258906
106	0xbe0dd42a	-0.13850465
107	0xbd856af8	-0.06514543
108	0x3dba4903	0.09095957
109	0x3d59ab3c	0.053141817
110	0x3cc82e8d	0.02443626
111	0x3e0829d1	0.13297202
112	0xbd64a346	-0.055819772
113	0x3c778e03	0.015109542
114	0xbdac27c8	-0.08406025
115	0x3d23e51a	0.04001341
116	0xbe3ed779	-0.18636884
117	0xbe1e7fb3	-0.15478401
118	0xbd6cf77f	-0.05785322
119	0xbcced34c	-0.025247239
120	0xbda499bb	-0.08037134
121	0x3d61b37c	0.05510281
122	0x3da17c6a	0.07885058
123	0xbe138e87	-0.14409839
124	0x3e01ccba	0.12675753
125	0x3e1e6ad3	0.15470438
126	0xbdf98cff	-0.12185096
127	0x3df4cda8	0.11953288
128	0xbd96dd98	-0.073664844
129	0xbd6eb370	-0.058276594
130	0x3e5c677e	0.21523854
131	0xbd39eab8	-0.04538986
132	0xbd639933	-0.055566024
133	0x3cec3a94	0.028836526
134	0x3e4da7d9	0.2008356
135	0x3c1dd5fc	0.009633537
136	0x3d3ffe7b	0.04687355
137	0x3e2088f8	0.1567725
138	0x3d86d8bd	0.06584308
139	0x3c514938	0.012773804
140	0x3e8b34df	0.27188775
141	0x3c909e7f	0.017653702
142	0x3ea53782	0.32268912
143	0x3d5c6e41	0.053816084
144	0xbe48b79b	-0.1960129
145	0xbe28d020	-0.16485643
146	0xbdc8b2cd	-0.097997285
147	0x3e0dd59f	0.13851021
148	0x3ded4a9b	0.115864955
149	0x3d4ee156	0.050507866
150	0xbdb6d50e	-0.08927356
151	0xbdbc44b3	-0.09192791
152	0xbdb41570	-0.087931514
153	0x3c9c5e67	0.019087983
154	0xbd51dbad	-0.05123489
155	0x3e8bb392	0.2728544
156	0x3db9be89	0.09069545
157	0x3ddcc63f	0.1078
158	0xbdfe2c59	-0.124108024
159	0xbd66a03b	-0.05630515
160	0x3dc1ea69	0.09468538
161	0x3d48bb1a	0.04900656
162	0x3e67144a	0.22566333
163	0xbd917736	-0.07102816
164	0x3e0bdb3c	0.1365785
165	0xbcee9ddc	-0.029128008
166	0xbcbcc87d	-0.023044819
167	0x3d3219ea	0.043481745
168	0x3e1f0ea1	0.15532924
169	0xbd02611e	-0.0318309
170	0xbbec81d6	-0.007217626
171	0x3dcd13e2	0.10013558
172	0xbdc8a985	-0.09797958
173	0x3e2dded4	0.16979533
174	0xbddb762d	-0.107158996
175	0xbc0faa0f	-0.0087685725
176	0xbd20ae26	-0.03922858
177	0x3d2b9758	0.04189238
178	0xbe2c5162	-0.1682792
179	0x3d81879a	0.06324692
180	0xbab112c1	-0.0013509617
181	0x3d1470b4	0.036240295
182	0x3d13e81a	0.03611002
183	0x3ca1aac6	0.019734751
184	0x3e3177e9	0.17330898
185	0x3ccad0fe	0.024757858
186	0x3e0b301a	0.13592568
187	0xba2ee214	-0.00066712615
188	0xbe30ce4d	-0.17266198
189	0x3d673c61	0.056454066
190	0xbd5d3c1c	-0.054012403
191	0xbe1ccb03	-0.15311818
192	0xbe3bc639	-0.18337335
193	0xbc649f72	-0.01395403
194	0x3bf595ab	0.0074946485
195	0xbd04b321	-0.032397393
196	0x3d81a253	0.06329789
197	0xbceb1890	-0.028698236
198	0x3de9fb38	0.11424869
199	0xbdd57cee	-0.10424219
200	0xbd559c30	-0.052150905
201	0xbd1fb952	-0.038995095
202	0x3da343ac	0.07971892
203	0xbddf8705	-0.10914425
204	0xbe465613	-0.19368772
205	0x3de4d1d4	0.11172834
206	0x3e084d63	0.1331077
207	0xbe5e0036	-0.21679768
208	0x3d758464	0.05994071
209	0x3dbb01e1	0.09131218
210	0x3cdbee25	0.026846955
211	0x3e1e0b65	0.15434034
212	0xbe81a89e	-0.25323957
213	0x3de6394a	0.11241396
214	0x3d0c0ab2	0.034189887
215	0x3d30d920	0.043175817
216	0x3daab9ac	0.08336195
217	0x3dc9bc1a	0.09850331
218	0xbc6cd5a7	-0.014455236
219	0xbb901f04	-0.0043982286
220	0xbe20d53b	-0.15706341
221	0x3d35e1b0	0.044404685
222	0x3d5a6757	0.05332121
223	0xbcdb9a73	-0.026807046
224	0xbd204bfe	-0.03913497
225	0xbd23c197	-0.039979544
226	0xbe612298	-0.21985853
227	0x3e1a29b1	0.15054967
228	0x3c0a0b00	0.008425474
229	0xbe423e7e	-0.18969151
230	0x3e19c491	0.1501639
231	0x3dc126b2	0.09431209
232	0x3eaa4df2	0.33262593
233	0xbdb9b559	-0.090677924
234	0x3e1f6493	0.1556571
235	0xbe2a2527	-0.16615735
236	0x3e96aa14	0.29426634
237	0x3dfc29ea	0.12312682
238	0xbd3a02de	-0.04541289
239	0x3e0cf47d	0.1376514
240	0x3e21c073	0.1579607
241	0xbdc16176	-0.09442417
242	0xbe5de3f8	-0.21668994
243	0xbdce361d	-0.10068915
244	0xbcc72863	-0.02431125
245	0x3d180c7e	0.03712129
246	0xbe5e9159	-0.21735133
247	0x3e08875e	0.13332888
248	0x3c374616	0.011186143
249	0xbc01b4b6	-0.00791662
250	0xbdc102c3	-0.09424355
251	0xbd505da6	-0.05087056
252	0x3d16fb5e	0.036860816
253	0xbc4c19a0	-0.012457281
254	0x3e01f522	0.12691167
255	0xba59657a	-0.0008293014

conv1.bias f4 [16]
0	0xbedbc980	-0.4292717
1	0xbddb706e	-0.10714804
2	0xbc4e519a	-0.0125926975
3	0xbed4dac6	-0.4157316
4	0xbd40ce12	-0.047071524
5	0xbe92ade6	-0.286483
6	0xbefc9a75	-0.4933659
7	0xbea6a627	-0.3254864
8	0xbf314600	-0.69247437
9	0xbe21550b	-0.15755098
10	0xbeff5541	-0.4986973
11	0xbd90bc12	-0.070671216
12	0xbc76002f	-0.015014692
13	0xbe8ec070	-0.27881193
14	0x3e03b2b0	0.12861133
15	0xbed554ea	-0.41666347

conv2.weight f4 [16, 128, 3]
0	0x3d916098	0.07098502
1	0xbe1065e9	-0.14101376
2	0x3dc4d0b5	0.0961012
3	0x3e4297dc	0.19003242
4	0xbe665d9c	-0.22496647
5	0x3e8b0703	0.27153787
6	0x3d5e6b37	0.054301467
7	0xbd4cd0a9	-0.05000368
8	0x3db70d68	0.08938104
9	0x3cf28efc	0.029609196
10	0x3d8154fd	0.06315038
11	0xbbe40fe4	-0.006959902
12	0x3e3a8df9	0.18218221
13	0x3dadc01d	0.08483908
14	0xbdfc1402	-0.12308504
15	0xbc436ddc	-0.011928048
16	0x3e218e65	0.15776975
17	0xbd827ada	-0.06371088
18	0xbcd42328	-0.02589567
19	0x3e1b222a	0.15149751
20	0x3d6b94f6	0.057515107
21	0x3bc890d4	0.0061207805
22	0xbe98401c	-0.29736412
23	0x3debad0e	0.11507617
24	0xbe73bc16	-0.23802218
25	0x3d995e1e	0.074886546
26	0xbdbf697c	-0.093462914
27	0x3da0525a	0.07828207
28	0xbde36f5f	-0.11105227
29	0xbc23d370	-0.009999141
30	0x3d1afc0e	0.037838034
31	0x3d5b9d75	0.05361696
32	0x3ca374eb	0.019953212
33	0xbc8e2225	-0.017350266
34	0x3b6e4630	0.0036357753
35	0xbe01bcf1	-0.12669732
36	0x3e083fc9	0.13305582
37	0x3e3324c9	0.17494501
38	0x3e41303f	0.1886606
39	0xba1a6299	-0.0005889326
40	0xbda71f31	-0.08160246
41	0xbd69b733	-0.057059478
42	0x3c320d34	0.010867406
43	0xbe032a1b	-0.1280903
44	0xbaad2815	-0.0013210798
45	0xbe1912d1	-0.14948584
46	0xbc4db98d	-0.012556446
47	0xbdf7479d	-0.12074206
48	0xbd32678e	-0.04355579
49	0xbc2a43ba	-0.010392124
50	0x3d9b4891	0.075822
51	0xbd567076	-0.052353345
52	0xbdbdfecc	-0.09277114
53	0xbd3ff0cf	-0.046860512
54	0x3a639b38	0.0008682492
55	0x3e9906f4	0.29888117
56	0x3cf5a255	0.029984633
57	0xbde79c2f	-0.113090865
58	0x3d76dbfe	0.060268395
59	0x3e5871a1	0.21137096
60	0x3e07b5db	0.13252966
61	0xbe05c9dd	-0.13065286
62	0xbdf0b593	-0.117533825
63	0x3aec73ff	0.0018039941
64	0x3dc5f1aa	0.096652344
65	0xbdd3a7a2	-0.10334708
66	0xbd028924	-0.03186907
67	0x3d331682	0.043722637
68	0xbdfdbe7d	-0.123898484
69	0xbd76df74	-0.060271695
70	0x3c5d9a4a	0.013525555
71	0xbe277b0c	-0.16355532
72	0xbdda1516	-0.10648553
73	0xbda0ba96	-0.078480884
74	0x3de9f5e4	0.11423853
75	0x3e2a79c7	0.16648017
76	0x3d2725b3	0.040807437
77	0xbe13b86a	-0.14425817
78	0x3d4bace9	0.049725447
79	0x3bb2b2c5	0.00545344
80	0xbe2d76be	-0.16939828
81	0x3e60bfb3	0.21948127
82	0x3df1eb00	0.11812401
83	0xbcd3a62c	-0.025836073
84	0x3e74c704	0.23904043
85	0x3dd6d018	0.104889095
86	0x3e844b9a	0.2583893
87	0xbd371329	-0.044696007
88	0x3c65f380	0.014035106
89	0x3dcf3c15	0.101188816
90	0xbe3fc743	-0.18728356
91	0xbd5d4f3b	-0.05403064
92	0xbdb51a87	-0.0884295
93	0xbd9200b4	-0.0712904
94	0x3dd5b121	0.10434175
95	0x3e30abfc	0.17253107
96	0xbdc79c49	-0.09746606
97	0xbdd1ad16	-0.10238092
98	0x3e1c5f60	0.15270758
99	0xbcb168aa	-0.021656353
100	0x3d80565b	0.06266471
101	0xbdd24a1c	-0.102680415
102	0xbde222c2	-0.11041786
103	0xbdc39946	-0.09550719
104	0xbcfcb1d5	-0.030846516
105	0xbbb30cbe	-0.0054641655
106	0xbe84d7de	-0.25945944
107	0x3dccb437	0.09995311
108	0x3e3c67fc	0.18399042
109	0xbec8e80b	-0.39239535
110	0xbe7c6ba8	-0.24650443
111	0x3d0ec403	0.0348549
112	0xbc18db4f	-0.009329631
113	0x3ca161aa	0.01969989
114	0xbba91717	-0.005160223
115	0xbd1bcc45	-0.038036603
116	0xbe35361a	-0.1769642
117	0xbd53fa2b	-0.05175225
118	0x3cedfcd9	0.029051231
119	0x3e4ed41c	0.20198101
120	0xbd84399b	-0.064563
121	0xbdf48e9f	-0.11941265
122	0x3ca27d2a	0.019835074
123	0x3e4c8dc8	0.1997596
124	0x3b57a8fa	0.0032907114
125	0x3df6573f	0.120283596
126	0xbcc2649a	-0.023729611
127	0xbe3b950e	-0.18318579
128	0xbd4c7e11	-0.049924914
129	0x3d6ebbd0	0.05828458
130	0xbe468610	-0.19387078
131	0x3d918449	0.071053095
132	0x3c722303	0.014778855
133	0xbe2ba557	-0.16762291
134	0x3e138d61	0.144094
135	0x3e4787f3	0.19485454
136	0xbd986035	-0.07440225
137	0x3bed307a	0.007238445
138	0x3e162bcf	0.14665149
139	0xbe3c7a78	-0.18406093
140	0xbd5f413c	-0.05450557
141	0x3dbd8c52	0.092552796
142	0x3d718fa5	0.05897488
143	0x3e4c59d8	0.19956148
144	0xbd2a28b0	-0.04154271
145	0x3da13cac	0.078729
146	0x3d0dcae3	0.034617316
147	0xbc4005e5	-0.011720155
148	0xbe535782	-0.2063885
149	0x3da0c690	0.07850373
150	0xbdfa5627	-0.122234635
151	0xbea0d69a	-0.31413728
152	0xbe9bdbb6	-0.30441064
153	0x3e0a2653	0.13491182
154	0xbda4bfa0	-0.08044362
155	0x3d246b33	0.040141296
156	0xbd2443d7	-0.04010376
157	0xbe4d9b65	-0.2007881
158	0xbd35d699	-0.04439411
159	0xbd8ef21f	-0.06979775
160	0x3bf00878	0.0073252283
161	0xbceb69a6	-0.0287369
162	0xbd4450f6	-0.047928773
163	0xbc1f0794	-0.009706397
164	0xbe1a6f6b	-0.15081565
165	0x3d326815	0.04355629
166	0xbe3dfa57	-0.18552528
167	0x3e4268a4	0.1898523
168	0x3d5097c8	0.050926
169	0xbdc25938	-0.094896734
170	0xbe5bbb4c	-0.21458167
171	0xbc93dbb1	-0.018049093
172	0xbb8965bb	-0.0041930354
173	0xbe0842ae	-0.13306686
174	0xbd9532ed	-0.07285104
175	0xbcdff3b7	-0.027337892
176	0x3e1fbf7a	0.15600386
177	0xbd218580	-0.039433956
178	0x3e68798b	0.22702615
179	0xbdd58957	-0.10426586
180	0x3d130b54	0.035899475
181	0xbda4f27a	-0.08054061
182	0x3e8cb60a	0.27482635
183	0x3d58fa81	0.052973274
184	0x3e2cf6c9	0.16891016
185	0x3c977551	0.018488558
186	0xbda5b49f	-0.08091091
187	0xbcfeb8fe	-0.03109407
188	0x3c9d2767	0.019183828
189	0xbd022d16	-0.03178128
190	0x3d568382	0.05237151
191	0xbdb17d5c	-0.086664885
192	0x3d909ec7	0.070615344
193	0xbe43bc60	-0.19114828
194	0x3d7e2102	0.062043197
195	0xbcf352dd	-0.029702598
196	0x3debf95a	0.115221694
197	0x3dc9bf1b	0.098509036
198	0x3e0aa113	0.13538007
199	0xbe736840	-0.23770237
200	0x3da0c874	0.078507334
201	0xbdec6a3b	-0.11543699
202	0x3cd4b75e	0.025966343
203	0x3e45a324	0.19300514
204	0xbda5937d	-0.08084772
205	0x3df865d8	0.121288
206	0x3b09ea1e	0.0021044086
207	0x3c12a178	0.00894963
208	0x3dbb79c4	0.09154084
209	0xbd5bc39e	-0.053653352
210	0xbd3946f8	-0.045233697
211	0x3ca7bb6b	0.02047511
212	0xbdaba5b5	-0.083812155
213	0x3c317eb3	0.01083343
214	0x3dbf0366	0.0932682
215	0x3d1992d3	0.037493538
216	0xbd19ee24	-0.037580624
217	0x3d09da30	0.033655345
218	0x3cb5ecb3	0.022207594
219	0x3e0351c9	0.12824167
220	0xbe420838	-0.18948448
221	0x3df5ebb0	0.120078444
222	0x3e1d936c	0.15388268
223	0x3dc8b49b	0.09800073
224	0x3e10deed	0.1414754
225	0x3c1a173e	0.009404955
226	0xbd9d785b	-0.076889716
227	0xbe51a217	-0.20471989
228	0xbdcfdc3b	-0.101494275
229	0xbe592ecb	-0.21209256
230	0x3ccef0fa	0.025261391
231	0xbca9fb74	-0.020749785
232	0x3cfe94b0	0.03107676
233	0x3e253e60	0.16137075
234	0x3ddaf593	0.10691371
235	0x3d8d19d6	0.068896934
236	0xbdcd227f	-0.10016345
237	0xbd40acb4	-0.047039703
238	0xbe2e89b0	-0.17044711
239	0x3d54e1e2	0.05197323
240	0xbd96a6db	-0.07356044
241	0x3e168fe8	0.14703333
242	0xbe16e69d	-0.1473641
243	0x3e1b8c46	0.15190229
244	0x3e4e3a9a	0.20139542
245	0x3e5929f7	0.21207415
246	0x3c7b2d71	0.015330658
247	0xbe5c8b72	-0.21537569
248	0x3c0f1d95	0.00873508
249	0x3dc73a67	0.09727936
250	0xbe258523	-0.16164069
251	0x3e5f1c23	0.21788077
252	0x3dc4f95c	0.09617874
253	0xbd5b6c98	-0.05357036
254	0xbdf25f37	-0.11834567
255	0x3e9243ca	0.28567344

conv2.bias f4 [16]
0	0xbee487fb	-0.44634995
1	0xbf213585	-0.6297229
2	0xbee2eb05	-0.4431993
3	0xbdcde24d	-0.10052929
4	0xbf2af4a0	-0.6677952
5	0xbf1d0c79	-0.61347157
6	0x3d9f728d	0.07785521
7	0x3d8e2114	0.06939903
8	0xbe88ab3f	-0.2669315
9	0xbe6bd5aa	-0.23030725
10	0xbeaad62f	-0.33366534
11	0xbec135e6	-0.37736434
12	0xbe4c5e1c	-0.19957775
13	0xbe90d6e7	-0.28288957
14	0xbefb4b8c	-0.49081075
15	0xbee20cb3	-0.44150314

conv3.weight f4 [256, 32, 5]
0	0x3ddbe682	0.10737325
1	0xbe9ae8b0	-0.3025565
2	0xbd9cef68	-0.076628506
3	0xbda14da8	-0.0787614
4	0xbe2dec07	-0.16984569
5	0xbe2c4c3f	-0.1682596
6	0xbd5c9866	-0.053856276
7	0x3e056b73	0.1302927
8	0xbda43cf9	-0.08019442
9	0xbec3c38a	-0.38235122
10	0xbcd62ade	-0.026143488
11	0xbe912db9	-0.28355196
12	0xbd9d6ef4	-0.07687178
13	0x3df3d91f	0.11906647
14	0x3de042b5	0.10950223
15	0x3e960a0f	0.2930455
16	0xbe9053c0	-0.28188896
17	0xbdf6c826	-0.12049894
18	0x3e04620a	0.12928024
19	0xbdb81c89	-0.08989818
20	0x3e27b3f1	0.16377236
21	0xbea6bd5b	-0.32566342
22	0x3d89952e	0.06717907
23	0x3dc5c6ad	0.09657035
24	0xbe47a7eb	-0.1949765
25	0x3e017fec	0.12646455
26	0xbd3014ba	-0.042988516
27	0x3db38cf7	0.08767121
28	0x3df0625d	0.11737511
29	0x3d8d9aef	0.06914317
30	0xbec51efc	-0.38500202
31	0xbde4b9f2	-0.11168279
32	0xbe9e926b	-0.30971083
33	0xbe8ec6ee	-0.27886146
34	0xbd3bd712	-0.045859404
35	0xbeb1014f	-0.3457131
36	0x3dddf91a	0.10838528
37	0x3e135234	0.14386827
38	0xbd24eb9a	-0.04026375
39	0x3cbf685b	0.02336519
40	0x3e7f3c09	0.24925245
41	0xbcfbf3ee	-0.030755963
42	0x3e95cb9a	0.29256898
43	0xbc8bf98d	-0.017086769
44	0x3e35f676	0.17769799
45	0xbe49b599	-0.1969818
46	0xbc40ba04	-0.0117631
47	0xbe9f7894	-0.3114668
48	0xbd009dd2	-0.03140051
49	0xbe4041c0	-0.18775082
50	0xbcc050e8	-0.02347608
51	0x3c8a7036	0.01689921
52	0x3db3fff5	0.08789054
53	0xbdf20c53	-0.11818757
54	0xbb2d79d7	-0.0026470327
55	0xbd5b13fa	-0.053485848
56	0xbf3062b4	-0.6890061
57	0x3d0878a3	0.033318173
58	0x3d0a84e3	0.033818137
59	0xbe665fbe	-0.2249746
60	0x3e1f9840	0.15585423
61	0xbc52ce82	-0.012866618
62	0xbe841bf2	-0.2580257
63	0xbe81b818	-0.25335765
64	0x3eb57e0f	0.35447738
65	0xbdba7073	-0.09103479
66	0xbec245e5	-0.3794395
67	0x3caa6994	0.020802297
68	0xbd116b7e	-0.035502903
69	0xbd0e1683	-0.034689438
70	0xbcf5c6ee	-0.030002084
71	0x3e1dcd4f	0.1541035
72	0xbcad7671	-0.021174641
73	0xbe43a32f	-0.19105218
74	0x3d747f1a	0.059691526
75	0x3dfc1f9e	0.12310718
76	0xbda4d651	-0.0804869
77	0xbda6bfd0	-0.08142054
78	0xbcef3bba	-0.029203285
79	0x3c5bbce9	0.013411739
80	0xbdb3392e	-0.087511405
81	0x3d6c8053	0.057739567
82	0xbdf8d1b0	-0.1214937
83	0x3cef2aff	0.029195307
84	0x3e214d21	0.15752079
85	0xbe9f0ed4	-0.31066
86	0xbe20cf20	-0.15704012
87	0x3d8572c9	0.06516034
88	0xbbeca5a0	-0.0072218925
89	0xbdebe040	-0.11517382
90	0xbdca1ee1	-0.09869171
91	0x3dc04484	0.09388068
92	0x3d80f128	0.06295997
93	0xbe0288c2	-0.12747481
94	0xbe0caf2e	-0.13738701
95	0xbe910a0f	-0.28327987
96	0xbe940732	-0.2891174
97	0x3d40285d	0.046913493
98	0x3c343a0f	0.01100017
99	0x3c8fbbbc	0.017545573
100	0x3de257e0	0.11051917
101	0xbefe8cba	-0.4971674
102	0x3d96c320	0.07361436
103	0x3dbea677	0.093090944
104	0xbd0cc9f5	-0.03437229
105	0xbe9002ba	-0.2812708
106	0xbdf51a41	-0.11967898
107	0xbd8acb20	-0.06777024
108	0xbda38207	-0.07983785
109	0x3dcbc948	0.09950501
110	0xbe8a15cf	-0.26969764
111	0x3e96e2b4	0.29469836
112	0xbe5d990a	-0.21640411
113	0xbdb69857	-0.08915775
114	0x3e5d7463	0.2162643
115	0xbed427a2	-0.41436487
116	0xbdb0c892	-0.08632006
117	0x3da22daa	0.07918866
118	0xbd22bd94	-0.039731577
119	0x3d826b72	0.0636815
120	0xbe14910b	-0.14508455
121	0xbe85fa3e	-0.26167482
122	0x3d964db6	0.07339041
123	0xbcbed010	-0.023292571
124	0x3d614156	0.05499395
125	0x3dea471f	0.114393465
126	0xbe86ef8b	-0.26354632
127	0xbd11f818	-0.03563699
128	0x3df0705d	0.117401816
129	0xbe5c2256	-0.21497473
130	0xbe3c272f	-0.18374322
131	0xbe87bf19	-0.26512983
132	0xbdd70322	-0.104986444
133	0xbe6248af	-0.22098039
134	0xbddc1b49	-0.10747392
135	0xbe66a446	-0.22523603
136	0xbed4b5d8	-0.41544986
137	0xbdd8783c	-0.10569808
138	0xbd590203	-0.052980434
139	0xbdb227e1	-0.086990125
140	0xbe8bec51	-0.27328733
141	0x3caa5707	0.020793451
142	0xbe9b0d47	-0.30283567
143	0x3d0b211d	0.033967126
144	0xbe2900e0	-0.1650424
145	0xbec0d9e3	-0.37666234
146	0x3cdc8998	0.026921079
147	0xbdce0873	-0.10060205
148	0xbb9c7340	-0.004774481
149	0xbe003e5b	-0.12523787
150	0x3da2b153	0.07943978
151	0xbf0c4a0e	-0.548005
152	0xbdd3269d	-0.10310099
153	0xbe0ac74e	-0.13552591
154	0xbda51c34	-0.0806202
155	0xbe480d1c	-0.19536251
156	0xbe4c2ffc	-0.1994018
157	0x3c89f0a0	0.016838372
158	0xbdab2263	-0.08356168
159	0xbbe35f2c	-0.0069388356
160	0x3dc466a6	0.09589891
161	0xbe205f0c	-0.15661258
162	0xbcaf7d57	-0.021422071
163	0xbd918906	-0.07106213
164	0xbce9ab90	-0.02852419
165	0xbdaf9aa2	-0.08574416
166	0x3d9e45cf	0.07728159
167	0xbe4ea623	-0.20180564
168	0xbd0b3f08	-0.03399566
169	0xbd81ba09	-0.063343115
170	0x3d83f1a7	0.06442576
171	0x3db8c972	0.09022798
172	0x3d167003	0.036727916
173	0x3e1cfc0d	0.15330525
174	0xbeabf787	-0.33587286
175	0xbd0109c6	-0.03150346
176	0xbd26c4ff	-0.040715214
177	0xbc184364	-0.009293411
178	0xbe44f557	-0.19234215
179	0x3caebb34	0.0213295
180	0xbc6830c9	-0.014171788
181	0xbe128ae9	-0.14310803
182	0xbd2838d3	-0.041069817
183	0xbdc972f4	-0.09836379
184	0xbd2e5632	-0.04256267
185	0x3dc365a5	0.095408715
186	0x3a324e60	0.000680184
187	0x3d9f42a9	0.07776386
188	0x3e0dd37f	0.1385021
189	0xbe00d945	-0.12582882
190	0x3d08c63c	0.033392176
191	0x3dccd0ee	0.10000788
192	0x3daca3c0	0.0842967
193	0xbe1be55f	-0.15224217
194	0xbe606489	-0.21913351
195	0xbe7d9e31	-0.24767376
196	0xbd996e87	-0.074917845
197	0xbc0f6843	-0.008752885
198	0x3dab0da8	0.08352214
199	0xbe4afa03	-0.19821934
200	0xbe9711d0	-0.29505777
201	0x3dba8da9	0.09109051
202	0xbe09a75a	-0.13442746
203	0x3daee58f	0.085398786
204	0x3daf82e9	0.08569891
205	0xbe6c430d	-0.23072453
206	0xbd8aa7dc	-0.06770298
207	0xbd9de1ad	-0.0770906
208	0xbe129b3c	-0.1431703
209	0x3d18d30c	0.037310645
210	0xbe2d3376	-0.16914162
211	0x3ceb1b7e	0.028699633
212	0xbd403234	-0.046922877
213	0xbdcee01e	-0.10101341
214	0x3d8347b4	0.06410161
215	0xbe0e0bc4	-0.13871676
216	0xbe494725	-0.19656046
217	0xbe3f01a1	-0.18652965
218	0xbe5b1bed	-0.21397372
219	0xbdac2a18	-0.08406466
220	0x3d9f5e55	0.07781664
221	0xbddfa3fa	-0.10919948
222	0xbd0c4619	-0.034246538
223	0x3cb9493d	0.02261793
224	0xbd72ce21	-0.05927861
225	0xbebf9caf	-0.37424228
226	0xbe0bbe81	-0.1364689
227	0xbe3bb36d	-0.18330164
228	0xbdb9f09a	-0.09079094
229	0xbe3a5549	-0.18196596
230	0xbd050846	-0.032478593
231	0xbf02bec0	-0.5107231
232	0xbdae7f6e	-0.08520399
233	0x3ad7bdbb	0.0016459742
234	0xbc53175d	-0.012883988
235	0xbe46f701	-0.19430162
236	0xbd9dff0b	-0.07714661
237	0x3dc3f7eb	0.09568771
238	0xbdf35dcb	-0.11883124
239	0x3d0d8e3e	0.03455948
240	0x3dbfb6ac	0.09361014
241	0xbc69f4eb	-0.014279584
242	0xbed4dc94	-0.41574538
243	0xbdc878a7	-0.097886376
244	0xbd8989c5	-0.067157306
245	0xbe823573	-0.25431404
246	0x3e202d26	0.15642223
247	0xbdf702b6	-0.12061064
248	0xbe1c6e64	-0.15276486
249	0xbccb8608	-0.024844185
250	0xbe7fb315	-0.24970658
251	0xbd42d970	-0.047570646
252	0xbe3dff26	-0.18554363
253	0xbce4e95e	-0.02794331
254	0xbd08ef43	-0.033431303
255	0xbe7332b1	-0.23749806

conv3.bias f4 [256]
0	0xbe427557	-0.18990074
1	0x3ca06170	0.019577712
2	0xbebd4b66	-0.36971587
3	0xbed6988e	-0.41913265
4	0xbe229f3a	-0.15881053
5	0x3eaebfc5	0.34130684
6	0xbe28ba44	-0.16477305
7	0xbe6631a8	-0.2247988
8	0xbefe1840	-0.49627876
9	0xbe3977e4	-0.18112141
10	0xbd00aa6a	-0.03141252
11	0xbe1986b5	-0.14992793
12	0x3dea8b5e	0.114523634
13	0xbe977ae4	-0.29585946
14	0xbe1d8acc	-0.15384978
15	0xbe8a72ad	-0.27040616
16	0x3e4da5e5	0.20082815
17	0xbe705e46	-0.23473462
18	0x3e850cd2	0.25986344
19	0xbe947787	-0.28997442
20	0x3e57fe39	0.21093072
21	0xbdb79836	-0.08964579
22	0xbeb7faf3	-0.35933647
23	0xbe072e45	-0.13201244
24	0x3edc02d0	0.42970896
25	0xbe3ca78f	-0.18423294
26	0x3e16dece	0.1473343
27	0xbe2b102f	-0.16705392
28	0xbe96f1ef	-0.29481456
29	0x3ed4d256	0.41566724
30	0xbde57cd9	-0.112054534
31	0xbef9867e	-0.48735422
32	0x3e0fef9d	0.14056249
33	0xbeb65fe8	-0.35620046
34	0xbdd8c17c	-0.10583779
35	0xbd1945cf	-0.03742009
36	0xbdc63e34	-0.09679833
37	0xbddab13b	-0.10678335
38	0xbeb37471	-0.35049775
39	0x3bbfdafe	0.0058549633
40	0x3e8efc47	0.27926847
41	0x3e14cadb	0.14530508
42	0xbe326033	-0.1741951
43	0xbed77117	-0.42078468
44	0xbdb46181	-0.0880766
45	0xbe532578	-0.20619762
46	0x3d906e74	0.07052317
47	0xbdb64fa6	-0.089019105
48	0x3ec291af	0.38001773
49	0xbe16e558	-0.14735925
50	0xbeb0abe2	-0.34506136
51	0xbeafaa73	-0.3430973
52	0xbeeb48ad	-0.45953885
53	0x3da66a23	0.08125713
54	0xbe324ffe	-0.17413327
55	0x3c9ee52a	0.019396383
56	0x3e9bdb6c	0.30440843
57	0x3e0535b1	0.13008763
58	0x3d8ff045	0.0702825
59	0xbe331007	-0.17486583
60	0xbe6c3596	-0.23067316
61	0x3f0e4a28	0.55581903
62	0x3d7eb6aa	0.06218592
63	0xbe8701de	-0.26368612
64	0xbbe24f3b	-0.0069064177
65	0xbd9e0fd3	-0.07717862
66	0xbe05a6fe	-0.13051984
67	0x3eb2f1fd	0.34950247
68	0x3dc675c0	0.09690428
69	0x3d72ed3b	0.05930827
70	0xbdada8ad	-0.08479438
71	0x3c7a9414	0.015294094
72	0xbe1d57dc	-0.15365547
73	0x3eb3ae39	0.3509386
74	0xbe1033a3	-0.14082198
75	0x3f19fee0	0.60154533
76	0x3d2fa827	0.042884972
77	0x3c988f5d	0.018623048
78	0xbd3d4a37	-0.046213355
79	0x3eac379c	0.33636177
80	0xbcaf9d79	-0.021437394
81	0xbe53cc2f	-0.20683359
82	0xbe57cb9a	-0.21073762
83	0x3cf51529	0.029917317
84	0xbd4791dc	-0.048723087
85	0x3b02914c	0.001992303
86	0x3e67128f	0.22565673
87	0xbb2e2931	-0.0026574845
88	0xbe18e894	-0.14932472
89	0xbeef93e5	-0.46792522
90	0xbcb30287	-0.021851791
91	0x3e4755da	0.19466344
92	0xbee9e31c	-0.45681083
93	0x3e8e286a	0.27765208
94	0xbe45492b	-0.19266193
95	0x3e66f303	0.22553639
96	0x3ed7a195	0.42115465
97	0xbd5fbb9c	-0.054622278
98	0xbe669fcd	-0.22521897
99	0x3e91cdc4	0.284773
100	0xbbd57b68	-0.0065149553
101	0xbebf9678	-0.37419486
102	0xbe714af5	-0.2356375
103	0x3d95d2c0	0.07315588
104	0xbeed1d82	-0.46311575
105	0xbbce9dae	-0.006305418
106	0xbdde1d63	-0.10845449
107	0xbe873ce3	-0.2641364
108	0x3e89c4ef	0.2690806
109	0x3d7cea19	0.06174669
110	0xbedf2fdc	-0.435912
111	0x3f1243f8	0.5713496
112	0x3c9ee1b5	0.019394735
113	0x3e874622	0.26420695
114	0xbbd68393	-0.0065464466
115	0x3f1bf644	0.60922647
116	0xbe4cfdc1	-0.20018674
117	0xbd3f0eca	-0.046644963
118	0xbbdbce02	-0.0067079077
119	0xbe688142	-0.22705558
120	0x3e67d5af	0.22640108
121	0xbeabb0eb	-0.33533415
122	0xbc31530c	-0.010823023
123	0x3e5006ee	0.20315143
124	0xbeac68aa	-0.33673602
125	0x3c522e22	0.012828382
126	0xbec10cd1	-0.3770509
127	0xbe11eab5	-0.1424969
128	0xbdc39145	-0.09549192
129	0x3e54b60d	0.20772572
130	0xbe949263	-0.29017934
131	0xbe2f3704	-0.1711083
132	0x3ec6a43a	0.3879717
133	0x3ddb5b02	0.10710718
134	0xbe8ea102	-0.27857214
135	0x3db4cf00	0.088285446
136	0xbe82b132	-0.25525814
137	0xbdb8ec33	-0.090294264
138	0x3db3a5b5	0.087718405
139	0x3f026cba	0.50947154
140	0x3c2aa577	0.010415426
141	0xbd47914d	-0.048722554
142	0x3da70a81	0.081563
143	0xbd85c967	-0.06532555
144	0xbe0ea12b	-0.13928668
145	0x3dc3f3b5	0.09567968
146	0x3ed22fe5	0.41052166
147	0xbc47ebe6	-0.012202239
148	0xbcaf3510	-0.021387607
149	0xbd130828	-0.03589645
150	0xbe974fa9	-0.29552963
151	0xbdc2f8a5	-0.095200814
152	0xbccf5347	-0.025308264
153	0x3ec6fcb2	0.38864666
154	0x3ee5c3d1	0.4487596
155	0xbdf241e5	-0.11828975
156	0xbd7bdd50	-0.061490357
157	0xbd996c3d	-0.07491348
158	0x3d65d767	0.056113627
159	0xbe5763db	-0.21034186
160	0x3f13652f	0.5757627
161	0xbeb643eb	-0.35598692
162	0xbe51bdb0	-0.20482516
163	0xbe92bcf0	-0.28659773
164	0x3d4869cf	0.048929032
165	0xbde0b3de	-0.10971807
166	0xbec7bac2	-0.39009672
167	0x3efba171	0.49146608
168	0x3e64292b	0.2228133
169	0x3eb6d026	0.3570568
170	0x3e30655a	0.17226163
171	0x3a94d661	0.0011355394
172	0x3bccf261	0.0062544798
173	0xbd812593	-0.06305995
174	0xbeb0072d	-0.34380475
175	0xbe35cb83	-0.17753415
176	0xbe366e88	-0.17815602
177	0xbd2a6538	-0.041600436
178	0x3dd67492	0.10471453
179	0x3e853d3a	0.26023275
180	0xbdf60fa1	-0.120147
181	0xbe8a231d	-0.26979914
182	0xbe6f2df3	-0.23357372
183	0xbe1e20f1	-0.15442254
184	0x3e046a70	0.12931228
185	0xbe68409c	-0.22680897
186	0xbd1881bf	-0.03723311
187	0xbeaa5890	-0.33270693
188	0xbdb6fe4d	-0.08935223
189	0xbea4625d	-0.32106295
190	0xbd4a5bf7	-0.04940411
191	0xbd143d1c	-0.03619109
192	0xbe041402	-0.12898257
193	0xbf0eab28	-0.55729914
194	0xbe9141ab	-0.28370413
195	0x3e86e058	0.26343036
196	0x3ed8fa76	0.42378587
197	0xbe91a5aa	-0.28446704
198	0x3dfa9c56	0.1223685
199	0x3d799f78	0.060943097
200	0x3e2e46a1	0.1701913
201	0xbd337604	-0.04381372
202	0xbd24b37c	-0.040210232
203	0xbe92dcd6	-0.2868411
204	0xbdb71bfe	-0.08940886
205	0xbe30be6f	-0.17260145
206	0x3cabcdef	0.02097222
207	0xbe5910aa	-0.21197763
208	0xbda8006a	-0.08203204
209	0x3f05e954	0.52309155
210	0xbd2bba28	-0.04192558
211	0xbd424007	-0.047424342
212	0xbe11a6ba	-0.14223757
213	0xbdf90986	-0.121600196
214	0x3cefbd37	0.02926503
215	0xbe014dfb	-0.12627403
216	0xbde41808	-0.11137396
217	0xbde29231	-0.1106304
218	0x3ec20171	0.37891725
219	0xbe9c0e80	-0.30479813
220	0x3ddb600f	0.10711681
221	0xbef39643	-0.47575578
222	0x3e347ab5	0.17624934
223	0xbed767e6	-0.42071456
224	0xbe5ceef1	-0.21575524
225	0xbe0a9b0a	-0.13535705
226	0x3e300447	0.17189132
227	0xbc9b9daf	-0.018996088
228	0xbe89ddc4	-0.26927006
229	0xbd44766c	-0.0479645
230	0x3e121de3	0.14269213
231	0xbc40a612	-0.011758344
232	0xbe7908f2	-0.24319819
233	0xbe513816	-0.20431551
234	0xbe440271	-0.19141556
235	0x3d57855e	0.052617423
236	0x3e640c9f	0.2227044
237	0x3cc4afdf	0.024009643
238	0xbe75a8dd	-0.23990197
239	0xbe42c4c3	-0.19020371
240	0x3d167075	0.03672834
241	0x3ee443ee	0.44583076
242	0xbe3e8da5	-0.1860872
243	0xbcb96a79	-0.022633778
244	0xbdd8d016	-0.10586564
245	0x3dce5ce1	0.10076309
246	0x3e9e77da	0.30950814
247	0x3db5161f	0.0884211
248	0x3f0ca85b	0.5494439
249	0x3f1749bb	0.5909688
250	0x3e85d4a8	0.26138806
251	0xbea375b2	-0.31925732
252	0xbe0671d4	-0.1312936
253	0xbe177f6e	-0.14794704
254	0xbe0a5876	-0.13510308
255	0xbe3ea32f	-0.18616937

fc.weight f4 [11, 256]
0	0xbd0be4a1	-0.034153584
1	0x3d65b087	0.056076553
2	0x3c84d611	0.016215356
3	0xbcc29aa3	-0.023755377
4	0x3d485e1e	0.048917882
5	0xbd00023c	-0.03125213
6	0x3cde20f2	0.027115319
7	0x3d2939c0	0.04131484
8	0xbc24af9e	-0.010051636
9	0xbb82f925	-0.0039969855
10	0x3aba43c6	0.0014210872
11	0x3bb0a0ac	0.0053902473
12	0x3ce5b773	0.028041577
13	0x3cb7b35a	0.022424389
14	0xbcf0cf31	-0.029395672
15	0xbd94c83c	-0.07264754
16	0x3d18a206	0.037263893
17	0x3bbed5e4	0.0058238376
18	0x3cd02ab4	0.025410987
19	0xbc4c3377	-0.012463442
20	0x3e8fe23e	0.28102297
21	0xbc7e62f7	-0.015526525
22	0x3ca5049b	0.020143798
23	0x3cf8004a	0.030273575
24	0xbe01c38d	-0.12672253
25	0x3d8d1c46	0.06890158
26	0xbdbf6d54	-0.093470246
27	0x3d4289cf	0.047494706
28	0x3ceed111	0.029152425
29	0xbc8dcd08	-0.01730968
30	0xbc7ee5d8	-0.015557729
31	0x3d8faf81	0.070158966
32	0xbce8ed92	-0.028433595
33	0x3c2747dd	0.010210005
34	0x3d2f9246	0.042864107
35	0xbd91e4bd	-0.071237065
36	0xbcb76b5d	-0.022390062
37	0xbc96f422	-0.018426958
38	0x3d0df20b	0.03465466
39	0xbd9da7f5	-0.07698051
40	0xbdb8331e	-0.08994125
41	0xbba5e445	-0.0050626122
42	0x3d01b557	0.03166708
43	0xbdec2639	-0.11530728
44	0x3ccaa011	0.024734529
45	0xbc5151aa	-0.012775818
46	0xbdb55912	-0.088548794
47	0xbbc85517	-0.006113659
48	0x3cb2ec10	0.021841079
49	0xbd82e5bf	-0.06391477
50	0xbd6a01f7	-0.05713078
51	0x3d025584	0.031819835
52	0xbc849a82	-0.016186956
53	0xbd006b03	-0.031352054
54	0x3c77a75d	0.015115586
55	0x3d0499ac	0.032373115
56	0x3ce1bb16	0.02755503
57	0xbd63afbf	-0.055587526
58	0xbd79978c	-0.060935542
59	0xbd014bff	-0.031566616
60	0xbd639fc3	-0.055572283
61	0xbe4ae5f4	-0.19814283
62	0x3d524c5d	0.051342357
63	0xbc7bb222	-0.015362294
64	0x3cd42280	0.025895357
65	0x3cac70a2	0.021049801
66	0xbc87c84f	-0.016575007
67	0x3d4c27f3	0.049842786
68	0x3d28f269	0.041246805
69	0x3b3eee9d	0.0029133924
70	0x3dfbc42b	0.122932754
71	0xbcff746b	-0.031183442
72	0xbd87f413	-0.0663835
73	0xbd219ac6	-0.039454244
74	0xbccb962f	-0.024851887
75	0xbe5a4512	-0.2131541
76	0x3c9bd083	0.019020325
77	0x3d37c523	0.04486574
78	0xbb29c538	-0.0025904905
79	0xbcc81534	-0.024424173
80	0xbdd20725	-0.10255269
81	0x3cf9744c	0.030450962
82	0x3d511652	0.051046677
83	0xbd818076	-0.0632333
84	0xbd9133a2	-0.07089926
85	0x3d0c67b8	0.0342786
86	0xbd69a52a	-0.05704228
87	0x3b7d1b3f	0.0038620976
88	0xbbd1d383	-0.006403388
89	0xbc10e569	-0.008843758
90	0xbdbeade5	-0.093105115
91	0x3e29656a	0.16542593
92	0x3ca87577	0.020563824
93	0xbd925a06	-0.07146077
94	0xbc703a8a	-0.014662394
95	0xbd90e962	-0.07075764
96	0x3d6be05f	0.057587024
97	0xbb832e9e	-0.00400336
98	0x3cd47667	0.025935365
99	0xbd117cbf	-0.035519358
100	0xbd5d4846	-0.054024003
101	0x3cd4714f	0.025932936
102	0xbababc52	-0.0014246798
103	0x3ce0aa83	0.027425056
104	0x3ca0db61	0.019635858
105	0x3b28f051	0.0025778005
106	0x3d30780a	0.04308323
107	0xbc94d52e	-0.018168058
108	0xbb94fe7b	-0.004546938
109	0xbc659924	-0.014013562
110	0x3d07e0b1	0.033173267
111	0x3cb0de24	0.0215903
112	0xbda554e7	-0.080728345
113	0xbce3cfbd	-0.027809018
114	0xbd0348e8	-0.03205195
115	0xbe2f2294	-0.17103034
116	0xbd77ab8d	-0.060466338
117	0x3d132480	0.03592348
118	0x3dc26fe7	0.09494
119	0x3cdbff9f	0.026855288
120	0x3db929c6	0.09041171
121	0x3d42c512	0.047551222
122	0xbdb550be	-0.08853291
123	0x3d31ed42	0.043439157
124	0xbbf3f3a4	-0.0074448157
125	0x3d211524	0.039326802
126	0x3d3b4c17	0.04572686
127	0x3d591f4a	0.053008355
128	0xbde29993	-0.11064448
129	0x3ca905ba	0.020632613
130	0x3d66d96b	0.05635969
131	0x3d07c16c	0.033143446
132	0x3ae16c2f	0.0017198379
133	0x3cb08fe8	0.021552995
134	0xbca3468b	-0.019931098
135	0xbd58ecc0	-0.052960157
136	0xbd86ff81	-0.06591702
137	0x3cf615df	0.030039726
138	0x3e6395d7	0.22225128
139	0xbbf19a20	-0.0073731095
140	0x3c092823	0.008371386
141	0x3c06f898	0.00823798
142	0x3d1bcc97	0.03803691
143	0x3d123e23	0.03570379
144	0x3cc9da3c	0.024640195
145	0x3d303428	0.04301849
146	0x3cf673be	0.030084487
147	0x3c60def9	0.013725036
148	0x3cbeaee3	0.023276752
149	0xbda94be9	-0.08266432
150	0x3d04e7d0	0.032447636
151	0x3cf75602	0.030192379
152	0xbb62cbc1	-0.003460631
153	0xbd983f56	-0.07433955
154	0x3d03c940	0.03217435
155	0x3c838be6	0.01605792
156	0xbd78d9f0	-0.060754716
157	0xbdca2529	-0.09870369
158	0xbda151a3	-0.07876899
159	0x3ce95dfa	0.028487194
160	0x3d51cebf	0.05122256
161	0xbc4ce28d	-0.012505186
162	0x3c932386	0.017961275
163	0x3d90a966	0.0706356
164	0xbd32678a	-0.043555774
165	0x3bcf1be1	0.006320462
166	0xbc0a49ca	-0.008440444
167	0x3d6fc99e	0.058541887
168	0xbd9038fe	-0.070421204
169	0x3cf2ec87	0.0296538
170	0xbdcf65c9	-0.10126836
171	0x3d20ebe7	0.039287474
172	0x3ce8d7ab	0.028423151
173	0x3d7adb95	0.061244566
174	0x3ceb9077	0.02875541
175	0xba1d86e8	-0.00060091773
176	0xbc53ac7a	-0.01291954
177	0xbc1f96f7	-0.009740583
178	0xbde8e97d	-0.11372659
179	0xbddd678e	-0.10810767
180	0x3c356cda	0.0110733155
181	0xbc15ceb0	-0.009143516
182	0x3c49663c	0.012292441
183	0xbbf21472	-0.007387691
184	0x3ea99821	0.33123878
185	0xbdc61234	-0.09671441
186	0x3d21558b	0.03938822
187	0xbc8138e1	-0.015774192
188	0xbe0d79bc	-0.13815969
189	0xbce33c9c	-0.027738862
190	0x3d39f7c0	0.04540229
191	0xbe39605f	-0.18103169
192	0xbd5451a7	-0.051835682
193	0x3d0ec430	0.034855068
194	0x3e08b23a	0.13349238
195	0xbdda307d	-0.1065378
196	0xbe0371d7	-0.12836395
197	0x3d45e7c0	0.048316717
198	0xbdf9c48d	-0.12195692
199	0x3cbf1bd3	0.023328697
200	0xbc1e005b	-0.009643639
201	0xbd7d64c2	-0.06186367
202	0x3c0c30f2	0.008556591
203	0x3d073cdb	0.03301702
204	0xbe886be3	-0.2664481
205	0x3ce55990	0.027996808
206	0x3d33b2b5	0.0438716
207	0xbd4d02ec	-0.050051615
208	0xbcb1ead8	-0.021718428
209	0xbd085a32	-0.033289142
210	0x3ccd8ee1	0.025092544
211	0xbd207b2d	-0.03917997
212	0x3d79fab2	0.061030097
213	0xbbd34443	-0.0064473464
214	0xbbc33e64	-0.0059583653
215	0x3d63732f	0.05552977
216	0xbc92d5d1	-0.017924221
217	0x3ca605b0	0.020266384
218	0xbd6bf60c	-0.057607695
219	0xbcdb1e75	-0.026747921
220	0xbdfac457	-0.1224448
221	0x3def393e	0.1168084
222	0xbd897e77	-0.067135744
223	0x3e2df505	0.16987999
224	0x3d0a10f5	0.033707578
225	0xbde33430	-0.11093938
226	0x3b8decd0	0.0043312088
227	0xbd5f096a	-0.054452337
228	0x3c16b44b	0.009198259
229	0xbb3fea76	-0.0029284037
230	0xbd7fbb6c	-0.0624346
231	0xbdc2f55a	-0.09519453
232	0x3d0823aa	0.033237137
233	0xbc1ede4a	-0.0096965525
234	0xbd06f1b9	-0.03294537
235	0x3d34a603	0.044103634
236	0xbd1f8b17	-0.038951006
237	0x3a425b4d	0.00074141176
238	0x3b9c626f	0.0047724764
239	0xbc64c59a	-0.0139631275
240	0xbd3120b2	-0.04324407
241	0xbd771c34	-0.06032963
242	0x3c22fce5	0.00994799
243	0x3d88a785	0.06672577
244	0x3d4158a2	0.047203667
245	0xbcf6f5c7	-0.030146493
246	0x3bf8236e	0.007572583
247	0x3d856387	0.06513124
248	0x3d162ee0	0.036665797
249	0xbee03e1c	-0.43797386
250	0xbda5b05e	-0.0809028
251	0x3cec19c6	0.028820883
252	0xbb8100be	-0.003936856
253	0x3b8a7b5b	0.004226131
254	0x3d52806a	0.051391996
255	0x3e8b25cd	0.27177277

fc.bias f4 [11]
0	0xbe5269d8	-0.20548189
1	0xbf007135	-0.5017274
2	0xbef4ac52	-0.4778772
3	0xbe8e52bd	-0.277975
4	0xbe49847c	-0.19679445
5	0x3e54e94d	0.20792122
6	0x3ed8bd28	0.42331815
7	0xbcb819f5	-0.022473315
8	0x3e2ecbe6	0.17069969
9	0x3e81dbe9	0.2536309
10	0x3e87d191	0.26527074
