src/main/python/saved_models/csharp_1_37_CNNClassifier1_128embs_183id_32hd_0hl_Falsebid3kernel0.3dropout_0.pt (torch, 531787 bytes, 9 tensors)

emb.weight f4 [183, 128]
00000000: 5e65 aabf 961b 89bf 65b0 78bf 0b81 acbf
00000010: c27d 6ebe 88f5 72be f6b1 a3bf 4f0e 93bf
00000020: f0c2 74bf b928 b73e 5d1a 5dbf d499 8d3c
00000030: 086a dfbe 2d6b df3f ac69 b03d f236 8cbb
00000040: ad29 50bf c034 b8bf 31aa d83e d1ea f33e
00000050: c2fb a53f bcfe 72be 2ed6 93bf b8eb 093f
00000060: fd3c 963f 871c 16bf 7af1 1dc0 d744 92bf
00000070: ae45 80bd 40cb 32bf 1816 8cbf cb33 07bf
00000080: b9e7 cc3f 007a 4d3e f821 093f 09f2 04bf
00000090: 7bf0 153f 02b6 aabd 226a 13be 04ae 83be
000000a0: 337f 3ebe fe6b 1f3f 7498 f0be 18f9 93be
000000b0: 20b7 0f40 5df0 b5bf 79d5 c93f 5c35 03bf
000000c0: b25e 82bf f614 cb3e 614e 4abd 180a 49be
000000d0: 48fa a43f 88de 383d 81e6 8c3f 6a63 ef3f
000000e0: 5949 033f b07d 913f b75b cdbe 249c 12bf
000000f0: e0b5 c93f a846 1fbf 8bf0 48c0 40bd f2be
00000100: deb0 07be a19e 9dbf a7ee 83bf fae7 47bf
00000110: 8704 c1bd 7b0d c73d eb68 d83f 6a7f a53e
00000120: 57eb 72bf f8d5 f33e 043b 07bf 94d4 31bf
00000130: f2a9 4dbf abd3 8ebe 8589 693f 258a 00bf
00000140: 9f51 a2be 36cc 623d dc07 55bf 53d0 143f
00000150: 20f3 65bf f216 debe f7a1 533e 7a2c a63d
00000160: 65ac 843e 22d7 03bf a13c b7bf 011a 5c3f
00000170: 18d3 babf bb58 5ebf 7ab3 ef3d df5d 0d40
00000180: 1067 853f 3cca bb3f f5ff 383f ed93 4ebf
00000190: bc73 e43f 7ee0 26bf bc2b 8fbf a83b 243f
000001a0: b655 d23f bfa1 823e a7b4 2bbe cbf6 30be
000001b0: f4c5 17c0 6db4 5dbf 3554 88bf de43 98bf
000001c0: 1433 3f3f 23a1 71bf e085 d73f 04af 693f
000001d0: 7324 82be 9232 513f 923f 593f 9742 87bd
000001e0: 4a67 0d40 01e8 463d 84a3 933d 7a32 0f40
000001f0: 190c 16c0 4b28 0540 d13f 0c3f c7c2 aa3e
00000200: 865d 363f 9764 e3bf bd2d b53e ed8c 993f
00000210: 7a22 9bbe 0784 e1bf 2d85 223f 7aea 4dbf
00000220: e938 cebf 0391 efbf 8707 0b3f 3c22 293f
00000230: bfe4 1240 a3c6 2c3f 1f4e db3f c0aa e5bf
00000240: 8a7f aebf 48b4 7bbf 3071 c13f a451 243f
00000250: 5028 f23e 2970 dbbe a226 0d3f 4010 c6bf
00000260: ffa2 043f 352f da3d edd9 893e ff91 a93f
00000270: 8e7d df3f a06f ed3f 9bd4 34bf 4da7 2340
00000280: 0ec7 d53e e8d2 59be 7d07 57bf 950c d7be
00000290: d8c0 1fbf 1430 7abf b3f5 5f3f 79be 7c3f
000002a0: ca80 9e3e f8a5 c23f 1b45 9a3f 4965 e8bf
000002b0: 8392 cebe 8a8a 75bf 63a5 aabb ff82 a1bd
000002c0: baf9 573f b335 953f 07e5 063f b143 cf3f
000002d0: 26c7 76bf b8ea 103e bd96 27be f368 b7be
000002e0: a673 dc3f 436e 9bbe 709b 743e 3b08 ac3f
000002f0: fe67 d33d 68d8 8c3f b5f0 aebe cd84 723f
00000300: 438a 11bf b46c 563f fe4e e43f 671d 48be
00000310: 8bd1 033f 257a ecbf e9ab 3ac0 883c 11bf
00000320: 5791 0abf 202a 653f fbeb 61bf c824 083f
00000330: 07dc c5bf 8275 31be 5a6e 3a3f d1b8 693d
00000340: facf 673f fdec 853f d845 05bf 8e69 ad3f
00000350: 78d6 703e ed05 f53f 850f eb3f 478a a93f
00000360: fc10 78bf 9f35 a03f e7eb 9a3f ce25 07bf
00000370: cecf 5f3e cd05 13bf 1383 ba3f adae e23f
00000380: 6030 d33f b42f ddbe 0ac4 8abe 7b36 b8bf
00000390: 059f 9f3f 8e0d a33f 802a c83e 7440 c63e
000003a0: 3d7d a3bd 7df6 ae3e 59e6 723f d024 b1bf
000003b0: dcae dc3f 5058 17c0 1ef3 6dbf 0e56 963e
000003c0: 924b 5c3e 283f 703f 4f9c bb3f 1b75 0ebf
000003d0: e3ad 3ebf 4d02 4fbe 102e 6bbe 3e80 ae3a
000003e0: 2a24 c03e dec0 14bf d582 12bf 6c3e 813f
000003f0: b55e d8bd 4700 97bf a7ea b9bd 4328 103f
-1.3312185 -1.0711544 -0.97144157 -1.3476881 -0.2329016 -0.23726475 -1.2788684 -1.1488742
-0.9560995 0.35773256 -0.8636835 0.017285265 -0.43635583 1.7454582 0.08613905 -0.004279011
-0.8131359 -1.4391098 0.42317346 0.47640088 1.2967455 -0.23729986 -1.1549737 0.53875303
1.1737362 -0.5863728 -2.4678636 -1.1427258 -0.0626329 -0.69841385 -1.0944242 -0.52813405
1.6008216 0.2006607 0.5356746 -0.51931816 0.5857007 -0.083354965 -0.14395955 -0.257187
-0.1860321 0.6227416 -0.46991313 -0.2890098 2.245552 -1.4213978 1.5768272 -0.51253295
-1.0185149 0.3966443 -0.049391154 -0.19632757 1.288888 0.045134097 1.1007844 1.8702214
0.51283795 1.1366482 -0.40109035 -0.572695 1.5758629 -0.6221719 -3.1396816 -0.4741001
-0.13251063 -1.2314035 -1.0307206 -0.78088343 -0.09424692 0.09719368 1.6907018 0.32323772
-0.9489035 0.47624183 -0.52824426 -0.69464993 -0.8033744 -0.27895865 0.91225463 -0.5021079
-0.31702897 0.055370532 -0.8321512 0.5813038 -0.89824104 -0.4337688 0.20667253 0.08113952
0.25912777 -0.5150014 -1.4315377 0.8597718 -1.4595671 -0.8685414 0.11704154 2.2088544
1.0422077 1.4671092 0.7226556 -0.80694467 1.7847819 -0.651863 -1.1185222 0.6415353
1.6432407 0.25514027 -0.16768132 -0.17281644 -2.371457 -0.8660343 -1.0650698 -1.1895711
0.74687314 -0.943865 1.683773 0.9128268 -0.25418434 0.8171779 0.84862626 -0.06604498
2.2094293 0.0485611 0.072089225 2.2374558 -2.3444884 2.0805843 0.54784876 0.33351728
0.71236455 -1.7765073 0.35386458 1.1996132 -0.3029974 -1.7618417 0.6348446 -0.8043591
-1.6111118 -1.8716129 0.5430836 0.6606786 2.2952116 0.67490596 1.7133216 -1.7942734
-1.3632672 -0.9832196 1.5112667 0.64187074 0.4729638 -0.4285901 0.55137074 -1.5473709
0.5181121 0.10653535 0.26924077 1.324768 1.7460191 1.854969 -0.7063691 2.5570862
0.4175343 -0.2127186 -0.839958 -0.42001787 -0.6240363 -0.9772961 0.8748428 0.9872814
0.30957633 1.52069 1.2052339 -1.815591 -0.40346155 -0.9591452 -0.005207704 -0.07886314
0.8436543 1.1657013 0.5269322 1.6192533 -0.96397626 0.14152038 -0.16366096 -0.35822257
1.7222793 -0.3035756 0.2388742 1.3440012 0.10322569 1.1003542 -0.3416802 0.9473389
-0.56851596 0.8375962 1.7836607 -0.19542466 0.5149161 -1.8474776 -2.9167426 -0.5673299
-0.5412802 0.895174 -0.882507 0.53181124 -1.5457772 -0.17329982 0.72824633 0.05706102
0.9055172 1.0462948 -0.520597 1.3547838 0.23519313 1.9142433 1.8364111 1.3245324
-0.96900916 1.2516364 1.2103242 -0.5279206 0.21856615 -0.57430726 1.4571251 1.7709557
1.6499138 -0.43200457 -0.2710269 -1.4391626 1.2470404 1.2738512 0.39094925 0.3872105
-0.07982872 0.3417243 0.9488273 -1.3839359 1.7240863 -2.3647652 -0.9294909 0.2936253
0.21513203 0.9384637 1.4657077 -0.5564744 -0.7448408 -0.20215721 -0.2296679 0.0013313366
0.3752759 -0.5810679 -0.57230884 1.0097175 -0.10564939 -1.179696 -0.090779595 0.56311435

conv1.weight f4 [32, 128, 3]
00000000: d412 3dbb f37f 9abe e5ea 493d d14f 543d
00000010: b429 053e 1b36 953d f02e f53a 0be9 333e
00000020: 9894 16bd aee8 c9bc a50a 123d 9d8b 863d
00000030: 3b56 033d 9723 a4bc dee6 2dbe 73e3 0aba
00000040: 62f6 813d 11d6 14bd f965 78bd 0de4 203e
00000050: 6cd6 d23d ef10 1bbd 296a 16be 41fb 6b3d
00000060: f5b0 273d e5dc 28bd fc4f 0e3c 674d a9bd
00000070: fb3a 513d 3382 12be 21cd 0abe f0a9 8cbd
00000080: 7ed6 6e3e 6ac6 00bb 5353 cebd 9e19 b73d
00000090: dd07 0e3c 0db4 f3bd bcc5 96bd 3be0 82bd
000000a0: 5c63 093e f5b5 a13e 6987 763b 1d4d 43be
000000b0: bfaf babd 7bc3 03be 2802 233e 8619 11bd
000000c0: 6c48 8ebc 315c b7bb a456 54bd b5ce c9bd
000000d0: c685 4a3e 0f2e a23d 8302 23be 00bb dc3d
000000e0: 81bb d1bd 2605 083d 7b70 f3ba a366 8ebd
000000f0: dc24 583d 7315 dfbd fe36 033d 915b ba3d
00000100: 20b9 803e 201f 1c3e 7022 f0bd 3b97 9a3d
00000110: 673c 43be 9d4c a83c a0c8 2a3e 72be 503e
00000120: 59c9 23bd b68f e63d 1085 8ebe fef4 7fbd
00000130: 7ef2 8d3d 7e13 95bd 8fea 2b3d f86f 903d
00000140: c35f 29be d95f 053e a1c2 083e 0569 e83d
00000150: 45c8 40bc 7af3 2e3e b5ac fb3d 6f59 8bbd
00000160: 40dd cc3d 0e49 abbb 9bf2 24be 49ee 0c3e
00000170: d529 c9bd a29a 4e3d e343 0a3e 1ab6 e93c
00000180: d2e2 413b c93c 4abd 4565 bd3d c97a 9abc
00000190: 7728 48be dd18 433c 68c1 8bbb cea6 94bd
000001a0: 9055 0ebd d4fc 3ebd 64c7 02bd 84c8 d33c
000001b0: ba16 9b3d 2cb5 c0be eccd bf3d 0d35 05bd
000001c0: 0877 bb3d 6763 4a3d a6f9 6abc ee10 c03d
000001d0: 90ac 503e ec86 f63d cf63 88bd 500b e43d
000001e0: 2eb8 9a3e 1f6f bc3c bd25 0e3d 9dd2 80bb
000001f0: c82d 44bd dde8 a3bd 3b15 fabc 8265 223e
00000200: e49b 11be d7b3 3f3e 3a14 753d 2349 acbd
00000210: 1347 40bd c612 1a3e 01f7 2dbd 3cfd 24be
00000220: 78b8 c93d 33a9 75be 0e4e d5bd 72ff 45bd
00000230: a3f5 ddbd 4e45 e3bd 33b4 30bd c49b 63bc
00000240: 1268 c53b 3e1a 86bd 4d08 7fbd 89e1 a2bd
00000250: 1f75 22be 84d3 233e 6889 1b3c 78db fb3c
00000260: 9233 02be 1782 9c3c 0d0e 8c3e a647 1ebe
00000270: 485b b83d aba6 a23d 883f 23bd a6bb 373b
00000280: 38ad 513e 7f19 a53d f2b2 0bbc f041 11bd
00000290: f386 babd 18fa 293d 7aba 3abe 48b2 be3c
000002a0: 4c2c 29bd d657 cfbe 2d8a 183e e81a ddbd
000002b0: e1b7 e73b aca0 cbbd 108e 1c3b 74fd 2c3e
000002c0: 1505 0d3e 7ceb fcbb 4ace 8cbc e995 023e
000002d0: 4a7a a33d 348f 37be 0e12 a2bc 2ef6 803c
000002e0: fcbb ec3d 3fd6 323d 0dea d83d 0017 513d
000002f0: 7ab1 0bbd 957f ecbc e07b dcbd a052 2b3e
00000300: bf6c d5bd 5e6e 043d 6939 cb3d fe63 f3bd
00000310: 01cf 07bc faea 8a3c 3fc6 bebd 79eb 723e
00000320: 5140 58bc 854a 0f3c b541 01be 5f2e 9abc
00000330: fa01 27bd 8e5e b13c 0e09 48be 6df8 98bd
00000340: 7db8 81ba 9dfd 9cbd d220 fa3c 6aa6 02be
00000350: 3b45 8fbd 16ba 8ebb a0cb 3dbe 057e 03be
00000360: a3a7 afbb be88 5f3e 4c2f d7bd 1886 e03c
00000370: dc5c 82be 5cd2 12bd d091 503d 96d7 b5bd
00000380: d676 863d 71d1 ec3c d94c 7f3d 80f4 923d
00000390: 9a1f 3abd 3b41 413e 7ebb 23be 6db5 7ebd
000003a0: 8d75 013d e139 393e a912 043e 2bca 12be
000003b0: 6868 61be e45a 3a3e 4304 f3bc 11da 963e
000003c0: a513 8c3d eed0 23bd ca93 d93a 3795 22bd
000003d0: c11b 16be faee 0fbd f6cb 953c 99a7 3dbe
000003e0: 3ae7 85bd 7395 223d 3aa1 37bc 59fd 26be
000003f0: 1765 2d3e 4062 47be fde5 8cbd 2a25 b1bc
-0.0028850334 -0.30175743 0.04929628 0.05183393 0.1300419 0.072857104 0.0018706005 0.17569368
-0.036762804 -0.024647083 0.035654683 0.06569598 0.032064658 -0.020036502 -0.169826 -0.0005298175
0.06345822 -0.036336962 -0.060644124 0.15711994 0.10294804 -0.037857946 -0.14688934 0.05761266
0.040940244 -0.041226286 0.008686062 -0.082667165 0.05108164 -0.1430748 -0.13554813 -0.068683505
0.2332401 -0.0019649514 -0.100744866 0.08940433 0.008668867 -0.11899576 -0.073619336 -0.06390425
0.13416809 0.31584135 0.0037617332 -0.19072385 -0.09115552 -0.12867539 0.15918791 -0.03542473
-0.017368518 -0.005595707 -0.05184044 -0.09853879 0.19777593 0.07918941 -0.15918927 0.10777855
-0.10240842 0.033208035 -0.001857295 -0.0695317 0.052769527 -0.10892763 0.032034867 0.09099496
0.2514124 0.15246248 -0.117253184 0.07548376 -0.1906601 0.020544345 0.16678095 0.20385149
-0.039986942 0.112578794 -0.27835894 -0.062489502 0.06931017 -0.072791085 0.04197174 0.07052606
-0.16540436 0.13024844 0.13355495 0.11348156 -0.011766498 0.17085066 0.122888006 -0.068041675
0.100031376 -0.0052272147 -0.16108172 0.13762774 -0.09822432 0.050440438 0.13502459 0.028529216
0.0029584658 -0.049374375 0.09247831 -0.018857377 -0.19546686 0.011907783 -0.004264999 -0.07258378
-0.034749568 -0.046627834 -0.031928435 0.02585245 0.07572694 -0.37638223 0.09365448 -0.032521296
0.09153563 0.049411204 -0.014341747 0.09378229 0.20378327 0.12037453 -0.06659662 0.1113497
0.30218643 0.023002205 0.03470396 -0.003931357 -0.047895223 -0.080033995 -0.030527702 0.15859035
-0.14219624 0.18720947 0.059833743 -0.08412387 -0.04694278 0.15046224 -0.04247189 -0.16112226
0.09849638 -0.23990326 -0.104152784 -0.048339315 -0.10837867 -0.11097203 -0.0431406 -0.013892118
0.006024369 -0.06547974 -0.062263776 -0.07953174 -0.1586499 0.15998656 0.009493209 0.0307443
-0.12714985 0.019105 0.2735447 -0.15457019 0.090017855 0.07941946 -0.03985551 0.0028035431
0.20476234 0.080615036 -0.008526551 -0.035463274 -0.09107771 0.041498274 -0.18235198 0.02327837
-0.04130201 -0.404967 0.1489646 -0.107961476 0.0070714806 -0.09942755 0.0023888387 0.1689356
0.1377147 -0.0077185016 -0.01718821 0.12752499 0.07982309 -0.17925721 -0.019784 0.015742388
0.11559293 0.043661352 0.10591517 0.051047325 -0.0341048 -0.02886943 -0.10765815 0.16730738
-0.10421132 0.032331817 0.099230595 -0.11884306 -0.0082891 0.016957749 -0.09315156 0.23722638
-0.013198928 0.008745794 -0.12622721 -0.01882094 -0.04077337 0.021651533 -0.19534704 -0.074692585
-0.0009896901 -0.076655604 0.030533228 -0.12758794 -0.069956265 -0.0043556793 -0.18534708 -0.12841041
-0.00536056 0.21829507 -0.10507068 0.02740769 -0.2546147 -0.035845146 0.050920308 -0.088790104
0.06565635 0.028908463 0.062329147 0.07175541 -0.045440294 0.1887254 -0.15989491 -0.06218474
0.031606246 0.18088485 0.12897743 -0.14334933 -0.22012484 0.18198735 -0.029665118 0.29463246
0.068396844 -0.039994173 0.0016599831 -0.039693084 -0.14659025 -0.035140015 0.018285733 -0.18520965
-0.065382436 0.039693307 -0.011207873 -0.16307582 0.16933094 -0.19471073 -0.06879804 -0.021624167

conv1.bias f4 [32]
00000000: c49d 86be b060 96be 7406 40be c4ac b23d
00000010: 2bdc 8ebe cb6d e0bc 302a 96bd 2b03 56be
00000020: d9ed 88bd 24cc 7ebd 429c 6dbe c38e 61be
00000030: 1406 d6be ab5e 5fbe 2767 9bbe 9aff 24be
00000040: 647d 70be db16 d4bd ce2e 8dbe df10 94bd
00000050: b41e 64be 944a 88be cf96 2ebe f3dc 7cbe
00000060: b23a b0be 1dda 64be b743 393d 1318 b7be
00000070: 8128 2c3e 752b 4ebe c11c 91bd cc5b e6bd
-0.2629224 -0.29370642 -0.18752462 0.08724359 -0.2790235 -0.027396103 -0.073322654 -0.20899646
-0.06685991 -0.062206402 -0.23204139 -0.22027116 -0.41801512 -0.21813457 -0.30352136 -0.1611313
-0.23485333 -0.10355922 -0.27574772 -0.072297804 -0.22277337 -0.266194 -0.17049716 -0.2469366
-0.3441978 -0.22348829 0.045230594 -0.35760555 0.16812326 -0.20133765 -0.070855625 -0.112479776

conv2.weight f4 [32, 128, 3]
00000000: b4e2 c8bd b263 503e 5cc1 24be e50e aebd
00000010: ac8f 86bd b9fd 62bd 5b08 83bc 70df 24be
00000020: 02b8 ae3e 01da 12be 3e2a 8e3d 8780 de3c
00000030: 5672 5c3e 5c5d 713e d6ef 2a3d 9ba2 f6bd
00000040: 28d4 3bbe 4124 77be 2e4d e4bc df0c 9ebe
00000050: b9c4 f33a 7b03 503e 338c 8d3c 07ee 9ebd
00000060: d2e6 c5bc a762 95be f946 1abe 8fcf 8cbd
00000070: 5d2b b8be 87ea 12be 913e c13d 6cbc 2c3c
00000080: eeb6 45bd c25f 87bb 1699 cabd 45b4 16be
00000090: a5fa 073e 5faa e13d 8c0e 933d c9b8 19bd
000000a0: 62c6 b0bd b4df 6d3c 7379 15be 95f2 cebd
000000b0: 66e7 a9bd 7e2f 70bd 2155 cd3c c083 4bbe
000000c0: 3978 ae3d addd f3bd 2a1f c9bd 3860 ddbc
000000d0: c585 59be 0cd9 043e 0c10 b73b f4a7 61be
000000e0: 9da5 d93c 85a6 473e 4d36 c4bd 5c00 3d3d
000000f0: 1966 acbc f97e 08ba 4da8 7fbe 3e25 ccbd
00000100: 5604 bfbd a0a9 0d3e e1d7 12bd 8700 48bd
00000110: c5fd 853d 2759 82bc e7a7 51bd 599e bb3d
00000120: ada3 da3c 1b93 913e 522e 58bd 710f 9cbc
00000130: bc76 7abe 787f 2fbe 4ad9 77be 8733 9dbc
00000140: fa3a af3c 7f98 abbb a837 b63d 8a20 c93b
00000150: f62f dd3d 6d7e f5bd e2ea debd c337 b8bd
00000160: 5f57 17be 5bc3 4fbd 9768 98bd f8b8 d8bd
00000170: b629 fcbc ecc0 543d d02c debc e693 033e
00000180: c4d8 f83d 8def c2bd 6a44 f9bd d3a4 07bd
00000190: d80e 84bd b879 19be e6b2 a83d bc04 1e3e
000001a0: 8d32 88bd b01c dbbd a06e 743d 1be1 c93d
000001b0: 70f7 443b 0b16 613e 1faa ea3d 7b04 2b3e
000001c0: 338f d1bc ca78 d43c 1abc f7bc d924 293d
000001d0: 9769 523d b5fc 493d 2f8a 3fbe b06a 09be
000001e0: 7147 4fbe 34e3 8e3e 1592 e7bc 3dbf d2bd
000001f0: 3ec1 b33c 6a61 453d ced0 283c 08c5 89bd
00000200: 8d04 203d ef75 1abd 2751 dcbd 047f 753d
00000210: 9ba1 40bd 9995 abbc ca30 133e 2f9c d73d
00000220: b912 a8bd 14a8 743d 785b 90bd eca6 3f3b
00000230: 5aa6 0dbe 6dbd 11bd bb85 e0bd 3e09 27be
00000240: 1665 3f3d 1dd1 703d 3aed 1cbe c251 f43d
00000250: 39ed a53d 9fcd d9bd 0b0a 28be 7845 2a3e
00000260: f723 613e 957d 563d 362f a7be bc5e 3bbe
00000270: a391 56bd bd01 3d3e f122 403e df1e 8dbc
00000280: 3b0d c03c e257 a43d d406 04be 2dfe 9d3d
00000290: 7fc2 55be 0612 63bd 1247 59be af41 93bc
000002a0: a2ff 063e d7aa 183e 9e59 2bbe 5dbc 15be
000002b0: e22c bebd 066f b1be 918e 45be 007d b73e
000002c0: 22a5 ba3d 1da1 fcbd 9f89 853e 2ed1 bc3e
000002d0: 9253 e83c 88e5 3e3e 9924 9dbd 4478 983c
000002e0: 0ba9 ab3d 589e 4abd e47b 523d 7dd6 7b3d
000002f0: 08a3 bebd 4bc5 b5bc 145e 153e 345e 3fbe
00000300: f6e9 19be 284d 46be 52b3 8d3c 0ba0 4b3d
00000310: 33c5 1ebd d11b 00be 4fc3 183d 044e f3bd
00000320: 5a70 633e 657e b53d 0dac 2a3e c3bb f8bd
00000330: bed4 303d 9196 293e e7db 57be 0902 8bbe
00000340: f241 85bd 72b3 65be a5d0 bdbc 5454 813d
00000350: c044 aa3d 524a 3f3e 5600 343e b1bd 8abe
00000360: e008 073d 1ee3 943b 300a 2e3e f1e5 4e3e
00000370: 6235 35bd 602b c1bd 7560 22bd c984 0cbd
00000380: 6542 61be f13a d73c 4da2 393e cc2f 803e
00000390: 7f17 44bd 46b7 273d e2ff 76bd 6b2b 66be
000003a0: 69f0 b1bd 6c48 e7bd d3b7 eb3b 1f43 633c
000003b0: 555c 71bd 93af 2cbd 41f2 babd df54 8a3e
000003c0: 9d06 1cbd b427 e43b 83e3 2a3e 15df 263d
000003d0: 1a4d 953d 0673 eabc edeb b33d ec4a f4bd
000003e0: 578e d8bc b79a 3ebd 4b7e 4ebd 1923 9d3d
000003f0: c980 0bbe b6f3 b73d 4280 3f3d e333 4d3e
-0.09808865 0.2035053 -0.16089386 -0.08498935 -0.06570372 -0.05541775 -0.015995195 -0.1610086
0.34124762 -0.14340974 0.06941651 0.027160896 0.2152799 0.2357077 0.04173263 -0.12042733
-0.1834265 -0.24134924 -0.027868833 -0.30869195 0.0018598057 0.20313828 0.017278766 -0.07760244
-0.024157915 -0.29176828 -0.15066136 -0.06875526 -0.35970584 -0.14347278 0.09435762 0.01054297
-0.04827016 -0.0041312883 -0.0989248 -0.14717205 0.13279207 0.11018824 0.07180509 -0.03752974
-0.086315885 0.014518667 -0.1459711 -0.101048626 -0.08296089 -0.058639042 0.025065007 -0.19874477
0.085190244 -0.11907516 -0.09820397 -0.02702342 -0.21242435 0.12973422 0.0055866297 -0.22036725
0.026568228 0.19497116 -0.095806696 0.04614292 -0.021044778 -0.00052069087 -0.24966545 -0.09968041
-0.09326999 0.13834238 -0.03585041 -0.048828628 0.06542543 -0.015911652 -0.051185515 0.09161062
0.026689375 0.28432545 -0.05277855 -0.019050332 -0.24459356 -0.17138469 -0.24203983 -0.01918961
0.021390427 -0.005236685 0.08897334 0.006137912 0.108001634 -0.119870044 -0.10884644 -0.08995011
-0.14779423 -0.050723415 -0.07441824 -0.10582155 -0.030781608 0.051941797 -0.027120978 0.12849388
0.1215072 -0.09518347 -0.12171252 -0.033116173 -0.06448144 -0.14987838 0.08237247 0.15431494
-0.06650267 -0.10698831 0.059675813 0.098573886 0.003005471 0.21981065 0.11458229 0.16700928
-0.025580978 0.025936503 -0.030241061 0.041294906 0.05137023 0.049313266 -0.18705057 -0.13419604
-0.20242096 0.27907717 -0.0282679 -0.10290382 0.021942731 0.048188604 0.010303689 -0.06727034
0.03906684 -0.037710126 -0.10757666 0.059935585 -0.04702912 -0.020945357 0.1437408 0.105278365
-0.08206696 0.059730604 -0.07048696 0.002924378 -0.1383299 -0.03558104 -0.10963007 -0.1631212
0.046727262 0.058793176 -0.1532487 0.119296566 0.08101887 -0.10634922 -0.16410081 0.16628063
0.21986376 0.052365858 -0.32653207 -0.18297857 -0.052384984 0.18457694 0.18763329 -0.017226635
0.023443809 0.08024575 -0.1289323 0.07714496 -0.20874976 -0.05543711 -0.21218517 -0.017975656
0.13183454 0.1490892 -0.16733405 -0.14622636 -0.092859045 -0.34655017 -0.19292666 0.35837555
0.09113528 -0.123354174 0.2608156 0.3687834 0.028360162 0.18642247 -0.07672996 0.018612035
0.08381852 -0.049467415 0.051387683 0.06148385 -0.093084395 -0.022188803 0.14586669 -0.1868828
-0.15030655 -0.1936537 0.01729742 0.049713176 -0.038762283 -0.12510611 0.037295636 -0.11880115
0.22210827 0.088619985 0.16667195 -0.12145188 0.043171637 0.16561343 -0.2107998 -0.2714999
-0.06506719 -0.22431734 -0.023170779 0.063149124 0.08313894 0.18680695 0.17578253 -0.27097848
0.03296745 0.004543676 0.16996074 0.20204903 -0.044240363 -0.09432101 -0.03964277 -0.03430632
-0.21997984 0.026273223 0.18128319 0.25036466 -0.04787397 0.040946268 -0.060302623 -0.224775
-0.08688433 -0.1129311 0.0071935444 0.013870983 -0.058925945 -0.042159628 -0.091282375 0.27017877
-0.038092244 0.006962741 0.16688351 0.04074009 0.072900966 -0.0286193 0.08785234 -0.11928353
-0.02643506 -0.046534266 -0.05041341 0.0767271 -0.13623346 0.08982031 0.046753176 0.20039324

conv2.bias f4 [32]
00000000: bb73 21bd b3fb 87be 3008 94be f836 11be
00000010: a620 11be d37d 92be 8802 36be e2e6 87be
00000020: abe8 20be 5284 84be 505a e1bd 73ba 5abe
00000030: 6a0a bc3c d7bb 83bd 8398 eabd 830c 97bc
00000040: 966b a4be 86c3 a3be e5e5 0cbe 78ea 90be
00000050: 1ebc a6be b5a1 7fbe 368b 80be a349 1abd
00000060: e9fc 30be 64e9 2bbe 0669 76be 4b4c fabd
00000070: 0ba8 87bc cfe2 72be 0672 31be 7afc 36be
-0.03941701 -0.2655922 -0.28912497 -0.14181125 -0.1417261 -0.2861162 -0.17774403 -0.26543337
-0.15713756 -0.25882202 -0.11003554 -0.21360187 0.022954185 -0.06432312 -0.114548706 -0.018438583
-0.32113332 -0.3198511 -0.13759573 -0.28303885 -0.32565397 -0.2496403 -0.2510621 -0.03766788
-0.17283978 -0.1678825 -0.24063501 -0.12221583 -0.016559621 -0.23719333 -0.17328653 -0.1786975

conv3.weight f4 [256, 64, 5]
00000000: 05ff 2b3d 7013 0abe 2e57 bcbd 6376 8b3d
00000010: 26cb 55bd 7498 87bc f519 19be d163 e93d
00000020: d774 603e 1e81 193d 20a7 e33d 90d3 7dbe
00000030: 70ff a9bd 87f0 35bb d30d e43c d014 2d3e
00000040: 7697 67be 3489 5b3e 0b88 863d de36 5e3c
00000050: 81d8 0cbe f94d b63d 811f e33c 2dc0 75bd
00000060: 67a7 753d 42df 023e 7335 76be 2324 31be
00000070: d4f4 b7bd 9b48 3d3d d059 a1bd eb7a bd3b
00000080: 6a4a 8e3e 4456 013d 77c2 b63d ca5f b13d
00000090: ea13 9f3d 0076 0fbe 9ac3 b8bd 9416 043e
000000a0: 5a72 08be 42bd 713e c908 543d 056f 4a3e
000000b0: e29c 7f3d 40fc 0dbc 15da 41be fd3d 1abd
000000c0: 2fe9 c43d 250c a5bd d356 78bc cbf6 12be
000000d0: e808 2c3d 970f 943b 89f0 87be 05aa 42bc
000000e0: 194a 27be 92b0 7a3d 2540 d93d d80e 7fbd
000000f0: 0203 08be 5256 38be f6e7 13bd 51b2 5fbd
00000100: a337 cabd 22f0 85bd c564 7ebe 1f5d 003d
00000110: bfae 3cbe 23c4 3c3e bc22 253d a108 1dbe
00000120: f271 8cbe 0a89 e83d 9134 c33d af6f 093e
00000130: b49d 1a3e c40d 7c3e ecf0 823c 1613 90bd
00000140: e246 113d 5cbb 113d 1ac2 c03b 0880 993d
00000150: 6ddf b13d d360 12bd a340 4b3e 4e78 f63d
00000160: bd8d 7e3e 5d6e e53d 6f78 473e f323 b03d
00000170: 23b0 92bd d7e3 00be f9b5 d63d 3be1 55be
00000180: a6e7 b7bd e55b 363d fd9e 2dbe cc52 c73b
00000190: 37a1 47bc 553a bdbe e87b 2bbd 39c0 18be
000001a0: 459f a9bd f419 c4bd a8f5 5bbe 93d5 4ebe
000001b0: 2b01 b3bd 022d d23c 14e5 85bc 03f9 263e
000001c0: 39ee 803e 5f41 67bd b8aa 07be dc59 4abe
000001d0: 31c6 a2be ff94 43be 40a6 d23d 7002 26be
000001e0: e2fe a73b 08ef 42be fdfe 003e 012b ee3d
000001f0: b2bf 4b3e eac9 1bbe 9fe3 05be 10a2 40be
00000200: 1460 f53c de28 f73d 2fae 1f3e 64f1 87bd
00000210: 53c2 5e3d 893a c63c 7a75 88bd e270 b03c
00000220: eae4 5e3d e9e3 f33b b156 213d e4db f23d
00000230: 86ce 1b3d 22fa d23d 6d45 2a3d 3910 a33e
00000240: 5157 fa3d 2750 823b 5a9f 26be e8af 90be
00000250: 09b4 3fbd e2b6 ec3c 262f 3b3d c82c 453d
00000260: b8b3 14bd e577 183c 406a 44bc 5447 f13d
00000270: 7dbd 8f3e 269b 033d 1584 f23d 1289 083d
00000280: 4c67 ca3d db8d 9bbe eeec 753d b742 8b3e
00000290: fcce e8bd b8e4 43bb e367 f63b 61b1 ccbd
000002a0: abee c6bc 1f46 f1bb ac80 e3bc 167a 2abe
000002b0: 3bd9 d9bd e0ab c9bc cd27 67bd 6a59 6c3d
000002c0: 5e23 4cbd b4d8 b2bd 00cc 223e 5480 e73b
000002d0: 388a 953d e1c6 1dbe beb7 9bbc 01a8 fb3d
000002e0: 2eab dcbb 1cf7 cb3d d47c 34be 6051 253e
000002f0: 89ca 8fbe cef1 8dbd bbd4 8dbd 83b9 2cbd
00000300: 0518 4abe 7cea adbd d910 3cbe cc86 50be
00000310: e96f 393d b3c3 f0bd c91a d43c 5be4 d8bd
00000320: 2b5e 993d 973e 6fbe 0dc3 a03e f34d 7fbd
00000330: b59c 503c 2aae 0abe 2b3c d8bd 9188 653c
00000340: 3ef1 023e 7e9f 73bc 4e28 083e 5441 06be
00000350: e6aa 22be eda2 18bd 6bf6 4f3d 566e 82bb
00000360: bb16 e1bd f616 343d 7aef f7bc 3cce 1e3c
00000370: 91e4 16be 7657 78bd c7bf c2bc 4878 79bd
00000380: 5c8f 31bb 7a58 80bd 9ac8 0cbd 07ea 78bd
00000390: 72c8 cf3b 8653 28bd e521 b33d 684d b6bd
000003a0: e10c 753e fcb2 dd3d 337c 1fbd 905b dabd
000003b0: fff7 01be f4e2 41be b329 1fbe 9295 07bd
000003c0: 0c54 1ebc d731 2abd 3ab9 febd 9733 a8bd
000003d0: 4d68 0c3e 0e8a d33d f818 2abc f2bf 7b3c
000003e0: d50d b83d 558d 4abd 256d d73d 4ae3 1b3e
000003f0: 07e5 f1bd 98eb 233e fab4 d03d 00c7 61bd
0.041991252 -0.13483977 -0.09196316 0.0680969 -0.05219569 -0.016552188 -0.14951308 0.113959916
0.21919571 0.03747665 0.11115861 -0.24787736 -0.08300674 -0.0027761774 0.027838623 0.1690247
-0.22616372 0.21439058 0.06568917 0.013562886 -0.13754465 0.08901591 0.027724983 -0.059997726
0.0599741 0.12780479 -0.24043827 -0.17298941 -0.08982244 0.04621182 -0.078784585 0.005782475
0.27791148 0.03157641 0.0892381 0.086608484 0.0776747 -0.14009857 -0.09021683 0.12899238
-0.13324872 0.23607352 0.05176619 0.19768913 0.062405474 -0.008666098 -0.18930848 -0.037656773
0.09614789 -0.08058957 -0.015157419 -0.14351957 0.04200068 0.00451846 -0.265507 -0.011881356
-0.1633686 0.061203547 0.10607938 -0.062270015 -0.13282397 -0.18001679 -0.036109887 -0.054613415
-0.09873893 -0.06539942 -0.24843128 0.031338807 -0.18426035 0.18434195 0.04031633 -0.15335323
-0.27430683 0.11354263 0.095315106 0.1342151 0.15099221 0.24614626 0.015984021 -0.0703489
0.03546799 0.03557907 0.0058825137 0.07495123 0.08685193 -0.03573687 0.19848876 0.12034665
0.24858756 0.11202691 0.19479536 0.08600607 -0.07162502 -0.12586914 0.10483927 -0.208867
-0.0897973 0.04452123 -0.1695518 0.006082868 -0.012184433 -0.36958566 -0.041866213 -0.14917077
-0.082823314 -0.09575263 -0.21480429 -0.2019866 -0.08740457 0.025656227 -0.016344585 0.16305928
0.2518175 -0.056458827 -0.13248718 -0.19760841 -0.31791833 -0.19099806 0.10285616 -0.16211867
0.00512682 -0.19036496 0.1259727 0.11629296 0.19897345 -0.15213743 -0.13075112 -0.18811822
0.02995304 0.12068342 0.1559379 -0.066378385 0.05438454 0.024197834 -0.06663032 0.021538202
0.05441753 0.0074429405 0.039389316 0.11858347 0.038038753 0.10301615 0.041570116 0.31848314
0.122236855 0.00397684 -0.16271725 -0.28259206 -0.046802554 0.0288958 0.04569926 0.04813841
-0.036304206 0.009305929 -0.011988223 0.11781183 0.28074256 0.032130383 0.11841599 0.033333845
0.098829836 -0.30381665 0.060040407 0.27199337 -0.11367604 -0.0029890966 0.0075197085 -0.0999477
-0.024283728 -0.0073630954 -0.027771316 -0.16648135 -0.106371365 -0.02461809 -0.05643444 0.05770246
-0.049838416 -0.08732739 0.15898132 0.0070648585 0.07301754 -0.15407898 -0.019008514 0.122879036
-0.0067342734 0.09959242 -0.17625743 0.16144323 -0.2808421 -0.06930886 -0.06925341 -0.042169105
-0.19735725 -0.0849199 -0.18365802 -0.20363921 0.04527274 -0.11756077 0.025891678 -0.1059043
0.07488664 -0.2336372 0.31398812 -0.062330198 0.012732674 -0.13543001 -0.10558351 0.014009611
0.12787339 -0.014869569 0.13296625 -0.13110858 -0.15885505 -0.037264753 0.050772112 -0.003980438
-0.109906636 0.04396721 -0.030265559 0.009692725 -0.14735629 -0.060630284 -0.023773087 -0.060905725
-0.0027093505 -0.062668756 -0.034370996 -0.06077006 0.0063410336 -0.04109528 0.08746699 -0.08901483
0.23930694 0.10825154 -0.038936805 -0.106619954 -0.12692259 -0.18934232 -0.1554325 -0.033101626
-0.009663593 -0.041551437 -0.12437673 -0.08212965 0.13711663 0.10329066 -0.01038193 0.015365588
0.08987013 -0.04945119 0.105188645 0.15223423 -0.118112616 0.1600784 0.101907685 -0.05512142

conv3.bias f4 [256]
00000000: 3abf eabd 9911 013f c0a9 ed3e 6eab 65be
00000010: 2958 36bd 44fb 71be e1d6 293d 0adf 103d
00000020: b9c8 3dbe 6121 05be ccc7 bc3d 7e81 afbd
00000030: 0879 96bd 166f 8dbd 12c6 87bd 1cd7 bbbd
00000040: 1558 36be 095c 033d b3c3 0fbe d9e9 253e
00000050: e8eb 65bd d64d 17be 82b8 0e3e ac5e 9dbd
00000060: 9f7b ffbd 9c57 503e e8db 13bd bccf 46bd
00000070: e8a5 b4bd 8554 67be 5524 cbbd 8610 a1bc
00000080: 8683 3c3e deae f6bd 697b b4bd acb5 8cbd
00000090: de2a 9dbd ad53 e73e 8142 aa3a ba56 63be
000000a0: 4b13 7fbd f903 2c3e bf33 6ebd 4845 c0bd
000000b0: 36f4 c0bd 6acb 093e f474 0cbe e35e 66be
000000c0: b8cd 6cbb 87e3 ffbd 3d07 9bbd 25a2 54be
000000d0: 9bd5 23be 7f39 e3bc 6ffa 0bbe 2f06 1abe
000000e0: e2b9 cbbd 6de4 e2bd c110 acbd c49c e7bc
000000f0: ebdd 72be c595 9e3e a7e0 5dbe 36e4 a83d
00000100: 979a 673e f5f0 d93c d400 7b3e 5587 08bd
00000110: 1f43 5abe 0ae1 183e afef 9ebe fa23 75be
00000120: 6ac6 12bd 0147 28be a563 1e3d 2016 08be
00000130: 3969 7b3d fad0 433e b964 81bd 2bb6 233e
00000140: 8007 d3bd 51ca 8bbe ff2a d73d 48a1 c13d
00000150: f97b bfbd 4afb 21bd 9849 d1bc 6128 0bbe
00000160: 184a e1bd ae51 0bbe c6a0 4ebe 1f03 c9bd
00000170: fcca b8bd c228 e03d 9732 58be 9cab 62bd
00000180: 1e47 57be 2224 3a3d 9506 1dbe 7957 86be
00000190: 181c 11be 2018 a4bd 1a7f 31be e9ef d5bd
000001a0: 53d9 10bd b557 febd 4560 3ebd 5912 5fbe
000001b0: c3b5 f5bd b698 2d3e e0d8 cdbd fafb 373d
000001c0: a0b4 63be 67d3 843d b3d0 11be cdd1 febd
000001d0: 7d9e 0ebe c33b e93d b1bd 58bd a150 b53d
000001e0: 818e 3e3d 0319 1fbe 58ad 2a3d 1771 67bd
000001f0: c07d cd3c 788d ea3c 7c91 343e ebc7 57bc
00000200: a528 60bd 451e 05bd 4cbe e7bd 73d5 83bd
00000210: d094 2b3d 389a 893e ea5f 96bd d611 ea3e
00000220: b3a8 a53d 8c15 0cbe 6829 96bd 2c00 4abe
00000230: 304a a3be 29b5 90be 6e5b 32be 7ed8 1bbe
00000240: b330 3fbe 6e56 5bbe b67f f6bd 0be9 94bd
00000250: 728c 42be 57c0 efbd 5a6a fabd 6b06 1f3d
00000260: 2bff cb3d 67c0 ce3d baf4 d0bc 4c24 2cbe
00000270: b874 e8bd 10f4 35be 0176 1bbd 0629 c83e
00000280: e417 1d3f e3d5 e3bd ca57 293d f3c2 01be
00000290: 0213 d0bd c1f5 11be 5573 143c 919c af3e
000002a0: ac13 acbc 1a6c 02be 46f4 98bd dbd5 12be
000002b0: a911 0cbb f179 5abe 1b40 9cbd fbec 53bd
000002c0: f4e2 10bd 5d3a 36bc bb1e ec3e 785c 73be
000002d0: ae22 80bc 059f 8fbc d031 22be 13fb 21be
000002e0: d2c6 1c3e 183d 34be 8fcd 59be e103 76bc
000002f0: 89fd a03d 632c 90be de52 5fbd bb0f 2cbe
00000300: 49f0 04be 7d25 2bbd 49d9 0c3e c3d2 6f3d
00000310: 4128 4cbe e0c6 08be 70f8 6abd ef5c f2bd
00000320: 5203 eabd e7f7 14be 5bf2 cbbd d622 a4bd
00000330: 323d a23e 49b4 70bc 3098 03bd 4285 62be
00000340: 63b6 193e 6b4d 88be 96e9 403e cdc9 e23d
00000350: 557a 6dbe 4064 e23d 826e cd3d bfc8 b3bd
00000360: ee3b 5ebe 5193 3b3d 6cba 86bd ba35 173d
00000370: 5fee 423c f1bb 333e ac1b f53e d861 cd3d
00000380: f6b5 45be c12c 4cbd 18bb a93d fb40 a33e
00000390: d268 d7bd 9a43 0abe 331e dbbd 3d18 4cbe
000003a0: 7dbe f9bd 9e28 2cbd 9755 c43e c461 d9bd
000003b0: b68a 83bd d1a8 f93c d963 05be 9bee 03be
000003c0: 6a1f 1fbe b82d 9ebd 00cf 17bc 4c44 a33d
000003d0: ddab 83be 6ab7 13bd 8e94 40be 7d13 8b3c
000003e0: 5c7c 9cbe fa4c c9bd 0465 803d c044 70be
000003f0: 9904 debd 4538 45be 3342 1cbe 6f88 55bd
-0.11462255 0.50417477 0.4641857 -0.22428676 -0.04451767 -0.23631006 0.04146469 0.035368957
-0.18533601 -0.13001014 0.09217796 -0.085696205 -0.07347304 -0.069059536 -0.06629576 -0.09171888
-0.17807038 0.032070193 -0.14039497 0.16202487 -0.05613318 -0.14775786 0.13937572 -0.07684073
-0.12474751 0.2034592 -0.03609839 -0.048537955 -0.088207066 -0.22590835 -0.09919039 -0.0196612
0.18409547 -0.12045072 -0.08812601 -0.06870589 -0.07674192 0.45181027 0.001298979 -0.22201052
-0.06227426 0.1679839 -0.058154818 -0.09388214 -0.094215795 0.13456503 -0.13716489 -0.22497134
-0.003613336 -0.12494569 -0.0756974 -0.20764978 -0.15999453 -0.027737377 -0.13669752 -0.15041421
-0.09947564 -0.11078725 -0.08401633 -0.028272994 -0.23717467 0.3097364 -0.2166773 0.08246653
0.22617565 0.026604155 0.24512035 -0.033332188 -0.21314667 0.14929596 -0.3104224 -0.23939505
-0.035833754 -0.16433336 0.038669247 -0.1328969 0.061379645 0.19122687 -0.063180394 0.1598746
-0.10304165 -0.27302793 0.10506248 0.0945459 -0.09349818 -0.03954629 -0.025547788 -0.13589622
-0.110004604 -0.13605377 -0.20178518 -0.098150484 -0.09023091 0.10945274 -0.21113048 -0.05533944
-0.21023223 0.045444615 -0.15334542 -0.2623861 -0.14170873 -0.08012414 -0.17333642 -0.1044615
-0.035363507 -0.124190725 -0.04647853 -0.21784343 -0.11997559 0.16952786 -0.10051131 0.044918038
-0.22236872 0.06485634 -0.14239769 -0.1244236 -0.13927646 0.11388352 -0.05291528 0.08853269
0.04652262 -0.15536885 0.04166922 -0.056504335 0.025084376 0.02863191 0.17633623 -0.013170223
-0.05472626 -0.03249957 -0.11315593 -0.064371966 0.041889966 0.26875472 -0.07342513 0.45716733
0.080888174 -0.13680094 -0.07332116 -0.19726628 -0.31892538 -0.28263214 -0.1741769 -0.15219304
-0.18670921 -0.21419689 -0.12036078 -0.07271012 -0.18998888 -0.11706608 -0.12227316 0.03882448
0.09960779 0.100952916 -0.02550732 -0.16810721 -0.11350387 -0.17768884 -0.037954334 0.39093798
0.6136458 -0.1112478 0.041343488 -0.12672023 -0.101598755 -0.14253904 0.0090607 0.34299138
-0.021005474 -0.1273655 -0.074684665 -0.14339392 -0.002137283 -0.2133558 -0.07629415 -0.051739674
-0.03537269 -0.011122313 0.46117195 -0.23765743 -0.015641537 -0.017531881 -0.15839314 -0.15818433
0.15310219 -0.1760143 -0.2126982 -0.015015573 0.07860858 -0.28158864 -0.054522388 -0.16802876
-0.12982287 -0.0417838 0.13754763 0.058550607 -0.1993723 -0.13357115 -0.057365835 -0.11834132
-0.114264145 -0.14547692 -0.09958335 -0.08014457 0.31687313 -0.014691421 -0.03212756 -0.22121146
0.15010981 -0.26621565 0.18839106 0.11073647 -0.23191197 0.110542774 0.10030843 -0.08778524
-0.21702549 0.04579479 -0.06578526 0.036916472 0.011897652 0.17552163 0.47872674 0.10028428
-0.19307694 -0.04984737 0.082876384 0.31885514 -0.1051804 -0.1350235 -0.106991194 -0.19931121
-0.12194536 -0.042030923 0.3834655 -0.106143504 -0.064229414 0.030476006 -0.1302637 -0.1288399
-0.15539327 -0.07723564 -0.009265661 0.07972011 -0.2571706 -0.03606359 -0.18806669 0.016977066
-0.3056363 -0.09829135 0.06269267 -0.23463726 -0.10840721 -0.19259746 -0.15259628 -0.052132066

fc.weight f4 [8, 256]
00000000: 7180 0fbd 10db 5b3d 0c37 363d 2a19 41bc
00000010: e8c2 eebd 1a6c 743d 707a aebd 8448 21bc
00000020: 5958 3b3b 8638 6dbd 2e2a da3c c09c b9bd
00000030: c455 e23d c69e febc 42f5 99bc da1e f13b
00000040: 2e16 da3d 195c 33bc e0ee 57bd 513d 8bbc
00000050: 3d93 4f3d eed6 e33c b50a c13c 443c 243d
00000060: 146b 50bd 1a69 4fbd b1cd 3ebc 93de 7bba
00000070: 5818 fbbc ec59 31bd 30e5 a33c 6bd7 93bc
00000080: d84e 5b3d 2154 08bd e650 6abd 4775 663d
00000090: f733 9abd a9ac b83d 93b3 ee3d c94d 47bd
000000a0: c01c ce3c a057 53bc 82d2 de3c 3a4a 33bb
000000b0: fdc0 fabc a924 273d fff2 c73c 2e2b e6b9
000000c0: febb b63e 0e0b 333c 0899 003c 6710 12bd
000000d0: 6da5 3cbd 7cab 9ebd f703 08bd 5b8b f73c
000000e0: 331a 123e fbd7 b23e ca3e 853b 3d43 5f3c
000000f0: 1146 51bc f28f 393d 0db6 b23c ac2f fc3b
00000100: b111 cc3c 1992 573d 69b2 533d f4aa 35be
00000110: a81e b9bc 603e b73c 35af a4bd d143 43bc
00000120: cb61 ff3c dd61 43be e1d9 013d 5a65 cc3d
00000130: 57ab 22bd 53b6 233c b020 7b3c 71d4 ac3c
00000140: 9ffc 4abb 48b8 64bd bc36 3cbd 9281 2b3d
00000150: 44ab 0cbc 3d09 673c 75cc 20bd 6ec0 09be
00000160: 21a1 e6bc 23cf 43bc a4d3 843c 3cce 30bc
00000170: a11a be3b 0aa8 d33c 4e41 c5ba 42ba 41be
00000180: 21da 36bc 4a10 cb3b b72c 09be a6c3 0fbd
00000190: b7c8 1bbc a08f 4fbd a719 d7bd bcec 893c
000001a0: 8b01 6cbd 099e 6bbd 6a44 56bd 83bf 9ab9
000001b0: c914 71be ba17 1c3b 390f f93b c0a9 3a3d
000001c0: 4946 b7bd 606d 013d db59 adbd 62d4 1dba
000001d0: eb98 a7bd 0867 4fbd e47f 53bd 0e05 a13c
000001e0: 6ea5 d9bd acf8 253d f627 663c c98d 3f3d
000001f0: e175 bf3c b931 173d 2c52 5dbd 17dd 403d
00000200: 1f94 893c fc15 3bbd cdf7 dfbc 00e5 043d
00000210: dbdb 03bd 0a58 a1b9 cb44 f3bc e087 ae3d
00000220: db43 bebc 189a b23b f1ae 283d 6301 33bc
00000230: 224a 0c3d 07b1 9bbd 62c9 3ebe 6af8 14bd
00000240: fb17 bb3c 429b 5e3d 856a cf3c 5ce7 7b3d
00000250: 1f3d a9bd 2e93 fd3b 7b71 34bb 9a27 0e3d
00000260: 82a7 843c b9b0 61bd a4f8 04be 919f 50bd
00000270: 8cc5 a4bd e65a d8bd 5506 87bd 81bb d83a
00000280: 91a9 573e 7a77 44bc 75f1 6e3d fed6 26bc
00000290: 7e1a 01be bb8b 573c 5d44 753d fecf 713d
000002a0: 024f d9bc d3d7 f7bc 2c94 cdbb 32b7 94bd
000002b0: 8ec7 363b 03b0 b9bd b536 07be 2af5 0bbe
000002c0: b64e 73bd 08ab 923d c7a8 b5bb 514a 833c
000002d0: 0565 683b d224 0b3d 0933 7cbd 229c dabc
000002e0: f3e9 193d 2087 12be 9330 06bd b3b2 24bd
000002f0: de14 16bd e37b 373d 6e5f 9c3d 5d29 aabd
00000300: 3ff3 bcbc e3fe b6bd 4064 5cbd 8852 8cbd
00000310: 13f3 7cbc 8c71 c3bc 811c 2dbb 76da 123d
00000320: 201d 91bd f581 f2bc fe67 8b3d f4a7 27bd
00000330: a2d1 cf3c 0617 993d d729 19bc ef29 76bd
00000340: 64de 01bd be6d 97bd 7849 a43d e617 283d
00000350: 391f 4d3a 5890 64bd 344f 203c 2ae7 593c
00000360: 2b5b 6dbd 7439 b4ba 4c85 49be d959 d03d
00000370: 002b 5a3d faaa 9f3c 68d0 583c d0b3 8b3c
00000380: 2541 79bc b790 433d d843 293d e9b5 6a3d
00000390: 62f7 bdbd 5f30 d03b 4339 87bb 31b6 6ebd
000003a0: 79ea 01be 93ca 233d 395b 533d 1f68 223d
000003b0: 6fd3 45bd 65c3 44bb a115 5c3d 0691 c13b
000003c0: b327 9b3c a98a 523d 56a6 babc bf48 1eba
000003d0: b5bd d83c 322d 3f3d 8d62 15be 05f1 0cbd
000003e0: f787 e5bd 2b70 a4bc 3f4c e93c c83e 84bc
000003f0: a696 2f3d f79f 323c 51c2 9bbb 9f5e 76bd
-0.0350346 0.05367571 0.04448609 -0.011785785 -0.11658269 0.059673406 -0.08519447 -0.009843949
0.0028586595 -0.057915233 0.026631441 -0.09063101 0.11051515 -0.031081568 -0.018793706 0.007358414
0.10648762 -0.010947251 -0.052718043 -0.016997011 0.050677527 0.027812447 0.023564676 0.040096536
-0.050883368 -0.050637342 -0.01164572 -0.0009608056 -0.030651256 -0.043298647 0.020006746 -0.018047055
0.053541988 -0.033283357 -0.057206057 0.05626419 -0.07529443 0.09017307 0.11655345 -0.048658166
0.025160193 -0.012899309 0.027199987 -0.0027357475 -0.030609602 0.040806446 0.024407862 -0.0004390119
0.35690302 0.010927929 0.0078489855 -0.035660174 -0.0460562 -0.07747552 -0.033206906 0.030217817
0.14267807 0.34930405 0.004066323 0.013626871 -0.012773053 0.045303293 0.021815324 0.0076961126
0.02491078 0.052629564 0.051683817 -0.17740995 -0.022597626 0.02236861 -0.080412306 -0.011918024
0.031174561 -0.190803 0.031701926 0.09980269 -0.039714184 0.0099922 0.0153276175 0.021097394
-0.0030973328 -0.055839807 -0.045950636 0.041871615 -0.008585755 0.014101324 -0.039257485 -0.13452312
-0.028153004 -0.011951241 0.0162142 -0.010791358 0.0058015143 0.025836963 -0.001504937 -0.18918708
-0.011160404 0.00619701 -0.13395964 -0.035098694 -0.009508303 -0.05067408 -0.1050294 0.016836517
-0.05761866 -0.05752376 -0.05231134 -0.00029515856 -0.23543085 0.0023817853 0.0076006916 0.045572042
-0.08948953 0.03159845 -0.08464404 -0.0006020722 -0.08183464 -0.050635368 -0.051635638 0.01965573
-0.10627256 0.040520355 0.014047613 0.046766076 0.023371639 0.036912654 -0.054033443 0.047085848
0.016794262 -0.045675263 -0.02733984 0.032444954 -0.032192092 -0.00030773907 -0.029695889 0.0852201
-0.023225715 0.0054504983 0.041182462 -0.010925624 0.034250386 -0.07602125 -0.18631509 -0.03636972
0.022838583 0.054347284 0.025319347 0.06149994 -0.08263611 0.0077384925 -0.002753346 0.034705736
0.016193155 -0.055100176 -0.12985474 -0.050933424 -0.080454916 -0.105642125 -0.065930046 0.0016535373
0.21060778 -0.011991376 0.05833574 -0.010183094 -0.12607762 0.013155873 0.05987965 0.059036247
-0.026526932 -0.03025428 -0.006273767 -0.07261504 0.002788994 -0.09066775 -0.13204463 -0.13667741
-0.059401236 0.07161528 -0.0055438015 0.016026648 0.0035460603 0.03397066 -0.06157211 -0.026685778
0.037576627 -0.14309359 -0.032761168 -0.040209483 -0.036640994 0.044795882 0.07635389 -0.08308671
-0.023065208 -0.089353345 -0.053806543 -0.06851679 -0.015438813 -0.023857854 -0.0026414695 0.03585287
-0.07085633 -0.029602984 0.06806944 -0.040931657 0.025368515 0.074750945 -0.009348354 -0.060098585
-0.03170623 -0.073939785 0.080218256 0.041038416 0.0007824782 -0.05580172 0.0097845085 0.013299743
-0.057948273 -0.0013750033 -0.19679755 0.10173387 0.053263664 0.019490708 0.013233282 0.017053515
-0.015213286 0.047745433 0.041324466 0.05730239 -0.092757 0.0063534225 -0.004126699 -0.05827922
-0.126871 0.03998811 0.05160067 0.03965008 -0.048297342 -0.003002369 0.053731564 0.0059071807
0.018939829 0.051401768 -0.022784393 -0.00060380617 0.026457647 0.04667396 -0.14588375 -0.03440954
-0.11207574 -0.020073017 0.02847874 -0.016143218 0.04286828 0.010902396 -0.004753389 -0.06014883

fc.bias f4 [8]
00000000: 8720 7abe 321c bfbe 06cf 0dbf 00c1 23bf
00000010: e19f 05bf 5cfc 1f3e a22b ec3e 5afb 8b3e
-0.2442647 -0.373262 -0.5539402 -0.6396637 -0.5219708 0.15623611 0.4612704 0.27340204
