src/main/python/saved_models/javascript_1_66_CNNClassifier1_128embs_130id_16hd_0hl_Falsebid3kernel0.5dropout_2.pt (torch, 295627 bytes, 9 tensors)

emb.weight f4 [130, 128]
0	0xbfa32db9	-1.2748328
1	0x3ec0e7e5	0.3767692
2	0x3f0d7db5	0.5526994
3	0xbe16c095	-0.14721902
4	0xbff24772	-1.8928053
5	0x3e7231dd	0.23651834
6	0x3fadeb67	1.3587464
7	0x3f608722	0.87706196
8	0x3f86d1b6	1.0532749
9	0xbfd530c1	-1.6655504
10	0xbf91e38d	-1.1397568
11	0x3ffe1d77	1.9852742
12	0xbe0278bb	-0.12741368
13	0x3f2d1894	0.6761563
14	0xbec3f809	-0.38275173
15	0xbf0a4945	-0.5401805
16	0x3f9d5787	1.2292336
17	0xbfb4aa97	-1.411456
18	0xbe9f2c9e	-0.31088728
19	0x3eb692fa	0.3565901
20	0x3edab9cf	0.42719886
21	0xbf703789	-0.9383474
22	0x3c3cae5d	0.011516181
23	0xbe8d3b09	-0.27584103
24	0x3f962316	1.1729457
25	0xbe9a1215	-0.3009192
26	0xbe9007c2	-0.2813092
27	0x3e384bfe	0.17997739
28	0x3f095f66	0.5366119
29	0xbfb8c994	-1.4436517
30	0xbdb9d729	-0.09074242
31	0x3ef425cb	0.47685084
32	0x3f591b99	0.84807736
33	0x3e0d0e9f	0.13775109
34	0xbf2b4052	-0.6689502
35	0x4035dca6	2.8415923
36	0xbf26b16d	-0.6511448
37	0xbf4cc773	-0.79991835
38	0x3ff9cd91	1.9515859
39	0x3e86ea09	0.2635043
40	0x3fd4f722	1.6637919
41	0xbf88362c	-1.0641532
42	0xbf50a988	-0.81508684
43	0xbedb35ea	-0.4281457
44	0x3f975b1b	1.1824678
45	0x3de43777	0.111433916
46	0x3e97c6e3	0.29643926
47	0x3e314aae	0.17313644
48	0x3de495f1	0.111614116
49	0xbdcdb1e3	-0.10043695
50	0x3f2d3a6b	0.67667264
51	0x3fde7a28	1.7381029
52	0x3eb27ae1	0.34859374
53	0x3fa03c1d	1.2518345
54	0xbe77e870	-0.24209762
55	0x403df9cf	2.968372
56	0xbf2d94b8	-0.6780505
57	0xc004538f	-2.0676
58	0xbda35d6a	-0.07976802
59	0x3f399250	0.7248888
60	0x3e8346f3	0.25640067
61	0x3e225d7d	0.15855975
62	0x3f7a9ad3	0.97892493
63	0x3f59aaec	0.8502643
64	0xbfa717bf	-1.3054122
65	0x3d12744d	0.035755444
66	0xbf17866f	-0.59189504
67	0x3f95a4f8	1.169097
68	0x3fe922dd	1.8213764
69	0x3f1a5dd2	0.6029941
70	0x3dda8e63	0.10671689
71	0x3f51d4b5	0.8196519
72	0xbe2f4c00	-0.17118835
73	0x3fd20f08	1.6410837
74	0xbc8f47b8	-0.017490253
75	0x3e5cdbe5	0.21568258
76	0xbc85e5c8	-0.01634492
77	0xbfc82e68	-1.5639162
78	0xbe3a0f47	-0.1816989
79	0xbeb01c02	-0.34396368
80	0x3eb126a9	0.34599808
81	0xbf0a197d	-0.5394514
82	0x3ec4ed11	0.38462117
83	0x3f216454	0.63043714
84	0x3e5d5ac0	0.2161665
85	0x3e3f9f8b	0.18713205
86	0xbe0a1ef8	-0.13488376
87	0xbf8cd66f	-1.100294
88	0xbe2a6324	-0.16639382
89	0x3fe80b7a	1.8128502
90	0x3f1f0d9a	0.6213013
91	0xba5c03e4	-0.0008392914
92	0xc0035f1c	-2.05268
93	0xbf1da10b	-0.6157386
94	0x3ece869a	0.40337068
95	0xc037cf21	-2.8720171
96	0xbe53c3b5	-0.20680125
97	0xbf42263b	-0.75839585
98	0xbfa21696	-1.2663143
99	0x3f903fe5	1.1269499
100	0x3f3054d7	0.68879455
101	0x3e4fcaab	0.20292155
102	0x3fa5ce79	1.2953635
103	0xbeba159f	-0.3634462
104	0x3fcd2347	1.6026391
105	0xbfa2e952	-1.2727454
106	0xbf6ac63e	-0.91708744
107	0xbf1d335d	-0.614065
108	0xbff13f37	-1.8847417
109	0x3f80fa71	1.0076429
110	0xc0048544	-2.070634
111	0x3f3f65b0	0.7476454
112	0x3fbb0f90	1.4614124
113	0x3f199b32	0.60002434
114	0x401e154c	2.4700499
115	0x400e3866	2.2221923
116	0xc006c9d8	-2.1060696
117	0xbe23fd16	-0.16014513
118	0x3f053d5d	0.5204676
119	0x402c994b	2.6968563
120	0x3f124bc4	0.5714686
121	0x4015e826	2.3422942
122	0xbf1061e6	-0.5639938
123	0xbed14eed	-0.40880528
124	0x3eba8990	0.36433077
125	0x4000dc0d	2.0134308
126	0x3fd24937	1.6428593
127	0x3fa817f6	1.3132312
128	0x3f3915dd	0.72298986
129	0x401fb54d	2.4954407
130	0x3f48d767	0.7845368
131	0xbf317a07	-0.69326824
132	0xbfc4aae3	-1.536465
133	0xbe3ff990	-0.18747544
134	0x3fb5c892	1.4201834
135	0x3fba7dfc	1.4569697
136	0x3f447094	0.7673428
137	0xbfef74d8	-1.8707533
138	0xbc5a0f00	-0.01330924
139	0xbe5375bc	-0.20650381
140	0x3f6bb979	0.92079884
141	0x3fbc629e	1.4717596
142	0xc0009b6c	-2.0094862
143	0xbf42e6f5	-0.7613366
144	0xbe361bf4	-0.17784101
145	0x3f3d2ceb	0.73896664
146	0xbf168d68	-0.5880952
147	0xbf107cc5	-0.56440383
148	0xbfe501fc	-1.789123
149	0xbfca9375	-1.582625
150	0xbfaac43f	-1.334114
151	0x3dd72fcb	0.10507163
152	0x3facd7dd	1.3503376
153	0xbe4562b6	-0.19275936
154	0x3d0fc4cd	0.035099793
155	0xc043ba55	-3.0582478
156	0x3eebad1b	0.46030506
157	0xbca02b72	-0.019551966
158	0x3f4bea9d	0.79654866
159	0x3fca37c7	1.5798272
160	0xbf28c0cd	-0.6591919
161	0x3f79ac54	0.97528577
162	0x3e44d270	0.192209
163	0xbf56e9d0	-0.8395052
164	0x3e889b46	0.26680964
165	0x3f44faf2	0.7694541
166	0xbf3bd8f5	-0.73377925
167	0xbee8aec4	-0.45445836
168	0x3e03f8da	0.12887898
169	0x3f090adb	0.5353219
170	0xbcb15ba2	-0.02165014
171	0xbf50890f	-0.81459135
172	0x3f4d3e27	0.8017296
173	0x3e17fae5	0.14841802
174	0x3ee2d805	0.44305435
175	0xc00127a5	-2.0180447
176	0xbebc11c6	-0.3673231
177	0xbe3f118d	-0.18659039
178	0x40079233	2.1182983
179	0x3f2d13fc	0.6760862
180	0x3f805ed0	1.0028934
181	0xbf102253	-0.56302375
182	0xbfd56512	-1.6671469
183	0x3fbed448	1.4908533
184	0x3eda6213	0.4265295
185	0xbfaeeaed	-1.3665444
186	0xbefb08e1	-0.49030212
187	0xbf0d4ada	-0.5519234
188	0x3eeafce0	0.45896053
189	0xbe8337e1	-0.2562857
190	0x3ecb6f41	0.39733317
191	0x3f06efac	0.5270946
192	0x3f57b327	0.8425774
193	0x3eb76dda	0.35825998
194	0xbef78f2b	-0.48351416
195	0x3eac8a3a	0.33699208
196	0xc0522d7e	-3.2840266
197	0x4003a695	2.0570424
198	0x3f849315	1.0357386
199	0x3ea8caa7	0.3296711
200	0x3e8297de	0.2550649
201	0xbf61807a	-0.88086665
202	0xbfc36ddd	-1.5267903
203	0xbf922a97	-1.1419247
204	0x3eb0751f	0.34464356
205	0xbd795cf7	-0.060879674
206	0x3f8d25f8	1.1027212
207	0x3ffd8c7e	1.98085
208	0xbec15eb6	-0.3776757
209	0x3ef3fe3d	0.47654906
210	0x3fb5c4b9	1.420066
211	0x3f50c9e5	0.81558067
212	0xbf93f279	-1.1558372
213	0x3fba3b6e	1.4549387
214	0x40131ab8	2.2985058
215	0x3eb735ab	0.35783133
216	0x3ed8c3b7	0.4233682
217	0x3fca43ba	1.5801919
218	0xbef58b74	-0.47957957
219	0x3f7ab2a0	0.9792881
220	0xbfb22045	-1.3916098
221	0x3ec55998	0.38544917
222	0x3f05fa63	0.52335185
223	0xbf453755	-0.77037555
224	0x3f1a4e19	0.6027542
225	0x3eeb404e	0.45947498
226	0xbd9c79d3	-0.076404236
227	0x4016ca8c	2.3561125
228	0xbf85a2f7	-1.0440358
229	0x3fca0713	1.5783409
230	0x3f5f4e34	0.87228703
231	0x3efc77fa	0.49310285
232	0xbf844082	-1.0332186
233	0x3fab8cbb	1.3402323
234	0xbe5b5826	-0.21420345
235	0xbf48ff29	-0.78514344
236	0xbf5c5325	-0.8606437
237	0xbfe5ff51	-1.7968541
238	0x3faeb0f1	1.3647748
239	0xbe8e7895	-0.27826372
240	0xbedc4e27	-0.43028376
241	0x3eb6d12d	0.35706463
242	0xbf953913	-1.1658043
243	0x3f5633ac	0.83672595
244	0x3ede3b68	0.43404698
245	0xbf5afc20	-0.8554096
246	0x3e84a297	0.25905296
247	0x3e6107f2	0.21975687
248	0x40212984	2.518159
249	0xbe9fdd75	-0.31223646
250	0x3f9f67b0	1.2453518
251	0xbfacb472	-1.3492568
252	0x3f8b5619	1.088565
253	0x3e8af9a4	0.27143586
254	0xbcef209c	-0.029190354
255	0xbf92e92d	-1.147741

conv1.weight f4 [16, 128, 3]
0	0xbbd87e37	-0.006606843
1	0xbdb9c486	-0.09070687
2	0xbcad9f0c	-0.021194004
3	0xbca4c8c6	-0.020115267
4	0x3aa55472	0.0012613668
5	0xbda4e7e7	-0.08052044
6	0xbd64a81c	-0.055824384
7	0x3d2f52f9	0.04280374
8	0xbe05958c	-0.13045329
9	0x3de7826d	0.113041736
10	0xbd256d0a	-0.04038719
11	0x3dd540a1	0.104127176
12	0xbca1583e	-0.019695397
13	0x3da8224e	0.08209668
14	0x3da61297	0.081090145
15	0x3d57a4cb	0.052647393
16	0x3d6701d8	0.056398243
17	0x3e080c49	0.13285936
18	0x3e078c6f	0.13237165
19	0x3d80d97c	0.06291482
20	0x3e4fb32e	0.20283195
21	0x3cefd196	0.029274743
22	0x3e77a661	0.24184562
23	0x3e4771e0	0.19477034
24	0x3de94608	0.113903105
25	0x3cec524b	0.028847834
26	0x3bf2d173	0.007410222
27	0x3d40b45b	0.047047
28	0xbdcac7b7	-0.09901374
29	0x3cc9a332	0.02461395
30	0x3d16f3ac	0.036853477
31	0xbddfdf12	-0.10931219
32	0xbd51b3ec	-0.051196977
33	0xbd7e7a25	-0.062128205
34	0xbd3a77a6	-0.045524262
35	0xbdb7a5bc	-0.08967158
36	0x3e4e228f	0.2013037
37	0x3c9ec2a5	0.019379923
38	0x3e732f5f	0.2374854
39	0x3e00f0b4	0.12591821
40	0x3dc1b0c3	0.09457543
41	0x3c593606	0.013257509
42	0x3d1c2a7b	0.03812645
43	0x3dd0ebb3	0.10201206
44	0x3e87c309	0.26515988
45	0x3c80c8f7	0.015720828
46	0xbdd46296	-0.10370366
47	0xbcaead2b	-0.021322807
48	0xbe0d4786	-0.13796815
49	0x3dabbc6b	0.08385547
50	0xbd82351a	-0.063577846
51	0x3d955695	0.07291905
52	0x3e1fa74f	0.15591167
53	0x3db874bf	0.090066426
54	0xbe457524	-0.19282967
55	0x3df47369	0.11936075
56	0xbdaeb394	-0.085303456
57	0x3deb2017	0.1148073
58	0x3e2a2b9c	0.16618198
59	0x3df2c6a0	0.11854291
60	0x3e3f8a50	0.18705106
61	0xbd9ebd89	-0.07750995
62	0xbd0fc9d2	-0.03510458
63	0x3d602e6c	0.05473177
64	0xbd09bc5a	-0.03362689
65	0xb91deae2	-0.00015060187
66	0x3d2a168f	0.04152542
67	0x3d09d974	0.033654645
68	0xbcf27356	-0.029596012
69	0xbd10fc23	-0.035396706
70	0xba768d99	-0.0009405255
71	0x3cdef2e1	0.027215423
72	0x3d7691c6	0.060197614
73	0xbd280856	-0.041023575
74	0x3d18810e	0.03723245
75	0xbdb109db	-0.08644458
76	0x3d17f9cc	0.03710346
77	0x3d4560fa	0.048188187
78	0x3d2da7d1	0.04239637
79	0x3d09a66a	0.03360597
80	0x3db20351	0.08692039
81	0xbd491b0b	-0.049098056
82	0xbce0dfd2	-0.027450476
83	0xbd1b8e79	-0.03797767
84	0x3d54f586	0.051991962
85	0x3e2efbcb	0.17088239
86	0x3dae3140	0.085054874
87	0xbdc09517	-0.09403437
88	0xbd8d38e8	-0.0689562
89	0xbcd3d2a2	-0.025857273
90	0x3c9f5194	0.01944808
91	0x3bf71665	0.0075405114
92	0x3d44dc37	0.048061576
93	0xbdb4e7b4	-0.08833256
94	0xbd955a2d	-0.0729259
95	0xbe0e3ac7	-0.1388961
96	0x3e24274b	0.16030614
97	0x3d81076b	0.06300243
98	0xbe2fa055	-0.17151006
99	0xbdd2e6ad	-0.10297904
100	0x3cc9501c	0.024574332
101	0xbda74fb4	-0.08169499
102	0xbe2438b3	-0.16037254
103	0xbd078e2c	-0.03309457
104	0xbccff676	-0.025386076
105	0x3e4e0217	0.20117985
106	0xbcc2138c	-0.023690961
107	0x3d4e39b2	0.05034799
108	0x3d2f7710	0.042838156
109	0xbce57846	-0.028011452
110	0x3c29e859	0.010370337
111	0xbddd3f74	-0.10803118
112	0xbd4eac99	-0.05045757
113	0xbdb9e4d7	-0.09076851
114	0xbcc761b5	-0.024338583
115	0x3e4f5d72	0.2025049
116	0x3d74d737	0.059775557
117	0x3e094113	0.1340373
118	0x3db94065	0.090454854
119	0x3e0ad801	0.13558961
120	0xbca3b07f	-0.01998162
121	0x3c91cf20	0.01779896
122	0xbcc86bee	-0.024465527
123	0x3ddb49c4	0.10707429
124	0x3e5fc7a6	0.21853504
125	0x3dd2128b	0.10257443
126	0x3d229a5d	0.039697994
127	0xbc46e496	-0.01213946
128	0xbd65a206	-0.05606272
129	0x3e0692be	0.13141915
130	0xbe069841	-0.13144018
131	0xbd0179c5	-0.03161027
132	0xbd1093db	-0.035297256
133	0xbdbe7072	-0.09298791
134	0xbcb022ca	-0.021500964
135	0xbd686329	-0.05673519
136	0xbdabf6c9	-0.0839668
137	0xbe2adb52	-0.16685227
138	0x3e49901c	0.1968388
139	0xbcd79477	-0.02631591
140	0xbc308373	-0.010773527
141	0x3ddf286f	0.10896384
142	0x3d41c6c2	0.04730869
143	0x3d0e94ca	0.034809865
144	0xbdafc334	-0.08582154
145	0xbd2d51ea	-0.042314447
146	0xbd187169	-0.03721753
147	0xbcdc4c51	-0.02689186
148	0xbd09d880	-0.033653736
149	0xbdce15c8	-0.10062748
150	0xbdeba698	-0.115063846
151	0xbc4240fc	-0.011856314
152	0x3e4b0e4d	0.19829674
153	0xbdd75e12	-0.10515989
154	0x3c46d512	0.012135761
155	0xbd37e4a5	-0.044895787
156	0x3bf1c92b	0.0073787174
157	0x3dc98f17	0.09841745
158	0x3dae2a8b	0.08504208
159	0xbca419db	-0.02003186
160	0xbc55f641	-0.0130592
161	0x3df2a0db	0.11847087
162	0x3d9b2c74	0.07576838
163	0x3d0a37ee	0.033744745
164	0x3ba63f0a	0.005073433
165	0x3d8cdb42	0.068777576
166	0xbcf1eb8a	-0.02953126
167	0xbd47e896	-0.048805796
168	0x3df93159	0.121676154
169	0xbd645807	-0.055748012
170	0xbbb82cc1	-0.0056205695
171	0xbe026071	-0.12732102
172	0xbe741d23	-0.2383924
173	0xbd8948d3	-0.06703343
174	0xbe1bc6e3	-0.15212588
175	0x3ca21c07	0.019788755
176	0xbe2c797a	-0.16843215
177	0x3e539683	0.20662884
178	0x3d36ff1f	0.044676896
179	0x3d287b21	0.04113305
180	0xbdbd5b37	-0.092459135
181	0x3d3cdbec	0.04610817
182	0xbe57bac4	-0.21067339
183	0xbcb0c7af	-0.021579592
184	0xbd2ce5f5	-0.04221149
185	0xbcae6852	-0.021289978
186	0x3dda3c38	0.10656017
187	0x3d6aa387	0.057284858
188	0x3d9d6962	0.07686116
189	0xbd6f70ab	-0.058457058
190	0x3c689ab6	0.014197042
191	0x3c8864d2	0.016649637
192	0x3d66b86a	0.056328215
193	0x3dd15141	0.10220576
194	0x3e3b0ebe	0.18267342
195	0x3da562e4	0.080755025
196	0x3d9a5ad2	0.07536854
197	0x3d2ca13b	0.04214595
198	0xbc8fbf21	-0.017547192
199	0xbdee64c2	-0.11640312
200	0xbd7e7d74	-0.06213136
201	0x3c5e4d72	0.013568269
202	0x3dd895d9	0.10575456
203	0x3e00e57c	0.12587541
204	0x3bb62c31	0.0055594672
205	0x3d2ceff4	0.042221025
206	0x3dd214f4	0.10257903
207	0xbcee96a5	-0.029124567
208	0x3dc12a2c	0.09431872
209	0x3cb5de4c	0.022200726
210	0x3a83ca59	0.0010054811
211	0x3db20b32	0.086935416
212	0xbd753981	-0.059869293
213	0xbdf3240d	-0.118721105
214	0xbd15c4c2	-0.036564596
215	0xbdd850d1	-0.105622895
216	0x3e781454	0.24226505
217	0x3daddfdc	0.084899634
218	0x3e3ccae4	0.18436772
219	0x3d9222af	0.071355216
220	0xbc5e09b5	-0.013552119
221	0xbc7cdd31	-0.0154335955
222	0x3e0d0a21	0.13773395
223	0xbcb29703	-0.021800524
224	0x3d94efa3	0.072722696
225	0xbe360a7d	-0.17777438
226	0x3c66dbc4	0.014090482
227	0xbbcd4438	-0.006264236
228	0xbd320bb2	-0.043468185
229	0xbd3bf17d	-0.045884598
230	0x3c2208fa	0.0098898355
231	0x3e4d269a	0.20034257
232	0xbdb69750	-0.08915579
233	0xbd8b4240	-0.067997456
234	0x3bc2fca1	0.005950526
235	0xbe694b71	-0.22782685
236	0x3d7cf0c0	0.061753035
237	0x3d72f428	0.059314877
238	0x3cad8972	0.021183703
239	0x3e2ce90b	0.16885774
240	0x3e0360e7	0.12829934
241	0x3e1b1142	0.15143302
242	0x3c6b301b	0.014354731
243	0x3d981d4f	0.07427465
244	0x3de611db	0.112338744
245	0x3d65ce95	0.056105215
246	0x3c14e9d3	0.009088951
247	0xbe54cd75	-0.207815
248	0xbdfb703d	-0.12277267
249	0xbcf9ed03	-0.030508524
250	0x3de31bf0	0.11089313
251	0x3d123b59	0.03570113
252	0x3d98a489	0.074532576
253	0xbd6304cd	-0.0554245
254	0x3cc2f93d	0.023800487
255	0x3dd2e21e	0.10297035

conv1.bias f4 [16]
0	0xbede605b	-0.43432888
1	0xbece7f77	-0.40331623
2	0xbe819f5d	-0.25316897
3	0xbe37c909	-0.17947783
4	0xbe4e19de	-0.20127055
5	0xbe1d04c7	-0.15333854
6	0xbe2d5c10	-0.1692965
7	0xbe64f2d8	-0.22358263
8	0xbe226e4c	-0.15862387
9	0xbeaee6d9	-0.34160498
10	0xbe878ec1	-0.264761
11	0xbe99bc3e	-0.3002643
12	0xbe65337a	-0.22382918
13	0x3d9e7bc3	0.077384494
14	0xbdd5cde8	-0.10439664
15	0xbe7ca244	-0.24671274

conv2.weight f4 [16, 128, 3]
0	0xbc54fc51	-0.01299961
1	0xbd107a49	-0.03527287
2	0x3d0f676f	0.03501075
3	0xbdbf1352	-0.09329857
4	0xbd287786	-0.04112961
5	0x3e1bb7fb	0.15206902
6	0x3c2041ba	0.009781295
7	0xbddf4f7b	-0.109038316
8	0xbc1ccbda	-0.009570086
9	0xbe140995	-0.1445678
10	0xbc246db5	-0.010035922
11	0xbe110223	-0.14160971
12	0xbcbc2093	-0.022964751
13	0xbe0baa3a	-0.13639155
14	0xbd9f6e61	-0.07784725
15	0xbd1d70d0	-0.038437665
16	0xbd98d0c5	-0.07461695
17	0xbe091390	-0.13386369
18	0x3d8c2184	0.0684233
19	0x3d916bc1	0.071006306
20	0xbdb96c4d	-0.0905386
21	0x3d91ce10	0.071193814
22	0x3d26274a	0.040564813
23	0xbd9d086f	-0.07667624
24	0xbe0fca3d	-0.14041992
25	0xbc890004	-0.01672364
26	0xbdb85e68	-0.090023816
27	0x3e41b989	0.18918432
28	0xbcb5a068	-0.022171214
29	0xbc4d1bac	-0.0125188045
30	0xbd0d8771	-0.034552995
31	0x3da6b6c6	0.0814033
32	0x3dfddf52	0.123961106
33	0x3d42851f	0.047490235
34	0xbd35ae42	-0.04435564
35	0xbd243d9c	-0.040097818
36	0x3e010256	0.12598547
37	0x3e1ea756	0.15493521
38	0x3e06a7f8	0.13150012
39	0xbdd5b8e5	-0.104356565
40	0x3e02a39d	0.12757726
41	0xbe494b46	-0.19657621
42	0xbd8c91ac	-0.06863722
43	0xbd83fe3d	-0.064449765
44	0xbdf53b16	-0.119741604
45	0x3b18ed76	0.0023334897
46	0x3dc239ff	0.09483718
47	0x3e86dd32	0.26340634
48	0xbea4e07b	-0.32202515
49	0x3d017367	0.031604197
50	0xbdd4602e	-0.10369907
51	0x3d64b7d9	0.055839393
52	0x3d501093	0.050797056
53	0xbaab819a	-0.0013084889
54	0x3d3b0bcd	0.04566555
55	0x3dbbaa14	0.09163299
56	0x3c6f095a	0.014589632
57	0x3d9d5d28	0.07683784
58	0xbd340294	-0.04394777
59	0xbd8caeb6	-0.06869261
60	0xbd61990c	-0.055077597
61	0x3d912d5f	0.07088732
62	0x3dbf5831	0.09342993
63	0xbe1e6f4b	-0.15472142
64	0x3cc3c3fc	0.023897164
65	0x3bb3952e	0.00548043
66	0x3e769470	0.24080062
67	0xbddc9167	-0.10769921
68	0xbe8543d5	-0.26028314
69	0x3e0fadea	0.14031187
70	0xbd3fe1ec	-0.046846315
71	0x3d833c60	0.06408
72	0x3d767b5f	0.06017625
73	0xbc9c7e5e	-0.019103225
74	0x3df2e89a	0.118607715
75	0x3dc9393a	0.09825368
76	0xbde1207a	-0.109925225
77	0x39d616bd	0.00040834202
78	0xbc8b5e95	-0.017012874
79	0x3e549265	0.2075897
80	0xbe73d2a5	-0.23810823
81	0x3e08a344	0.13343531
82	0x3cec9465	0.028879354
83	0x3e492125	0.1964155
84	0xbdb9afa0	-0.09066701
85	0xbd8533e7	-0.0650404
86	0xbe69ee6c	-0.22844857
87	0xbcec79fb	-0.028866759
88	0x3c0c3e40	0.008559763
89	0xbe49f40f	-0.19722007
90	0xbd269789	-0.04067186
91	0x3b9398a8	0.004504282
92	0xbe336e76	-0.17522606
93	0xbd73d38f	-0.05952793
94	0xbd863033	-0.06552162
95	0x3cf69437	0.030099971
96	0xbe06a1e9	-0.13147701
97	0x3daea20c	0.08527002
98	0xbd95a789	-0.073073454
99	0xbdd0a652	-0.10187973
100	0x3e264e3f	0.16240786
101	0x3d33ea2d	0.0439245
102	0xbd46a470	-0.048496664
103	0x3dc17ec1	0.094480045
104	0x3dd0b50d	0.10190783
105	0x3cd08417	0.02545361
106	0xbd3a3723	-0.04546274
107	0xbd193be6	-0.03741064
108	0xbda91049	-0.08255059
109	0x3db6d6e6	0.089277074
110	0xbdb58f95	-0.08865277
111	0xbca7df59	-0.020492243
112	0xbd1b293d	-0.037881125
113	0x3d8422ef	0.064519756
114	0x3e5359df	0.20639752
115	0x3dfbda14	0.122974545
116	0xbe049d01	-0.12950517
117	0x3e15b2c5	0.14618976
118	0x3c73033d	0.014832315
119	0x3e2f9213	0.17145567
120	0xbe50d033	-0.20391922
121	0xbccc8be7	-0.024969054
122	0xbe505939	-0.20346536
123	0xbd985e62	-0.07439877
124	0xbd8b650f	-0.06806385
125	0xbd88c2ca	-0.06677778
126	0x3de0d231	0.10977591
127	0x3e2c04d1	0.16798712
128	0x3ea49103	0.32141885
129	0x3dc36484	0.09540656
130	0xbc9e4764	-0.019321151
131	0x3c47e739	0.012201124
132	0x3e21f4ed	0.15816088
133	0xbd8295a9	-0.06376202
134	0x3e4f09d6	0.20218596
135	0xbd4d7d3d	-0.050168265
136	0x3d2bd832	0.041954227
137	0xbdbe29d0	-0.09285319
138	0x3dc516a8	0.09623462
139	0x3dc6544a	0.096840456
140	0xbd2c08e5	-0.04200067
141	0x3dd2dba3	0.10295799
142	0xbd8163c5	-0.06317858
143	0x3bf03929	0.007331033
144	0x3b4b8d1b	0.0031059447
145	0xbd4ce8b1	-0.0500266
146	0xbc5e80ea	-0.01358054
147	0x3e14a045	0.14514263
148	0x3dd78c3a	0.10524793
149	0x3e43c661	0.19118644
150	0xbb4ebdd6	-0.0031546257
151	0xbd70fc2f	-0.05883425
152	0xbe5bf32e	-0.21479484
153	0xbe5f745f	-0.21821736
154	0xbe1b3b33	-0.15159301
155	0xbddc6343	-0.1076112
156	0xbd0cbcd9	-0.034359787
157	0xbca087a8	-0.019595936
158	0xbe578d54	-0.21050006
159	0x3d17d1e3	0.037065398
160	0x3d8108ae	0.06300484
161	0x3b731f83	0.003709764
162	0xbd6981bc	-0.05700849
163	0x3d73c376	0.059512578
164	0xbe533ca1	-0.20628597
165	0x3b87bc17	0.004142295
166	0x3e18d5dc	0.14925331
167	0x3de8e805	0.11372379
168	0xb9b42d05	-0.00034365818
169	0xbda18f18	-0.07888621
170	0x3ccc9dd1	0.024977596
171	0x3e2b5114	0.16730148
172	0xbdde34bf	-0.10849904
173	0x3e92c70a	0.2866748
174	0xbe20ab1e	-0.15690276
175	0xbe327019	-0.17425574
176	0xbe5b0782	-0.21389583
177	0xbddc4f83	-0.10757353
178	0x3e5a0a06	0.21292886
179	0xbdec6b53	-0.11543908
180	0xbe20080a	-0.15628067
181	0x3dca1ed8	0.09869164
182	0xbcdd47d0	-0.027011782
183	0x3d8b0276	0.06787579
184	0x3d13d6f5	0.03609367
185	0x3dcb5150	0.099276185
186	0x3e043da9	0.12914146
187	0xbc983a0c	-0.018582366
188	0x3d940bfc	0.07228848
189	0x3e02ead4	0.12784892
190	0xbe2f2a94	-0.17106086
191	0xbe655c1e	-0.22398421
192	0xbd00111b	-0.031266313
193	0x3bf2a7a2	0.0074052373
194	0x3e2c6e4f	0.16838954
195	0x3cad05b3	0.021120882
196	0x3deaaf2d	0.114591934
197	0xbd8fa71f	-0.07014298
198	0x3c278baf	0.010226174
199	0xbd62d110	-0.05537516
200	0x3e0cfc54	0.1376813
201	0x3db48b82	0.088156715
202	0x3dec96cf	0.11552202
203	0x3e188bc5	0.14897068
204	0xbc29b3d1	-0.010357813
205	0xbc57f801	-0.013181687
206	0xbd897936	-0.06712572
207	0xbe16e2c2	-0.14734939
208	0x3e4ed8c1	0.20199873
209	0xbe298a2c	-0.16556615
210	0x3e046268	0.12928164
211	0xbd895b3f	-0.06706857
212	0xbe861346	-0.2618658
213	0x3d2e8068	0.042602926
214	0x3d1f3448	0.03886822
215	0x3e219c0d	0.15782185
216	0xbc2f2181	-0.01068914
217	0x3df61d4a	0.12017305
218	0xbdc174fd	-0.09446142
219	0x3db8ab8f	0.09017097
220	0x3df47acd	0.11937485
221	0x3e2a0326	0.16602764
222	0x3d234f83	0.03987075
223	0xbdf1b0c7	-0.11801296
224	0xbd4b2bb5	-0.04960223
225	0xbdc19ae7	-0.094533734
226	0xbc41ee25	-0.011836563
227	0xbd8d3e6e	-0.06896673
228	0x3da77583	0.081767105
229	0xbe702223	-0.23450522
230	0xbe08a00b	-0.13342302
231	0x3e217a6d	0.15769358
232	0x3db88382	0.09009458
233	0x3e9bce7c	0.30430973
234	0xbaeafaa3	-0.0017927479
235	0x3c712702	0.014718773
236	0x3dfdbf74	0.123900324
237	0x3e3b1720	0.1827054
238	0x3dc2c689	0.09510524
239	0xbd52a726	-0.051428936
240	0xbcbd315e	-0.02309483
241	0x3de6935d	0.11258576
242	0xbdcdb328	-0.10043937
243	0xbd25f24d	-0.04051428
244	0xbdeb5117	-0.11490076
245	0xbd30f90f	-0.04320627
246	0xbdb3f9ef	-0.087879054
247	0x3db60df4	0.0888938
248	0xbdb4b2f2	-0.088231936
249	0x3b31c320	0.002712436
250	0xbdf3fa9e	-0.11913036
251	0xbb8d774d	-0.0043172003
252	0x3cf6b69e	0.030116376
253	0x3da002b0	0.078130126
254	0x3da8763d	0.08225677
255	0xbcf6ffc7	-0.030151261

conv2.bias f4 [16]
0	0xbd06970c	-0.032858893
1	0xbe36bb64	-0.17844921
2	0xbedea03e	-0.4348163
3	0xbe3bebb5	-0.18351634
4	0xbe90cba0	-0.28280354
5	0xbd8fc353	-0.07019677
6	0xbebf0ca7	-0.3731434
7	0xbe6be886	-0.2303792
8	0xbe8e8ddc	-0.27842605
9	0xbe1ca05a	-0.15295544
10	0xbee97a02	-0.45600897
11	0xbe959f9a	-0.2922333
12	0xbe909069	-0.28235176
13	0xbdeb369c	-0.11485025
14	0xbe04f14a	-0.1298267
15	0xbe763058	-0.24041879

conv3.weight f4 [256, 32, 5]
0	0xbe39a588	-0.18129551
1	0xbd99d9e1	-0.0751226
2	0xbb7e0263	-0.0038758747
3	0xbe415564	-0.1888023
4	0xbe0a50a9	-0.13507332
5	0x3dce5140	0.10074091
6	0xbd665737	-0.05623552
7	0xbd95aecc	-0.073087305
8	0xbdeb8f2b	-0.115019165
9	0xbe42a5b1	-0.19008519
10	0x3dcdf3f4	0.10056296
11	0x3e167f12	0.14696911
12	0x3d56706f	0.05235332
13	0x3dc11171	0.09427155
14	0x3c71da19	0.014761471
15	0xbd92a852	-0.07161011
16	0xbcfeae72	-0.031089041
17	0xbd02797a	-0.03185413
18	0x3dd6572e	0.10465847
19	0x3de8ecda	0.11373301
20	0xbce21a9e	-0.027600583
21	0xbd90627b	-0.07050034
22	0x3e3bcc24	0.18339592
23	0xbdf07a51	-0.1174208
24	0xbe52c03b	-0.20581143
25	0xbd7c06f7	-0.06153008
26	0x3d8986ba	0.0671515
27	0x3b94a3ff	0.0045361514
28	0x3cdb25aa	0.026751358
29	0xbe8f536d	-0.27993336
30	0xbceecbed	-0.029149974
31	0x3ddbe424	0.10736874
32	0xbde5654d	-0.11200962
33	0x3c6604ce	0.014039231
34	0x3d5387fe	0.051643364
35	0xbdd4765c	-0.10374138
36	0xbc65ac4e	-0.014018131
37	0xbdb52134	-0.088442236
38	0xbe05d7a7	-0.13070546
39	0x3e14d582	0.14534572
40	0x3e826660	0.2546873
41	0x3e12adff	0.14324187
42	0x3d93a9e7	0.07210141
43	0xbc65bbc5	-0.0140218185
44	0xbd7e39a9	-0.062066708
45	0x3d3a077b	0.04541729
46	0xbd3b2660	-0.045690894
47	0xbd1560dc	-0.036469325
48	0xbd162825	-0.03665938
49	0xbdf23bb2	-0.11827792
50	0xbdf447c6	-0.11927752
51	0x3db730d7	0.08944862
52	0x3b87d8bf	0.004145711
53	0x3d107e88	0.03527692
54	0x3d9c3afd	0.076284386
55	0xbe69a0ec	-0.22815293
56	0xbceac7dc	-0.028659754
57	0xbe1563f2	-0.14588907
58	0xbe841c9e	-0.25803083
59	0xbd917512	-0.071024075
60	0x3d9a9413	0.07547774
61	0x3df38921	0.1189139
62	0x3c70bef8	0.014693968
63	0xbcec2b71	-0.028829308
64	0xbebb3944	-0.36567128
65	0x3e008e84	0.12554365
66	0xbd6cf610	-0.05785185
67	0xbd4494bf	-0.047993418
68	0x3d775037	0.060379233
69	0x3d550862	0.052009948
70	0x3d577eca	0.05261115
71	0xbd557f19	-0.052123163
72	0xbe7c5e8e	-0.24645445
73	0xbd86a8c6	-0.0657516
74	0x3d9e8f17	0.07742136
75	0x3d73510e	0.05940347
76	0xbda6fd41	-0.08153773
77	0xbda498b5	-0.08036939
78	0x3d104543	0.035222303
79	0xbe28f7ce	-0.1650078
80	0x3d8eeeb5	0.069791235
81	0xbd0f0e00	-0.03492546
82	0xbd8a52fd	-0.0675411
83	0xbe3746dc	-0.17898124
84	0xbe80d42c	-0.25161874
85	0xbe2becc1	-0.16789533
86	0x3d254461	0.040348414
87	0xbe45d539	-0.19319619
88	0xbe10eabe	-0.14152047
89	0xbc5e0c89	-0.013552793
90	0xbd966076	-0.07342617
91	0xbda62c2b	-0.08113893
92	0xbdf34349	-0.11878068
93	0xbdb5cbd5	-0.088767685
94	0xbeb526b5	-0.35381094
95	0x3e3aceca	0.18242946
96	0xbcdb38a1	-0.026760401
97	0xbd37add0	-0.044843495
98	0x3d3753b1	0.04475755
99	0xbebd428d	-0.36964837
100	0xbccb9478	-0.024851069
101	0xbc421f5f	-0.0118483
102	0x3d7a1d8a	0.061063327
103	0x3d3b2fa8	0.045699745
104	0xbdbad139	-0.09121937
105	0xbd718483	-0.058964264
106	0xbdd81354	-0.105505615
107	0xbdf50652	-0.11964096
108	0xbdf94700	-0.12171745
109	0xbda64e7d	-0.08120439
110	0xbe6a0c30	-0.22856212
111	0xbc4eb907	-0.012617356
112	0x3dc877e1	0.0978849
113	0xbc9ae197	-0.018906398
114	0x3ddb6229	0.10712082
115	0x3bea8074	0.007156426
116	0xbdfc7aad	-0.12328086
117	0x3e856d13	0.2605978
118	0x3db9e1a8	0.09076244
119	0xbc1e1388	-0.009648211
120	0xbd36b65a	-0.044607498
121	0x3e0b0854	0.13577396
122	0xbe986b51	-0.29769376
123	0x3cebadd4	0.028769411
124	0x3b0902c9	0.00209062
125	0x3d982e8b	0.07430752
126	0x3e357826	0.17721614
127	0xbdf791fe	-0.12088393
128	0xbbb88de0	-0.005632147
129	0xbd96c891	-0.07362474
130	0xbd54198c	-0.051782176
131	0xbc9aacd9	-0.018881248
132	0xbdc44301	-0.095830925
133	0xbe410dc9	-0.18852915
134	0x3d18f1c7	0.03733995
135	0xbe61bebe	-0.22045419
136	0xbce340a9	-0.027740793
137	0xbd72238f	-0.059115943
138	0x3dc2438e	0.09485541
139	0xbe95033d	-0.29104033
140	0xbe4d894e	-0.20071909
141	0xbdd9f55f	-0.10642504
142	0xbd8f07c1	-0.06983901
143	0xbe10041c	-0.14064068
144	0x3de723f7	0.112861566
145	0xbe2e26df	-0.17007016
146	0xbe4e6611	-0.20156123
147	0xbd422fe2	-0.047408946
148	0xbe08fc3b	-0.13377468
149	0xbe5f2411	-0.21791102
150	0xbe084965	-0.13309248
151	0x3c3e7874	0.011625398
152	0x3d1524bc	0.036411986
153	0xbd857fb7	-0.065185
154	0x3cb13d19	0.021635579
155	0x3b99ca81	0.00469333
156	0x3cdae9bf	0.026722787
157	0xbdf8f624	-0.121563226
158	0xbe6c77df	-0.23092602
159	0x3e0bbcda	0.1364626
160	0xbf0a7db2	-0.54098046
161	0xbf5ee275	-0.87064296
162	0x3e30d0d3	0.1726716
163	0x3dc3d7b7	0.09562629
164	0x3cf539e9	0.02993484
165	0xbf4e14e3	-0.8050062
166	0xbee68bcd	-0.45028535
167	0x3d23a2b1	0.039950076
168	0x3c1a49a1	0.009416969
169	0x3db751aa	0.08951123
170	0xbef8d8b9	-0.48602846
171	0x3e2f1372	0.17097262
172	0x3d735835	0.059410293
173	0xbd090873	-0.033455323
174	0x3d93fe8f	0.072262876
175	0xbf0b7f5e	-0.5449122
176	0x3dc6e8f9	0.09712405
177	0xbe4c923c	-0.19977659
178	0xbe14728a	-0.14496818
179	0x3d9fc6f5	0.0780162
180	0xbf4d46c4	-0.80186105
181	0xbf3cdb82	-0.7377244
182	0x3e06c26b	0.13160102
183	0x3d1739f3	0.0369205
184	0x3d946e34	0.07247582
185	0xbf1a9228	-0.60379267
186	0xbe37d071	-0.17950608
187	0x3c8a2e3b	0.016867748
188	0x3de73b09	0.11290557
189	0xbddd2379	-0.107977815
190	0xbe7e9692	-0.24862126
191	0xbf4d6db3	-0.8024551
192	0xbdc4dae7	-0.09612065
193	0x3d4fa424	0.050693646
194	0x3d28d118	0.041215032
195	0xbed268c1	-0.41095546
196	0xbb26a97e	-0.0025430615
197	0x3dc0931d	0.0940306
198	0x3d33ea19	0.043924425
199	0x3e566144	0.20935541
200	0xbee45397	-0.44595024
201	0xbee69759	-0.45037344
202	0x3e2e47a3	0.17019515
203	0x3e1b57b3	0.15170173
204	0x3d903082	0.07040502
205	0xbf3c289c	-0.73499465
206	0xbf7ca5eb	-0.9869067
207	0x3cef0e63	0.029181665
208	0xbe24606d	-0.16052409
209	0x3e169597	0.14705501
210	0xbf750f27	-0.95726246
211	0xbf0474a0	-0.51740456
212	0xbdc6794c	-0.09691104
213	0xbd7fd76b	-0.062461298
214	0x3df1e67b	0.11811539
215	0xbee5a9d6	-0.44856137
216	0xbf0fb383	-0.5613329
217	0xbe6c95cf	-0.23104022
218	0x3c8e8bf6	0.017400723
219	0xbc310999	-0.010805511
220	0x3e4ca066	0.19983062
221	0xbf3ea994	-0.74477506
222	0xbe05b732	-0.13058165
223	0x3dc28a94	0.09499088
224	0x3c6ab55f	0.014325469
225	0xbf94d48c	-1.1627364
226	0xbee3ce7c	-0.44493473
227	0xbc06b60e	-0.008222116
228	0x3deeed93	0.116664074
229	0x3dea47a4	0.114394456
230	0x3d422ef0	0.047408044
231	0xbef027bc	-0.46905315
232	0xbed73c76	-0.42038316
233	0xbce653fa	-0.028116215
234	0x3d9a2085	0.07525734
235	0xbf2ebfd8	-0.6826148
236	0xbd7d39aa	-0.06182257
237	0x3dbf92a5	0.09354142
238	0x3d6f0987	0.058358695
239	0x3d2affe1	0.04174793
240	0xbef29414	-0.473786
241	0xbecae1ad	-0.39625302
242	0x3da03eab	0.07824453
243	0xbcb8043a	-0.022462953
244	0x3c054128	0.00813321
245	0xbedfa258	-0.43678546
246	0x3c5bbd57	0.013411841
247	0xbd9ab2d3	-0.07553639
248	0xbdfab789	-0.12242038
249	0xba844d6c	-0.0010093874
250	0xbf3f49ce	-0.7472199
251	0x3db943ac	0.090461105
252	0xbd77edc4	-0.060529485
253	0x3c14335c	0.009045448
254	0xbdb2f086	-0.087372825
255	0xbf03850d	-0.51374894

conv3.bias f4 [256]
0	0xbe077795	-0.1322921
1	0x3ed93c48	0.42428803
2	0x3b35d0aa	0.0027742782
3	0x3daa1560	0.08304858
4	0xbe440247	-0.19141494
5	0x3c4630d3	0.012096602
6	0xbdd610c2	-0.10452415
7	0x3d6ca90a	0.057778396
8	0x3d91ec57	0.071251564
9	0xbcff3008	-0.031150833
10	0xbe7b9839	-0.24569787
11	0xbe47ed92	-0.1952422
12	0x3e4221e6	0.18958244
13	0x3d30014e	0.042969994
14	0xbd2bbe23	-0.041929375
15	0x3c78d648	0.015187807
16	0x3ed8195d	0.4220685
17	0x3dace485	0.08442024
18	0x3e3c9867	0.18417512
19	0xbe5285d5	-0.20558865
20	0xbdc16e73	-0.09444895
21	0x3e15023a	0.1455163
22	0xbe8b42a6	-0.27199286
23	0xbd86cd5a	-0.065821365
24	0xbd8e4c53	-0.069481514
25	0xbdf1350d	-0.11777697
26	0x3c1c6d8b	0.009547601
27	0xbd948d0f	-0.07253467
28	0xbd7e42fb	-0.062075596
29	0x3db1b6cd	0.086774446
30	0x3d935c46	0.07195334
31	0xbd888287	-0.06665521
32	0xbe6e838a	-0.23292366
33	0x3d219e4a	0.039457597
34	0xbdcc907c	-0.09988496
35	0x3d383c99	0.044979665
36	0xbe169206	-0.14704141
37	0x3cb5f1e9	0.022210078
38	0x3e993ede	0.29930776
39	0xbe2f0899	-0.17093123
40	0xbe08e010	-0.13366723
41	0xbe03b286	-0.1286107
42	0xbd929708	-0.07157713
43	0x3e10a143	0.14124016
44	0xbcd8a3e3	-0.026445335
45	0xbe453a0d	-0.19260426
46	0xbda13a45	-0.07872442
47	0xbe000955	-0.1250356
48	0x3d404e47	0.04694965
49	0xbe1953de	-0.14973399
50	0x3dedae2d	0.11605487
51	0xbd60deee	-0.054900102
52	0x3e0a1b8c	0.13487071
53	0xbdd0e2b2	-0.10199489
54	0xbd4a408e	-0.04937797
55	0xbd9ea8bd	-0.07747028
56	0x3dd080aa	0.10180791
57	0xbe846d62	-0.25864702
58	0xbe097b92	-0.13426045
59	0x3d8c09dd	0.06837819
60	0xbd4fa880	-0.050697803
61	0xbe409f9d	-0.18810888
62	0xbe242c99	-0.16032638
63	0x3e1de7b8	0.15420425
64	0xbe813d2b	-0.2524198
65	0x3d49152a	0.04909245
66	0xbe21da57	-0.15805946
67	0xbe458ba1	-0.19291545
68	0xbdc24bb0	-0.094870925
69	0xbde06488	-0.10956675
70	0xbe1cf792	-0.15328816
71	0xbd205022	-0.03913892
72	0xbd947db3	-0.07250538
73	0x3d56ad2e	0.05241125
74	0x3ed9b9aa	0.42524463
75	0xbddad45b	-0.10685035
76	0xbcdb2a60	-0.026753604
77	0x3c4657f8	0.012105934
78	0x3e8400a6	0.25781745
79	0xbe945c19	-0.28976515
80	0xbe065d20	-0.13121462
81	0x3dd2469d	0.10267375
82	0xbe8e5b38	-0.2780397
83	0x3e89e102	0.2692948
84	0xbe3b1278	-0.18268764
85	0x3d682a5e	0.05668103
86	0x3de01d24	0.10943058
87	0xbdb81243	-0.08987858
88	0xbe1dc162	-0.15405801
89	0xbe2310a4	-0.15924317
90	0xbe1608de	-0.1465182
91	0xbca7c3ac	-0.020479046
92	0xbe764a1e	-0.24051711
93	0xbe9b0d85	-0.30283752
94	0x3e067858	0.13131845
95	0x3e286e46	0.16448316
96	0xbe9ff965	-0.3124496
97	0xba4da970	-0.00078453775
98	0xbe1e437f	-0.15455435
99	0xbe0c8378	-0.13722026
100	0xbd200b1a	-0.039073087
101	0xbde0ed36	-0.109827444
102	0xbe36c985	-0.17850311
103	0x3d37d052	0.044876404
104	0xbac19c29	-0.0014771271
105	0xbe63a3e0	-0.22230482
106	0xbdb6bd7d	-0.08922861
107	0xbe19f1aa	-0.15033594
108	0x3e1abc50	0.15110898
109	0x3d3ebdef	0.046567854
110	0xbd5520e0	-0.052033305
111	0xbd8dabcc	-0.06917533
112	0xbceb1918	-0.02869849
113	0xbdcfe173	-0.10150423
114	0xbd948812	-0.07252516
115	0x3da7740c	0.08176431
116	0x3e5d460e	0.21608755
117	0xbe69dee4	-0.22838932
118	0xbe2957df	-0.16537426
119	0xbe949a50	-0.2902398
120	0x3d8b41f5	0.0679969
121	0x3da29171	0.07937897
122	0x3e2a8441	0.16652013
123	0x3e6b9774	0.23006994
124	0x3de96c51	0.11397613
125	0x3e0f2479	0.13978757
126	0xbe1913c8	-0.14948952
127	0xbb9200df	-0.0044556702
128	0xbe6c1324	-0.23054177
129	0x3e95db12	0.292687
130	0x3db769a8	0.08955699
131	0xbddb416a	-0.10705836
132	0x3c1f82eb	0.009735803
133	0xbd6fe4ff	-0.058567997
134	0xbe5c5497	-0.21516643
135	0xbe2ca32d	-0.16859122
136	0xbda969b4	-0.082721144
137	0xbe331322	-0.17487767
138	0x3d16c5b3	0.036809634
139	0x3e28d42a	0.16487184
140	0xbea8962a	-0.32927066
141	0xbd37671e	-0.044776075
142	0xbdd9325a	-0.10605307
143	0xbe211dc7	-0.15734015
144	0xbdc891d3	-0.09793439
145	0x3d7ca71a	0.061682798
146	0xbdf2f1f1	-0.11862553
147	0xbd1b0369	-0.03784505
148	0xbe67a0ff	-0.22620009
149	0xbddc8bd2	-0.10768856
150	0xbe5a028c	-0.21290034
151	0xbd9da412	-0.076973096
152	0x3d32e929	0.04367939
153	0x3d4706bc	0.048590407
154	0x3d350c15	0.044200975
155	0xbe35a3e8	-0.17738307
156	0xbda9b8b8	-0.082871854
157	0xbe003e4a	-0.12523761
158	0xbde495f9	-0.111614175
159	0x3d9706f0	0.0737437
160	0x3e2a522c	0.16632909
161	0xbd6b7da1	-0.057492856
162	0xbe8a3253	-0.2699152
163	0xbda69450	-0.08133757
164	0x3e64fe87	0.2236272
165	0xbe1a56a0	-0.15072107
166	0xbdfed781	-0.12443448
167	0x3dc7b6b6	0.09751646
168	0xbe667b22	-0.22507909
169	0xbe1c09d1	-0.1523812
170	0xbdc323d0	-0.09528315
171	0xbe2ec503	-0.17067342
172	0xbd9dbef3	-0.07702436
173	0xbe847d0b	-0.2587665
174	0xbe25aaff	-0.16178511
175	0xbeaf7f7e	-0.34276956
176	0x3c9c0b19	0.01904826
177	0xbe2e0bf9	-0.16996755
178	0xbe7830c4	-0.24237353
179	0x3c25643d	0.010094699
180	0xbe16ebfa	-0.14738455
181	0xbdbb04c5	-0.09131769
182	0xbea3930c	-0.31948125
183	0x3d62ec34	0.055401042
184	0xbe360b93	-0.17777853
185	0x3b418809	0.0029530546
186	0x3d34dd58	0.044156402
187	0xbc6e15b9	-0.014531546
188	0xbebda332	-0.3703857
189	0xbe439838	-0.19101036
190	0xbdca6844	-0.09883168
191	0xbe0877bc	-0.13326925
192	0xbcc44ab0	-0.023961395
193	0xbeb908a9	-0.3613942
194	0xbcd48e66	-0.025946807
195	0xbdffbd9b	-0.12487336
196	0xbe29f26b	-0.16596381
197	0xbe316344	-0.17323023
198	0x3c8f520d	0.01749518
199	0xbe1643de	-0.14674327
200	0xbe351854	-0.17685062
201	0xbd4323c2	-0.047641523
202	0x3d57c055	0.052673656
203	0xbdef2ec0	-0.11678839
204	0xbd05ea93	-0.03269441
205	0x3e36d1fb	0.17853539
206	0xbd63ae53	-0.05558617
207	0x3dc243bf	0.09485578
208	0x3d9ba845	0.07600454
209	0xbd22b121	-0.039719705
210	0xbe0ad1bf	-0.13556574
211	0xbcfc04a1	-0.030763926
212	0xbe986534	-0.29764712
213	0xbe85375b	-0.26018795
214	0x3d9881c3	0.07446625
215	0xbd65f38e	-0.056140475
216	0x3d368f6b	0.044570368
217	0xbe388974	-0.18021184
218	0xbda9f634	-0.08298913
219	0xbe23723b	-0.15961544
220	0x3cb1f1a7	0.021721674
221	0xbe8832dd	-0.26601306
222	0x3ce820c3	0.028335935
223	0xbd413b0d	-0.047175456
224	0x3d356e3b	0.044294577
225	0xbd544d4e	-0.051831536
226	0x3e0d6f39	0.1381196
227	0x3df4e645	0.11957983
228	0xbea50bb3	-0.32235488
229	0x3ae5eff4	0.0017542825
230	0x3e354e92	0.17705753
231	0xbdbf721d	-0.09347937
232	0x3c09d04d	0.008411479
233	0x3de902f8	0.11377519
234	0x3d44ef19	0.048079584
235	0xbcf84d4e	-0.0303103
236	0x3d0b4724	0.03400339
237	0xbea2a83e	-0.31768984
238	0xbe2d109d	-0.16900869
239	0xbe2e75c4	-0.17037112
240	0xbe3e628d	-0.18592282
241	0x3e8aea43	0.27131853
242	0xbb57f0c1	-0.0032949897
243	0x3d4445fe	0.047918312
244	0xbe35194f	-0.17685436
245	0xbc2ab792	-0.010419743
246	0x3c5089e9	0.012728193
247	0xbe5afe42	-0.21386054
248	0xbcdd8725	-0.027041981
249	0xbb3665da	-0.0027831704
250	0x3e8a017d	0.2695426
251	0x3e154f21	0.14580967
252	0xbe884a9c	-0.26619422
253	0xbe45af7a	-0.1930522
254	0xbdb5ab58	-0.08870572
255	0xbe05a9c7	-0.13053046

fc.weight f4 [12, 256]
0	0xbcc78f0f	-0.024360208
1	0xbdf56a75	-0.11983196
2	0x3b68eecc	0.0035542725
3	0xbd085f51	-0.033294026
4	0xbd8ca706	-0.06867795
5	0xbdf3fc8f	-0.11913406
6	0xbd89cf71	-0.067290194
7	0x3d0b13f0	0.03395456
8	0x3dbfce0a	0.09365471
9	0x3d974866	0.07386856
10	0xbdc17cf7	-0.09447663
11	0xbd69278d	-0.056922484
12	0xbe336822	-0.17520192
13	0xbcd69c54	-0.02619759
14	0xbcbe670a	-0.023242492
15	0xbd263a78	-0.040583104
16	0xbdb203ed	-0.08692155
17	0xbccee04d	-0.02525344
18	0xbde87d03	-0.11351969
19	0xbd0144aa	-0.031559624
20	0x3d1ff51c	0.039052114
21	0xbd3d3d55	-0.04620107
22	0xbe321125	-0.17389353
23	0x3bd3e685	0.006466689
24	0x3db41fea	0.087951496
25	0xbc8bd59c	-0.01706963
26	0xbe0b032e	-0.13575432
27	0x3c04e7ea	0.008111933
28	0x3c7880f4	0.015167464
29	0xbd227d55	-0.039670307
30	0x3da9e5c3	0.08295777
31	0x3c8d4ced	0.017248595
32	0x3cf83015	0.030296365
33	0xbddc4379	-0.10755057
34	0xbd1fca82	-0.039011486
35	0xbe4ada7c	-0.19809908
36	0xbc7f9dda	-0.0156016
37	0xbc2efff6	-0.010681143
38	0xbe0331c8	-0.12811959
39	0xbcec5fa9	-0.028854208
40	0x3d716aa7	0.058939602
41	0xbbc0f5c5	-0.005888673
42	0xbcf6d7e8	-0.030132249
43	0xbe3d740c	-0.185013
44	0x3cb05168	0.021523193
45	0xbd5382cf	-0.05163842
46	0xbcf92b7a	-0.030416239
47	0xbd138413	-0.036014628
48	0xbdf53323	-0.11972644
49	0x3d4b9d38	0.049710482
50	0x3aab49af	0.0013068224
51	0xbe15de44	-0.14635569
52	0x3dca291c	0.09871122
53	0x3d0ccd85	0.034375686
54	0xbd453ebd	-0.048155535
55	0xbd093567	-0.033498194
56	0xbd4cd903	-0.050011646
57	0x3d43ab45	0.047770757
58	0x3ca5a0d1	0.020218285
59	0xbdf4a2fe	-0.11945151
60	0x3d859ccb	0.065240465
61	0xbc0af1c2	-0.008480491
62	0xbd53b0b6	-0.051682197
63	0x3dc2a295	0.09503666
64	0xbde754c0	-0.11295462
65	0x3d5f427f	0.054506775
66	0x3c912540	0.017717957
67	0xbcefffe3	-0.029296821
68	0x3cdad5da	0.0267133
69	0x3d5665e9	0.052343283
70	0x3de50d7c	0.111842126
71	0x3beb2498	0.007175993
72	0xbd399cb5	-0.045315463
73	0xbde0560e	-0.10953914
74	0x3d698a7e	0.057016842
75	0x3d470340	0.048587084
76	0xbbb49f30	-0.0055121407
77	0xbdbaa0c5	-0.091126956
78	0x3d26c380	0.040713787
79	0xbca9f28c	-0.020745538
80	0xbb7fb9f0	-0.003902074
81	0x3b789928	0.0037933085
82	0xbd2183b2	-0.039432235
83	0xbd4c93d8	-0.049945682
84	0xbd1ad34f	-0.037799176
85	0x3d164bb9	0.03669331
86	0xbcee53ce	-0.029092696
87	0x3db04826	0.08607511
88	0x3d37089c	0.044685945
89	0x3c8dfab6	0.017331462
90	0x3c848d7c	0.016180746
91	0xbd35c5e5	-0.04437818
92	0x3d354663	0.04425658
93	0x3e083d08	0.13304532
94	0xbda5a2a5	-0.080876626
95	0xbd045e2b	-0.032316368
96	0x3aebecf2	0.0017999692
97	0xbb92b3ce	-0.004477001
98	0x3d6ad8cd	0.057335664
99	0x3d0455ec	0.032308504
100	0x3dad4789	0.0846091
101	0x3d4cd09a	0.050003625
102	0xbd1a3916	-0.037652098
103	0x3b898ccc	0.0041976925
104	0xbcd0a3b6	-0.025468688
105	0x3d03414d	0.032044698
106	0x3b86f162	0.0041181305
107	0x3d732658	0.05936274
108	0xbdd1c9f2	-0.10243596
109	0xbe02691d	-0.1273541
110	0xbd5a51f3	-0.05330081
111	0x3da46ea8	0.080289185
112	0xbe150094	-0.14551002
113	0x3d6ffca5	0.05859055
114	0x3e9e9c0e	0.30978435
115	0x3cb097fb	0.021556845
116	0x3d8c72e8	0.06857854
117	0xbba98ac7	-0.0051740143
118	0x3c4cba2d	0.01249556
119	0xbcbba2db	-0.022904804
120	0xbea4f1ec	-0.32215822
121	0xbd89da69	-0.067311116
122	0xbebcd4f5	-0.36881223
123	0xbe06ca1f	-0.1316304
124	0x3d33e06d	0.0439152
125	0x3d927f93	0.07153239
126	0x3ca27ce7	0.019834949
127	0x3baaee48	0.0052163936
128	0x3bd40ff3	0.006471628
129	0x3ca6a3a7	0.020341707
130	0x3c9f27a5	0.019428084
131	0xbe2fa0a7	-0.17151128
132	0x3d953968	0.0728634
133	0xbdf1ce5f	-0.1180694
134	0x3c9623d5	0.018327633
135	0xbdd5d05c	-0.10440132
136	0xbe11fc98	-0.14256513
137	0x3d2d0530	0.042241275
138	0x3d171088	0.036881
139	0xbc9b3461	-0.018945875
140	0x3dd3bdd5	0.10338942
141	0xbdf89e42	-0.1213956
142	0x3d8172d3	0.06320729
143	0xbd6815ce	-0.05666142
144	0x3d668b33	0.056285094
145	0xbc668664	-0.014070127
146	0xbd8570b0	-0.06515634
147	0xbd3d6179	-0.046235535
148	0xbd96786a	-0.07347186
149	0x3cf8ddae	0.030379143
150	0x3c5d9a16	0.0135255065
151	0xbe17d518	-0.14827383
152	0x3c0207ee	0.007936461
153	0x3d1ef3ec	0.03880684
154	0x3d9cd364	0.07657507
155	0x3b1249e9	0.0022321886
156	0x3c23d526	0.009999549
157	0x3d4d3afd	0.050105084
158	0x3a959f49	0.0011415269
159	0xbdec2c7a	-0.11531921
160	0x3ce9a090	0.028518945
161	0x3d158dbe	0.03651213
162	0xbd4544df	-0.048161384
163	0xbc9fac5c	-0.019491367
164	0xbe7f86a4	-0.24953705
165	0xba176ded	-0.0005776573
166	0x3dc181fe	0.09448622
167	0xbdc18199	-0.09448547
168	0xbb3f6b88	-0.002920838
169	0xbc86617e	-0.01640391
170	0xbe0761e2	-0.13220933
171	0x3b3cc9ec	0.0028806878
172	0xbd670801	-0.056404117
173	0x3db184e8	0.08667928
174	0xbd5a7fda	-0.053344585
175	0x3c0b05e9	0.008485296
176	0x3d886a7f	0.066609375
177	0x3ce801c2	0.02832115
178	0x3d7580b0	0.05993718
179	0x3dacd5da	0.084392264
180	0x3ba4fb81	0.0050348644
181	0x3ceb99a2	0.028759781
182	0x3d243a8e	0.040094905
183	0x3d5283a4	0.051395074
184	0xbd28f21d	-0.041246522
185	0xbd45bf77	-0.0482783
186	0x3c3bfe01	0.0114741335
187	0xbd1bff8d	-0.03808551
188	0x3c1f6432	0.009728478
189	0x3db2ab4a	0.08724077
190	0xbdbca185	-0.09210495
191	0x3d944a6e	0.07240759
192	0xbcce306b	-0.025169572
193	0x3c87a5b9	0.016558515
194	0x3c8f27e6	0.01747508
195	0x3c817741	0.015803935
196	0xbc6e606c	-0.014549356
197	0x3d24a851	0.04019958
198	0xbdd149af	-0.10219132
199	0x3d1b4557	0.037907925
200	0x3d889f49	0.06671006
201	0xbdee717d	-0.1164274
202	0x3c656724	0.014001641
203	0x3db881bc	0.0900912
204	0x3daa289c	0.08308527
205	0xbdd190c3	-0.10232689
206	0x3c40b0f0	0.011760935
207	0xbde8d145	-0.1136804
208	0x3d88f68f	0.06687652
209	0x3d28b480	0.041187763
210	0x3c901579	0.017588364
211	0x3db5ecb6	0.0888304
212	0xbdee588a	-0.11637981
213	0x3c9e36f3	0.019313311
214	0xbd435349	-0.04768685
215	0xbe31f70c	-0.17379397
216	0xbd26f5f4	-0.040761903
217	0x3d96aef4	0.073575884
218	0x3c90d06c	0.017677508
219	0x3d0b01d3	0.033937287
220	0x3c868715	0.016421834
221	0xbd4cd7e9	-0.050010595
222	0xbe3c2a18	-0.18375432
223	0x3d21a32d	0.039462257
224	0x3d084d83	0.033277046
225	0x3a2dcc45	0.0006629865
226	0xbe1f7c8f	-0.15574859
227	0xbbd842fc	-0.006599782
228	0xbe52a7bb	-0.20571797
229	0xbdb8b67b	-0.090191804
230	0xbe0b0977	-0.1357783
231	0xbd439687	-0.047750976
232	0xbe6a4ee4	-0.22881657
233	0x3c5d4181	0.013504387
234	0xbda6d3b4	-0.08145848
235	0x3d94f347	0.07272964
236	0xbe21dc65	-0.1580673
237	0xbb7ecea4	-0.0038880492
238	0x3b74d47c	0.0037358096
239	0x3d867cf5	0.065668024
240	0xbd61a9fd	-0.055093754
241	0xbda903bc	-0.082526654
242	0x3d239397	0.039935675
243	0x3d66eeb9	0.056380007
244	0xbd2d8388	-0.042361766
245	0xbd678955	-0.056527454
246	0x3ab817a2	0.0014045129
247	0x3d89cf48	0.06728989
248	0x3cdb1c94	0.026747026
249	0xbc8a6982	-0.016896013
250	0xbef8c8a9	-0.48590592
251	0xbc578487	-0.013154156
252	0x3d344978	0.044015378
253	0x3c20baa6	0.009810125
254	0xbd726ca2	-0.05918563
255	0x3d0b8887	0.03406575

fc.bias f4 [12]
0	0x3e2908f1	0.16507317
1	0xbe7a3770	-0.2443521
2	0xbeb4726a	-0.3524354
3	0x3dbb50e3	0.09146287
4	0xbe963fe6	-0.29345626
5	0xbd61ed6f	-0.055158075
6	0xbe3c7160	-0.18402624
7	0xbe3e0bcd	-0.18559189
8	0xbf0bf5b8	-0.5467181
9	0x3e559772	0.20858553
10	0xbe472f80	-0.19451714
11	0xbec64ca4	-0.38730347
