src/main/python/saved_models/javascript_1_55_CNNClassifier1_128embs_130id_16hd_0hl_Falsebid5kernel0.5dropout_1.pt (torch, 310987 bytes, 9 tensors)

emb.weight f4 [130, 128]
000000 86 6b 1d c0 d5 a1 ee be d2 c0 17 bf 0b fc eb be
       -2.4596877 -0.46607843 -0.59278595 -0.4609073
000010 8f 4d 26 c0 bb e4 88 be 86 23 71 bf df 4a a9 3f
       -2.5984838 -0.26737007 -0.9419483 1.3225974
000020 a9 4d 23 bf 15 11 fa 3e b1 56 81 3f 27 21 27 bc
       -0.63790375 0.48841158 1.0104581 -0.010200775
000030 84 4f 22 3f a1 18 fc 3f c3 43 56 bd 4d be ce 3f
       0.6340258 1.9695016 -0.052310716 1.6151825
000040 cc d7 4a bf 02 06 0e bf 79 da e4 3d 5e 88 80 3e
       -0.7923553 -0.5547792 0.11174483 0.2510404
000050 e9 71 70 3f 2b 36 a1 3e c7 1d c7 3e 60 ce 29 bf
       0.93923813 0.3148664 0.38889906 -0.6633053
000060 af 3f bc bf 3a 3f 11 40 d8 bf d3 bf 31 8e 5f 3f
       -1.4706935 2.269484 -1.6542921 0.8732634
000070 4c dd 4b 40 fc fa c5 bf 22 35 39 3f 10 a5 c7 bf
       3.185382 -1.5467219 0.723467 -1.5597248
000080 5c 00 19 c0 f9 fe b5 bf 9f 1e 65 3e 25 5c ec 3c
       -2.390647 -1.4218436 0.22374962 0.028852532
000090 6e 56 c2 3d 3a 7f 90 bf 86 c8 9a bf ac db 3a bf
       0.094891414 -1.1288826 -1.2092445 -0.7299144
0000a0 67 5c 34 3f 63 62 d7 3e fa d7 3d be 2c e8 2c be
       0.70453495 0.4206725 -0.1853942 -0.16885442
0000b0 f9 0d 02 bf 35 8b 09 be b7 dc 45 be c4 67 7b 3f
       -0.5080257 -0.1343201 -0.19322477 0.9820521
0000c0 92 0a a4 bf 64 9d 1e be a2 5d de be a6 27 42 be
       -1.2815726 -0.15489727 -0.4343081 -0.18960437
0000d0 f2 cf e8 3d 5d a7 8a be 53 73 88 bd 9d 78 9f 3f
       0.113677874 -0.27080813 -0.06662621 1.2458683
0000e0 07 9a 86 bf 5b ed 87 bf 44 5e db be dc 7c 43 bf
       -1.0515755 -1.061931 -0.42845356 -0.76362395
0000f0 34 ae 9b 3f 7f 39 3f 3d dc 99 f8 be 51 0a ef 3c
       1.2162538 0.046685692 -0.48554885 0.029179724
000100 d7 e2 a0 be 66 9e 0d bf b8 be 58 3f 8c 85 72 bf
       -0.31423065 -0.5531982 0.84666014 -0.94735026
000110 40 b5 ae 3e 96 ad e4 3d 94 1e e3 3e f9 07 fe 3e
       0.34122658 0.111659214 0.44359267 0.49615458
000120 b3 15 a7 3d dc a5 6e bf dc 9e 46 bf 1a db 10 3f
       0.08158436 -0.9322183 -0.7758615 0.5658432
000130 39 e7 2c be 05 f6 ba bd 6b 8f 57 3e 85 12 b6 bf
       -0.1688508 -0.09128956 0.21050803 -1.4224402
000140 7d 95 a5 3f 78 3a 66 bf c4 2b d5 bf 39 3c 77 3f
       1.2936245 -0.89932966 -1.6653981 0.9657627
000150 45 c3 b1 bf cf dd ef 3f 0c d1 fa bf bf 70 b6 bf
       -1.3887717 1.8739566 -1.9595046 -1.4253157
000160 50 4e 97 bf 94 c3 02 3f 4a 42 d4 be 00 4a 87 3f
       -1.1820774 0.5107968 -0.41456825 1.0569458
000170 c9 95 fe bd 6b 56 58 3f b7 15 21 bf 14 2f 13 c0
       -0.12430913 0.84506863 -0.6292376 -2.2997484
000180 18 d7 88 3f b2 c1 a5 bd ef a5 b5 3f e9 7b 8e bf
       1.0690641 -0.08093585 1.4191264 -1.1131564
000190 3d 1d 3d 40 fe 20 ce bf c5 4e b8 3f ba 74 37 3f
       2.9549096 -1.6103818 1.4399039 0.71662486
0001a0 75 99 ce bd 03 55 a4 3f 2f e2 e2 bf cc 18 c2 bd
       -0.10087863 1.2838444 -1.7725276 -0.09477386
0001b0 68 01 66 be 5c 31 1d 3f 05 ac 02 3f 29 13 87 bf
       -0.22461474 0.6140344 0.5104373 -1.0552722
0001c0 04 47 5f 3e f9 45 ec be 08 b0 47 3e 66 4b 7a 3f
       0.21804434 -0.46147135 0.19500744 0.977713
0001d0 20 20 04 3f 75 16 52 be 31 63 c4 3e 4b 2a 67 3f
       0.5161152 -0.20516379 0.38356927 0.9029891
0001e0 fe 12 d5 3f 44 70 48 bf a0 12 90 bc 79 63 40 3f
       1.6646421 -0.78296304 -0.017587006 0.75151783
0001f0 93 53 a1 3f 89 dd a5 3f 58 b1 34 3f c1 17 2e 3f
       1.260363 1.2958232 0.70583105 0.68004996
000200 cb b3 bd be 0a 51 59 be fd 22 08 3e 2a 0a a0 3f
       -0.37051234 -0.2122232 0.13294597 1.2503102
000210 f5 68 07 3e f2 af e3 3e 8c 7a 0c 3e 9e 65 a1 3e
       0.13223632 0.44470173 0.13718623 0.3152284
000220 6a 00 8f bf 02 7b 96 be 9d de 72 be 75 7a c2 3e
       -1.1172001 -0.29390723 -0.23717733 0.37984052
000230 3c d5 9a be f0 a5 16 c0 74 97 3d 3f ab 35 20 bf
       -0.3024081 -2.353878 0.74059224 -0.6258189
000240 ff 02 1f 3d fd 70 13 3f 8b 9b bb bf a2 61 c3 be
       0.038821217 0.5759428 -1.4656843 -0.38160425
000250 80 d6 07 be 12 66 c3 be 67 8e 92 bf d2 a4 81 be
       -0.13265419 -0.3816381 -1.1449708 -0.2532106
000260 b3 59 c9 3d 97 6b 00 3f ac fd 08 40 c0 02 df 3e
       0.09831562 0.5016417 2.140483 0.43556786
000270 80 51 00 c0 30 33 21 3f fe f3 3f be 72 fa 2c c0
       -2.0049744 0.6296873 -0.1874542 -2.702786
000280 03 6b 13 40 c5 20 72 3e 92 01 bb be 82 c3 f4 bf
       2.3034065 0.23645313 -0.36524636 -1.9122164
000290 2d 51 6c 3e d9 5c 86 bf b7 3a 57 3f 6c c4 aa bf
       0.23077841 -1.0497085 0.84073967 -1.3341193
0002a0 40 73 6d bf da 78 be 3e 62 1f 09 3f ca 81 c4 3e
       -0.9275398 0.37201577 0.5356351 0.3838027
0002b0 10 c2 31 bf 23 a5 5e bf 5e 94 b2 3e 9a 6b 66 3b
       -0.6943674 -0.8697073 0.3487882 0.003515935
0002c0 70 ab 6f bf 86 b2 bf bf 85 18 73 bc 4f e8 0d c0
       -0.9362097 -1.4976356 -0.014837389 -2.217304
0002d0 d2 e7 85 3d ff 2d 9d bf 3d 21 9b bf f8 10 74 3f
       0.06538357 -1.2279662 -1.2119519 0.9533839
0002e0 ed 11 ac bf ea 4f 18 40 dd 92 c7 3f e6 c8 9c bf
       -1.344297 2.3798776 1.5591694 -1.2248809
0002f0 f8 ca c4 3b 6b 05 4a be 8e db 93 3f 26 68 31 40
       0.006005641 -0.1972863 1.1551378 2.7719817
000300 a9 96 c2 be 4e fa 8b bf 9a d0 01 3f d1 86 ff 3e
       -0.3800557 -1.0935762 0.50708926 0.49907544
000310 ea 33 a2 bf 4e 46 d3 be 32 2a 06 bf 7d 3b ce 3f
       -1.2672093 -0.41264576 -0.52408135 1.6111904
000320 6e da bc bf 41 fe a8 bf e9 ba bd bf 38 41 0d 3f
       -1.475416 -1.3202592 -1.4822665 0.5517764
000330 8a e2 12 c0 ef d2 ac 3e 08 9d e2 bf d8 df 1c bf
       -2.2950768 0.3375468 -1.7704172 -0.6127906
000340 43 ba 06 3f 92 fd 26 bf 00 53 20 be b2 61 06 3e
       0.5262796 -0.6523067 -0.15656662 0.13123205
000350 a1 17 36 3f ae 6d e5 3e 83 e8 96 bf 9c 44 74 bf
       0.71129805 0.4481024 -1.1789707 -0.9541719
000360 61 99 ac bd 77 81 41 bb 26 2b e3 3e 3c d4 8d 3e
       -0.08427692 -0.002952663 0.44368857 0.27700984
000370 13 81 a2 3f 23 fd 2b c0 bd f3 12 bf 43 3c af be
       1.269564 -2.6873252 -0.57403165 -0.34225664
000380 19 68 8f 3e 53 c2 ab bf b6 ae 8d be 4d 44 d0 3d
       0.28009108 -1.3418678 -0.27672356 0.10169277
000390 e0 a4 34 3f 69 c7 9b bf 84 3f 79 be 94 f5 bd 3d
       0.7056408 -1.217023 -0.24340636 0.09275356
0003a0 6f 6f f4 3e 1a 2e 93 3e 31 c6 5e 3f 6e 05 50 bf
       0.47741267 0.2874611 0.87021166 -0.81258285
0003b0 90 e5 a7 3f a5 f3 cb 3f 6b 55 23 3e 69 4a ee be
       1.3116932 1.593373 0.15950553 -0.46541145
0003c0 87 21 4f 3d a2 d3 8b 3f d5 91 15 bf c7 1a c4 bf
       0.050569084 1.092396 -0.5842565 -1.5320672
0003d0 eb 4e 1a 3e 71 c1 10 3f 18 33 fd 3e 3a ab 5f bf
       0.15069167 0.5654517 0.49453044 -0.87370646
0003e0 49 12 93 3f dc d0 41 3f 65 af 52 3f 4f 26 3f bf
       1.1489955 0.7570932 0.8229888 -0.7466783
0003f0 96 56 1e be 1a 31 64 bf d5 23 83 bd 24 f2 e9 3c
       -0.15462717 -0.89137423 -0.06403319 0.028557844

conv1.weight f4 [16, 128, 5]
000000 de 57 08 3d 75 07 6c bd 35 98 05 bb 76 58 87 be
       0.03328692 -0.0576243 -0.0020384912 -0.26434678
000010 90 72 a3 bc cd d1 0a bd ec ac 39 be 8a 3f 54 3d
       -0.019952089 -0.033891488 -0.1813237 0.051818408
000020 f0 6b 5f bd 4c 3f 2c 3d 94 ff 5d 3d d9 98 97 3d
       -0.054546297 0.042052552 0.054198816 0.074022
000030 09 29 a9 bd f6 b4 e6 3d 97 ab 46 bc df e9 9a 3c
       -0.0825978 0.11264984 -0.012125871 0.018910347
000040 9a 98 08 be 54 a7 72 bc 1a 9e f8 bd ba ac b5 bd
       -0.13339463 -0.014810402 -0.121395305 -0.088708356
000050 01 c2 e8 3d ea 9f c9 bd 8e d3 cf be 04 7c 43 3d
       0.11365128 -0.09844954 -0.4059109 0.047725692
000060 a8 4d e6 3b de 7f 7b bc ca fd 0a 3e ce 13 b2 bd
       0.0070283003 -0.01535031 0.13573375 -0.08695184
000070 4d b8 b8 bd b9 22 5c be 99 49 38 3e 74 04 9a be
       -0.090195276 -0.2149762 0.17996825 -0.30081522
000080 36 dd ca 3d 51 ae dd bd 16 de 0c be dd df dc bc
       0.09905474 -0.10824264 -0.13756594 -0.026962215
000090 f8 a1 af 3d 24 9c d0 3d 39 ce 44 be 16 d6 3a be
       0.08575815 0.101860315 -0.19219293 -0.1824573
0000a0 91 d1 1e 3d a1 7b 21 3e 24 96 e6 3d 74 8a c6 3a
       0.038774077 0.15769817 0.11259106 0.0015147463
0000b0 d3 12 3d 3d bb 8c 1b bd f9 94 9d be b9 cd e8 3b
       0.04616053 -0.037976008 -0.3077772 0.007104602
0000c0 8f 9e 05 be b7 38 96 bc 22 99 86 bd 65 f7 7c be
       -0.13048767 -0.01833759 -0.065721765 -0.24703749
0000d0 a0 c2 44 bd 8b d3 28 3d 2b 99 c9 3d c8 8e ad 3d
       -0.04803717 0.041217368 0.098436676 0.08474499
0000e0 da 08 d8 3d 24 1b 29 3e d9 00 b8 3e d6 91 c5 3d
       0.10548563 0.1651426 0.35938147 0.096469566
0000f0 d0 1b d6 3d 4e 30 40 be 53 b0 d6 3d fd 6f b8 3d
       0.104545236 -0.18768427 0.1048285 0.09005735
000100 33 dc 71 be 6e 8c f7 3c 04 d7 0c be 3e 89 0d 3d
       -0.23619156 0.03021833 -0.13753897 0.034554712
000110 4a 92 bb 3d 9f bc 48 3d de 8b 29 bd cf 4e 35 be
       0.09158762 0.049008008 -0.041393153 -0.17705844
000120 63 34 7f 3e 97 78 a1 bd 57 fe 1e 3c e1 03 1d bd
       0.24922328 -0.07884329 0.009704194 -0.038333777
000130 49 21 0d bd 7e 27 05 be 52 db 69 be ba 52 13 3d
       -0.03445557 -0.13003346 -0.2283757 0.035967566
000140 5b b4 57 3d 38 3b 18 be 2d cc aa be c2 ee 5e bc
       0.052662235 -0.1486634 -0.333589 -0.013606729
000150 cb 54 ed 3c db 14 03 bd 82 a8 74 3c 1e b5 7c be
       0.028971097 -0.03200231 0.0149327535 -0.24678466
000160 17 52 33 bc 53 7b 59 be 57 ee d5 3d f9 1e c9 3d
       -0.010944865 -0.2123845 0.1044585 0.09820361
000170 b2 52 2c 3e ff 4a 9a 3d 53 85 47 bd bf 65 1b 3e
       0.16828421 0.075338356 -0.048711132 0.15175532
000180 0b bb 81 3d c2 ab b8 3c 7f a1 2f bd aa 5a c4 bd
       0.06334504 0.022542838 -0.042878624 -0.09587605
000190 a1 87 e9 bc 77 d3 b8 bd 73 24 9e 3d a4 92 ca 3b
       -0.028507056 -0.09024709 0.07721796 0.0061820317
0001a0 48 c2 0b 3e 00 1f 59 bd 9d 58 9c bb 12 00 bb 3d
       0.13648331 -0.05300808 -0.0047713057 0.09130873
0001b0 2b 3a 3d be 40 3a a2 3c ba b9 15 bc de 03 b0 bc
       -0.1847922 0.019803166 -0.009138519 -0.021486219
0001c0 83 7a 6f be b7 a4 2d bd 73 4b e8 3d 7b 25 31 be
       -0.23386578 -0.042393412 0.11342516 -0.17299454
0001d0 fe 4c 18 3d 76 04 2c 3b c0 af b0 bd 60 7c df 3d
       0.0371828 0.0026247776 -0.08627272 0.109123945
0001e0 2a e5 a4 bd 7a e7 14 3e 3a fa 19 be 26 95 08 3d
       -0.08051522 0.14541426 -0.1503686 0.033345364
0001f0 48 7e 8d bd 7d 8a 0d 3e 0f 82 04 3d f2 82 99 3d
       -0.06908852 0.1382236 0.032350596 0.07495679
000200 63 59 9f bd d6 d7 3c 3d a2 76 6c 3e be 85 a2 3e
       -0.07780721 0.046104275 0.2309213 0.31742662
000210 cd 39 b4 3d 30 89 11 be 40 2d 01 bd c0 f3 8e bd
       0.08800087 -0.14212489 -0.031537294 -0.069800854
000220 fc f3 2f bd 3b ff 34 3e 40 74 80 bd 37 11 d4 bd
       -0.04295729 0.17675488 -0.06272173 -0.10354846
000230 b4 05 ad bd 3a 7d 9b be 41 4e 0b 3e 61 d9 05 bd
       -0.084483534 -0.30368978 0.1360407 -0.03267801
000240 30 68 49 3d b2 aa 82 bd f3 d9 b0 3d 60 08 d3 3d
       0.049171627 -0.06380214 0.086353205 0.10304332
000250 cd 5e 97 3d 71 0b 2e bc 7a 62 a9 3d c1 6f 83 3c
       0.07391129 -0.010622845 0.08270736 0.0160445
000260 09 e6 dd 3b a5 27 6e 3d 08 06 3c bd 58 52 c7 3d
       0.006771807 0.058143277 -0.04590419 0.09732503
000270 12 1a 1b bd 6b 70 ed bd 2e b8 f1 bd 8a 8a c9 bd
       -0.03786666 -0.11593708 -0.118027076 -0.09840877
000280 22 21 f9 bd d9 06 ec 3d 54 ca 69 be e8 ab 76 3d
       -0.12164523 0.115247436 -0.22831088 0.060222536
000290 70 13 45 bd 25 d2 7f 3c 78 bd ed 3d 1e 62 55 3c
       -0.04811424 0.015614067 0.11608404 0.013023881
0002a0 dc 1d ac 3d 9c 4d 79 bc e7 fb 27 be 92 d6 bf bd
       0.08404133 -0.015216257 -0.16404687 -0.09367098
0002b0 43 b6 89 3d 23 3f 3b 3b 83 f4 77 bd 25 98 f2 bd
       0.06724217 0.0028571568 -0.06053592 -0.118454255
0002c0 0f de 9b bc 3b 55 3d be 05 39 1d 3e 3f 04 a3 3d
       -0.019026784 -0.18489544 0.15353782 0.07959794
0002d0 eb c8 bf bd a0 4c a7 3b 56 b3 f1 bc a1 07 07 bc
       -0.09364494 0.00510557 -0.02950446 -0.008241565
0002e0 eb f6 88 be dd c9 af 3d 4d 48 b6 bd 73 95 f8 bb
       -0.26750883 0.08583424 -0.08900509 -0.007586175
0002f0 f3 a5 d3 3d 25 9f 4a 3d d6 51 54 bd 47 0e be bd
       0.10334387 0.04946818 -0.051835857 -0.09280067
000300 02 34 09 3d 58 96 81 b9 05 5b ae 3d c3 c4 a0 3d
       0.033496864 -0.00024716812 0.08513454 0.07850029
000310 53 db 26 3d a7 62 d5 3d 9b 1c a9 3d 48 22 76 3d
       0.040736508 0.10419207 0.08257409 0.060091287
000320 c9 f4 e1 bd f0 7c d4 3d 90 0a 03 be d6 96 b7 3e
       -0.11033017 0.103753924 -0.12796998 0.35857266
000330 82 94 44 bd a2 e7 04 3d ba 1e 14 bd 0e 96 ee 3c
       -0.04799319 0.032447465 -0.036162116 0.029124286
000340 66 1f 18 be 2e 16 78 3b 99 63 9c 3d a2 8a ca 3e
       -0.14855728 0.0037855017 0.07636184 0.39558893
000350 24 df 3e 3e 40 02 27 be 88 ff b3 bd 59 d9 17 3e
       0.18639809 -0.16309452 -0.08788973 0.14829005
000360 ab 41 02 be bf bb 31 be 8b 32 6b 3d 00 3d 0c 3e
       -0.12720363 -0.17356776 0.05742125 0.13695145
000370 0a 2b dd bd 48 6e e8 bd 6d dc 72 bd 8c f1 16 3e
       -0.10799225 -0.113491595 -0.059292246 0.1474058
000380 a8 81 b0 3d c1 03 95 3d b0 3d b7 3d 91 54 94 bd
       0.0861848 0.072761066 0.08947313 -0.07242692
000390 27 1b ec bc 0c 7b e1 bd 7b cc 81 bd 3b 5b 40 3d
       -0.028821541 -0.110097975 -0.0633783 0.046962004
0003a0 88 1a 82 be a2 41 cc 3d 66 0e 8e bc 05 bc bf bd
       -0.25410867 0.09973456 -0.01734085 -0.09362034
0003b0 97 ef 9f 3d 06 50 44 3e 86 38 c7 3e bf 79 56 bd
       0.0780937 0.19171152 0.3891031 -0.0523622
0003c0 25 d2 c3 3d 98 8f 27 bd 8f 97 ac 3d ae bc 73 3d
       0.09561566 -0.040908426 0.08427345 0.05950611
0003d0 2c 88 17 3d d5 2f a2 3b 5e a0 af bd ba 4d 7d 3e
       0.036995098 0.0049495497 -0.085755095 0.24736682
0003e0 cf 70 ea 3d 24 86 ab 3c 1e 34 09 3d 7a dd e8 bb
       0.11447298 0.020937987 0.03349697 -0.00710648
0003f0 b8 88 e8 3d 55 63 80 be d9 51 55 3b e5 a4 90 bd
       0.11354202 -0.25075784 0.0032550006 -0.07062701

conv1.bias f4 [16]
000000 6a a0 a1 be 55 e4 92 be 9c 2c 49 be 37 6e c0 bd
       -0.315677 -0.2868983 -0.19645923 -0.09396022
000010 b7 7b 24 be 4e c8 aa be d9 32 48 be 2e b9 0a bc
       -0.16062818 -0.33355945 -0.19550647 -0.008467002
000020 b5 a3 6c bd d5 4e 2a be 32 4a b5 be 8b e0 94 be
       -0.05777331 -0.16631635 -0.3540817 -0.29077563
000030 fc a9 cc be 16 ff 5e be 73 65 66 be a1 e1 89 be
       -0.39973438 -0.21776995 -0.22499637 -0.26929954

conv2.weight f4 [16, 128, 3]
000000 18 00 cd 3d f2 bf e4 3c ad 03 d5 bd b2 b9 9f 3c
       0.100097835 0.027923558 -0.10401092 0.019497726
000010 bf ca cc bc 16 42 27 3c b1 14 db bd c7 21 c9 3d
       -0.02499902 0.010208627 -0.10697306 0.09820896
000020 c6 5d ad 3d df e2 5e bc 83 a4 5e 3d c5 75 b8 3c
       0.084651515 -0.013603895 0.05435611 0.022517094
000030 4b a8 a4 3d 62 20 71 bd a3 60 30 3e 60 fa a4 bc
       0.08039912 -0.058868773 0.17224364 -0.02013892
000040 e8 2b d1 bd 61 30 46 3e d1 36 3b 3d a8 6f 11 3d
       -0.102134526 0.19354393 0.045706574 0.035506874
000050 4b 12 fc bd f2 67 28 bd 19 c9 0a bd dd 1b 32 3c
       -0.123081766 -0.041114755 -0.033883188 0.010870901
000060 53 fc 87 bd 11 8d 15 be d7 8b 5c bd 84 4a 1a 3d
       -0.06639924 -0.14604594 -0.0538443 0.03766872
000070 92 a8 08 bd 5a 43 7b be a8 ca 2f bc 65 6f 27 bb
       -0.033363886 -0.24537411 -0.010729469 -0.0025548574
000080 91 5c 33 3e f2 0f f7 3c 2b 5e 0f 3e b4 ee 19 3e
       0.1751578 0.03015897 0.14000766 0.15032464
000090 ee d3 dd bd 94 46 03 3e 04 ed ec bd 1c c5 c1 bc
       -0.10831438 0.12819892 -0.11568645 -0.02365356
0000a0 03 74 d4 bc d2 84 57 be 26 9e b7 bc 82 78 15 3e
       -0.025934225 -0.2104676 -0.022414278 0.14596751
0000b0 04 ce 42 bc 02 b4 fa bc 64 e0 22 bb 81 f6 e0 3d
       -0.011889938 -0.030603413 -0.0024852986 0.10984517
0000c0 31 3b 2b 3d 36 a5 6e 3d 33 4e a3 3d c1 6d bd 3d
       0.041804496 0.058263026 0.079739 0.092494495
0000d0 ad 45 be bd 99 93 54 3e ba 17 14 3d 36 e4 a6 3d
       -0.09290633 0.20759429 0.03615544 0.081489965
0000e0 f3 fc ad 3d 0e d4 1b bd fc 5d a1 bc 9e 08 e6 bd
       0.08495512 -0.038044028 -0.019698136 -0.11232112
0000f0 d2 9e ee bc 67 b5 67 3d 10 9c 58 be 22 d2 31 bb
       -0.029128466 0.056569483 -0.21153283 -0.0027133306
000100 be 92 7e bd 3f 90 08 3d e9 50 15 bc 11 70 07 be
       -0.062151663 0.03334069 -0.009113529 -0.13226344
000110 ae 01 59 3c de df ba bd e2 bb 16 be 6e 15 02 bd
       0.013245029 -0.091247305 -0.14720109 -0.03175872
000120 8f 50 b6 bd b9 67 77 bd 2b d9 aa 3d ab b7 18 bc
       -0.08902084 -0.060401652 0.08342203 -0.009321134
000130 d7 aa dc 3c 70 a0 80 bd 6d 1c 30 3c c4 55 cd bd
       0.026936932 -0.06280601 0.010748965 -0.10026124
000140 cf 83 8e bd b3 4a 14 be 70 43 d2 3c 49 10 83 be
       -0.06958734 -0.1448162 0.025666922 -0.25598362
000150 22 e2 86 bd 2b 6f 96 3c 05 e3 66 be 81 7d 93 3c
       -0.065861 0.018363556 -0.22547539 0.01800418
000160 50 d6 fd 3d c9 ec 34 bd 04 55 77 3c f1 0b 85 3d
       0.123943925 -0.04417113 0.015095953 0.06496418
000170 3c e0 fe 3d 9b d5 8d 3d 68 55 09 3e d5 94 a4 3d
       0.12445113 0.06925508 0.13411486 0.080362
000180 ce 38 0d be 84 d4 a6 bd 38 35 41 3d 9f ab 44 bd
       -0.137912 -0.08146003 0.047169894 -0.048015233
000190 60 a2 db bd ba 24 e2 3d d5 c7 80 3d 84 2c d6 bc
       -0.1072433 0.11042161 0.06288115 -0.026144274
0001a0 18 d1 87 3d b4 fd 7e bb d8 56 54 3d 6f 40 c7 bd
       0.06631678 -0.0038908543 0.051840633 -0.097290866
0001b0 c5 a7 00 bd 46 91 b2 3c 5f cf 05 3d d2 ac 04 ba
       -0.031409997 0.021797787 0.032668468 -0.00050611526
0001c0 12 a8 44 bd 58 e5 0f 3e a8 e0 79 bc 63 4b fb bb
       -0.048011847 0.14052331 -0.015251316 -0.007668899
0001d0 19 a6 ed 3d 2d 12 71 bd e0 e0 fb bc 45 5b 00 3e
       0.11603946 -0.058855224 -0.030746877 0.12534817
0001e0 cf 3d ef bd 7a f9 b1 3d c3 29 b1 3d ab 12 e6 bc
       -0.11681711 0.08690162 0.086505435 -0.028085073
0001f0 ce dd 5f bc 71 c9 f7 bd 7f 46 e5 39 a4 09 f6 3c
       -0.013663722 -0.12098969 0.00043730807 0.030033894
000200 0a 9b 7f bc 17 c7 ab bd 2b eb e9 3c 31 d6 32 3e
       -0.015600929 -0.08387583 0.02855452 0.1746452
000210 d8 61 a3 bd 75 4b 0d be 3c dd bf bd e5 12 d1 bd
       -0.079776466 -0.13798316 -0.09368369 -0.10208682
000220 9a 4e a2 3d 13 ce ed 3d 59 05 72 3d e1 ff cb bb
       0.07925148 0.11611571 0.05908713 -0.0062255715
000230 f8 17 bc 3c 35 22 fa 3d 18 3f 5b 3e fe 4d 63 3a
       0.022960648 0.12213556 0.21410787 0.00086709845
000240 09 ec ba bc 1f d3 c9 3d d4 5f b2 3d 06 09 11 bd
       -0.022817628 0.09854721 0.08709684 -0.035408996
000250 d1 69 68 3c 26 20 83 be 6e 60 45 3e 21 8f aa 3d
       0.014185385 -0.25610465 0.19275066 0.08328081
000260 e1 57 70 bd a4 03 29 bd 7d 9d 0c be 90 ac 2c be
       -0.058677558 -0.041263238 -0.13731952 -0.16862702
000270 d2 3e 84 3d 67 02 f4 bc 08 08 3f bd 9d 65 a9 3c
       0.064572945 -0.029786302 -0.04663852 0.020678336
000280 14 54 b0 ba e9 10 26 3d c6 08 fd bc 13 5a 1b 3e
       -0.0013452792 0.04054347 -0.030887973 0.1517108
000290 61 35 79 bd 9e bc a8 bd 0d d7 55 3d e7 52 11 3d
       -0.06084192 -0.08239101 0.05220704 0.035479452
0002a0 03 11 8f bd 68 b1 e1 bc 38 7f cf 3d a6 30 46 3d
       -0.069856666 -0.027550414 0.10131687 0.04838624
0002b0 f2 37 1a 3d 00 cf a7 3d b0 2b 20 3d 6f c2 a1 bd
       0.03765101 0.08193779 0.039104164 -0.078984134
0002c0 f6 4b 15 3d 22 26 a9 3c 41 24 9f 3d d9 1a d9 3d
       0.036449395 0.020648066 0.07770587 0.10600824
0002d0 80 e6 46 bd b4 2d 47 be 51 46 1d be 64 8b 92 39
       -0.048559666 -0.19451028 -0.15358855 0.00027951144
0002e0 bd 12 fb bd 1c eb d0 bd 42 4a 99 bd d2 41 fd bb
       -0.122594334 -0.102010936 -0.07484867 -0.0077287937
0002f0 f4 6d a3 3e b3 46 30 3d 35 e3 03 3e f2 8f 87 3c
       0.31919825 0.043036174 0.12879641 0.01654813
000300 57 69 33 3d 19 4a 03 3d 17 1f 3e 3e 13 7e 8a bd
       0.04380163 0.032053087 0.18566547 -0.06762328
000310 6d a3 6b bd 22 ce 88 be 10 8e 42 ba 64 e2 57 3d
       -0.0575289 -0.26719767 -0.00074216817 0.052706137
000320 3e 82 9c bd 38 26 69 bd 23 a1 57 bb d0 18 4b 3d
       -0.07642029 -0.056921214 -0.0032902441 0.04958421
000330 97 4a 10 bb 40 80 31 bd f2 0a 0b bd df 00 18 3d
       -0.0022017115 -0.0433352 -0.033945985 0.037110206
000340 67 84 84 3d 65 78 c9 bd c2 80 8b bd 52 e4 97 3d
       0.06470566 -0.098374166 -0.06811668 0.074165955
000350 cc e4 31 3e f8 8a 2b bb e5 54 17 3d 41 6e ce 3d
       0.17372435 -0.002617536 0.036946196 0.10079623
000360 7a ac a9 bd ce 75 49 bd 22 b8 eb bd a3 85 37 3d
       -0.082848504 -0.049184613 -0.1150973 0.04480518
000370 0f 46 9a bd 26 12 61 3d f3 21 e3 bd 11 a5 1a 3d
       -0.07532894 0.05494895 -0.1109046 0.037755076
000380 3b 03 aa 3d c9 8b 84 3d 9f 93 03 be 41 60 0a bf
       0.083013974 0.064719744 -0.12849282 -0.5405312
000390 13 4b 4e 3c ae 06 3d bc 1b 70 37 3d e2 3c e6 bc
       0.012591141 -0.011537237 0.044784646 -0.028105203
0003a0 4b 6b 7b 3c bc af fa 3d 7b 96 92 3d 87 1e 0b 3e
       0.015345405 0.1224055 0.07157608 0.13585864
0003b0 95 f8 9e 3d 38 69 e9 bd a0 ba e8 3d 9d 08 92 bc
       0.07762257 -0.11397022 0.11363721 -0.017826373
0003c0 0c c0 67 3d 14 42 ba bd b5 a3 1b be 15 f5 26 3d
       0.056579635 -0.09094635 -0.15199168 0.040761072
0003d0 df 84 ef 3c ba d8 fc 3d a1 58 18 3e 3d 04 82 bd
       0.029238163 0.12346025 0.14877559 -0.06348465
0003e0 d0 96 52 3e ce 41 e1 3d 75 fd 74 bd 57 98 60 3e
       0.20565343 0.109988794 -0.059812028 0.21933113
0003f0 ee eb 1f bd 2c c4 c0 bd f5 33 bc 3d 11 28 08 3d
       -0.03904336 -0.09412417 0.091895975 0.033241335

conv2.bias f4 [16]
000000 45 65 75 bd 5c 96 5f be d7 25 f4 be 91 85 8f be
       -0.05991103 -0.21834701 -0.4768512 -0.2803159
000010 92 c6 97 bd ac af 19 3e f6 a7 95 be 33 91 96 be
       -0.07410921 0.1500842 -0.29229707 -0.29407653
000020 ce bf 3d be a4 2b fa bc 6c 6d ce be 9d 6f 80 be
       -0.18530199 -0.030538388 -0.40317857 -0.25085154
000030 c9 2c 17 3d 8b 37 a5 be 48 6a d5 be 88 f0 28 be
       0.036907945 -0.32268938 -0.4168265 -0.16498005

conv3.weight f4 [256, 32, 5]
000000 9b 9f e3 3c 9d 72 27 3e 70 ce 2f 3e 46 1d 05 3e
       0.027786067 0.16352315 0.17168593 0.12999448
000010 d4 38 2c 3d 0f 09 7f bd f4 1f 44 bd f4 a4 98 bd
       0.042046383 -0.0622645 -0.047882035 -0.07453337
000020 ff 2b be bd 82 85 5c bd 8c 5b f0 ba c2 34 af 3d
       -0.09285735 -0.05383826 -0.001833783 0.08554985
000030 14 6e f3 bd f3 f7 d0 3c 56 72 9b ba 5a 40 68 bd
       -0.1188623 0.025508856 -0.0011859636 -0.056701995
000040 e7 12 7b bd 3e 57 63 bd 0e 78 92 3e 63 97 8b bd
       -0.061297324 -0.055503123 0.2860722 -0.06815984
000050 a3 ca ae 3a a9 a3 bc bd 01 d7 4d 3e 98 ab 62 3d
       0.0013335537 -0.09210903 0.20101549 0.055339426
000060 c9 72 b6 3d fe 9c 56 3c 2d 6d 98 bd 36 0c 57 bd
       0.08908612 0.013098953 -0.07442699 -0.05250188
000070 75 b6 a3 3c 4e 52 20 3c 24 c0 a9 bc 88 2e 1d 3e
       0.019984463 0.009785248 -0.020721503 0.15349782
000080 44 ae 42 be c1 d9 18 3d c6 ed a1 3c 0d 38 59 3d
       -0.1901179 0.03731704 0.0197667 0.05303197
000090 ae 0b c2 3b 8e 3a d5 3d 95 d4 71 bc 7e af 02 bc
       0.0059218025 0.10411559 -0.014760156 -0.007976411
0000a0 a3 2a 07 bb 5b 6a 76 be 04 ac 6e 3d a9 a6 cd 3c
       -0.0020624779 -0.24064009 0.058269516 0.025103884
0000b0 ad 32 7b 3d 88 da eb bb 47 10 53 bd c5 97 77 be
       0.061327625 -0.007197682 -0.051529195 -0.24178989
0000c0 ec ac 36 bc e6 58 88 be 48 5c 14 3e b8 06 17 be
       -0.011149626 -0.26630324 0.14488328 -0.14748657
0000d0 62 2c ab bd ec 1e b5 3c 89 90 0b 3e f3 42 0b bd
       -0.08358075 0.022109471 0.13629355 -0.033999395
0000e0 5f 82 21 be 52 e4 04 bd 59 0c 27 3e b3 34 1c 3e
       -0.15772389 -0.032444306 0.16313304 0.15254478
0000f0 22 4c 93 3d d4 81 02 3e d4 74 67 3e 71 e7 51 bd
       0.071922556 0.12744838 0.2260316 -0.05124611
000100 46 3c 9c 3d 05 14 aa ba 0f 5a c4 bd a9 53 ec bd
       0.07628684 -0.0012975937 -0.0958749 -0.115393944
000110 5f e6 46 bd 25 57 d5 3c b2 86 e6 3d 0e 42 ca 3d
       -0.048559543 0.02604253 0.1125616 0.0987588
000120 26 c8 0e 3e 02 fc 21 be 24 ed ce 3d 5a 81 a7 3e
       0.13943538 -0.1581879 0.10103825 0.32715875
000130 fe d0 fe 3c 49 99 64 be 1a 84 2a 3d fe 46 33 3e
       0.031105515 -0.22324099 0.041629888 0.1750755
000140 22 f1 04 3d e0 db 47 be 70 b9 28 bd f4 d6 03 bd
       0.032456525 -0.1951747 -0.041192472 -0.032187417
000150 fd 36 cf bd 98 21 47 bc f5 c2 8c 3d cb 38 39 be
       -0.1011791 -0.0121540055 0.068731226 -0.18088071
000160 06 79 3e 3d 87 3f e0 bc b4 e8 1f 3e b0 84 23 be
       0.046502136 -0.027374042 0.15616113 -0.15968585
000170 bf 71 e2 be 65 23 80 3d 71 3c a3 3d 22 d4 41 be
       -0.44227406 0.06256751 0.07970513 -0.18928578
000180 9c e1 c0 3d a0 5b 05 3c 43 dd 4e 3e e7 94 1b be
       0.094180316 0.008139521 0.20201592 -0.1519352
000190 6f 63 45 3e c1 d3 8c 3d 60 1f 19 3e ea df 1d 3d
       0.19276212 0.06876326 0.14953375 0.03854362
0001a0 3f 14 dc bc af 52 04 3d 2d 33 89 3d 9c 29 6f 3d
       -0.026865123 0.032305416 0.06699214 0.05838929
0001b0 af 3d 59 3d 3c 36 6d bd fc c9 33 3b 2c 32 5b bd
       0.05303734 -0.05791305 0.0027433624 -0.053514645
0001c0 12 6b 26 bd a0 a7 3c be 28 ae 3c 3e 56 50 e2 bd
       -0.040629454 -0.18423319 0.1842581 -0.11050479
0001d0 59 61 a0 3c de ea 3f be f8 fb 6b 3d 55 23 6d bd
       0.019577669 -0.18741938 0.057613343 -0.057895023
0001e0 55 99 7d bd 44 60 9b bd c3 05 e1 3d 27 66 86 3d
       -0.061913807 -0.075867206 0.10987427 0.06562453
0001f0 5f ae 6c 3d a4 96 03 bd ba 18 99 bd 3b 89 8b 3e
       0.05778348 -0.032126084 -0.07475419 0.27253136
000200 04 06 bf be 47 fc 95 3d f5 63 19 3d ab 2f 83 be
       -0.37309277 0.07323509 0.037448842 -0.25622305
000210 01 dd 45 be 8c dc c3 3d 00 ba 3a 3d db 48 cd 3d
       -0.19322588 0.0956355 0.04558754 0.10023662
000220 b5 41 cf bd 89 84 a0 bd 94 f1 19 be 8b d6 40 3c
       -0.101199545 -0.07837779 -0.15033561 0.011769901
000230 73 22 b0 bd 75 43 4e 3c e7 64 52 3e f0 88 1d bf
       -0.08600321 0.012589325 0.20546304 -0.61537075
000240 6a 73 6e bd 07 c3 41 bd db 65 52 be 09 07 ae bd
       -0.058215536 -0.047305133 -0.20546667 -0.084974356
000250 b7 aa 1f bc ef 3d b2 3d 3a d5 00 bd 12 91 8e bc
       -0.009745291 0.08703219 -0.03145335 -0.01740316
000260 76 8d b2 be a5 08 58 3d e1 19 f2 3c 42 2a 85 bd
       -0.3487355 0.05274262 0.029553356 -0.06502201
000270 00 ba 64 be b0 05 02 be a8 3a 27 bd b4 f7 ed bd
       -0.22336578 -0.12697482 -0.040827423 -0.11619511
000280 d7 e7 b5 bd f2 8e f5 bd ec 08 3a bc c7 5c 60 3d
       -0.088821106 -0.11990155 -0.011354666 0.05477598
000290 63 1b 42 be c0 ae f8 3c 6b 83 a5 bc b7 51 67 be
       -0.1895576 0.030356765 -0.020204267 -0.22589765
0002a0 61 ef 22 be cb c0 ad bd 73 ff fc bd d8 4f 1b be
       -0.15911628 -0.08484038 -0.123534106 -0.15167177
0002b0 b9 cb 05 3d 0a 1b 81 3b 69 d2 45 bd 1b 0a a9 bd
       0.03266499 0.003939991 -0.048296366 -0.082538806
0002c0 89 a0 63 be d1 ef 3c 3d 1e 89 bc 3d ff 5e 8a bd
       -0.22229208 0.046127144 0.092058405 -0.067564
0002d0 39 6c b0 3c c9 56 dd bd 11 bc 60 be 9e 61 91 be
       0.02153598 -0.108075686 -0.21946742 -0.28394789
0002e0 86 81 2c 3d 71 b3 bd bd 49 14 25 3d 96 d0 bd 3c
       0.04211571 -0.09262741 0.04030255 0.02317075
0002f0 aa 2c 3a be 70 ce e0 bd 4f b3 42 bb 31 30 17 be
       -0.181811 -0.10976875 -0.0029708927 -0.14764477
000300 9a aa b0 bd 95 42 fa bd b4 2d 77 be eb f1 b1 3d
       -0.0862629 -0.12219731 -0.24138528 0.0868872
000310 4e 99 af 3d 21 b8 d7 3d a0 bc ea 3d 81 e5 b4 be
       0.085741624 0.10533167 0.114617586 -0.35331348
000320 64 d6 06 3e 7d d5 a5 3c 06 cd 29 3d f6 86 37 3d
       0.13167721 0.0202434 0.04145529 0.044806443
000330 d4 1e 2c be e8 86 1a 3c 10 42 d8 3d df 6d 9e 3d
       -0.16808635 0.009431578 0.105594754 0.077358
000340 c7 af c4 3c e0 37 92 bd 6c 87 42 3d 8c 2e d5 3b
       0.024009598 -0.071395636 0.04749243 0.006505793
000350 a2 53 57 be 26 b4 2d be 0c 53 12 be c6 bc a5 bd
       -0.21027997 -0.16963252 -0.14289492 -0.08092646
000360 8a eb 05 3d 7a 7b 24 3d 55 50 79 bd 72 66 15 be
       0.03269533 0.04015682 -0.060867626 -0.14589861
000370 5d 65 83 bd 38 23 01 bc 04 89 d6 bb 0e 89 ba bd
       -0.06415818 -0.007881932 -0.0065470953 -0.09108172
000380 a8 ec cc 3d fc 59 82 be d1 d1 d4 bd 8f 77 02 3e
       0.10006076 -0.25459278 -0.10391582 0.1274092
000390 0a a2 02 be a1 78 23 be 86 74 66 3d fc ee d7 bd
       -0.12757125 -0.15963985 0.05626347 -0.105436295
0003a0 4e 3b ce 3c 01 17 95 bd 2a 54 72 be 8a 3e 25 bd
       0.025174763 -0.07279778 -0.23664919 -0.040342845
0003b0 90 39 ba bd ae 06 68 3e eb d8 d7 bd d6 19 c0 3a
       -0.090930104 0.22658798 -0.10539421 0.0014656137
0003c0 b2 44 d8 bc 68 7f 41 be dd 94 d8 bd 6e a5 e4 bd
       -0.026399944 -0.18896258 -0.105752684 -0.11164366
0003d0 95 fd a3 39 40 7d 7e 3b db 3f 36 be 19 dc 60 bd
       0.00031278716 0.003883198 -0.17797796 -0.0548974
0003e0 6d 85 11 3e 05 35 53 be 69 a0 8f bd cd 83 a0 3d
       0.14211054 -0.20625694 -0.07013018 0.07837639
0003f0 1f ed 78 bd ef 68 5c be 99 b2 b4 bc 1f 19 a7 3d
       -0.06077301 -0.21524404 -0.022057818 0.08159088

conv3.bias f4 [256]
000000 eb 60 40 be 55 96 12 be da b2 46 be fa 1a 43 3b
       -0.18786971 -0.1431516 -0.19404164 0.0029770718
000010 dc 40 29 3d 57 11 87 3d 24 34 27 be 1d 8b 2b 3c
       0.04132162 0.06595104 -0.16328484 0.010470179
000020 41 03 af bc 61 ff 95 bd 21 96 d8 3c 81 4e b8 bc
       -0.021363856 -0.073241 0.026438775 -0.022498371
000030 af 61 81 3d 49 a7 85 3d db 39 90 bd aa 42 8f bd
       0.0631746 0.06526048 -0.07042285 -0.06995137
000040 c0 ad 2e bd eb 6d 73 3e 56 30 6d be 18 f8 07 3e
       -0.04264617 0.23772399 -0.2316297 0.13278234
000050 19 a4 98 be f3 ac a7 bd 4d c6 e6 3d 99 b2 fd bd
       -0.29812697 -0.08187284 0.112682916 -0.123875804
000060 25 62 24 bd 1d c4 80 3d df 2e d1 3c 5a 0d 67 bd
       -0.04013266 0.06287406 0.025535045 -0.056409217
000070 28 1c 86 bd 88 16 78 3c c3 22 56 be 87 12 9a be
       -0.06548339 0.015142091 -0.20911698 -0.3009226
000080 67 fb de bc 04 95 0a be 62 d1 ba bd 87 70 7c be
       -0.027219487 -0.13533407 -0.09121968 -0.24652301
000090 6f 10 87 3d d6 a6 d9 3c 86 fb a8 3c 88 52 39 be
       0.06594931 0.026568811 0.020627748 -0.1809789
0000a0 aa ba dd 3d 97 be 08 bd 7d e7 38 be 6f 44 40 bd
       0.10826619 -0.033384886 -0.18057056 -0.046940263
0000b0 2a 8a 87 bb d0 fd bf bd 6c 32 1e be 32 4c a8 be
       -0.0041363435 -0.09374583 -0.15448922 -0.32870632
0000c0 e1 b2 9d bc 1a 10 c9 be 09 fc bc bd a6 14 6f be
       -0.019250335 -0.39270097 -0.092277594 -0.2334772
0000d0 ed a3 97 3d 44 ce f5 bc 22 79 f3 bc 34 c6 08 be
       0.07404313 -0.030005582 -0.029720847 -0.13356858
0000e0 7b 77 10 3e 4f 68 a8 be 5b 6d c5 bd db a7 84 3d
       0.14108078 -0.3289208 -0.096399985 0.064773284
0000f0 52 13 29 be 75 d7 0d be 56 3b 64 3d 8c 66 79 be
       -0.16511276 -0.13851722 0.05572065 -0.24355525
000100 92 4e 4b 3d 66 1b cd b9 89 0e 29 be 1d 60 95 bd
       0.049635477 -0.0003912106 -0.16509451 -0.07293723
000110 2a f2 8b 3d 7d cc e0 3d a4 bb 98 bd 00 db 8e bd
       0.068332985 0.10976503 -0.074576646 -0.06975365
000120 0b 83 13 be d0 b8 8f bd 3e dc f9 3e 16 ac 1b be
       -0.14405458 -0.07017672 0.48800844 -0.15202364
000130 35 63 ba bd af e3 b5 bd 82 54 8b bd 42 fb e8 bd
       -0.091009535 -0.08881318 -0.06803228 -0.113760486
000140 d1 d5 9b 3d c8 ea 7b bd 17 db ba bd d0 0c 1b 3d
       0.076091416 -0.0615032 -0.09123819 0.037854016
000150 b5 17 2a be b2 bb a5 bd fc 35 6a bd f9 51 04 be
       -0.16610606 -0.08092441 -0.05718039 -0.12921895
000160 8c 6c c7 bc 0a f8 80 3d 77 01 a4 be 4a 5b 35 3d
       -0.024343751 0.0629731 -0.32032368 0.044276513
000170 77 f5 d2 bc 2c 4f bc 3d 00 21 fa 3d cf de 8e 3e
       -0.025751812 0.09194788 0.122133255 0.27904364
000180 e1 ae 87 be 86 51 77 bd fd 0a 80 bd a2 c6 a4 3e
       -0.2650061 -0.06038048 -0.06252096 0.32182795
000190 51 30 bc bd f2 4f e5 3d a8 c1 d3 bd c8 df 2e bd
       -0.09188903 0.11196889 -0.103396714 -0.042693883
0001a0 b1 33 53 be cd f5 06 bd f4 64 9d be 94 93 98 be
       -0.20625187 -0.032949258 -0.30741084 -0.29800093
0001b0 3a 02 49 bd 82 8a 36 3e 31 e1 d6 bd 24 fe 11 3d
       -0.04907439 0.17826274 -0.104921706 0.035642758
0001c0 47 be 59 be ba c5 05 be 0e bf 87 be 17 76 5f bd
       -0.21263991 -0.13063708 -0.2651295 -0.05455598
0001d0 ee f9 e3 bd e1 10 6b 3d a6 1d 38 bd bf 63 7b be
       -0.11131655 0.057389144 -0.04495015 -0.24549769
0001e0 1a 40 51 be 8e 62 f5 bd cc d2 d6 3d ba 08 2b 3e
       -0.20434609 -0.119816884 0.10489425 0.16702548
0001f0 89 8a 04 bc b5 32 0f bd c8 2f f0 bd 36 45 e5 bd
       -0.00808967 -0.034960467 -0.117278636 -0.111948416
000200 25 ca 43 be 4c f6 69 3d b7 f0 6c be d4 ad 68 bd
       -0.19120081 0.057119653 -0.231387 -0.0568064
000210 5c 57 3c be d4 b2 ed bd 00 aa d4 3d 0c 98 58 3d
       -0.183927 -0.116063744 0.103839874 0.05287938
000220 6c 8c 20 3e 81 18 f3 bd fd 36 48 be 8f 07 6f be
       0.15678567 -0.11869908 -0.19552226 -0.23342727
000230 67 8d 5e be 2d 81 df bd 4a 45 c5 3d ad 7b e8 bd
       -0.21733628 -0.1091331 0.096323565 -0.11351714
000240 7d 94 6b 3d 97 a8 5b 3d ab 65 78 3d 06 4a 1f 3d
       0.057514656 0.053627577 0.060643833 0.038888954
000250 3b 0a 12 be ab bf 14 3e 41 9b cf 3d 23 d2 44 bd
       -0.14261715 0.1452624 0.10137034 -0.048051964
000260 a9 8b d4 3c 30 cb 00 be a9 2b 90 bd 94 af c3 3d
       0.025945501 -0.1257751 -0.070395775 0.09554973
000270 6e 3b 08 be 7c 93 9b be e3 d4 5f bd 24 36 14 bd
       -0.1330392 -0.3038596 -0.054646384 -0.036184445
000280 95 90 44 bc 1f ec f2 bd bf 84 8a 3d 85 46 44 be
       -0.011997362 -0.11861443 0.067636006 -0.19167526
000290 9f 5e 90 bd 80 13 9f 3d 84 92 5c bd bf c9 05 be
       -0.070492975 0.07767391 -0.053850666 -0.13065241
0002a0 eb d6 09 be c3 2b 92 3e 18 64 15 be c7 84 9c be
       -0.13460891 0.28549013 -0.14588964 -0.3057005
0002b0 61 67 fa bd 2c 12 e1 bd 52 33 aa bd 7f c5 e1 bd
       -0.12226749 -0.10989794 -0.0831057 -0.110239975
0002c0 f3 47 4c be 15 66 92 3c a6 34 07 be b8 c5 f1 bc
       -0.19949321 0.017870942 -0.13203678 -0.029513225
0002d0 ed 46 9a bd e6 73 eb bd 83 58 86 bb c4 7a 87 bd
       -0.07533059 -0.11496715 -0.004099907 -0.066152126
0002e0 ed ce 6f be 60 7d af bc b4 7a c6 3d f2 21 1a 3c
       -0.2341878 -0.021422088 0.096913725 0.009407507
0002f0 3c 1e 3b be 94 d9 b6 bd ba 5b a1 3e a7 f7 bc 3c
       -0.18273252 -0.089282185 0.31515294 0.023067309
000300 b2 4d d9 3c 13 ad ab 3c ba 07 a5 3e b5 09 fd 3d
       0.026526306 0.020956552 0.32232457 0.12355367
000310 8a 32 b1 bd ea 95 60 3c a6 ea c3 bd a4 1e a7 3c
       -0.08652218 0.013707617 -0.0956624 0.020400353
000320 89 0f a0 3d 82 9e c6 bd 23 d7 d9 bd ee a2 d6 bd
       0.07815463 -0.09698202 -0.10636737 -0.10480295
000330 44 72 a2 3d 34 f1 5b bd 45 de d4 3d a0 cf db bc
       0.07931951 -0.053696826 0.10393957 -0.026832402
000340 57 5d 86 3d 64 c8 8e 3d a6 34 a6 bc ea 5e 05 be
       0.06560772 0.06971815 -0.020288777 -0.13024488
000350 4c 57 65 be dd 98 1d be 55 5e 0c 3e 9e 09 71 3c
       -0.22396582 -0.15390344 0.1370786 0.014711766
000360 c4 3a 4c 3e b9 81 26 bd c8 ff 09 3d b8 6f 08 3e
       0.19944292 -0.040651057 0.033691198 0.13323867
000370 40 47 7b bd d2 2d e1 bb 36 28 31 be 4d d2 3a be
       -0.061347246 -0.0068719173 -0.17300496 -0.18244286
000380 a3 bb fa bd 9c 7f 3e 3e a1 7e 01 be 05 d0 85 be
       -0.1224282 0.18603367 -0.12645961 -0.2613527
000390 7a 59 66 3d 16 1f ff bd 99 cb 20 be 1c 84 6f 3e
       0.056237675 -0.12457101 -0.15702666 0.2339024
0003a0 76 cd 38 3e b8 97 9a 3d 5a 91 00 bd 6e 15 d2 3d
       0.18047127 0.07548469 -0.031388618 0.10257994
0003b0 39 fe 88 bd 95 71 0a be 5e 90 47 be 18 94 ca bd
       -0.06689114 -0.1351989 -0.19488665 -0.09891528
0003c0 10 29 77 be c9 39 2b 3e 91 ff 8f 3e 50 6c 25 3b
       -0.24136758 0.16721262 0.2812467 0.0025241561
0003d0 61 00 91 3d 55 5a e8 bd 70 49 c8 bb 31 05 33 bd
       0.070801504 -0.113453545 -0.00611227 -0.043706123
0003e0 ab 4b 2a 3d f2 92 c3 bd ee 8a 44 3e 07 ab 46 bc
       0.04157607 -0.09549512 0.19193622 -0.012125737
0003f0 41 84 6f be ea e1 2f bd 1c e6 d7 bd 4d fd d6 bd
       -0.23390295 -0.042940058 -0.10541937 -0.10497532

fc.weight f4 [11, 256]
000000 37 31 52 bd b6 1b d7 3b 3d d0 3d 3c 57 57 21 3d
       -0.051316466 0.0065645827 0.011585292 0.039389934
000010 45 76 55 bd 65 4f 3e bd 98 3b c6 38 bd 0b 82 bc
       -0.052114744 -0.046462435 9.452476e-05 -0.015874738
000020 47 d5 12 3d 39 8b 99 bc 4b 99 bf bd f1 c9 68 3d
       0.03584793 -0.018743144 -0.0935541 0.05683321
000030 8d c2 96 bd 92 02 7c bc 00 e6 64 bb dd fd e8 3c
       -0.07361326 -0.015381472 -0.003492713 0.028441364
000040 5e 26 b4 bd 18 e0 b2 bd 78 f1 cf 3c e5 c8 9d bd
       -0.087963805 -0.08734149 0.025383696 -0.07704333
000050 22 f3 0b 3c 42 8c 10 bc 30 4a bd bd 0e 1f d4 3d
       0.008541854 -0.008822503 -0.09242666 0.10357486
000060 46 03 02 bd f2 67 7f be 05 02 b6 bd 83 98 cc 3c
       -0.031741403 -0.24941996 -0.08887104 0.024975067
000070 16 5e 4d bc 8f b2 4b 3b 31 86 99 bd cf ce 16 bd
       -0.012534639 0.003108177 -0.07496298 -0.03681832
000080 7c ca 2f bd d6 ba 01 3d 3c e7 88 3d fd f1 22 bd
       -0.042917714 0.03167232 0.066847295 -0.03978156
000090 4b 7d 83 bd 65 f0 28 be bf ef 17 bd c5 33 89 3c
       -0.06420382 -0.16497953 -0.037093874 0.016748318
0000a0 d9 39 3c 3c ca b5 79 bd c9 fc 25 bd 9e fc ca 3d
       0.011488401 -0.060964383 -0.040524278 0.09911464
0000b0 cf 6c a9 bc 8e a3 1c bd f7 c5 ed 3c e3 fd 2f bb
       -0.020681767 -0.038241915 0.029025061 -0.002685421
0000c0 67 7f 30 be 8c e8 b1 3c d4 fa b1 bb b1 27 9a 3d
       -0.172361 0.021717332 -0.0054315124 0.07527102
0000d0 8b e6 f3 3c 47 5e 33 bb 83 f4 e6 3d 66 2c dd 3c
       0.029773017 -0.0027369426 0.11277106 0.02699871
0000e0 9b a1 cf bc b5 e5 2d bd c6 74 25 be 8b 4d 28 be
       -0.025345614 -0.042455394 -0.16157827 -0.1643583
0000f0 f0 30 a3 3b bb c3 e5 bc 05 97 6d bd 6d 0b a5 bc
       0.004980199 -0.028047433 -0.05800535 -0.02014705
000100 79 13 ae bd 34 df a5 3d 37 b1 5c 3c 63 ce 0a 3c
       -0.08499808 0.08099213 0.013469986 0.008472058
000110 cc 98 2f be cc 96 6c 3d 41 5c a6 bd 44 d2 f4 3c
       -0.17148131 0.057761 -0.08123065 0.029885419
000120 c3 7f cd bc 66 1a a0 3d 71 06 f2 bd 4a 0c 3d 3d
       -0.025085336 0.07817535 -0.11817635 0.046154298
000130 72 e2 d1 3d 02 45 22 bd c5 ff bc 3d 48 62 b3 bd
       0.10248269 -0.039616592 0.09228472 -0.0875898
000140 fe 01 3c bd 35 23 cb bd 79 d8 14 3d e3 04 e1 bc
       -0.045900337 -0.099188246 0.036339257 -0.02746815
000150 7f 55 4e 3d 61 df 8a bd 41 0e d9 bc 6f b0 a1 3c
       0.050374504 -0.067808874 -0.026496055 0.01973745
000160 7e 9b a3 3d ad d4 60 be 59 ba d3 3c 17 5b 97 bd
       0.07988642 -0.2195613 0.025845693 -0.07390421
000170 be 73 14 3d 34 1f d4 bd ef 99 73 be ab c8 b6 be
       0.036243193 -0.10357514 -0.2378919 -0.35699973
000180 f9 b8 80 3d c8 dd 0e bd 90 da e2 bc 7b 9e 7a bd
       0.06285281 -0.034879476 -0.02769211 -0.061186295
000190 76 33 46 bd 6a 47 2a 3d 31 88 e6 3d cb 29 41 3d
       -0.04838892 0.041572012 0.11256445 0.047158998
0001a0 43 56 97 be 95 b4 c9 bd 66 af 51 3c 48 f4 0a bd
       -0.29558 -0.098488964 0.012798166 -0.03392437
0001b0 6c 55 1c bc 91 1b c5 bc b9 b1 8c bd cb d3 27 be
       -0.009541851 -0.024060996 -0.068698354 -0.16389386
0001c0 e7 d3 e6 bd fa 3c 82 3c 57 04 50 3d 58 61 5c bd
       -0.11270886 0.015898217 0.05078539 -0.05380377
0001d0 6a bb 66 bd 9c 51 a3 3b 17 84 44 be 60 50 55 3d
       -0.056331076 0.004984094 -0.19191013 0.052078605
0001e0 1c cd 76 3d 97 fd 1b 3c a4 46 c6 be 75 b0 db bc
       0.0602542 0.00952091 -0.3872577 -0.02681754
0001f0 d3 2b b6 3d 28 cb 94 bd 38 be 89 bc a9 51 8c bc
       0.088950776 -0.072653115 -0.016814336 -0.017128782
000200 8a 02 84 bc 02 eb 02 bc ac 21 cc 3b 78 0e cb bc
       -0.016114492 -0.007990601 0.0062296 -0.024787173
000210 cc f2 05 bc a2 84 b2 bd 38 e2 f8 bd 2d a8 fd 3c
       -0.008175563 -0.08716704 -0.12152523 0.030963982
000220 a4 89 81 bc 5e 8f 41 3d 0f f9 87 3d 0b 82 07 3c
       -0.015812702 0.047255866 0.06639301 0.008270751
000230 75 4c 98 3d 55 f5 9e 3b ce fa 98 3c 24 d0 ab bb
       0.07436458 0.004851023 0.01867428 -0.005243318
000240 fc 7c 1c bd fa db 5b bc 65 0e e2 bd c1 0c 0b 3d
       -0.038205132 -0.013419146 -0.11037902 0.03394771
000250 49 94 81 3c 7f 4b 48 3d 40 cd e8 bd 6e cc de bc
       0.015817778 0.048900124 -0.11367273 -0.027197089
000260 71 c0 cd bd bf c7 04 ba 98 46 4c bd 9c 29 fc bc
       -0.10046471 -0.0005065165 -0.04987201 -0.03078156
000270 9d 6f 90 3d 0c f1 fa bb a4 40 78 3d 74 da 19 be
       0.070525385 -0.0076581296 0.06060852 -0.1502474
000280 9f 63 68 bd 5b 78 20 bd c5 a3 26 3d 1d 1d 01 be
       -0.05673563 -0.03917728 0.040683527 -0.12608762
000290 e1 7b a0 bd f9 7d dd bd 4d 65 94 bd d4 16 6e 3d
       -0.07836128 -0.10815043 -0.07245884 0.05812724
0002a0 91 6f 4a bd e4 f0 6f be d3 5d 50 bd 98 12 0e 3d
       -0.049422804 -0.23431736 -0.050870728 0.0346857
0002b0 b8 90 8e bd db b3 32 3d 98 2c 1b bd 7b df 7f bd
       -0.06961197 0.043628555 -0.037884325 -0.062468987
0002c0 29 53 fe bc 38 f5 52 be b4 78 00 3d 86 65 f4 3c
       -0.031045513 -0.20601356 0.03136511 0.029833566
0002d0 6e c5 9e bd e6 e8 3c bd 33 91 2a bc 20 c3 02 be
       -0.077525005 -0.046120547 -0.010410595 -0.12769747
0002e0 ba d4 d4 3d 44 8c 31 bd 9e 32 b1 bc 99 fa 1a bd
       0.10392137 -0.04334666 -0.021630581 -0.037836645
0002f0 23 44 28 3c 48 21 b3 bc 8b 4d 0a be 60 7c ec bc
       0.010270151 -0.021866456 -0.13506143 -0.0288679
000300 af 17 e4 3c b5 8d aa 3d 6c 34 25 be 18 a7 24 be
       0.027843324 0.0832781 -0.16133279 -0.16079366
000310 8e b7 8f bc a6 ba 9a bd 79 50 22 bc 26 69 d0 bc
       -0.01754358 -0.075551316 -0.0099068815 -0.025440764
000320 c3 af ce 3c 40 87 ca bd 58 24 77 bd 01 2d 4a 3d
       0.025230294 -0.09889078 -0.060337394 0.049359325
000330 fe b7 97 3c a0 a9 2d 3d 93 61 77 bd 81 51 5d be
       0.018520351 0.042398095 -0.06039579 -0.21613123
000340 07 12 e0 bd f8 f5 02 bd b9 3b 94 bc ba 38 0f 3c
       -0.109409384 -0.031972855 -0.018094884 0.008741552
000350 53 3d 10 3d da 7c b0 ba a5 31 ae bd 03 71 21 3c
       0.035214733 -0.0013464943 -0.08505563 0.009853604
000360 92 58 bc be b9 12 ae bd 5c ce 90 be 3a a5 bb bd
       -0.36786324 -0.08499665 -0.2828244 -0.09162374
000370 ac bb c5 3d ab 9f 8d bd 93 53 c0 3b cc 6a bc bd
       0.09654936 -0.0691522 0.005869338 -0.092000574
000380 25 d4 03 3d a9 c9 27 be f9 05 0e bc 3b ec 5b 3d
       0.03218474 -0.16385521 -0.008668416 0.053692084
000390 f5 65 c8 bd d0 1b 55 bc 89 e7 97 3d 2b 3d bb bc
       -0.09785072 -0.013007119 0.07417209 -0.022856316
0003a0 43 dd af bd 5f af 07 3d 74 58 ab bc 2e fe 0b 3d
       -0.08587124 0.03312623 -0.020916201 0.03417795
0003b0 b1 f9 ae 3c ed ce 10 be 50 06 0d 3e e8 d9 90 3d
       0.021359297 -0.14141436 0.1377194 0.07072812
0003c0 6a d2 b9 3d ef 53 ac bc a4 5d de bd 3d 81 1e 3b
       0.090733364 -0.021036116 -0.10857704 0.0024185919
0003d0 f6 96 8a bd e2 a3 3f bb 97 b6 25 3c c0 20 57 be
       -0.06767075 -0.002924197 0.010114334 -0.21008587
0003e0 a0 6d 78 3d f7 23 bb bd d4 c2 18 bd 3e f5 24 bc
       0.06065142 -0.09137719 -0.037295178 -0.010068236
0003f0 bf 22 07 3c db a7 e1 3c 5f ec 34 bc 69 93 24 bd
       0.00824803 0.02754586 -0.011042683 -0.040179644

fc.bias f4 [11]
000000 73 ac 41 3d ab 85 8b be a5 56 c6 be c2 78 4d bd
       0.0472836 -0.27250418 -0.3873798 -0.05016399
000010 46 4e 82 be ae e8 f1 bd 3a b3 48 be 97 4a 85 be
       -0.25450343 -0.11811958 -0.1959962 -0.2603347
000020 b9 14 e7 be 1b 36 96 3e 84 b1 de bb
       -0.45132998 0.29338154 -0.006796064
