src/main/python/saved_models/javascript_1_28_CNNClassifier1_128embs_130id_32hd_0hl_Falsebid5kernel0.3dropout_1.pt (torch, 537419 bytes, 9 tensors)

emb.weight f4 [130, 128]
000000 78 1d af 3e e3 f4 6f 3f ff 7d 7e bf 86 1e 2e 3f
       0.3420217 0.9373304 -0.99411005 0.68015325
000010 17 cf 8d bf 99 f4 03 3f b3 cf e7 bf 60 40 de bf
       -1.1078824 0.515451 -1.811026 -1.7363396
000020 7f 0f 26 3f f1 ff 41 bf df 35 a5 be dd ac 0e be
       0.64867395 -0.7578116 -0.32267663 -0.1393313
000030 86 16 aa 3e 32 92 c0 3f 42 7f cd bf 31 45 60 bf
       0.3322031 1.5044615 -1.6054461 -0.8760558
000040 92 07 38 3f 5b 00 d2 3d 2d be 59 bf 97 ad 97 be
       0.7188655 0.10253974 -0.8505581 -0.29624626
000050 e8 80 e0 3f d0 f9 03 be 96 06 c6 bf 26 76 83 3f
       1.7539339 -0.12888265 -1.547076 1.0270431
000060 25 9c 19 bf e5 eb 32 3f 99 3a 95 3b d6 7e 91 bd
       -0.6000388 0.69891196 0.0045541045 -0.0710427
000070 81 68 f1 bf b0 1e 2e 3f 83 48 e4 be 8e 0c ab 3f
       -1.8860017 0.68015575 -0.44586572 1.3363206
000080 67 a8 17 bd f7 eb e1 3f ff 94 27 bf 4f 7e 53 3e
       -0.037025835 1.7650136 -0.65461725 0.20653652
000090 35 a6 9e 3f 3f 57 06 40 50 27 8d bf f3 11 64 3f
       1.2394472 2.099075 -1.1027622 0.8908989
0000a0 21 89 b6 3f f0 86 5f bd 72 1b 9a 3f 01 72 c0 3f
       1.4260598 -0.054572046 1.2039626 1.5034791
0000b0 be 01 cf be bf 87 bd bf cd 5a 31 3f 12 c3 0d 3f
       -0.40431017 -1.4807051 0.69279176 0.5537578
0000c0 52 6a 01 bf 24 cc 4a bf 00 33 57 bf 54 fe ae be
       -0.50552857 -0.79217744 -0.84062195 -0.34178412
0000d0 3a 6d 66 3f 08 55 b5 3e 78 e2 0e 3f a9 ed ba 3f
       0.90010417 0.35416436 0.55814314 1.4603778
0000e0 52 3f be 3f 3c ef ee be 5a 5a a6 3e fe 55 fc be
       1.4863074 -0.46666896 0.32490808 -0.49284357
0000f0 5a c0 be bc 2b 69 2c be 1f 8c a9 3d ef 36 1d 3f
       -0.02328508 -0.16836993 0.08278679 0.61411947
000100 12 c8 39 3f f7 cf 7d 3f da 16 da 3f 01 58 cf 3e
       0.7257091 0.99145454 1.7038224 0.4049683
000110 3e 17 38 3f c1 62 c9 3d 35 95 6d be 17 18 99 3f
       0.71910465 0.09833289 -0.23201449 1.1960477
000120 11 8b ba 3e 43 ba 43 3f 4c 45 ce 3e 2c 9b 4e 3e
       0.36434224 0.7645609 0.40287244 0.20176381
000130 44 7b 94 bf 77 5a 90 be f7 e8 13 bf 86 02 de bc
       -1.1600118 -0.2819402 -0.5777735 -0.027100813
000140 70 1c 81 bc 7f d0 bc 3e ce 6b 86 bf 5d 25 28 bf
       -0.01576063 0.3687782 -1.0501649 -0.6568201
000150 76 e2 4d 3f 71 c9 8c be fe 62 f4 bf 97 d3 8a 3f
       0.80423677 -0.27497438 -1.909271 1.0845822
000160 ef 33 63 bf b5 92 fe 3e 05 1e a8 3f 9f c2 e5 bf
       -0.8875112 0.49721304 1.3134161 -1.7950019
000170 d0 14 41 3f fe e1 a1 3f 15 ef d0 be e1 56 1d 40
       0.7542238 1.2647092 -0.40807405 2.4584277
000180 0f ce 3b bf 7c a4 db 3e c6 33 98 be a0 28 52 bf
       -0.73361295 0.4289893 -0.29727 -0.8209324
000190 b4 b1 a2 3e 21 60 95 bd bd a7 b9 be 07 50 51 bf
       0.31776202 -0.07293726 -0.36260787 -0.8176274
0001a0 89 51 2d bf 04 90 98 bf 3c 92 6e bf 12 3e 56 3f
       -0.6770254 -1.191895 -0.93191886 0.8368846
0001b0 f6 60 48 3f 88 76 90 3b a4 30 92 3e 3b 3d 40 bd
       0.7827295 0.0044086613 0.28552735 -0.046933394
0001c0 2e 49 2c bf 3b f2 01 bf d3 70 0d be 94 c2 57 bf
       -0.67299163 -0.5076024 -0.1381257 -0.8428128
0001d0 41 10 bb bd 35 79 1c 3f d0 88 ff be 5c a8 6e bf
       -0.091339596 0.6112245 -0.49909067 -0.93225646
0001e0 6f 92 b8 3f 85 ae 54 3e a2 e5 cf bd de 90 8c bf
       1.4419688 0.20769699 -0.10151221 -1.098171
0001f0 78 64 ee bf 17 c6 80 bf 59 7c 78 3f 2e 83 34 bf
       -1.8624411 -1.0060452 0.9706474 -0.70512664
000200 36 1d 7e 3f d6 28 d4 bf d6 91 15 3f 1d 41 a1 3e
       0.9926332 -1.6574962 0.58425653 0.3149499
000210 79 86 32 3e 34 34 e3 3f ca 2c 1c bf b6 8f b4 3e
       0.1743411 1.7750306 -0.6100584 0.35265893
000220 51 b4 df 3f af 6b 0c bf b4 0c ca 3e d0 86 de 3f
       1.7476903 -0.5485181 0.39462817 1.7384892
000230 5e c1 bc 3f 44 9d 14 3f 77 49 48 3f ac 86 f2 3e
       1.4746511 0.5805247 0.782371 0.4736837
000240 ee 91 47 bf dd 60 36 3f 3b 75 0d 3f 4a 51 11 40
       -0.77957046 0.7124155 0.55257004 2.2705865
000250 a0 91 d8 be ed 76 84 3e 12 e8 e0 be eb 1d d1 3f
       -0.42298603 0.25871983 -0.43927056 1.6337255
000260 4f 9b 12 bf bc 3c c0 bf cf 43 e5 be 63 45 a3 bf
       -0.5726823 -1.5018535 -0.44778296 -1.275555
000270 30 73 34 3f 89 39 89 3f 7a 65 47 3f da d0 7f bf
       0.7048826 1.0720683 0.77889216 -0.9992806
000280 41 dd b4 bf 2f 39 76 bf f2 bf 4e bf 84 56 88 3f
       -1.4130021 -0.96181005 -0.80761635 1.0651402
000290 69 04 9d be 4e af c1 3f 41 24 74 bd b8 8a f1 3e
       -0.30667427 1.5131624 -0.059604887 0.47176147
0002a0 9c b3 65 3e ac 0e de 3f b2 85 0e bd fd 18 99 be
       0.22431797 1.7348228 -0.03479547 -0.29901877
0002b0 94 38 01 40 42 3b c8 3e 89 c7 f7 be ab c9 ca 3e
       2.0190783 0.3910771 -0.4839442 0.39606985
0002c0 2a 02 2a bf 78 a2 85 3e 25 e3 3b 3e 1e 23 ce 3e
       -0.6640955 0.26100516 0.18348368 0.40261167
0002d0 ea d9 23 bf 31 24 d1 be e7 6f 1f bf 61 94 a7 3f
       -0.64004385 -0.40847924 -0.62280124 1.3092157
0002e0 52 2d 9e 3e 7b a0 3a 3f e4 74 a1 bd b0 55 8d 3e
       0.30893952 0.72901124 -0.07883623 0.27604437
0002f0 f4 6f 03 3f b0 aa e9 be 5f eb 5d 3e 69 d1 18 3e
       0.513427 -0.45638037 0.21671818 0.14923634
000300 c4 0a 2e bf 34 c0 be bf 66 29 6b bf 5d 50 24 bf
       -0.6798518 -1.4902406 -0.91860044 -0.64185125
000310 53 c9 ec 3e 43 89 64 3f a1 2d f0 be 00 da 5d 3f
       0.46247348 0.89271945 -0.46909812 0.86660767
000320 b8 03 29 bf 94 de 6f bf b1 da f4 be c1 1f dc be
       -0.660213 -0.93699 -0.47823098 -0.42992976
000330 89 e8 1a 3f a1 91 00 40 46 e8 25 bf 38 c2 97 3f
       0.6051107 2.0088885 -0.64807546 1.1856146
000340 66 ea a0 3e 38 95 98 3f 89 b2 52 3f c4 dc 9e 3f
       0.31428832 1.1920538 0.82303673 1.2411122
000350 95 90 13 c0 b5 8a ac bf b7 e9 37 3f 99 80 e8 bf
       -2.3056996 -1.347983 0.71840996 -1.8164245
000360 e2 e6 1a 3f 25 9b d0 3e e3 19 c8 bd 6c 11 54 3f
       0.6050855 0.40743366 -0.097705625 0.82839084
000370 d7 be b4 be 56 c7 81 bf 3b 74 98 3f d1 f1 1b c0
       -0.3530185 -1.0138958 1.1910471 -2.4366343
000380 d4 0f d9 be 40 93 8e bf b1 e7 58 bf 52 11 a7 3e
       -0.42394888 -1.1138687 -0.84728533 0.32630402
000390 af 2f 00 3f 42 d3 b2 3f 7f fc b0 3f 15 a4 27 3e
       0.5007276 1.3970721 1.3827056 0.16371186
0003a0 a4 57 f4 3e b1 71 0f bf d8 85 b2 3f 6a 1a bd 3f
       0.47723114 -0.56032854 1.3947096 1.4773686
0003b0 ad b4 28 3f 4e 6f b7 be 4b 0c 96 3f 54 2d 40 3f
       0.6590069 -0.35827106 1.1722502 0.75069165
0003c0 a2 64 7b be 9e da 72 be 77 ee 4d 3f 4c 2f 05 bf
       -0.24550107 -0.23716208 0.80441993 -0.52025294
0003d0 db 0c b4 bf bc f4 d3 3e 2c f7 75 be 92 6a bf be
       -1.4066423 0.41397655 -0.2402007 -0.37385994
0003e0 f9 51 da be 94 00 96 bf 57 ed 94 3e 88 b3 68 bf
       -0.42640665 -1.1718926 0.29087326 -0.9089894
0003f0 21 dd b8 bf 85 92 9f 3f 86 74 5b bf dc e6 30 bf
       -1.4442483 1.2466589 -0.85724676 -0.69102263

conv1.weight f4 [32, 128, 5]
000000 94 df fb 3c f3 18 ac bd bd e5 df bc ad 5b 1a be
       0.030746259 -0.08403196 -0.027331227 -0.15074034
000010 76 2e 1b 3d 5c 1c 9d bd 9a 0c 31 3e 4d 89 7c 3d
       0.037886105 -0.07671425 0.17289963 0.061654378
000020 0e 65 77 bd c7 1d 4b be 39 33 9d bc ba 16 41 3c
       -0.060399108 -0.19835578 -0.019189464 0.011785204
000030 14 c4 f9 bc 30 8a 06 3d c2 b5 4a be a1 ce 85 3d
       -0.030489005 0.03284663 -0.19795898 0.06533552
000040 0c ee 06 3d a0 74 bc bb 8b 45 ba bb 58 bf 77 bc
       0.032941863 -0.0057512075 -0.0056845597 -0.0151213035
000050 21 9a 84 3d 51 c0 cf bb f7 c8 b2 bc cd af 93 3d
       0.0647471 -0.0063400646 -0.021824343 0.07211266
000060 d0 e4 96 bc 6f d2 69 3e 5f 84 bf 3e 98 f1 81 3e
       -0.018419653 0.2283418 0.3740568 0.25379634
000070 41 96 48 3e fd 3a 20 3e ae 93 8e 3e 4d b7 3d be
       0.19588567 0.15647502 0.27847046 -0.18526955
000080 22 56 81 3c a7 4c e2 bd 0c f8 45 3d b8 7a a9 3d
       0.015788142 -0.110497765 0.04833226 0.0827536
000090 e8 e4 8b 3c ab 68 95 bd 99 ba f6 bd 3f 80 cf bc
       0.017076924 -0.072953545 -0.120473094 -0.025329707
0000a0 87 18 05 bd e8 e7 3a 3e 6b be e4 3c e1 0a 04 3e
       -0.032494094 0.18252528 0.02792283 0.12894775
0000b0 ce 06 31 3e bd 03 75 3e 8a 59 32 be e0 2d 2f 3e
       0.17287752 0.23927207 -0.17416969 0.17107344
0000c0 dc 41 9e bd 3b cc 77 bd 47 95 f7 3d a4 b8 c0 bc
       -0.077274054 -0.060497504 0.12089019 -0.023525544
0000d0 12 0d 7f be 79 e1 c2 bd e5 c1 c5 bd ce e9 9a 3e
       -0.2490733 -0.09515662 -0.09656123 0.30256504
0000e0 01 c4 ad 3d c5 57 24 3e f3 b0 4f 3b ca bd 73 3e
       0.084846504 0.16049106 0.0031691163 0.23802868
0000f0 e8 f4 6b bd 17 f5 e3 bc 86 05 01 3e 57 3c 14 be
       -0.057606608 -0.027826829 0.12599763 -0.14476143
000100 dc da e5 3b b5 9c 46 be 4e fc 2a bd 93 26 4d be
       0.0070146155 -0.19395716 -0.041744523 -0.20034246
000110 f1 20 a6 bd 31 78 28 be 65 ff 32 bd ac 90 da 3d
       -0.08111752 -0.164521 -0.043700594 0.10672125
000120 e0 2e 64 be f4 cf b7 bd 2f 77 59 be 2e 8f 29 3d
       -0.22283506 -0.08975211 -0.21236871 0.041396312
000130 cf 1c e0 bd 71 e8 bc bd c7 38 07 be 42 ea ac bc
       -0.10942995 -0.09224022 -0.13205253 -0.021107797
000140 9a 98 a6 3d 22 f5 14 3e 2e 76 a6 3c 87 cf 93 3b
       0.08134575 0.14546636 0.020320024 0.004510823
000150 40 1d ad 3d 58 55 6e be 87 2e c8 3d 14 50 20 3e
       0.084528446 -0.23274744 0.097744994 0.15655547
000160 8b 2c 84 bc 0f e3 14 3e de 67 63 3d 04 42 82 bd
       -0.016134521 0.14539741 0.055518977 -0.06360248
000170 c8 b7 3d 3e 3d 67 a8 3d 7a 2a 02 3e ca 86 62 3e
       0.18527138 0.08222816 0.12711516 0.2212173
000180 ce 4c ad 3d 5a d2 a2 3d 79 0b 7d 3d 58 30 d3 3d
       0.08461915 0.079502776 0.06177852 0.10311955
000190 a7 e3 01 be 36 bd 33 be 46 53 e6 bd 19 dd a0 3d
       -0.12684499 -0.17552647 -0.11246352 0.07854671
0001a0 44 3e 37 bd 9f 45 22 3e 4a 9e 4f bd a8 22 10 3e
       -0.044737116 0.15846871 -0.050688066 0.1407572
0001b0 89 84 d3 bd 03 87 64 3c 62 ea 18 bd 0f 54 a8 bd
       -0.103280134 0.013948205 -0.0373329 -0.08219158
0001c0 fa ac 6e bd 5d cc ba bd e6 fc 2b 3d 3c 8d 31 be
       -0.058270432 -0.091210105 0.04198923 -0.17339033
0001d0 f4 ea 93 bd b5 19 cf bd 8e a8 f1 3d 3b d7 4f bd
       -0.07222548 -0.10112325 0.117997274 -0.05074237
0001e0 f5 0e b1 3d c3 76 61 bd d0 4d a0 3d d6 e2 9e 3d
       0.08645431 -0.0550449 0.078273416 0.07758109
0001f0 c7 d1 dd 3d 10 22 77 bd ee 9c fe bd b5 5f d3 3d
       0.108310275 -0.06033522 -0.12432276 0.10320989
000200 ef 61 6f bd b0 d1 b7 bd bc d1 70 bd 2e c2 96 3e
       -0.058443006 -0.089755416 -0.05879377 0.29445022
000210 2f 06 b3 bd 31 d1 03 bb 39 98 a5 3d c6 fb a4 3c
       -0.08741414 -0.0020113701 0.08085675 0.020139586
000220 61 98 7a bd bc de 1e bd e2 67 88 3d 04 e1 87 3d
       -0.061180476 -0.038786635 0.06660439 0.06634715
000230 67 61 58 be a6 4c d6 bd 65 fe 69 be 75 99 16 be
       -0.21130906 -0.10463838 -0.2285095 -0.14706977
000240 16 f4 ef 3c 71 1b 4e 3d 9e 01 25 be 2a 0e 10 be
       0.029291194 0.05031914 -0.16113898 -0.14067903
000250 59 6b a9 3d 00 36 b7 bd 04 3f d5 be 62 89 8a 3c
       0.08272428 -0.089458466 -0.4164964 0.016911212
000260 78 2e 31 be 1d 47 28 bd 8c 5f 45 bd d6 98 3d 3e
       -0.17302883 -0.041083444 -0.048186824 0.18515334
000270 68 d8 30 3e 6c 1f 09 3e aa 11 3f 3e 04 ed ca bd
       0.17270052 0.13390893 0.18659082 -0.099084884
000280 4f 7b dc bd 1e 60 8c bd 85 11 b6 bd b9 e5 02 3e
       -0.10765707 -0.068542704 -0.0889006 0.12782945
000290 c5 f4 a2 3d e9 70 9d 3d dd 0a 28 bd 00 59 8b bd
       0.07956842 0.076875515 -0.041025985 -0.06804085
0002a0 c5 1e 1e 3e 1c eb 99 be 6f e2 b4 3d 14 29 d6 3d
       0.15441425 -0.30062187 0.08832251 0.10457054
0002b0 b9 d2 5c 3d ab f4 8e 3d e6 69 35 be ac d4 0d 3e
       0.0539119 0.069802605 -0.17716178 0.13850659
0002c0 06 9e 75 3c 07 b7 5f 3d 9e 5a 96 3c 77 74 20 3d
       0.014991289 0.054617908 0.018353757 0.03917357
0002d0 9b 95 70 be 5a 8c 15 3e 4f c4 65 3d f5 0e 4d 3b
       -0.2349457 0.14604321 0.056095418 0.0031289433
0002e0 57 c3 d0 bd f5 c1 2e 3e c2 66 7b 3d 5b 22 ad 3d
       -0.10193508 0.17066176 0.061377294 0.084538184
0002f0 92 90 07 3e 23 d4 a4 bd 3f c8 96 3c ac ae b5 3d
       0.13238743 -0.08048274 0.018406032 0.08871207
000300 ae 89 ea 3d 43 0d 31 3c 37 bd 20 be ef e6 a7 be
       0.114520416 0.0108063845 -0.1569718 -0.32793376
000310 d2 35 00 be 7b 15 1a be fb d9 a4 bd bb 16 ef bd
       -0.12520531 -0.15047257 -0.08049389 -0.11674257
000320 66 bf 73 be a6 26 c5 bd 15 49 2d bd 2c c2 20 be
       -0.23803481 -0.09626512 -0.042306025 -0.1569907
000330 9d c7 b8 bd 6e bb fb 3c 4b 30 98 3d 61 57 6f bd
       -0.09022448 0.030729022 0.07431086 -0.05843294
000340 cb cb 9c 3c 6f e7 be 3c 19 f7 25 bc b9 68 9a 3d
       0.019140145 0.023303716 -0.010129713 0.075395055
000350 76 f3 73 3d d9 ec c7 bd db 25 ba bd 31 b9 3e 3e
       0.059558354 -0.09761972 -0.090892516 0.18625332
000360 7c ad db bd 0c 3d 04 be 2e 19 27 be 1e f9 fc 3d
       -0.10726449 -0.12913913 -0.16318199 0.12352203
000370 f0 3d d1 3c 8e 8e a8 bc 84 d8 88 bd 9c 58 28 bd
       0.02554223 -0.020575788 -0.06681922 -0.04110013
000380 1f 17 ac 3c c1 cc b6 3d 32 ed a8 3b b0 45 72 be
       0.021007119 0.089257725 0.005155229 -0.23659396
000390 fd a4 25 bd 9d 01 c2 bd 0d 3a ec bd b7 32 94 bd
       -0.04044055 -0.09472964 -0.1153451 -0.072362356
0003a0 a2 08 1a 3e 89 84 80 bd c3 8a be bd 18 df d0 bd
       0.15042356 -0.06275279 -0.093038104 -0.10198802
0003b0 5d ec d4 bc 7f b5 92 3d 5d f0 c9 bd d2 25 45 3e
       -0.025991613 0.07163524 -0.09860299 0.19252709
0003c0 12 e9 63 3d 67 1a 4b 3d 6b 5c be 3b d5 2d c0 3d
       0.055642195 0.049585726 0.005809357 0.09383742
0003d0 6a 46 26 be 6d a5 88 3e cc 24 60 bc 99 69 d0 bd
       -0.16237798 0.2668871 -0.013680648 -0.10176391
0003e0 e4 db 24 be 14 f7 dc bb 87 a6 72 3e b4 61 45 3d
       -0.16099507 -0.006743321 0.23696338 0.04818888
0003f0 d4 aa 68 3d f9 3e 10 be 15 6a b8 bd 82 7c f2 3d
       0.05680354 -0.14086522 -0.090046085 0.11840154

conv1.bias f4 [32]
000000 77 db 09 be 3b 2c f5 bd 74 43 96 bd f1 5b cd bd
       -0.13462625 -0.11971327 -0.073370844 -0.10027302
000010 e5 4c 6b be 7b 9f 13 be b7 b8 ad bd ff a2 fb bd
       -0.22978552 -0.14416306 -0.08482497 -0.122869484
000020 33 26 83 3d 3b 53 81 3d c9 bf 92 3c 79 a1 86 be
       0.0640377 0.06314703 0.017913716 -0.2629507
000030 48 b1 36 be b3 0c 63 bd ab d2 1c be 67 b0 52 be
       -0.17841065 -0.055432033 -0.15314738 -0.20575105
000040 7d 23 07 bd 54 f1 f0 bd 54 0d 8e be 68 61 8b be
       -0.03299283 -0.1176478 -0.27744544 -0.27222753
000050 e9 18 7a be 5d 45 23 be 8c c7 40 be ca 80 31 be
       -0.24423565 -0.15944429 -0.18826121 -0.17334285
000060 3e 71 28 be 08 5e 35 be 54 ab ea bd ad 6c 00 be
       -0.16449448 -0.17711651 -0.114584595 -0.12541457
000070 2b a7 20 3c 26 07 29 be 99 4a 1f be 5c 27 bb bc
       0.009805481 -0.16506633 -0.155558 -0.022845916

conv2.weight f4 [32, 128, 3]
000000 5d a0 56 be 20 8a 54 be 7c 4b 90 3d 46 75 4d bd
       -0.20959611 -0.20755816 0.070456475 -0.05016067
000010 1d 9f 92 3c 77 09 ea 3c 62 35 9f 3d 72 da 65 3e
       0.017898137 0.028568966 0.07773854 0.22446612
000020 c8 ca 9a 3c 6c fd b5 3d 92 27 61 be 3f 22 bd 3c
       0.018895522 0.08886227 -0.21987751 0.023087619
000030 d5 38 2e be ff d0 c5 3c 28 57 36 3d ca a5 9b 3d
       -0.17013867 0.024147509 0.044516712 0.07599981
000040 a1 f0 2f bd bc 3a be bd 0d 90 f4 bd c5 3a 5e 3e
       -0.04295409 -0.092885464 -0.11941538 0.21702106
000050 57 fc b8 bd cd 1e c9 bd 4e f3 2d 3d 21 bf 9d 3b
       -0.09032505 -0.09820328 0.04246836 0.004814044
000060 c6 2f a9 3e 4c c8 0c 3e 8a 7e c4 bc 8b ee 8b 3d
       0.3304426 0.13748282 -0.02398612 0.06832608
000070 f5 fd 06 3d b7 35 2c 3e 3a f7 8e 3d ca 1f 32 3e
       0.032957036 0.16817366 0.069807485 0.17394939
000080 7a fb 78 bd 6e 1d 8d 3d 0d 52 a5 3e d3 7b 18 bd
       -0.0607867 0.06890379 0.32289162 -0.037227463
000090 9d 9a 06 be 67 b5 08 be d3 64 01 3e 5f 33 ef bc
       -0.13144918 -0.1335045 0.12636118 -0.0291993
0000a0 9d 6f 6e be 5f 15 20 3e 1b 16 a9 3d 8e 32 21 3d
       -0.23284765 0.15633152 0.082561694 0.039354853
0000b0 f0 8f 1c 3d 86 2c 7b bd 25 db a4 bd 4a d2 c2 bd
       0.038223207 -0.061321758 -0.08049611 -0.09512766
0000c0 18 4f ad be d7 cd 81 bd 6d 30 30 3d bb 38 44 bd
       -0.33849406 -0.06338089 0.043014932 -0.047905665
0000d0 e2 39 d4 be 52 3d ff bd 4c e3 1b 3e 35 82 80 be
       -0.4145041 -0.12462868 0.15223426 -0.2509934
0000e0 7f d9 a8 3d 13 38 a6 bd 98 e6 b8 bd 35 3f 5d 3c
       0.08244609 -0.08116164 -0.09028357 0.013503839
0000f0 0a 5f 2c 3d 46 07 f5 3d 75 85 8a 3d 0e 03 8e bd
       0.042082824 0.11964278 0.06763736 -0.069341764
000100 3f 4c 8e bc 85 51 8d 3d 2e dc 3e 3e 3d 84 a2 3d
       -0.017370341 0.06900314 0.1863868 0.07935379
000110 a8 25 04 bd cc a6 bc 3d 8a fa 64 be f1 c4 b3 bd
       -0.032262474 0.092115015 -0.22361198 -0.08777798
000120 fe 62 23 3d 75 97 9b bd 76 93 0a 3e ef db 7d bc
       0.03988933 -0.075972475 0.13532814 -0.015494331
000130 17 30 1d be 50 a0 7a 3e 74 92 58 bd 97 99 31 be
       -0.15350376 0.24475217 -0.052874044 -0.17343746
000140 5e 16 1a 3e 25 68 6d bd 8a 79 69 be 70 bb 1e be
       0.15047595 -0.057960648 -0.2280027 -0.15501189
000150 50 4c d7 bd 6a 38 ea bc fc e3 2f 3c 6b 58 2b 3e
       -0.10512602 -0.028591353 0.010735508 0.16732948
000160 71 88 c5 bc d0 ad 02 bd 51 db 6c be 3a 81 a0 3d
       -0.024112912 -0.03190404 -0.23130538 0.07837148
000170 e6 bc 53 3c e5 36 85 3e 2f e8 99 3d 7e 73 50 3e
       0.012923455 0.26018444 0.07514989 0.20356557
000180 ea ea 61 3d 17 07 83 bd 50 21 0a bc 2f bf 93 3d
       0.055155672 -0.06397837 -0.008430794 0.072142
000190 a5 83 0a be b9 3b 26 3c b2 a5 9d 3d 2d 38 3d 3e
       -0.13526781 0.010146075 0.076976195 0.1847846
0001a0 6f da 36 3d 38 e8 7e bd 08 fd 11 3e 9b 43 51 3e
       0.04464191 -0.06223318 0.1425668 0.20435946
0001b0 ea 05 c0 bd 74 26 14 be a5 e1 49 3d 78 7d 51 ba
       -0.09376128 -0.14467794 0.049287457 -0.00079914136
0001c0 d9 2e 0f be 35 57 87 3d d6 ed 39 3d dc 55 14 3d
       -0.13982715 0.0660843 0.045392834 0.036214694
0001d0 73 49 e0 3b 8b 40 00 3e f1 44 00 be 8c 9f 58 bc
       0.0068446933 0.12524621 -0.12526299 -0.013221633
0001e0 98 82 35 3e 8c e4 f9 3b 6e 7b 66 3d 38 ac 0b 3d
       0.17725599 0.007626122 0.056270055 0.034099787
0001f0 36 85 4f be 56 e9 9f 3c b7 23 ec 3d 96 8b 2f 3d
       -0.2026566 0.019520443 0.115302496 0.04285773
000200 22 89 34 bd 91 75 2f 3d 18 e8 5b 3e e8 13 75 bd
       -0.044076093 0.04283673 0.21475255 -0.059833437
000210 05 3e 2b be 17 eb 6a 3d ae 39 f5 bd 17 a4 ae bd
       -0.16722877 0.057353105 -0.11973892 -0.085273914
000220 77 4a 68 be f7 56 36 3d b4 cb bd bb f5 e2 48 bd
       -0.22684656 0.04451653 -0.0057921056 -0.049044568
000230 cf c0 a1 bd 1b 96 f3 3d 69 9b 92 be 6e 30 17 bb
       -0.078981034 0.11893865 -0.28634194 -0.0023069638
000240 8e 7f d9 3d 70 0c 5a 3e e7 87 73 bd d6 cc d0 bd
       0.10620032 0.21293807 -0.05945578 -0.10195319
000250 bc 12 16 3e 4b 00 a9 3c 63 61 0d be 8f 60 82 3d
       0.14655584 0.020630023 -0.13806681 0.06366073
000260 8e 06 21 bd 19 bd 01 3d 56 a5 0b 3e 5e 3f c6 bc
       -0.03931289 0.03167448 0.1363729 -0.024200138
000270 a2 06 2b be 8a 67 d5 bd be da bf 3c 35 43 20 be
       -0.16701749 -0.10420139 0.023419734 -0.15650637
000280 9d c1 97 bd 0f a9 09 be 71 ce 9e 3e ba a2 03 3e
       -0.07409976 -0.13443397 0.31016877 0.12855044
000290 9b cd 08 be 38 1c 1b 3e 10 24 d4 3b d3 fa ac 3d
       -0.13359682 0.15147483 0.0064740255 0.084462784
0002a0 5e cc 00 be ee 34 b5 bd 99 17 0a bd 09 0b 07 be
       -0.1257796 -0.08847986 -0.03371391 -0.13187803
0002b0 42 01 85 3e aa 62 f6 3a 2f 6f b9 bc c0 37 b8 bd
       0.25977522 0.0018797715 -0.022636024 -0.089950085
0002c0 c0 48 0c bd 29 63 ca bd 59 b1 6c be 07 53 34 bd
       -0.034249067 -0.098821945 -0.23114528 -0.044024494
0002d0 ff 01 1f 3c 73 af df bd a8 5c ec 3c 8a 8a e7 bc
       0.009705066 -0.10922136 0.028852776 -0.028264303
0002e0 5c a9 ec 3d e2 01 23 bd 9e 1d 4c be eb ba 98 3d
       0.1155574 -0.039796717 -0.19933173 0.07457527
0002f0 3a 67 61 bd 03 5f d4 3c fd d7 25 3c f6 a3 84 bd
       -0.055030085 0.025924211 0.010122296 -0.064765856
000300 6d 88 a3 bd 27 d8 f9 bd 51 1b 20 3e ef af 35 3d
       -0.079850055 -0.12199431 0.1563542 0.044357236
000310 21 38 f8 bc b3 96 16 bd 24 91 0b be 01 6d 43 be
       -0.030300202 -0.03676481 -0.13629586 -0.1908455
000320 70 f8 11 3d 23 ac 27 bd 3f 4b 5b bb 58 50 c2 3d
       0.03563732 -0.040935647 -0.0033461598 0.094879806
000330 f2 fc 70 3e 4c 5e 68 3e 7a c3 97 bc 9b 97 cb bc
       0.23533991 0.22692221 -0.018525828 -0.024852565
000340 02 a3 00 be 40 71 fb 3d df 15 3c be a1 e0 a9 3d
       -0.12562183 0.1227746 -0.18367718 0.08294798
000350 63 44 4a be da 1e 81 3e 6e 9c 8b bd 1b 2b fb 3a
       -0.1975265 0.2521885 -0.06816946 0.0019162627
000360 b1 83 f6 3d 77 f8 4b be c0 6f 1a be 12 95 6b 3c
       0.12036837 -0.19919 -0.15081692 0.014378803
000370 19 14 4b bd 56 54 a2 bc ed 38 0b 3c 55 e2 6a be
       -0.049579713 -0.019815605 0.008497459 -0.22937901
000380 91 02 5c bd b2 84 ea bd 4e 61 c7 3e 01 01 a3 3d
       -0.053713385 -0.11451091 0.38941425 0.07959176
000390 04 e9 8f 3d f9 5f 06 3e be d5 95 3c f7 70 74 3e
       0.07026866 0.13122548 0.018290397 0.23871218
0003a0 d7 bf 56 3e e6 45 34 bd 73 4a ac bd 7f 29 b8 bd
       0.20971619 -0.044011973 -0.084126376 -0.0899229
0003b0 fc ec 85 3d c0 29 75 bd 5f bf cb bd 4a fb 9a 3c
       0.06539342 -0.05985427 -0.099486105 0.018918652
0003c0 b3 21 16 3e bb a3 60 be fa f1 05 bc 0b dc 04 be
       0.14661293 -0.21937458 -0.0081753675 -0.12974565
0003d0 8e df 6a 3c 0f ec b6 bd 0b c0 ca 3d 41 67 21 3e
       0.014335526 -0.08931743 0.098999105 0.15762044
0003e0 f9 c0 b2 bc 6a 3b d2 3c 08 73 f5 3d c7 e7 06 be
       -0.021820532 0.025663096 0.11984831 -0.13174354
0003f0 64 31 54 3d c4 0e a0 3d ae d4 4a bd 0f e6 19 bd
       0.051804915 0.07815316 -0.049519233 -0.037572917

conv2.bias f4 [32]
000000 ee d6 2e bc 8b a9 95 be b0 67 4d be 6d f1 a3 bd
       -0.01067136 -0.29230914 -0.20059085 -0.08005033
000010 a2 18 41 bd 5e 14 45 be e4 b4 97 bd c3 66 d0 3c
       -0.047142632 -0.1924605 -0.07407549 0.025439626
000020 14 bb 03 be 3e da 70 be 82 cb 61 be 8e 37 f2 bd
       -0.12864333 -0.23520753 -0.22050288 -0.118270025
000030 a5 fa 53 be 18 ab c8 3c 33 d3 cf bd d4 87 1e be
       -0.20701082 0.024495646 -0.10147705 -0.15481502
000040 3a ec a9 b8 42 e4 a8 bd 9f 1c 0d be 4b c4 f9 3d
       -8.1025486e-05 -0.08246662 -0.1378045 0.12195643
000050 12 4d 31 bd 6f da 47 be 9f d6 68 be 00 ce 11 bd
       -0.04328639 -0.1951692 -0.22738121 -0.035596848
000060 77 ba d6 bd da 71 12 be 58 cb 40 be 5b ff 09 be
       -0.10484784 -0.14301243 -0.1882757 -0.13476317
000070 9a de 94 bd e6 0d 53 be 22 bb 78 be b2 91 04 be
       -0.072690204 -0.2061077 -0.24290136 -0.12946203

conv3.weight f4 [256, 64, 5]
000000 57 62 50 39 58 8f 95 3d e1 e1 e6 bc f3 23 85 bd
       0.0001987306 0.07302731 -0.02818388 -0.065009974
000010 ad f6 70 bd 58 bc 94 3d 2d 15 7e 3d e1 e9 72 be
       -0.058829 0.07262486 0.062031914 -0.2372203
000020 a2 45 0b be df 80 30 be fe be d9 bd b1 8e 62 3d
       -0.13600782 -0.1723666 -0.10632132 0.055311862
000030 a9 dd 02 be 44 16 1d be 70 89 34 be a7 54 49 3d
       -0.12779869 -0.15340525 -0.17630553 0.049152996
000040 65 42 ff bd a3 5d 85 bd ad c8 ad bd 1b 33 ea 3c
       -0.124638356 -0.065120004 -0.084855415 0.028588822
000050 2f b6 c2 bc a0 12 44 be c1 5d 14 be cb 99 0c be
       -0.023768513 -0.1914773 -0.1448889 -0.13730542
000060 40 f3 b1 bd f2 2a d3 3d a7 ce c2 bd d8 1d 25 3d
       -0.086889744 0.103109255 -0.09512072 0.040311664
000070 7e 90 4b be 4a 4a ad bd 23 1d 0b be 6c 8c b2 bd
       -0.19879338 -0.08461435 -0.13585334 -0.087181896
000080 4f 6b 1d bd d6 97 08 3e 78 71 07 be ab a5 22 3e
       -0.038432416 0.13339171 -0.13226879 0.1588351
000090 f9 0d b4 3d 38 86 fd bb de fd 9e 3d ee d5 e4 3c
       0.087917276 -0.0077369474 0.07763265 0.02793404
0000a0 5f 70 9d be 33 fa 51 be e1 fd 0b be d7 ae 00 3d
       -0.30749795 -0.205056 -0.13671066 0.03141674
0000b0 39 f1 8c bd 7e ae 56 be 6a 7a 40 be fd fc 8a be
       -0.06881947 -0.20965001 -0.18796697 -0.2714614
0000c0 69 71 ed 3d 3e 48 28 be b7 9a 06 be 33 d3 33 be
       0.11593897 -0.16433808 -0.13144957 -0.17561035
0000d0 99 a3 08 be b5 94 04 3d 84 5e 00 3e b2 aa 0e 3d
       -0.13343658 0.03236838 0.12536055 0.034830756
0000e0 dc 3f 20 bd 5b 54 b1 bc e5 64 c5 bd ec fa d7 bd
       -0.0391234 -0.02164667 -0.09638385 -0.105459064
0000f0 53 ab c8 3d 65 8e 22 bb ba de 26 bd 66 7a 5e bb
       0.097983025 -0.0024804112 -0.040739752 -0.0033947467
000100 a0 3d b0 be 3d 0c ab bd 2e d3 09 be b1 ea b1 bd
       -0.34422016 -0.08351944 -0.13459465 -0.08687342
000110 02 b7 f6 bd 39 57 40 3d cd ba cf bd 2d 46 3b bd
       -0.12046625 0.046958182 -0.10143051 -0.04572122
000120 4f 0d 96 3b d7 80 0e be aa bf c1 3c 67 2c 0a be
       0.004579223 -0.13916336 0.023650963 -0.134935
000130 62 96 82 be 33 c3 96 3b 1a 78 6a 3d dc 2a 7a be
       -0.25505358 0.0046009063 0.057243444 -0.24430412
000140 da 3b 31 be 6b 84 4a be d3 e9 7f bd 18 5a d4 b9
       -0.17307988 -0.19777076 -0.06247885 -0.00040502916
000150 f5 31 35 be d7 0c b9 bc af 33 dc 3c 05 f2 11 be
       -0.17694838 -0.02258913 0.026880113 -0.1425248
000160 1a 56 42 3e 5b de 0b bc 4f 8f 0b bd fb a0 f8 3d
       0.18978158 -0.0085369 -0.034072217 0.121400796
000170 85 0c eb 3d e9 b0 f3 bc 0f 9b 89 3c 71 1a c1 3d
       0.11476997 -0.029747443 0.01679757 0.094288714
000180 1b 9f 78 3d ac 9d b9 bd cb 95 1c bd 0f 44 0c be
       0.06069861 -0.09063277 -0.03822879 -0.13697837
000190 1c 4c ed 3d 98 0b c8 3d 95 ca fa 3d 2b 2e 59 bd
       0.11586782 0.09767836 0.12245671 -0.053022545
0001a0 2e f1 53 3c e1 45 38 be 8a 37 82 be 81 e3 e7 bc
       0.01293592 -0.17995407 -0.25432998 -0.028306725
0001b0 97 88 40 bd f9 b6 9b bc d4 46 d2 3d a5 da a2 bd
       -0.047005262 -0.019008147 0.10267416 -0.079518594
0001c0 17 a3 83 bd b6 10 26 be 57 b6 8b bd 25 08 03 be
       -0.06427591 -0.16217312 -0.06821888 -0.12796076
0001d0 38 9e 70 be a9 d2 8d bd 12 00 17 3d cd b0 3b 3d
       -0.23497856 -0.06924946 0.0368653 0.045822907
0001e0 7c 1e f5 bb 87 a0 51 bc 31 f1 fb 3a 31 4e e4 3c
       -0.0074804407 -0.01279462 0.0019221661 0.027869316
0001f0 6d 81 2b 3d 11 eb 27 bb 6e 9f d3 3c 8f 9e 15 3b
       0.041871477 -0.0025622288 0.025832858 0.0022830104
000200 8f 11 3d 3d 8e ac 9b bd e2 c7 29 be dc 1c 17 be
       0.046159323 -0.076012716 -0.16580155 -0.14757103
000210 b8 ee 2c bd 9e e2 75 3d 09 f5 12 be 4a 44 34 be
       -0.042219847 0.060030572 -0.14351286 -0.17604175
000220 92 7f 0c 3e 95 b8 48 bc 5c b1 72 3d 56 d0 27 bd
       0.13720539 -0.012251039 0.059251174 -0.04097017
000230 30 3a 30 bd aa 31 9d bd db d5 eb 3d e1 48 01 3e
       -0.043024242 -0.07675488 0.11515399 0.12625457
000240 ba 44 18 3d a8 f9 2b bd 57 ef e9 bd 54 00 31 be
       0.037174918 -0.041986138 -0.114226036 -0.17285281
000250 9b d0 8e be 69 86 43 3d a6 d2 d8 3d f6 b3 8e 3d
       -0.27893528 0.047735605 0.10587053 0.069679186
000260 06 18 1e 3c 28 0f 74 3d 6c d0 82 3d a6 ec 6a bd
       0.009649282 0.059584767 0.063874096 -0.05735459
000270 ba 59 14 be d1 ba 44 be 70 2c 2f be 06 b3 50 bd
       -0.14487353 -0.1921189 -0.17106795 -0.05095198
000280 a0 7b 21 be 16 e5 5a 3d 9e a2 9d bd df b3 a1 3d
       -0.15769815 0.05344113 -0.076970324 0.07895636
000290 cc de c0 bd c6 3c 9e bb 7a 63 3c 3e 15 73 d5 3e
       -0.09417495 -0.004829022 0.18397322 0.41689363
0002a0 a8 c8 91 bd d5 ef b8 bd ea af 88 bd 44 59 f1 3c
       -0.0711835 -0.09030119 -0.06674178 0.02946151
0002b0 79 82 c6 bd ec ec 71 bd f2 ba d6 bd fd 78 a0 bd
       -0.096928544 -0.059063837 -0.10484876 -0.07835577
0002c0 7b 95 45 3e 53 73 0d be 08 c1 e3 3d 60 00 8c bd
       0.19295304 -0.13813524 0.11120802 -0.06836009
0002d0 0f ba 18 3c 2c 36 a8 bd cd f4 97 be 47 6b e0 bd
       0.009321704 -0.082134575 -0.29678956 -0.109579615
0002e0 16 4b 08 bc 6b a4 22 bd 42 dc 1b 3c 47 e4 b2 3d
       -0.008318683 -0.039707582 0.009512963 0.08734947
0002f0 3d 8d 48 3d ac 3e f8 3d 78 88 bd bd 3b b8 3a be
       0.04896282 0.12121329 -0.09254545 -0.18234341
000300 34 bf e3 bd 43 d7 8b bd 92 e5 18 bd 50 b7 86 bd
       -0.111204535 -0.06828167 -0.03732831 -0.06577933
000310 44 e1 c7 bc 50 6e 45 be 4c 91 bc bd b2 f3 31 3d
       -0.024399407 -0.19280362 -0.09207401 0.043445297
000320 eb c9 95 bd df 9a aa bd 31 4c db 3d 73 45 7a 3e
       -0.073139034 -0.083303206 0.10707892 0.24440555
000330 7f 17 de bd 10 aa c8 bd e1 52 8e 3d 80 13 d9 3b
       -0.10844325 -0.09798062 0.06949402 0.006624639
000340 7b a5 3b be b3 59 15 bd 28 36 54 be 78 72 34 3d
       -0.18324845 -0.036462497 -0.20723784 0.04405448
000350 5d 70 de bc a0 45 94 3c b3 a9 7a 3d ec e3 9e 3c
       -0.027153188 0.018099606 0.061196994 0.019395791
000360 a7 c2 01 3d 85 d4 d1 3d 34 1c 85 3d 74 11 b2 bb
       0.031679776 0.10245613 0.0649952 -0.0054342095
000370 db f2 4a bd 51 27 d6 3d 65 69 a8 3d 62 f7 c5 bb
       -0.04954801 0.10456718 0.082232274 -0.006041453
000380 ce 5d bb 3d 57 69 40 bd ff 18 05 3e c5 68 cb be
       0.09148751 -0.04697546 0.12997817 -0.3972837
000390 72 51 8a be de b7 ce bc 9d 23 b3 bc d7 f2 88 3d
       -0.27015263 -0.02523416 -0.021867568 0.06686943
0003a0 24 81 6b 3d bc d1 90 bd 14 0e 25 be 27 20 bf bd
       0.057496205 -0.07071254 -0.16118652 -0.093323044
0003b0 dd e5 06 be 65 9d 06 bd 92 8d af bd ad e6 55 bd
       -0.13173623 -0.032864947 -0.08571924 -0.052221943
0003c0 98 f1 4b 3d c0 58 bc bd b4 2d a5 3d 44 07 1c 3c
       0.04979095 -0.09196615 0.08065358 0.009523217
0003d0 be d1 45 be ed 29 60 3d 6d ce 1d bd a1 55 b7 bd
       -0.19318292 0.054727484 -0.03852694 -0.08951879
0003e0 08 ba 3d bc 90 45 dd 3c 7e c5 e9 3b 9a 64 23 be
       -0.011579998 0.027010709 0.0071341386 -0.15956345
0003f0 62 be 2e 3e d2 47 03 be 03 20 7d 3d d4 e9 02 bc
       0.17064813 -0.12820366 0.061798107 -0.007990319

conv3.bias f4 [256]
000000 b1 89 17 be 46 04 a3 bc 88 da a2 be 47 fd 1f bd
       -0.14798619 -0.019899499 -0.3180735 -0.039059903
000010 91 dd 0d be bc c3 59 be 4b c5 e1 3c 8c 69 17 be
       -0.13854052 -0.21266073 0.027559897 -0.14786357
000020 5f 93 49 bd 38 0c db 3c 02 c7 16 be b9 61 e5 bd
       -0.04921281 0.026739225 -0.14724353 -0.1120028
000030 8b b5 12 be 5e a7 02 be 0d 35 14 be 04 a4 0a bd
       -0.14327066 -0.12759158 -0.14473362 -0.033847824
000040 d8 d7 aa bd 39 4f 38 be 09 d2 79 bd 4c 21 a3 bd
       -0.0834195 -0.17998971 -0.06099132 -0.07965335
000050 8b 1f 53 bd 98 54 a2 bd a2 7a 0f bd 43 71 48 be
       -0.051543754 -0.07926291 -0.03502906 -0.19574456
000060 a5 5c de bc 1f 7e 94 bd 9e 01 13 be 5a d7 4b be
       -0.027143786 -0.07250618 -0.14356086 -0.19906369
000070 4e 65 c1 bd d1 0d d6 bd a7 d8 6d be ac dc bb bd
       -0.094431505 -0.10451854 -0.23227178 -0.09172949
000080 79 51 0c be b1 b8 19 be f8 2f f0 3c 04 63 44 3e
       -0.13702954 -0.1501186 0.029319748 0.19178396
000090 25 5e f3 bd 9d 53 7e be 10 c6 93 be aa fa c7 bd
       -0.11883191 -0.24836583 -0.28862047 -0.09764607
0000a0 1e 77 33 be a1 04 1d 3d 7a b8 3f be 7b bc 99 3c
       -0.17525908 0.038334493 -0.18722716 0.018766632
0000b0 9f fd bc 3d f0 6b 68 be b1 24 83 bd b7 5c a5 be
       0.09228062 -0.22697425 -0.06403483 -0.32297298
0000c0 11 3a 36 be 8f 08 25 be 27 3e 0c bc ee d8 0f be
       -0.17795588 -0.16116546 -0.00855974 -0.14047596
0000d0 7c 1c 14 3d 64 69 8f be 1a 7c 40 be fa 6b 4f bc
       0.036159977 -0.28010094 -0.18797341 -0.012660021
0000e0 22 72 86 bd f1 e0 fa bd 9c 36 3b be c8 d3 84 3d
       -0.06564738 -0.122499354 -0.1828255 0.064857066
0000f0 6d 35 ef bc 84 6a 2e be 5b d7 e4 bb 0a d0 e6 bd
       -0.02920028 -0.1703282 -0.00698368 -0.11270149
000100 9a 37 48 be b8 79 13 be 3f 85 12 be 80 7c 35 be
       -0.1955246 -0.14401901 -0.14308642 -0.17723274
000110 98 d8 a3 3d 46 e4 19 bd e9 f1 ce bd 2c f5 95 bd
       0.08000296 -0.037571214 -0.101047345 -0.073221534
000120 d1 d8 3d be ce bf 3c be 05 01 4e 3e 28 e0 98 bd
       -0.1853974 -0.18432543 0.20117576 -0.074646294
000130 99 c1 5c be 1e ac 03 be 6b 4e 30 be 43 77 e4 bd
       -0.21558227 -0.12858626 -0.17217414 -0.1115556
000140 c7 42 0b bd e7 57 b9 3d cd 0c ab bd 7e 3a 88 bd
       -0.03399923 0.09049969 -0.08352051 -0.066517815
000150 8c 73 0b 3e 15 97 e1 bd c1 ae 4b 3d 63 e0 34 3c
       0.13618296 -0.11015145 0.049727205 0.011039826
000160 13 fa 8b bd 49 52 34 be 39 66 09 3d 6a 07 dc 3d
       -0.06834807 -0.17609514 0.033544753 0.107436016
000170 66 6b 4d be 0a 21 15 be 0b 85 11 be 38 f4 f4 3d
       -0.200605 -0.14563385 -0.14210908 0.119606435
000180 96 53 92 bd d1 26 c3 bd 3c 2e 18 be ca a5 a9 bd
       -0.07144849 -0.09528888 -0.14861387 -0.08283575
000190 48 d5 1c be d4 7b 04 be a8 3c 0d be 59 1e 14 3d
       -0.15315735 -0.12937862 -0.1379267 0.036161754
0001a0 94 7b c3 bd 37 6f 07 be 94 42 de bc cb 4d 46 3d
       -0.09545055 -0.13226019 -0.027131356 0.048414033
0001b0 5a 6d 76 be 0a 79 ea bb 1b 89 81 be ee 9f 14 be
       -0.24065152 -0.0071555423 -0.25299916 -0.14514133
0001c0 b4 06 33 be c0 3f e3 3c fc b8 14 be 75 04 66 bd
       -0.17483026 0.02774036 -0.14523691 -0.056156594
0001d0 b3 b8 72 be 39 1f d0 bd 7f 07 44 bd a9 0f a7 bd
       -0.2370327 -0.10162205 -0.04785871 -0.08157284
0001e0 0c 65 bc bd fe 79 2a 3e 2b b0 30 be 8a 7e d8 3d
       -0.09198961 0.16648099 -0.17254703 0.105710104
0001f0 0c d3 99 bb 17 34 ff bc 91 f1 aa bd 8c d9 a1 3d
       -0.004694348 -0.031152768 -0.083468564 0.07902822
000200 37 7c 91 bd ca db 2a 3e da 0f 7c 3d 88 5a dc bd
       -0.0710377 0.16685405 0.061538555 -0.10759455
000210 7c 48 2b be d3 c7 f2 3c 83 26 12 be 3b 65 54 bb
       -0.1672687 0.0296363 -0.14272504 -0.003240897
000220 16 40 a3 bd 60 52 25 3d 27 93 0e be 2f db 60 be
       -0.07971208 0.040361762 -0.13923322 -0.21958612
000230 23 76 37 be 25 0e 94 bd 5f 3c a6 3d 2e 5b 10 be
       -0.1791616 -0.0722926 0.081169836 -0.14097282
000240 84 8c 9d bd aa fe 73 3d bb 34 01 be dc f6 6c 3c
       -0.07692817 0.05956904 -0.12617771 0.014463153
000250 34 57 88 be 94 4a e9 3b d5 9c dc 3d 8b 23 33 3d
       -0.2662903 0.007119486 0.10772101 0.04373507
000260 bb a5 17 be 20 27 df 3d c6 64 fc bc 10 4a 42 be
       -0.14809315 0.108961344 -0.030809771 -0.18973565
000270 15 b0 08 be d8 cf de 3c a4 d4 23 be 51 5d 89 bd
       -0.1334842 0.027198717 -0.15999085 -0.06707252
000280 72 dc e2 bd f7 a7 e3 bd d0 dc ab 3d 59 a5 43 be
       -0.11077203 -0.11116021 0.08391726 -0.19106044
000290 b5 36 b4 bd 0b e1 10 be 17 48 23 be 0a 8e 89 3c
       -0.08799497 -0.14148347 -0.15945469 0.016791362
0002a0 7e 05 10 be 8a 5c 3d 3c 00 0a 4a bd 91 19 4c bd
       -0.14064595 0.011557708 -0.049325943 -0.04982907
0002b0 18 f3 0f be 76 06 12 be 52 f8 09 be d9 d7 23 be
       -0.14057577 -0.14260277 -0.13473633 -0.16000308
0002c0 d3 62 9c 3b 49 50 5f be 8d c0 df bd 3d 24 d6 bd
       0.004772523 -0.2180797 -0.10925398 -0.10456131
0002d0 ae 1b 2d bd 42 5c e7 bd 19 12 91 bd 43 5c 98 bd
       -0.042262726 -0.11296894 -0.0708353 -0.074394725
0002e0 d9 46 29 be 79 bf d7 bd 7c 89 0b be 48 2b c8 bd
       -0.16530932 -0.105345674 -0.13626665 -0.0977388
0002f0 2d e2 2d be 4b cd f8 bd 25 6e 2a be 15 24 9e bc
       -0.1698081 -0.121485315 -0.1664358 -0.019304315
000300 02 9f f1 bc 60 14 ff bd de 9e 19 3d 73 af 0f 3c
       -0.029494766 -0.12455058 0.037505023 0.008769858
000310 06 fe 32 be ed cb 28 bd a8 d8 d9 3d d9 a5 ea bd
       -0.17479715 -0.041210104 0.10637027 -0.11457414
000320 1a 28 22 be fb 8c 20 bd cb ba b4 3d b3 92 df bd
       -0.1583561 -0.03919695 0.088246904 -0.109166525
000330 96 eb 17 be 01 96 18 be e3 0e b4 bd 4e 53 8f be
       -0.14835963 -0.14900972 -0.08791902 -0.27993244
000340 3f ef 2e be 87 61 c7 bd 02 64 15 3e a0 74 4d 3e
       -0.17083453 -0.09735399 0.14588931 0.2006402
000350 02 40 e1 bd 1a f9 33 be 0d c3 0e 3d 6b e0 06 be
       -0.10998537 -0.17575493 0.034853984 -0.13171546
000360 24 d5 71 be bf d2 74 be 39 07 df bc f8 79 09 3e
       -0.23616463 -0.23908518 -0.027225124 0.13425434
000370 59 db 5a 3d ba a4 9d bd 3d d8 60 bd a3 43 45 3d
       0.053431842 -0.07697435 -0.05489372 0.048160207
000380 77 ae 87 bd 3e 8d 7d bd 2d e6 76 be 45 af 10 be
       -0.066250734 -0.061902277 -0.24111243 -0.1412936
000390 79 f0 e2 bc a7 b4 c7 3c e7 bc 86 be 84 0c e6 3d
       -0.027702557 0.024378134 -0.26315996 0.11232856
0003a0 ee fe 29 be af 09 8c be 19 73 46 be be 0a 56 3c
       -0.16601154 -0.27351138 -0.19379844 0.013064085
0003b0 16 7b a5 bd d2 37 33 be 03 49 0f bd c5 21 fc bd
       -0.080801174 -0.17501763 -0.03498174 -0.123111285
0003c0 d4 5c 24 be 71 c1 73 be c3 10 30 bd 5a b3 d7 bd
       -0.16051036 -0.23804261 -0.042984735 -0.105322555
0003d0 88 aa 13 be 5c b3 17 bd ea 78 89 bd 9b 40 58 be
       -0.14420521 -0.037036285 -0.06712516 -0.21118395
0003e0 29 a3 44 be 31 8e 53 bb e4 ef 8a 3d f0 7f 63 be
       -0.19202866 -0.0032280798 0.06784037 -0.22216773
0003f0 3e 73 5b bd 44 98 30 3e 2f 08 b9 bc 1a b5 78 be
       -0.0535767 0.17245585 -0.02258691 -0.24287835

fc.weight f4 [8, 256]
000000 e7 9e ef 3c b5 5d 3c bc 22 9d 85 3c 17 18 5b bd
       0.029250575 -0.011496951 0.016310278 -0.05348977
000010 06 d2 02 bc 8c 57 4e bc 8f c5 14 3c 72 d4 10 bd
       -0.007984644 -0.012594115 0.009080305 -0.035358854
000020 6c dd e6 bc bd e7 e1 bb a4 9d 5c 3d 35 9e 5f 3c
       -0.028181754 -0.0068940804 0.053861275 0.013648559
000030 ab 95 82 3d 43 a7 b8 bc c7 6b be bd c5 d2 07 be
       0.06376203 -0.022540694 -0.09297901 -0.13263996
000040 0a c4 69 3d 3d e8 8a 3d d2 ac 55 bd 85 50 8a 3d
       0.057071723 0.06782577 -0.052166767 0.06753639
000050 56 d7 95 3c 82 8b 26 3d 4e 14 57 bc af e2 20 bd
       0.018291157 0.04066039 -0.0131274 -0.039278682
000060 0a 1d 69 bc ff 28 dc 3c ab a9 05 bc 6f 47 ce 3c
       -0.014228115 0.026875017 -0.008158128 0.025180547
000070 81 03 b4 bc 08 de d2 3c 22 fa 06 be cf b5 9a bc
       -0.021974327 0.025740638 -0.13181356 -0.018885521
000080 5c 8c 1c be 96 6a 3f bd 8d fc 7c bd b6 6b 64 3d
       -0.15287918 -0.046732508 -0.06176429 0.055766784
000090 e5 13 a2 3c f5 55 20 3d a6 07 15 3d 2b a2 d0 bd
       0.019784877 0.039144475 0.036384247 -0.10187181
0000a0 24 6f 2a bd 1d fa 1d be e6 94 d3 bb e2 81 1b be
       -0.0416099 -0.15427442 -0.006456959 -0.15186265
0000b0 59 9a 10 3d ce 32 2c 3d 1f f2 df bd 2a 8a bb bd
       0.035303447 0.04204064 -0.10934853 -0.09157212
0000c0 58 38 2a 3d 80 28 8f bd 58 c2 30 3b fc 57 ca bc
       0.04155764 -0.06990147 0.0026971307 -0.024700157
0000d0 df d3 9c bd d7 22 21 bd 84 36 ac 3c 82 35 bd b8
       -0.07657599 -0.039339866 0.021022089 -9.022189e-05
0000e0 fe 7c a4 3d e6 ba 01 be de d0 9c bb 81 9b 90 bd
       0.08031653 -0.12668952 -0.004785641 -0.0706091
0000f0 07 f0 25 be ef 79 63 3d 23 b2 05 3d 05 b8 ee 3c
       -0.16204844 0.055536207 0.032640588 0.029140482
000100 eb 06 81 bd 4c 21 44 bd b9 6b 39 3d a9 b1 0c 3d
       -0.063001476 -0.047883317 0.045268748 0.034349117
000110 d5 b7 82 bd 46 a0 27 bd c7 73 21 3d b8 a1 aa bc
       -0.063827194 -0.040924333 0.039417055 -0.020829067
000120 3e d0 05 bd 50 f6 77 3b 1d 30 62 3d d9 0e 70 bd
       -0.0326693 0.0037836023 0.055221666 -0.05860791
000130 94 c9 0a be cf 41 98 bd b3 07 8e bd 0d c2 e0 3d
       -0.13553458 -0.07434427 -0.06935062 0.10974512
000140 d0 7c a3 39 68 d7 4f 3d 27 77 01 3d c4 d8 9c bd
       0.00031182775 0.050742537 0.031607773 -0.07658532
000150 c4 d3 02 bd 99 66 95 3c f5 43 9c 3c 1d 28 09 3d
       -0.031940237 0.018237399 0.019075373 0.03348552
000160 b0 3c b8 bc 52 da cf 3c 57 81 b3 bc 06 35 cb 3c
       -0.022489876 0.025372658 -0.02191226 0.024805557
000170 1b a8 62 bd c8 95 6b bd 11 47 fa 3c 65 7c 42 bc
       -0.0553361 -0.05751589 0.030551465 -0.011870478
000180 38 49 fd 3c 90 1f 18 bd 4d f7 a0 bd a2 3f 51 3d
       0.030918702 -0.037139475 -0.07859669 0.051086076
000190 fe 81 9a bc f1 5c a7 bc 6e 20 9c 3b 3f fb f0 3c
       -0.018860813 -0.02043006 0.004764608 0.029416678
0001a0 8b 75 65 3d b5 7b 67 3a 5f 25 0f bd 5f 5f 10 3d
       0.0560203 0.00088303845 -0.03494775 0.035247203
0001b0 a3 fa 5f bd 9a c0 2b 3c 54 38 96 3c 01 75 a2 bc
       -0.054682385 0.0104829315 0.018337406 -0.019831182
0001c0 aa b2 02 bd ee c2 b6 bd b9 04 17 bc c2 77 19 3d
       -0.03190867 -0.08923899 -0.009217435 0.037467726
0001d0 61 64 a2 bc 47 18 f2 bd cf 03 cd 3c 16 63 8f b7
       -0.019823255 -0.11821037 0.02502623 -1.7093069e-05
0001e0 a6 af 86 bc d4 36 db bc 3a 8b 85 bc 56 32 01 3d
       -0.016441178 -0.026759543 -0.01630174 0.031542145
0001f0 6e ca 66 3b 82 0a 6b 3d af 38 f9 bd e9 51 97 bc
       0.0035215872 0.057383068 -0.12169015 -0.018471675
000200 56 f9 aa bc b1 b4 54 be e8 52 c7 bd 87 e3 40 bc
       -0.020870846 -0.20772053 -0.0973261 -0.011772997
000210 94 05 d4 bd ee bb cd 3c 8c 3d 7a bc 49 13 ad 3a
       -0.103526264 0.025114026 -0.015273463 0.00132046
000220 b5 d0 de 3c e9 b5 93 bd 96 ff 9b bc 56 a2 31 3d
       0.027199129 -0.07212431 -0.019042771 0.043367706
000230 14 1d ad bd 3b 8a 0d bd de c6 37 bd 3f c4 94 bc
       -0.08452812 -0.034555655 -0.04486739 -0.018159984
000240 bb 0d 40 3c 9d 93 5a bb 91 c5 ee 3c d8 f6 d4 bd
       0.011722024 -0.0033352145 0.029146941 -0.10398644
000250 da c5 0e be 6f fc 15 3d c2 21 c0 3d ea 8b c9 ba
       -0.13942662 0.036617693 0.09381439 -0.0015376781
000260 05 10 8a bc b6 14 90 bc c5 0e f6 bc 49 60 b5 3b
       -0.016853342 -0.017588 -0.03003634 0.0055351597
000270 c9 33 d6 bc 94 4e 8c 3d 58 67 be 3a 3d 91 cd 3a
       -0.02614774 0.06850925 0.0014526648 0.0015683543
000280 f8 54 18 3d 02 33 ae bd c6 92 11 be ca aa 01 3d
       0.037190408 -0.08505823 -0.14216146 0.031657018
000290 53 d7 76 3d 29 19 ae 3b bd 55 31 bd a1 af fb ba
       0.060263943 0.005313058 -0.043294657 -0.0019202122
0002a0 ae c6 31 bd 65 50 5b bd 7f 22 bb bc 5e 9d 1d 3c
       -0.043402366 -0.053543467 -0.022843597 0.009620039
0002b0 50 76 90 bd 00 bb 84 3c a2 f4 37 bd c9 70 f5 3c
       -0.07053816 0.01620245 -0.044911034 0.029961007
0002c0 4b 76 ae 3c f0 db b5 bc 1a 17 23 bd a5 3b f3 3c
       0.02129664 -0.022199601 -0.039816953 0.029691527
0002d0 b6 ee 72 3d d4 c7 fc bd 11 8a 88 3b 11 87 3e 3d
       0.059309684 -0.12342802 0.0041668494 0.046515528
0002e0 76 e4 e7 bd bd 47 cd 3c 95 28 98 3c 84 56 28 bd
       -0.11322872 0.025058622 0.018574039 -0.041098133
0002f0 4f 44 99 3a 15 76 95 3d bc ba f4 3a 3d 11 ca 3c
       0.0011693331 0.07297913 0.0018671374 0.024666423
000300 33 90 bb 3c 1f a5 c9 bd f4 18 19 3d 76 27 13 3c
       0.022895908 -0.098459475 0.037377313 0.008981576
000310 b3 40 9d bc 95 56 44 bd ff 89 14 be 74 ab 04 be
       -0.01919589 -0.047934134 -0.14505766 -0.12956029
000320 fd 11 93 3c ae 98 7e 3d 31 98 31 3d 04 2b 24 3d
       0.017952913 0.062157325 0.04335803 0.040080085
000330 10 cc b9 3c 43 a8 90 bd b4 47 dd 3c ac 73 dd bd
       0.022680312 -0.070633434 0.02701173 -0.10813078
000340 e3 27 cb bd 81 d1 ae bd e2 24 5f 3d 25 60 22 3d
       -0.09919717 -0.085360534 0.054478534 0.03964247
000350 d6 19 a4 3c d7 4f cf bc 62 63 1a be 04 67 26 3d
       0.02003185 -0.025306625 -0.15076974 0.040625587
000360 80 c7 75 3d 6e a2 b4 3b 87 bb ff bd f8 71 4e bd
       0.06000471 0.005512527 -0.1248694 -0.050401658
000370 68 a8 0d 3c d6 fa ae 3d 0c 31 d3 bc d9 76 4c bd
       0.008646108 0.08543937 -0.025780223 -0.04991803
000380 31 60 7e bd 54 0e 05 be bb c7 90 bd e3 fb af 3d
       -0.062103454 -0.12993747 -0.070693456 0.085929655
000390 d4 04 85 3c e3 e5 f3 3c d9 9a 95 bd 56 0f 94 ba
       0.016237654 0.029772704 -0.073049255 -0.0011296074
0003a0 ad fe 26 3a e8 7a 8b bd d4 2f f2 bc c0 11 de bd
       0.0006370347 -0.06810552 -0.029563822 -0.10843229
0003b0 af 36 53 bc ce f5 4a bd de 83 c7 bd 75 d4 30 bd
       -0.012891456 -0.049550824 -0.097419485 -0.043171365
0003c0 aa d2 6b bd 50 c7 46 bc 5e fe b4 bc fa 58 98 3c
       -0.05757395 -0.012132481 -0.022093948 0.018597115
0003d0 95 43 07 3d a8 e5 a3 bc 4e d5 10 bb 31 8a 80 bd
       0.033023436 -0.02000697 -0.0022099796 -0.06276358
0003e0 81 35 b6 bd 7d 5a bf bc 1c bb 1e 3b a0 42 4b bd
       -0.08896924 -0.023358578 0.0024220413 -0.049624085
0003f0 ee f7 e8 3a 47 58 de 3c df 36 ba 3c 41 08 57 bd
       0.0017774084 0.027141703 0.022731243 -0.052498106

fc.bias f4 [8]
000000 58 61 3f bd 5c 79 57 be ac 35 bb be 8f 4f ad 3d
       -0.046723694 -0.21042389 -0.36564386 0.0846244
000010 c5 7d 65 be a1 b2 c3 bd c6 6b 24 be 57 ae f8 bc
       -0.22411259 -0.09555555 -0.16056737 -0.03035657
