src/main/python/saved_models/java_1_37_CNNClassifier1_128embs_109id_16hd_0hl_Falsebid3kernel0.3dropout_2.pt (torch, 280779 bytes, 9 tensors)

emb.weight f4 [109, 128]
0	0x3fc5dfd4	1.5458932
1	0x3eedad98	0.46421504
2	0xbf94e2b9	-1.163169
3	0xbf540a4a	-0.828282
4	0xbfd154e6	-1.6354034
5	0x3d7debd1	0.06199247
6	0xbf10e7a4	-0.56603456
7	0x3c776751	0.015100316
8	0xbead645b	-0.33865628
9	0xbee765ff	-0.45195004
10	0xbfbb0428	-1.4610643
11	0xbe25f5b0	-0.16207004
12	0xbf272329	-0.65288025
13	0xbf983e55	-1.1894022
14	0xbfa80111	-1.3125325
15	0xbe3ffb4e	-0.18748209
16	0xbf8d842a	-1.1055958
17	0x3fa43f53	1.2831825
18	0x3f0c3ada	0.547773
19	0x3f5de287	0.8667378
20	0xbf4c366a	-0.7977053
21	0xbe92a631	-0.2864242
22	0xbeff0857	-0.4981105
23	0xbf65a0e7	-0.8969864
24	0xbe76bde6	-0.24095878
25	0x3eecf0f3	0.4627758
26	0xbf676ec6	-0.904034
27	0xbfc656b7	-1.5495213
28	0x3f118067	0.5683655
29	0xbf6b8d7f	-0.9201278
30	0xbe57f576	-0.2108973
31	0x3f6807f3	0.9063713
32	0x3d7da066	0.061920546
33	0x3f3e5930	0.7435484
34	0x400efde0	2.2342453
35	0xbf82757f	-1.0192107
36	0xbf7f4527	-0.99714893
37	0xbfbf6d63	-1.4955257
38	0xbf56649b	-0.8374726
39	0xbfb0a353	-1.3799843
40	0x3f9be331	1.2178708
41	0x3f577185	0.8415759
42	0x3f2d2497	0.67633957
43	0x3fd7280a	1.6809094
44	0xbef10dd5	-0.47080866
45	0x3fd569cc	1.6672912
46	0x3ed3517d	0.41273108
47	0x3ee31ec6	0.44359416
48	0x3f634c9b	0.88788766
49	0xbdfabbfa	-0.12242885
50	0x3f81f10a	1.0151684
51	0xbe922443	-0.2854329
52	0x3fbde659	1.4835922
53	0xbf3e0c83	-0.7423784
54	0xbf8061ea	-1.0029881
55	0x3ef34a72	0.47517735
56	0x3f19b27b	0.60037965
57	0xbd8fa9e6	-0.070148274
58	0x3ce301b8	0.02771078
59	0xbebc7a84	-0.36812222
60	0x3e696da3	0.2279573
61	0x4008423c	2.1290426
62	0xbf31e5d3	-0.6949131
63	0xbf90895f	-1.1291922
64	0xbe1f42a0	-0.15552759
65	0xbf111f5f	-0.56688493
66	0xbfb4a17f	-1.4111785
67	0x3f8c1432	1.0943663
68	0xbf8345fc	-1.0255733
69	0x3fb02da6	1.3763931
70	0xbf9a49e1	-1.2053796
71	0x3ef9d7bf	0.48797414
72	0x3f7c34a0	0.985178
73	0xbefb1fcd	-0.490477
74	0xbf04cfde	-0.5187968
75	0xbe2be69e	-0.16787192
76	0x3f365d93	0.7123653
77	0x3f978b69	1.183942
78	0xbfdb66d6	-1.7140758
79	0xbf6eb7dc	-0.932493
80	0xbf033433	-0.51251525
81	0x3f5a5add	0.85294896
82	0x3f56d057	0.8391165
83	0x3e5a0265	0.21289976
84	0x3fb63ac3	1.4236683
85	0x3e0d0005	0.13769539
86	0xbe8b0261	-0.27150252
87	0x3ecc1a5d	0.39863864
88	0x3fb4081e	1.4064977
89	0x3f49bd60	0.7880459
90	0xbfa3a3ae	-1.2784326
91	0x4005d3bd	2.0910485
92	0xbed9f6d2	-0.4257112
93	0x3fb0fae2	1.3826563
94	0x3f9359e8	1.1511812
95	0xbd436952	-0.047707863
96	0x3e99ec84	0.3006326
97	0xbe162583	-0.14662747
98	0x3e4d1da1	0.20030834
99	0x3fab75f6	1.3395374
100	0xbf91a09f	-1.1377143
101	0x3ebd55f6	0.36979645
102	0x3eff66ab	0.49883017
103	0xbeaa4ec0	-0.33263206
104	0xbfdadca4	-1.7098584
105	0xbed4b2da	-0.41542703
106	0x3ddca34e	0.107733354
107	0x3f849aeb	1.0359777
108	0x3f8bf547	1.0934228
109	0xbfb84645	-1.4396445
110	0x3eb28cbd	0.34873
111	0x3cd9f154	0.026604332
112	0xbe8c4064	-0.27392876
113	0x3f1ad39e	0.6047915
114	0x3f63ab74	0.8893349
115	0xbe86d541	-0.26334575
116	0xbefadce6	-0.48996657
117	0xc00a658e	-2.1624484
118	0xbf651420	-0.89483833
119	0xc00bb72b	-2.1830547
120	0xbf8f022d	-1.1172539
121	0x3e8cc292	0.27492195
122	0xbcbf0de5	-0.023322055
123	0x3fead6fc	1.8346858
124	0x3f96abd6	1.177119
125	0x3e844668	0.25834966
126	0xc0147147	-2.319414
127	0xbf206855	-0.626592
128	0x3f20103e	0.62524784
129	0x3f95214e	1.1650789
130	0x3e859247	0.26088163
131	0x3f595b68	0.849051
132	0x3ea755fe	0.32682794
133	0xbd429953	-0.047509503
134	0xbf2f7630	-0.68539715
135	0x3d9d3c89	0.07677562
136	0x3f83d2f3	1.0298752
137	0xbeb9b736	-0.3627259
138	0xbfb0d605	-1.3815314
139	0x3f948e19	1.1605865
140	0x3fae3c8e	1.361223
141	0xbf177b6d	-0.5917271
142	0x3f8f2ab9	1.1184913
143	0x3fa1b608	1.2633677
144	0x3f76980c	0.96325755
145	0xbe030c55	-0.12797673
146	0x3d9029d0	0.07039225
147	0x3f943d49	1.1581203
148	0x400489c6	2.070909
149	0xbf4620cf	-0.7739381
150	0x3f051e98	0.5199981
151	0x3fb0df1a	1.3818085
152	0xbf4d592b	-0.80214185
153	0x3f8a4a2c	1.0803885
154	0xbd546bb2	-0.05186052
155	0x3e12e665	0.14345701
156	0xbc5b982a	-0.013402978
157	0x3fff16ae	1.9928796
158	0x3ddefc66	0.10887985
159	0xc022b8c7	-2.542528
160	0xc00064f2	-2.0061612
161	0x3fc7075c	1.5549121
162	0xbc1f5713	-0.00972535
163	0xbf9018c9	-1.1257564
164	0x3f4d9c34	0.8031647
165	0xbfa3b64d	-1.2790009
166	0x3f5620c3	0.8364374
167	0xbfe27b17	-1.7693814
168	0xbf82386c	-1.0173469
169	0x3e2a7d67	0.166494
170	0x3fb14ff6	1.3852527
171	0x3ef97b07	0.48726675
172	0xbea7e51d	-0.32791987
173	0x3f71905e	0.9436091
174	0xc0102e7c	-2.2528372
175	0xbf53353a	-0.8250309
176	0x3f53d411	0.8274546
177	0xbf3e7f72	-0.74413216
178	0xbfcd3a49	-1.6033412
179	0xbfd52b10	-1.6653767
180	0xbe90ddb5	-0.2829415
181	0x3f35f51e	0.71077144
182	0xbcb10798	-0.021610066
183	0x3e3be6e5	0.18349798
184	0x3e6a62c8	0.22889245
185	0xbfead657	-1.8346661
186	0x3f6ff9c1	0.9374047
187	0xbf79d881	-0.97595984
188	0x3f03ba05	0.5145572
189	0xbf58a969	-0.846335
190	0xbf0af507	-0.5428013
191	0x3b79457e	0.0038035805
192	0xbf522231	-0.8208342
193	0xbf7500e7	-0.957045
194	0x3ff8c733	1.9435791
195	0xbe468137	-0.19385229
196	0x3fea2ea5	1.8295485
197	0xbfe12e59	-1.7592269
198	0xbf075bc4	-0.528744
199	0xbf085e84	-0.5326922
200	0x3f6ae7b6	0.9175981
201	0xbf35e4c7	-0.7105221
202	0x3fd8d3a3	1.6939586
203	0x3ecfbd56	0.4057414
204	0x3f2d4b6d	0.67693216
205	0x3f9df9c8	1.2341852
206	0xbf9781fc	-1.1836543
207	0xbf390783	-0.72277087
208	0xbfa8993f	-1.3171767
209	0x3eb1a6dc	0.34697616
210	0xbf2d5fd6	-0.6772436
211	0x3eced2c0	0.40395164
212	0x3fa8498d	1.3147446
213	0x3f8d8ff1	1.1059552
214	0x3e52e96c	0.20596856
215	0x3e2716a3	0.16317229
216	0x3e8ef7f0	0.27923536
217	0xbee41925	-0.44550434
218	0x3e42e7bc	0.19033712
219	0xc003f812	-2.062016
220	0xbe31a1ae	-0.17346832
221	0xbe8b0c05	-0.27157608
222	0xbe9419f8	-0.28926063
223	0x3fbdb720	1.482151
224	0x3fbba2f1	1.4659101
225	0xbfd86775	-1.6906573
226	0x3f8ee809	1.1164562
227	0xbed2ff49	-0.41210392
228	0xbf884d39	-1.0648566
229	0x3f8edf99	1.1161987
230	0x3fb4683f	1.4094313
231	0xc028c238	-2.6368542
232	0xbf5a2991	-0.85219675
233	0x3e82c914	0.25544035
234	0x3f55b156	0.8347372
235	0xbfbc2832	-1.4699767
236	0xbf9d7fbb	-1.2304605
237	0x3eecd44c	0.4625572
238	0x3de073c4	0.109595805
239	0xbeb1f019	-0.34753492
240	0x40162a3f	2.3463285
241	0x3d3410b9	0.04396126
242	0x3f0a5fc8	0.540524
243	0x3e2013c8	0.15632546
244	0x3e952e67	0.29136965
245	0xbfdf56ec	-1.7448401
246	0xbfed66e4	-1.8547025
247	0xbfb67bec	-1.4256568
248	0xbf905cdc	-1.1278338
249	0xbe892da1	-0.26792625
250	0x3eedeff5	0.46472135
251	0x4002453d	2.035476
252	0x400ebff2	2.2304654
253	0xbf75609f	-0.9585056
254	0xbf9c2406	-1.2198493
255	0xbe2b9e4c	-0.16759604

conv1.weight f4 [16, 128, 3]
0	0x3c851482	0.01624513
1	0xbbccd8cf	-0.0062514315
2	0xbe20039a	-0.15626374
3	0x3c427863	0.011869523
4	0x3ea2ae30	0.3177352
5	0x3d511273	0.051042985
6	0xbb254a63	-0.002522134
7	0xbe0b39d4	-0.13596278
8	0xbd0296b4	-0.031882003
9	0x3c74986e	0.01492892
10	0x3d2a00f6	0.041504823
11	0x3dbbf669	0.091778584
12	0xbbd3c1ca	-0.0064623104
13	0x3cfaf5f6	0.030634861
14	0x3df26e0a	0.118373945
15	0xbdad5860	-0.08464122
16	0xbde57749	-0.112043925
17	0x3c91267f	0.017718552
18	0xbc2aa21a	-0.010414625
19	0xbdb5b9f3	-0.088733576
20	0xbca9dbfd	-0.020734781
21	0x3d10cb27	0.03534999
22	0xbd8d8ddd	-0.06911824
23	0x3d899f5f	0.06719851
24	0x3ccbcfd4	0.024879374
25	0x3e57894b	0.21048467
26	0xbc86e4ea	-0.016466577
27	0xbd83b3ab	-0.06430753
28	0xbd9248f6	-0.071428224
29	0xbd4a8a08	-0.049448043
30	0x3d5b4179	0.053529236
31	0x3e5afc6f	0.21385358
32	0x3d81a84b	0.063309275
33	0xbc52cb8d	-0.012865913
34	0x3d1ad932	0.03780479
35	0x3d081aeb	0.033228796
36	0xbda93759	-0.0826251
37	0xbe43adb7	-0.19109236
38	0x3e0a3f99	0.13500823
39	0x3c757826	0.014982259
40	0x3e3ae15c	0.1825003
41	0x3d1c06c9	0.03809241
42	0x3e011381	0.12605096
43	0xbeaf345e	-0.3421964
44	0xbd92524f	-0.07144605
45	0xbdbe441e	-0.09290336
46	0xbc3723c9	-0.011177965
47	0xbda182dd	-0.07886288
48	0xbd1e0349	-0.03857735
49	0xbe90e91a	-0.28302842
50	0xbcad278f	-0.021137027
51	0xbe00a4a8	-0.12562811
52	0xbd2a45a6	-0.04157033
53	0x3c86414e	0.016388562
54	0xbcca2fd9	-0.024681019
55	0x3db5a6c5	0.088696994
56	0xbe218ba6	-0.15775928
57	0xbd8a3acf	-0.06749498
58	0x3e23a11a	0.15979424
59	0x3be97dab	0.0071255765
60	0x3de98256	0.11401813
61	0x3e24c261	0.16089775
62	0x3d82b14c	0.06381473
63	0xbdcd1d99	-0.10015411
64	0xbd720efa	-0.059096314
65	0x3d0dcbcf	0.034618195
66	0x3d371372	0.04469628
67	0x3c8b717c	0.017021887
68	0xbd26884b	-0.040657323
69	0x3d022361	0.03177202
70	0xbe3c4051	-0.1838391
71	0xbbd3ad72	-0.0064598853
72	0xbdc41d48	-0.095758975
73	0x3c6e440e	0.014542593
74	0x3c3fbdb9	0.011702948
75	0xbda8a7d9	-0.082351394
76	0x3e1526d3	0.14565592
77	0x3c8bf249	0.017083304
78	0xbd4bc7ea	-0.0497512
79	0xbd4d4195	-0.050111372
80	0x3dc3cfce	0.0956112
81	0xbd8730e9	-0.06601126
82	0x3e2c065c	0.16799301
83	0x3d7abc1e	0.06121456
84	0x3d431a1a	0.047632314
85	0xbd12d817	-0.03585061
86	0x3d9cdfe2	0.0765989
87	0xbe7933e7	-0.24336205
88	0x3cd97067	0.026542855
89	0xbe7d3101	-0.24725725
90	0xbd5765cc	-0.052587315
91	0xbd6533bd	-0.055957545
92	0x3b92e71d	0.0044831173
93	0xbd6e2cad	-0.058148075
94	0xbd08ed12	-0.033429213
95	0xbde4cc90	-0.1117183
96	0xbd5f22c3	-0.05447651
97	0x3b12b9da	0.0022388608
98	0xbc000801	-0.007814408
99	0xbd8a1faf	-0.067443244
100	0xbe1a6235	-0.15076526
101	0x3c9259b2	0.017865036
102	0x3b2a7b8f	0.0026013588
103	0xbe071682	-0.1319218
104	0xbd7bfd43	-0.061520826
105	0x3e183c19	0.14866675
106	0xbde3e267	-0.11127167
107	0x3db13ee7	0.08654576
108	0xbdd098ed	-0.10185418
109	0xbd50a7a2	-0.050941117
110	0x3ded6fc7	0.115935855
111	0x3c965ca3	0.01835472
112	0xbdb42770	-0.087965846
113	0xbe0039cf	-0.12522052
114	0x3d0fbaa9	0.035090122
115	0xbda9677e	-0.08271693
116	0x3e260345	0.16212185
117	0xbb4e9435	-0.0031521444
118	0xbe46a982	-0.194006
119	0xbe274c15	-0.16337617
120	0x3cff03d8	0.031129763
121	0x3de5448d	0.11194716
122	0x3badc976	0.005303557
123	0x3ca2b7f7	0.019863112
124	0x3e258c86	0.16166887
125	0x3c7ea0a1	0.015541227
126	0xbdc4b5de	-0.09605001
127	0xbe22fa5c	-0.15915817
128	0x3d96b292	0.07358278
129	0x3e149152	0.1450856
130	0x3c17135b	0.009220923
131	0xbe2dc914	-0.16971236
132	0xba9c8353	-0.0011940993
133	0xbd153f10	-0.036437094
134	0xbd8da3da	-0.06916018
135	0x3dc38da5	0.09548501
136	0x3e8d5a2d	0.2760786
137	0x3d4deb4d	0.05027323
138	0x3d8fa6b0	0.07014215
139	0x3c4d1244	0.012516562
140	0xbcc2c47b	-0.02377533
141	0xbd275fd5	-0.040862877
142	0x3eb4bc38	0.3529985
143	0x3ddaa6f1	0.10676373
144	0x3dac6e3b	0.08419462
145	0x3d0dc325	0.034609932
146	0x3c5c3585	0.013440494
147	0x3e10d818	0.14144933
148	0xbc9fcf5c	-0.019508056
149	0xbc5ace2a	-0.013354817
150	0x3d29b6aa	0.041433968
151	0xbdbe2952	-0.09285225
152	0xbd81fcdc	-0.06347057
153	0x3cab6065	0.020919988
154	0x3dc3d26d	0.0956162
155	0x3e10ba4c	0.14133567
156	0x3cbf624c	0.023362301
157	0xbc167c74	-0.009184945
158	0x3c40b477	0.011761776
159	0x3c1ab7c0	0.0094432235
160	0xbe080482	-0.1328297
161	0xbcc07b05	-0.02349616
162	0xbe068524	-0.13136727
163	0xbddffc93	-0.109368466
164	0xbd8cd565	-0.06876639
165	0x3cf39d73	0.029738164
166	0x3e52f155	0.20599873
167	0x3bf30051	0.007415809
168	0x3d436a47	0.047708776
169	0x3d3e3208	0.046434432
170	0x3d26ffdd	0.040771354
171	0xbd9dc347	-0.07703262
172	0xbe0f2c52	-0.1398175
173	0x3c2da221	0.010597737
174	0x3e034102	0.12817767
175	0x3e06b813	0.13156156
176	0xbb4dafe3	-0.0031385354
177	0x3d399ec3	0.045317423
178	0xbe3ef3f1	-0.18647744
179	0x3d536f3a	0.051619746
180	0x3d1145ea	0.035467066
181	0xbdb1027d	-0.08643053
182	0x3d5d9f5f	0.054107066
183	0x3d32a5a0	0.043614984
184	0x3c116ecd	0.008876515
185	0x3d277821	0.04088605
186	0x3d8d5c9a	0.06902428
187	0xbe22b3ae	-0.15888855
188	0xbd539506	-0.05165579
189	0x3ddfe57b	0.10932442
190	0xbe8482ba	-0.25880986
191	0xbd71e752	-0.059058495
192	0xbde537bf	-0.11192273
193	0xbde7955f	-0.11307787
194	0xbc8d81fc	-0.017273895
195	0x3c7014e2	0.014653416
196	0x3dedd557	0.11612957
197	0x3d98aa88	0.07454401
198	0xbd816bc9	-0.063193865
199	0xbdcbcc08	-0.09951025
200	0x3cea32a8	0.028588608
201	0x3d183887	0.037163284
202	0xbe36fd83	-0.17870145
203	0x3dd57050	0.104218125
204	0x3b8c84bb	0.0042882836
205	0xbe6c2ef9	-0.23064794
206	0xbd8695f6	-0.065715715
207	0x3ce8250c	0.028337978
208	0x3dd4dd24	0.10393742
209	0x3cc0508f	0.023475913
210	0xbd6cbd55	-0.05779775
211	0x3d87f17d	0.06637857
212	0xbcf49eb6	-0.029860836
213	0x3de4a2b6	0.11163847
214	0xbceadc90	-0.028669626
215	0xbdae501b	-0.08511373
216	0x3c9fa822	0.019489352
217	0x3df28a30	0.118427634
218	0xbe31e20e	-0.1737139
219	0x3b616477	0.0034392157
220	0xbd802965	-0.062578954
221	0x3e159d35	0.14610751
222	0xbe13eb69	-0.1444527
223	0xbc18e4a0	-0.009331852
224	0x3cedf51d	0.029047543
225	0xbd29480a	-0.041328467
226	0x3d88b802	0.06675722
227	0xbcd51e8e	-0.026015546
228	0xbd68631a	-0.056735136
229	0xbda9715b	-0.08273574
230	0xbcd6981f	-0.026195584
231	0xbdd883aa	-0.10571988
232	0xbe669d23	-0.2252088
233	0x3ce079a6	0.027401756
234	0x3e0c569d	0.13704915
235	0x3dca1c1b	0.09868642
236	0xbcec3a86	-0.0288365
237	0x3d4b1628	0.049581677
238	0xbe670a48	-0.22562516
239	0x3c8d5cfb	0.01725625
240	0x3c79e33e	0.015251933
241	0x3d9ef9d5	0.077624954
242	0x3e1091f7	0.14118181
243	0xbd7289d1	-0.059213463
244	0x3e61691f	0.22012757
245	0x3c07f78f	0.008298769
246	0x3cd28679	0.025698887
247	0x3e057dd8	0.13036287
248	0x3e587cf6	0.21141419
249	0xbd6445a0	-0.055730462
250	0xbe2be4af	-0.16786455
251	0x3da31f10	0.07964909
252	0x3de8d83b	0.11369368
253	0x3d8d055b	0.06885787
254	0xbbff50b7	-0.0077916044
255	0xbd01ea3d	-0.031717528

conv1.bias f4 [16]
0	0xbe51bff3	-0.20483379
1	0xbe3e7c10	-0.18602014
2	0x3bf6e964	0.0075351465
3	0xbe31d75f	-0.17367314
4	0xbe9bf604	-0.30461133
5	0x3dff751b	0.12473508
6	0xbd0b5a87	-0.03402188
7	0x3c8e1fa7	0.017349077
8	0xbd900b92	-0.07033457
9	0xbe353255	-0.17694981
10	0xbe49550b	-0.19661348
11	0xbe0f0a26	-0.13968715
12	0xbe282a7e	-0.1642246
13	0xbe04ade8	-0.12956965
14	0x3df2b0ed	0.11850152
15	0xbec80eaa	-0.39073688

conv2.weight f4 [16, 128, 3]
0	0xbe284d44	-0.16435724
1	0x3d449271	0.04799122
2	0xbccb2edd	-0.02480262
3	0xbde3cd3b	-0.11123129
4	0x3e643942	0.22287467
5	0x3e219cd1	0.15782477
6	0xbddfc020	-0.10925317
7	0xbdf33f1d	-0.11877272
8	0x3d8442d7	0.06458061
9	0xbd3b6a53	-0.045755696
10	0x3cdd5865	0.027019689
11	0x3d272e95	0.04081591
12	0x3d946619	0.07246036
13	0xbd74de42	-0.059782274
14	0x3d68a201	0.056795124
15	0x3d25ac1d	0.040447343
16	0xbc2604a5	-0.010132943
17	0xbca92a1c	-0.020649962
18	0xbe2ccdbf	-0.16875361
19	0xbd9755a9	-0.07389385
20	0xbd55e6e3	-0.052222144
21	0x3d98f5ef	0.07468783
22	0xbdaa9c7b	-0.083306275
23	0xbda43677	-0.08018201
24	0x3ddabe6f	0.106808536
25	0x3e86a69a	0.26298982
26	0x3e324c3e	0.17411897
27	0x3e020ce5	0.12700231
28	0xbe0abe47	-0.13549148
29	0xbca7fded	-0.020506823
30	0x3de15e94	0.110043675
31	0xbd9de2b5	-0.077092566
32	0x3df514d3	0.119668625
33	0xbd31e89b	-0.04343472
34	0xbc82e8d5	-0.015980164
35	0x3d36f2a1	0.044664983
36	0xbcb168c0	-0.021656394
37	0x3d9e42e5	0.07727603
38	0xbc250614	-0.01007225
39	0x3d6dc398	0.05804786
40	0x3d5fd666	0.054647826
41	0xbd0ca128	-0.034333378
42	0xbcc3575a	-0.023845363
43	0xbdb2ff73	-0.08740129
44	0x3c6c1d65	0.014411305
45	0xbd9b7034	-0.075897604
46	0xbc7c363f	-0.015393793
47	0xbd11a373	-0.035556268
48	0xbdd2243c	-0.102608174
49	0xbe4a6328	-0.19764388
50	0xbd18b668	-0.03728333
51	0x3cf12bcf	0.029439835
52	0x3c64b914	0.013960142
53	0x3d6a27c5	0.057166833
54	0xba6ba534	-0.0008989156
55	0xbda673f5	-0.08127586
56	0xbd6fb8ce	-0.058525853
57	0xbd46bcd3	-0.04851992
58	0xbd16cd90	-0.036817133
59	0x3d87e4b3	0.06635418
60	0x3e89ee2d	0.26939526
61	0x3d767102	0.060166366
62	0xbca71b1e	-0.020398673
63	0xbc6fd6a3	-0.014638576
64	0xbe1b39f3	-0.15158825
65	0xbe28336d	-0.16425867
66	0xbda2132a	-0.079138115
67	0x3ce55089	0.027992504
68	0xbd289412	-0.041156836
69	0xbdc0ad72	-0.09408082
70	0xbddc7bc5	-0.10765795
71	0xbdde4793	-0.108534954
72	0xbe73ef32	-0.23821715
73	0x3df48968	0.11940271
74	0xbaab72ab	-0.0013080438
75	0xbd0a51cb	-0.03376941
76	0x3de6c6e1	0.11268402
77	0xbd978ff8	-0.07400507
78	0x3d8745b6	0.06605093
79	0xbda27b37	-0.079336576
80	0x3b92b5f8	0.004477259
81	0x3db06179	0.086123414
82	0xbd19cda6	-0.037549637
83	0x3dbc8e9a	0.092068866
84	0xbd6e1668	-0.058126837
85	0x3dfe5d65	0.12420157
86	0xbdbab00a	-0.09115608
87	0xbd0bc689	-0.034124885
88	0xbd9d4d61	-0.076807745
89	0xbdb861db	-0.090030394
90	0xbcc8691e	-0.024464186
91	0xbe14f5e2	-0.14546922
92	0xbe438329	-0.19093002
93	0xbd7b4c64	-0.06135215
94	0x3e2196a5	0.15780123
95	0xbdc73e6a	-0.097287014
96	0xbde1798f	-0.110095136
97	0xbe82a948	-0.25519776
98	0xbe2ccf05	-0.16875847
99	0xbd888cf6	-0.06667511
100	0x3ceffe9d	0.029296214
101	0xbd99eaa7	-0.075154595
102	0x3da87477	0.08225339
103	0x3c048cba	0.008090192
104	0x3d57ab16	0.052653395
105	0x3e8a0a52	0.26961
106	0xbdfebf11	-0.12438787
107	0xbe1e0f36	-0.1543549
108	0xbc77ed94	-0.015132327
109	0x3df17e87	0.11791711
110	0x3d86c60d	0.06580744
111	0x3e47ca0f	0.19510673
112	0xbe1d6c11	-0.15373255
113	0xbe888384	-0.26662838
114	0xbdbe3119	-0.092867084
115	0x3e6b4abb	0.22977726
116	0x3b53beca	0.0032309764
117	0xbe051229	-0.12995209
118	0xbe1172ad	-0.14203902
119	0xbbc55be6	-0.006022918
120	0x3cbab528	0.02279146
121	0x3e2ab942	0.16672233
122	0xbbf94c61	-0.007607982
123	0x3ce1fcc6	0.027586352
124	0x3daa0f0e	0.08303653
125	0x3d8287f1	0.06373585
126	0x3e18440a	0.14869705
127	0xbd7d50f2	-0.061844774
128	0x3db97d71	0.09057129
129	0xbe79ffd9	-0.24414004
130	0x3d6ea232	0.05826015
131	0xbe6bf2d4	-0.2304185
132	0xbdc7cec2	-0.09756233
133	0xbd2cd592	-0.042195864
134	0x3d0e3a45	0.03472354
135	0x3d97f734	0.07420197
136	0x3e7360fd	0.23767467
137	0x3e39420b	0.180916
138	0xbdab8bf8	-0.08376306
139	0xbd62ca16	-0.055368505
140	0x3cacb062	0.0210802
141	0xbda56cca	-0.080773905
142	0x3d38f3e9	0.045154486
143	0xbc63f789	-0.013913997
144	0xbcf11ef9	-0.029433714
145	0x3d5da7c6	0.05411508
146	0x3ce4f9b4	0.027951099
147	0xbcad967f	-0.021189926
148	0xbd9a36e4	-0.07530001
149	0x3cddcebe	0.027076121
150	0x3c08b6c6	0.008344358
151	0xbe145e85	-0.14489181
152	0xbe55d42a	-0.20881715
153	0x3deb888b	0.11500653
154	0x3dec4252	0.11536087
155	0x3d23b159	0.039964054
156	0xbeb56af8	-0.35433173
157	0x3e1a37e7	0.15060388
158	0x3e16412b	0.14673297
159	0x3e78beb8	0.24291503
160	0xbd594b19	-0.053050134
161	0xbdcf21e6	-0.101138875
162	0x3e8fa474	0.28055155
163	0xbcaed0ef	-0.021339862
164	0xbc7aea52	-0.015314655
165	0xbd8f5c9f	-0.07000088
166	0x3db10269	0.08643038
167	0x3dc95489	0.09830577
168	0x3abcd790	0.0014407504
169	0x3e57ba88	0.2106725
170	0x3d34f84c	0.044182107
171	0xbd3b47b2	-0.04572267
172	0x3da39cd5	0.07988898
173	0x3db89b4b	0.09013995
174	0xbd5f080d	-0.054451037
175	0x3d8af51f	0.067850344
176	0xbe2aa62b	-0.1666495
177	0x3d56ddbf	0.052457567
178	0xbe0fc9bd	-0.14041801
179	0x3dcd920c	0.10037622
180	0xbcde6e2f	-0.027152149
181	0x3c858190	0.016297132
182	0xbc20c02c	-0.009811442
183	0xbd823dbf	-0.063594334
184	0xbd152d69	-0.03642026
185	0x3db32799	0.08747787
186	0xbd0b8518	-0.034062475
187	0xbd69f7fe	-0.05712127
188	0xbdcd925f	-0.10037684
189	0x3e195ab9	0.14976014
190	0xbe40afb1	-0.18817021
191	0xbde3d439	-0.11124463
192	0x3e2b3e39	0.16722955
193	0xbe052180	-0.1300106
194	0xbe0ae4fc	-0.13563913
195	0x3e1a9d5c	0.1509909
196	0xbd0cabff	-0.034343716
197	0xbc4aae93	-0.012370723
198	0xbdca0eb6	-0.09866087
199	0xbd471596	-0.04860457
200	0xbdc68c42	-0.09694721
201	0x3d9450cf	0.072419755
202	0xbc6ec3a8	-0.014573015
203	0x3d448352	0.0479768
204	0x3e8ad7eb	0.27117857
205	0xbd82e722	-0.06391741
206	0xbd28a86b	-0.04117624
207	0xbe07abd0	-0.13249135
208	0x3dcceb5c	0.10005829
209	0x3df518bc	0.11967608
210	0xbeadc0c6	-0.33936137
211	0x3ccd2070	0.025039881
212	0xbd9db5b6	-0.07700674
213	0x3dbf45a7	0.09339457
214	0xbe1135fa	-0.14180747
215	0xbba66f7f	-0.0050792093
216	0xbcec7069	-0.028862195
217	0x3d13e04f	0.03610259
218	0x3e907b4d	0.2821907
219	0x3e3905b7	0.18068586
220	0x3df78d82	0.12087537
221	0xbdafc241	-0.08581973
222	0xbdea6d14	-0.11446586
223	0xbe260fea	-0.16217008
224	0xbdc42cf1	-0.095788844
225	0xbe1307b3	-0.14358406
226	0x3e925f22	0.28588206
227	0x3d3f5412	0.046711035
228	0x3da6e476	0.08149044
229	0xbd0a17ed	-0.033714224
230	0x3d8d95b1	0.06913317
231	0xbb7ab0b9	-0.0038252308
232	0x3ca2dbda	0.019880224
233	0xbd20bd40	-0.039242983
234	0xbdbed591	-0.09318078
235	0xbd9a8351	-0.07544578
236	0xbdbf9da4	-0.093562394
237	0x3d8d67db	0.069045745
238	0x3e1c004e	0.15234491
239	0xbb21f193	-0.002471064
240	0x3c9e5f2b	0.019332489
241	0x3d864f8f	0.06558143
242	0x3e0d5430	0.13801646
243	0x3daaec12	0.08345808
244	0x3cccf507	0.025019182
245	0xbd256e8d	-0.040388633
246	0x3e82431b	0.25441822
247	0x3c85daa7	0.016339613
248	0x3e236e3d	0.15960021
249	0xbc19b79f	-0.009382158
250	0x3d5f3d78	0.05450198
251	0x3c088c26	0.008334195
252	0x3d98b15c	0.074557036
253	0x3e11d292	0.14240482
254	0x3e1efe68	0.15526736
255	0xbd879942	-0.066210285

conv2.bias f4 [16]
0	0xbec079ee	-0.37593025
1	0x3e099f0b	0.13439576
2	0xbdeb3ab3	-0.11485805
3	0xbe5e1aa3	-0.21689849
4	0xbd50fcc6	-0.051022314
5	0x3e007495	0.12544473
6	0xbe3c196c	-0.18369073
7	0xbe053c04	-0.13011175
8	0xbeb01e85	-0.34398285
9	0x3e2dc6e8	0.16970408
10	0x3df81097	0.12112539
11	0xbe4eb304	-0.20185477
12	0xbdc3cee4	-0.09560946
13	0x3e7d84b8	0.2475766
14	0xbdaf5911	-0.0856191
15	0xbe27dc50	-0.16392636

conv3.weight f4 [256, 32, 5]
0	0xbb3564cd	-0.002767849
1	0x3e1ec763	0.15505747
2	0x3c41b0cc	0.011821937
3	0xbda7eedb	-0.08199855
4	0xbbf7702c	-0.0075512137
5	0x3dcf9f37	0.1013779
6	0x3e02db1f	0.127789
7	0xbc204492	-0.009781973
8	0xbe2c1474	-0.16804677
9	0xbe7e0487	-0.24806415
10	0x3c4b2fd3	0.012401539
11	0x3d2d98d8	0.04238209
12	0x3e942347	0.28933164
13	0x3d631cbc	0.055447325
14	0xbea30117	-0.3183677
15	0xbd303a95	-0.04302462
16	0x3cbf2e03	0.02333737
17	0xbe8611ea	-0.26185542
18	0xbde0ed3e	-0.1098275
19	0xbe35dc1d	-0.17759748
20	0xbc83ed63	-0.016104406
21	0x3d697e4a	0.057005204
22	0x3e0e792b	0.1391341
23	0x3d1990e5	0.037491698
24	0x3d5a08dd	0.05323111
25	0xbd8666b1	-0.065625556
26	0xbe8ef60a	-0.27922088
27	0xbe3caaef	-0.18424581
28	0xbe2cfca9	-0.16893257
29	0xbe439d73	-0.19103031
30	0xbd5b4791	-0.053535048
31	0xbe2f8614	-0.1714099
32	0xbdc006e9	-0.09376318
33	0x3d08e598	0.033422083
34	0xbdcfd03e	-0.10147141
35	0x3ce472d7	0.027886791
36	0xbdaacf19	-0.08340282
37	0x3e3371e9	0.17523922
38	0xbd26ca3a	-0.040720202
39	0xbe2df63e	-0.16988465
40	0xbea81917	-0.32831642
41	0xbc15c8ae	-0.009142084
42	0xbebeb321	-0.3724604
43	0xbd914d7b	-0.07094856
44	0xbd30fdb3	-0.043210696
45	0xbde83cf1	-0.11339749
46	0xbdba69df	-0.091022246
47	0xbe890dd2	-0.26768357
48	0x3e369f0c	0.17834109
49	0xbe143f1d	-0.14477201
50	0x3d916024	0.070984155
51	0xbd978bf6	-0.07399742
52	0xbe4367b4	-0.19082528
53	0x3e2ac420	0.16676378
54	0xbe9145f5	-0.28373685
55	0xbd9d737c	-0.076880425
56	0x3bb5444a	0.0055318223
57	0xbd821cd8	-0.06353158
58	0xbe67204c	-0.22570914
59	0x3d66ac24	0.05631651
60	0x3dd2b528	0.10288459
61	0x3cfe99c0	0.031079173
62	0x3d65d7f9	0.05611417
63	0xbdb10032	-0.086426154
64	0xbd8e7d4d	-0.06957493
65	0xbd9d658d	-0.07685385
66	0xbe7c7f03	-0.24657826
67	0x3e12ebef	0.14347814
68	0x3e2db688	0.16964161
69	0xbd8e5fb4	-0.06951848
70	0xbdf118aa	-0.117722824
71	0xbdbedf54	-0.0931994
72	0x3e69ab24	0.22819191
73	0xbcad9b21	-0.021192135
74	0xbe422988	-0.18961155
75	0x3b71e729	0.0036911464
76	0xbe85f6bb	-0.26164803
77	0xbe3a6b1c	-0.18204921
78	0xbd37fdce	-0.04491978
79	0x3df8ecb1	0.1215452
80	0x3c14ddf9	0.0090861255
81	0xbe839783	-0.25701532
82	0xbd074952	-0.033028908
83	0xbe08744d	-0.13325615
84	0x3da4b7f4	0.08042899
85	0xbcb550d1	-0.022133263
86	0x3e92c765	0.2866775
87	0x3ba4c0f4	0.0050278846
88	0xbdfd21f7	-0.12359994
89	0xbe25b94a	-0.16183963
90	0xbe0c190e	-0.13681433
91	0xbe6eb30e	-0.23310491
92	0xbea49401	-0.32144168
93	0xbd37b5d3	-0.044851135
94	0xbe3a2b13	-0.18180494
95	0xbd39edfa	-0.045392968
96	0xbdb5c3c2	-0.088752285
97	0xbdd2b615	-0.10288636
98	0xbdebf70c	-0.1152173
99	0x3d9d5315	0.07681862
100	0xbd317e28	-0.043333203
101	0xbc8d927f	-0.017281769
102	0x3dbbf666	0.09177856
103	0xbcc60bd4	-0.024175562
104	0xbd40b25e	-0.047045104
105	0xbe2ba402	-0.16761783
106	0xbb975407	-0.004618171
107	0x3dd78e9d	0.10525248
108	0xbb10170b	-0.002198639
109	0x3d22f9dc	0.039789066
110	0xbdce561d	-0.100750186
111	0x3ba1fa7c	0.00494319
112	0x3d87f1be	0.066379055
113	0x3c06667b	0.008203144
114	0xbed8bf36	-0.42333382
115	0xbe7c65cf	-0.24648212
116	0xbe80f81c	-0.25189292
117	0x3cb035c1	0.021510007
118	0x3d451e3b	0.048124533
119	0xbeb75361	-0.358058
120	0x3d60d69e	0.054892175
121	0xbe4f4665	-0.20241697
122	0xbd2df5ba	-0.04247067
123	0x3de8a4eb	0.113595806
124	0xbd96eb55	-0.07369105
125	0xbce166ca	-0.027514834
126	0x3dadd945	0.084887065
127	0x3e0f17ec	0.13973969
128	0xbd9f056f	-0.07764708
129	0xbb93d12c	-0.004511019
130	0xbd267cb3	-0.040646266
131	0xbdc0511a	-0.09390469
132	0xbb1b9d1f	-0.0023744775
133	0x3a9e4bd9	0.0012077048
134	0xbd0fbd72	-0.03509278
135	0x3dbe83e3	0.09302499
136	0x3e677e44	0.2260676
137	0xbc1b3ed1	-0.009475426
138	0x3dee61e9	0.11639769
139	0xbdcbf691	-0.09959138
140	0xbd081a36	-0.03322812
141	0xbded8c3e	-0.11599015
142	0x3de06ba2	0.10958029
143	0xbe506405	-0.20350654
144	0xbe4132e1	-0.18867065
145	0xbd98c96e	-0.07460295
146	0x3d86c89f	0.06581234
147	0xbd84ee13	-0.064907216
148	0xbe029a09	-0.12754072
149	0x3d53d542	0.05171705
150	0xbe82affe	-0.25524896
151	0x3d915898	0.07096976
152	0x3c4cd7df	0.01250264
153	0x3d27da57	0.04097971
154	0xbe3f4f67	-0.18682633
155	0xbdb7310b	-0.08944901
156	0xbe1c863d	-0.15285583
157	0xbdfdd718	-0.123945415
158	0x3dbabf30	0.09118497
159	0xbe61daaa	-0.2205607
160	0x3db4f688	0.088360846
161	0x3dbf315f	0.09335589
162	0xbe2595de	-0.16170451
163	0x3d45167d	0.04811715
164	0xbe814ce6	-0.2525398
165	0x3d446e23	0.047956597
166	0xbe75d86b	-0.24008338
167	0xbf1817c7	-0.5941128
168	0xbe6fa57c	-0.23402971
169	0x3db81a63	0.08989408
170	0xbe2af726	-0.16695842
171	0xbd8ef2b7	-0.06979888
172	0x3e464bc5	0.19364841
173	0xbe266ec2	-0.16253188
174	0xbe987f92	-0.29784828
175	0x3d470791	0.0485912
176	0xbe4e4058	-0.20141733
177	0xbf041197	-0.5158934
178	0xbf3596dc	-0.7093332
179	0xbee88cb4	-0.45419848
180	0xbea85513	-0.32877406
181	0xbe892527	-0.26786157
182	0xbea17ef0	-0.31542158
183	0x3e1716a8	0.14754736
184	0xbf09a40b	-0.53765935
185	0x3c5e42e6	0.0135657545
186	0xbe1b3832	-0.15158156
187	0xbd20cf48	-0.03926018
188	0xbe481929	-0.19540848
189	0xbe163a16	-0.14670596
190	0x3d6b0f0a	0.05738739
191	0x3ddb28a5	0.10701112
192	0xbe846ebd	-0.25865737
193	0x3dd4813b	0.10376211
194	0xbc88de99	-0.016707705
195	0x3d96537e	0.073401436
196	0xbe29d9e3	-0.16587023
197	0xbde3715c	-0.11105606
198	0xbf28782b	-0.6580836
199	0xbeb28052	-0.34863526
200	0xbe4f7a2a	-0.20261446
201	0xbe0a35c0	-0.13497066
202	0xbdce8787	-0.100844435
203	0xbeb00bb1	-0.3438392
204	0x3d300045	0.042969007
205	0x3c323932	0.010877894
206	0xbece7cef	-0.40329692
207	0xbdd8cef5	-0.10586349
208	0xbc8a1016	-0.016853373
209	0xbf0f8627	-0.56064075
210	0x3ce90e3c	0.02844917
211	0xbe579b6d	-0.21055384
212	0x3d956ce9	0.072961636
213	0xbdb08797	-0.08619612
214	0xbb405904	-0.0029349932
215	0xbf21e159	-0.6323448
216	0xbdf3c7a7	-0.11903315
217	0xbf45ff8a	-0.77343047
218	0x3e4bea81	0.19913675
219	0xbe088fb0	-0.13336062
220	0x3e18b920	0.1491437
221	0xbe5b8ace	-0.21439669
222	0xbe3bb509	-0.18330778
223	0xbf37f289	-0.71854454
224	0x3db3d8c4	0.08781579
225	0xbe89d92f	-0.2692351
226	0xbea9dded	-0.33177128
227	0xbe8bd907	-0.27314016
228	0x3e596ac4	0.21232134
229	0x3df8233b	0.12116095
230	0x3e1b8ea3	0.1519113
231	0x3caa798d	0.020809913
232	0xbd1c9d6d	-0.03823607
233	0xbccda1f3	-0.025101637
234	0xbe870a81	-0.263752
235	0xbf3c262f	-0.73495764
236	0x3d3fc79f	0.046821233
237	0xbdc9aa7e	-0.09846972
238	0xbeae0ead	-0.33995572
239	0xbf1f8f16	-0.62327707
240	0x3d9aef32	0.07565154
241	0xbdcc074c	-0.09962329
242	0x3e4e506b	0.20147865
243	0xbe70acf7	-0.23503481
244	0x3dd2cc7d	0.10292909
245	0xbe2c3f6c	-0.16821069
246	0xbd816fca	-0.0632015
247	0xbebfbd85	-0.3744928
248	0x3af05776	0.0018336612
249	0x3c435409	0.011921891
250	0xbebe4fe1	-0.37170318
251	0x3d444494	0.047916964
252	0xbe764f40	-0.24053669
253	0xbf1268a6	-0.5719093
254	0xbca34b09	-0.01993324
255	0xbddf2173	-0.10895052

conv3.bias f4 [256]
0	0xbe2d5cf0	-0.16929984
1	0xbdc4a14d	-0.09601078
2	0x3e80fbeb	0.25192198
3	0x3dd95b39	0.106131025
4	0xbe6512a4	-0.22370392
5	0x3d878e7a	0.06618972
6	0xbe294ae1	-0.1653247
7	0xbe4bfc55	-0.19920476
8	0xbd164a81	-0.036692146
9	0xbe99073c	-0.29888332
10	0xbe85bd54	-0.26121008
11	0xbdc1b521	-0.09458376
12	0x3e5c88f1	0.21536614
13	0xbe16da4d	-0.14731713
14	0xbcc3efdb	-0.023918083
15	0x3dde59ce	0.10856973
16	0xbdc4ef4c	-0.09615955
17	0x3e164f69	0.1467873
18	0xbd0c2499	-0.03421459
19	0x3dbd3d30	0.09240186
20	0xbd240eeb	-0.04005329
21	0xbd8ef419	-0.06980152
22	0xbdd60d50	-0.10451758
23	0xbd415ec0	-0.0472095
24	0xbdca01a3	-0.098635934
25	0xbcc45d61	-0.023970308
26	0x3d1f789c	0.03893338
27	0x3cbc1244	0.022957928
28	0x3c77e2e6	0.01512978
29	0xbe1786e6	-0.14797553
30	0xbd8dac2e	-0.06917606
31	0xbcc03136	-0.023460966
32	0xbe19bc62	-0.15013269
33	0x3d21d07a	0.03950546
34	0xbe24b332	-0.16083983
35	0xbc383080	-0.011242032
36	0xbe3bc461	-0.18336631
37	0xbe1b1bda	-0.15147343
38	0x3d877a39	0.06615109
39	0xbdb75e10	-0.08953488
40	0xbe0f5734	-0.13998109
41	0x3cb2a77d	0.02180838
42	0x3cf28c57	0.029607935
43	0x3b7c7ca6	0.0038526445
44	0xbdfd6ec2	-0.12374641
45	0x3c1a682f	0.009424253
46	0xbb08f995	-0.0020900716
47	0xbd10bc33	-0.03533573
48	0xbe0bbf8c	-0.13647288
49	0x3c3f679b	0.011682416
50	0xbde53633	-0.11191978
51	0xbd89bd83	-0.067255996
52	0xbe0014a0	-0.12507868
53	0xbda168cf	-0.07881319
54	0xbe28d1e6	-0.1648632
55	0xbe08e932	-0.13370207
56	0xbe079ca1	-0.13243343
57	0x3d9bf92d	0.07615886
58	0xbe81ebf1	-0.25375322
59	0xbd9557c6	-0.07292132
60	0xbd041225	-0.032243866
61	0xbd49b32e	-0.049243145
62	0xbd51eb5a	-0.05124984
63	0x3d5ccdd9	0.05390725
64	0xbd5b6a02	-0.053567894
65	0x3c0a4330	0.00843887
66	0xbdf07d86	-0.11742692
67	0xbdc05428	-0.093910515
68	0xbc61d61a	-0.013783956
69	0xbe1d3003	-0.15350346
70	0xbe16c2ce	-0.1472275
71	0xbe155d74	-0.14586431
72	0x3db09a5f	0.08623194
73	0xbd4b822e	-0.049684696
74	0xbdcd502e	-0.10025059
75	0xbe05dc9f	-0.13072442
76	0xbdada794	-0.084792286
77	0xbd43e5fb	-0.04782675
78	0xbd987057	-0.07443302
79	0xbe08e476	-0.13368401
80	0xbe5c28a0	-0.21499872
81	0x3db04100	0.08606148
82	0xbcf97cde	-0.03045505
83	0xbda63aa4	-0.081166536
84	0xbe1914b6	-0.14949307
85	0x3dd21950	0.10258734
86	0xbcba8f57	-0.022773428
87	0x3d0140e1	0.031556014
88	0x3d76feb4	0.060301498
89	0xbe4162ad	-0.18885298
90	0xbdb54290	-0.088505864
91	0x3dc0d155	0.09414927
92	0x3debde41	0.11517001
93	0xbd9faf93	-0.0779716
94	0xbc8ec558	-0.017428085
95	0x3e487d33	0.1957901
96	0xbe0075c7	-0.12544928
97	0xbcf61fc0	-0.030044436
98	0xbce7d20a	-0.028298397
99	0xbe9815e2	-0.29704195
100	0xbe218db6	-0.15776715
101	0xbe7783fd	-0.24171443
102	0xbcd2a531	-0.025713535
103	0xbd008611	-0.031377856
104	0xbdcc0f92	-0.09963907
105	0xbdf176af	-0.11790215
106	0xbe0919c4	-0.13388735
107	0xbe005486	-0.12532243
108	0xbd7ac704	-0.061224952
109	0xbe0da946	-0.13834104
110	0xbd7c534a	-0.06160287
111	0xbe14de54	-0.14537936
112	0xbe409176	-0.18805489
113	0xbda365fa	-0.07978435
114	0xbd944764	-0.07240179
115	0xbd3c1b3e	-0.045924418
116	0xbe039fbc	-0.12853903
117	0xbd410fbc	-0.047134146
118	0x3e240aba	0.16019717
119	0xbe076942	-0.13223746
120	0xbe502669	-0.20327152
121	0x3e08718d	0.13324566
122	0xbd3ea7e6	-0.04654684
123	0xbd89a495	-0.06720845
124	0xbd905f7c	-0.07049462
125	0x3d4240a9	0.047424946
126	0xbd6c4679	-0.057684395
127	0x3de180fc	0.1101093
128	0xbde24051	-0.11047424
129	0xbda53814	-0.08067337
130	0xbde930f8	-0.11386293
131	0x3d299429	0.041401062
132	0xbdf16817	-0.11787432
133	0xbce6b05a	-0.028160263
134	0xbe790054	-0.24316531
135	0xbd1cd906	-0.038292907
136	0xbd974f21	-0.073881395
137	0xbdc4d45a	-0.09610815
138	0x3e058586	0.13039216
139	0x3c181ffc	0.009284969
140	0xbc66fbf3	-0.014098155
141	0xbe323952	-0.17404678
142	0xbe0ed9be	-0.1395025
143	0xbc38d820	-0.011281997
144	0xbdc26ace	-0.094930276
145	0x3c84fc58	0.016233608
146	0xbce799b6	-0.028271537
147	0xbdb49a9a	-0.088185504
148	0xbe1cbd53	-0.15306596
149	0xbddbfee1	-0.10741974
150	0xbd05d20d	-0.032671023
151	0xbdd124ec	-0.102121204
152	0xbe7a8ee5	-0.24468572
153	0xbe203c1e	-0.15647933
154	0xbd7d799a	-0.061883546
155	0xbe41880f	-0.18899558
156	0xbd25512e	-0.040360622
157	0x3c82a501	0.01594782
158	0x3b9bae61	0.004751012
159	0xbcdf3dfc	-0.027251236
160	0xbe24ac00	-0.16081238
161	0xbe157aeb	-0.1459767
162	0x3e4a61bf	0.1976385
163	0x3cad30e5	0.021141479
164	0xbcf54b3f	-0.029943107
165	0xbd2e62cd	-0.042574693
166	0xbdd910b3	-0.10598888
167	0xbdb0c3c9	-0.08631093
168	0xbdbcfe5c	-0.09228203
169	0x3d340f26	0.04395976
170	0xbd9c647f	-0.076363556
171	0xbe41430f	-0.18873237
172	0xbdc6d9bb	-0.097094975
173	0xbdb92271	-0.09039772
174	0xbd9403f7	-0.07227319
175	0xbe23bc3f	-0.15989779
176	0x3c9cf1f3	0.01915834
177	0x3d2c04fe	0.04199695
178	0x3d89ff40	0.06738138
179	0xbde599ca	-0.112109736
180	0xbe12f539	-0.14351358
181	0x3c41893d	0.011812505
182	0xbe419ae0	-0.18906736
183	0xbda444a3	-0.08020904
184	0xbe112ed2	-0.14178017
185	0xbe001562	-0.12508157
186	0xbdd1dbf9	-0.102470346
187	0x3d88d7a0	0.06681752
188	0xbe731900	-0.23740005
189	0xbe06b325	-0.13154276
190	0x3dc6f7cb	0.097152315
191	0x3e62eb30	0.2216003
192	0x3cf6a565	0.030108163
193	0x3d0d1ad2	0.034449406
194	0x3d80b204	0.06283954
195	0xbe101563	-0.14070658
196	0xbe132cc7	-0.1437255
197	0xbdaadf65	-0.083433904
198	0xbc805c17	-0.015668912
199	0x3becc594	0.0072257016
200	0x3d0222d4	0.031771496
201	0x3da964d6	0.08271186
202	0xbda6520d	-0.08121119
203	0xbe3730f2	-0.17889765
204	0xbd9a5512	-0.07535757
205	0xbda72a48	-0.081623614
206	0xbdd65468	-0.10465318
207	0xbcdec24d	-0.02719226
208	0xbe8746ab	-0.26421103
209	0xbe1cc0c3	-0.15307908
210	0xbd277385	-0.040881652
211	0xbc01173e	-0.0078790765
212	0xbbf3db9e	-0.007441952
213	0xbe2f0771	-0.17092682
214	0xbd4550c7	-0.04817274
215	0x3e771a74	0.24131185
216	0x3b878ed7	0.004136901
217	0xbc8c424f	-0.017121462
218	0xbd2d51ed	-0.04231446
219	0xbe511dd6	-0.20421538
220	0xbc4d697b	-0.012537356
221	0xbc955e91	-0.01823357
222	0x3ca36843	0.019947177
223	0xbde5cf9e	-0.112212405
224	0xbdaa6c95	-0.08321492
225	0x3c6b4baf	0.014361306
226	0xbdb4eed9	-0.08834619
227	0xbe595030	-0.21221995
228	0x3d8f34cf	0.06992494
229	0x3c3a3998	0.0113662705
230	0xbe844942	-0.2583714
231	0xbca2090b	-0.019779703
232	0x3dc92b67	0.098227315
233	0xbd01bb41	-0.03167272
234	0xbcd0ac61	-0.025472822
235	0xbe16c9a5	-0.14725359
236	0x3d733868	0.059379965
237	0xbe471682	-0.1944218
238	0x3d7f54fa	0.0623369
239	0x3b55b601	0.0032609703
240	0x3ca073d5	0.019586483
241	0xbd8ad9f8	-0.067798555
242	0xbd302326	-0.04300227
243	0xbcc6da99	-0.024274157
244	0xbcf541f1	-0.02993867
245	0xbdfd41b3	-0.12366047
246	0xbded9976	-0.11601536
247	0xbc86baa2	-0.016446415
248	0xbdf4f7d4	-0.11961332
249	0xbd4a7f8e	-0.049438052
250	0xbd1f8654	-0.038946465
251	0x3d6d00d5	0.05786212
252	0xbd4c857a	-0.04993198
253	0xbe19c406	-0.15016183
254	0xbe3bf826	-0.1835638
255	0x3e2be63c	0.16787046

fc.weight f4 [8, 256]
0	0x3db4748f	0.08811294
1	0xbebe1b84	-0.37130368
2	0x3e358313	0.17725782
3	0x3e0aaf38	0.13543403
4	0x3d17c523	0.03705324
5	0x3df68389	0.12036807
6	0xbdda1a2d	-0.10649524
7	0x3d82951b	0.06376096
8	0x3d1b73b9	0.03795216
9	0x3d35dba3	0.044398915
10	0x3d11fc63	0.035641085
11	0xbd9a7f6e	-0.075438365
12	0x3d965694	0.07340732
13	0x3cb7eacf	0.022450833
14	0xbd57ca36	-0.052683078
15	0x3e36e46f	0.17860578
16	0x3d15ef32	0.036605068
17	0x3df1216e	0.11773954
18	0x3daa54d4	0.08316961
19	0x3dcd2e8d	0.100186445
20	0x3a4efa85	0.00078956067
21	0x3d9e2115	0.07721154
22	0x3dbcc5b3	0.09217396
23	0x3bf1d9a3	0.0073806806
24	0x3d0184da	0.031620838
25	0xbe04c28e	-0.12964842
26	0x3d5bde97	0.053679075
27	0x3de5dc92	0.11223711
28	0xbdec41a5	-0.11535958
29	0xbdd1274c	-0.102125734
30	0x3dc802b3	0.0976614
31	0x3df47811	0.11936963
32	0x3d53342b	0.051563423
33	0xbdac619f	-0.08417057
34	0x3d207a12	0.039178915
35	0x3dc87b5a	0.097891524
36	0xba8d7eae	-0.00107952
37	0xbde50500	-0.11182594
38	0xbe216c22	-0.15763906
39	0x3d69d443	0.057087194
40	0x3b57f342	0.003295139
41	0x3c5f807a	0.013641471
42	0xbe107311	-0.14106394
43	0x3da9b9b3	0.082873724
44	0x3ca35688	0.019938722
45	0xbe4906a0	-0.19631433
46	0x3e04f270	0.12983108
47	0x3d4c7e60	0.049925208
48	0xbdae7c49	-0.08519799
49	0x3d19abc5	0.037517328
50	0xbd2b2dc3	-0.04179169
51	0x3c37173d	0.011174974
52	0x3d80d5be	0.06290768
53	0x3c3ffe34	0.011718322
54	0x3d9c299d	0.076251246
55	0xbd879fb7	-0.0662226
56	0xbd758cfc	-0.059948906
57	0x3dd7fcdd	0.10546277
58	0xbda5157b	-0.08060738
59	0xbd9e8072	-0.07739343
60	0x399dd580	0.00030104443
61	0xbe200c61	-0.15629722
62	0xbc498c84	-0.012301568
63	0x3def824b	0.11694773
64	0x3d87e685	0.06635765
65	0xbcfc008e	-0.030761983
66	0x3c2ef14a	0.010677645
67	0xbd8e811e	-0.06958221
68	0x3d32b82e	0.04363268
69	0x3cb1e23a	0.021714319
70	0x3d81b1ad	0.06332717
71	0x3d7e6435	0.062107284
72	0x3e7c5920	0.24643373
73	0xbd30f94c	-0.043206498
74	0x3dddeefc	0.10836598
75	0x3c972ea0	0.01845485
76	0xbc880c19	-0.016607331
77	0x3d829b1c	0.06377241
78	0xbd127574	-0.035756543
79	0xbda77b2b	-0.08177789
80	0xbc91472e	-0.017734136
81	0x3d3ff6a1	0.046866063
82	0x3da33a3c	0.07970092
83	0xbbd47b0d	-0.0064843954
84	0x3d177e03	0.03698541
85	0x3d049126	0.032364987
86	0xbd77cfa7	-0.060500767
87	0xbe57d7a5	-0.21078356
88	0xbcdc552e	-0.026896086
89	0xbdbb35fb	-0.09141155
90	0x3d4a9dce	0.0494669
91	0x3e3ce0eb	0.18445174
92	0x3d5e4693	0.054266524
93	0xbcad6949	-0.021168368
94	0xbe1e3267	-0.15448914
95	0x3d065723	0.032797944
96	0xbe5fc056	-0.21850714
97	0xbdc25a45	-0.09489874
98	0x3cdb2ac1	0.026753785
99	0x3da00f22	0.07815386
100	0x3d1af7ef	0.037834104
101	0xbda06bd4	-0.078330666
102	0x3dbcbd8a	0.09215839
103	0x3cb86556	0.022509258
104	0xbd887867	-0.0666359
105	0xbd85ba10	-0.06529629
106	0x3d93531f	0.071935885
107	0xbbd96f00	-0.0066355467
108	0x3b3cf3dd	0.0028831877
109	0xbe181c75	-0.14854605
110	0xbd358c0d	-0.044323016
111	0xbe174487	-0.14772235
112	0x3df70ad5	0.12062613
113	0x3d44f0ff	0.048081394
114	0xbd9137d7	-0.07090729
115	0xbdcab489	-0.098977156
116	0x3c2c6bc2	0.010523738
117	0xbdb347f4	-0.08753958
118	0x3cf4d9b7	0.02988897
119	0xbdb47ec6	-0.088132426
120	0xbe331378	-0.17487895
121	0x3dd815d6	0.1055104
122	0xbb3ee8bd	-0.0029130422
123	0x3da28d5b	0.07937118
124	0x3cb33f23	0.021880692
125	0xbd9a4266	-0.07532196
126	0x3df3b372	0.11899461
127	0x3d730311	0.059329096
128	0x3ae5bbcb	0.001752728
129	0x3d358a7d	0.044321526
130	0xbbd3d227	-0.006464261
131	0xbd6d25e5	-0.057897467
132	0x3caf176f	0.021373479
133	0xbc1055ac	-0.008809488
134	0x3d1a4931	0.037667457
135	0x3d408a60	0.047006965
136	0xbd0797cd	-0.033103753
137	0xbcd29559	-0.02570598
138	0x3df6ca7e	0.12050341
139	0x3cffab64	0.031209655
140	0x3d722e2b	0.05912606
141	0x3cd912c0	0.026498199
142	0xbc2f9438	-0.01071649
143	0xbe3c2681	-0.18374063
144	0x3cbf1a29	0.023327904
145	0xbcafd132	-0.021462057
146	0xbe2ff0c9	-0.17181696
147	0xbea5b136	-0.32361764
148	0xbd234cd2	-0.039868183
149	0x3d7fa902	0.062417038
150	0x3db2cf9d	0.08731005
151	0xbd96f741	-0.07371379
152	0x3d0ccddd	0.034376014
153	0xbdf0e05d	-0.11761544
154	0xbce9d72c	-0.028544985
155	0xbd1d4892	-0.038399287
156	0xbde481ce	-0.11157571
157	0x3d215a68	0.03939286
158	0x3e108b1e	0.14115569
159	0x3d8962fa	0.067083314
160	0xbb38db83	-0.002820701
161	0x3d2363ac	0.039889976
162	0x3d5b5aa5	0.053553242
163	0x3d02ae6f	0.031904634
164	0x3e119529	0.14217056
165	0x3dab6eae	0.0837072
166	0xbda92fbf	-0.0826106
167	0x3d311c5c	0.043239936
168	0xbcc0351a	-0.02346282
169	0x3d22a81d	0.039711107
170	0x3d89aef7	0.06722825
171	0x3e0fe7da	0.14053288
172	0xbd88a61f	-0.0667231
173	0x3e0337be	0.12814233
174	0x3cb5f41f	0.022211133
175	0xbc992714	-0.018695392
176	0xbd68b663	-0.056814563
177	0x3d8d0c96	0.06887166
178	0x3cae9665	0.021311948
179	0x3c4f495a	0.012651766
180	0x3cacaeef	0.021079509
181	0x3e57cac6	0.21073446
182	0xbe3c41f6	-0.18384537
183	0xbe38ba38	-0.18039787
184	0x3cfb7f5f	0.030700384
185	0x3db9ab7f	0.090659134
186	0x3b4aea45	0.003096239
187	0x3d90d9a3	0.07072761
188	0x3dce7d7f	0.1008253
189	0x3bf78b59	0.0075544533
190	0xbd620af5	-0.05518623
191	0x3dc2288c	0.0948039
192	0x3d3e34b9	0.046437
193	0xbde675b6	-0.1125292
194	0x3d990bfb	0.07472988
195	0x3d05750d	0.03258233
196	0xbd9c0488	-0.07618052
197	0x3e270ef1	0.16314293
198	0xbcffb1fa	-0.031212796
199	0x3d4fb063	0.050705325
200	0x3d8cda38	0.068775594
201	0x3ded3b2f	0.11583554
202	0x3da1bcab	0.07897314
203	0xbc996b80	-0.018728018
204	0xbc2d6550	-0.010583237
205	0xbb938ba8	-0.0045027323
206	0x3d29d1d8	0.04145989
207	0x3da0fdf6	0.07860939
208	0x3cd12443	0.025529986
209	0x3ad4482a	0.0016195823
210	0xbdc705d4	-0.097179085
211	0xbcc6e082	-0.024276976
212	0x3db7c73a	0.08973546
213	0x3dcd3fda	0.10021944
214	0xbc59ca8f	-0.013292923
215	0x3e0d530e	0.13801214
216	0x3cd25fdc	0.025680475
217	0x3d11357f	0.03545141
218	0x3da543aa	0.080695465
219	0x3d9ee8ad	0.07759223
220	0xbcf01e51	-0.029311331
221	0xbd64b051	-0.05583221
222	0x3de2c164	0.110720426
223	0x3c2d4a0a	0.010576734
224	0x3c583a30	0.013197467
225	0x3d8283b3	0.06372776
226	0xbd385876	-0.045006238
227	0xbd3b8e48	-0.045789987
228	0x3d9297d1	0.07157863
229	0x3d669291	0.05629212
230	0xbdc88723	-0.097914
231	0x3d689663	0.056784045
232	0x3d9153f6	0.070960924
233	0xbc790896	-0.015199801
234	0xbcb95262	-0.022622291
235	0x3db7894e	0.08961736
236	0xbdd40569	-0.103525944
237	0xbdadaeb3	-0.08480587
238	0x3db9c0f5	0.09070007
239	0xbce622c7	-0.028092755
240	0xbb79ce08	-0.003811719
241	0xbd395673	-0.04524846
242	0x3c9383d3	0.018007195
243	0xbda49a5f	-0.080372564
244	0x3d3f3b6c	0.04668753
245	0x3d05ac49	0.032635007
246	0x3d81d826	0.06340055
247	0x3e3511cb	0.17682569
248	0x3dbbe296	0.09174077
249	0x3d0ab9e0	0.03386867
250	0xbd522132	-0.05130119
251	0x3e105144	0.140935
252	0x3dd8309e	0.10556148
253	0x3c829c2c	0.01594361
254	0xbe692382	-0.22767451
255	0x3dae2f33	0.08505096

fc.bias f4 [8]
0	0x3e6cc73f	0.23122881
1	0xbea6f5be	-0.3260936
2	0xbe3054a4	-0.17219788
3	0xbdbc4ecb	-0.09194716
4	0xbd8d90dc	-0.06912395
5	0xbe38f0b8	-0.18060577
6	0xbd96504b	-0.073395334
7	0xbe2c7794	-0.1684249
