src/main/python/saved_models/javascript_1_66_CNNClassifier1_128embs_130id_32hd_0hl_Falsebid3kernel0.3dropout_2.pt (torch, 508747 bytes, 9 tensors)

emb.weight f4 [130, 128]
000000 f1 dd ff 3e da 62 c8 bf 7c 5e 64 bf 39 6b 8d bf
       0.49974015 -1.5655167 -0.8920667 -1.1048347
000010 f3 fa 5c 3e 3b fe 05 40 87 03 7f bf e8 d4 ba 3d
       0.21580105 2.093642 -0.9961476 0.0912264
000020 05 08 74 3f 99 ab 0d 3e 82 9f 07 c0 ff db 1f be
       0.95324737 0.1383499 -2.1191106 -0.15611266
000030 e4 0b 8d bf e8 64 c1 be 93 64 8f 3e 31 32 76 bf
       -1.1019254 -0.37772298 0.2800642 -0.96170336
000040 7d a0 89 be 95 e8 5a bf 84 93 f4 be e8 55 8e 3f
       -0.26880255 -0.8551114 -0.47768795 1.1119967
000050 3f 98 e5 bf 2f 92 a2 be 46 8d 22 bf 37 2f 2b bf
       -1.7937087 -0.31752154 -0.63496816 -0.6686892
000060 30 01 1a 40 3b b6 c3 bf ed ac 32 bf d0 73 68 3b
       2.4063225 -1.5289987 -0.69795114 0.003546942
000070 d7 1f b0 be 89 0d 14 3f 29 f7 a6 3a f2 2b 5c bf
       -0.34399292 0.57833153 0.0012738454 -0.86004555
000080 90 ea e2 3e 32 01 16 3f ef 83 dd 3f 4d 20 95 3e
       0.44319582 0.58595574 1.7305888 0.29126206
000090 be 31 26 40 2b 72 9a 3f ac 72 62 3e fd 8d df 3e
       2.596786 1.2066091 0.22114056 0.43663016
0000a0 a2 85 9c be 88 b5 a9 bf e7 66 66 3f 35 9f 0b 3f
       -0.30570704 -1.3258524 0.90000767 0.54539806
0000b0 2b 49 bd 3f ee 57 54 bf b5 fc ff bf c8 b0 fc 3e
       1.4787954 -0.8294667 -1.9998995 0.49353623
0000c0 04 27 01 40 b3 7c 00 bf 2b 30 19 3f 81 8d 9c bf
       2.0180063 -0.50190276 0.59839123 -1.2230684
0000d0 08 29 ec 3f 13 31 83 bf 47 d2 d6 3c 27 89 22 c0
       1.8450022 -1.0249351 0.026223315 -2.539621
0000e0 36 60 25 bf 5f 61 e9 bf b1 98 79 bf 79 40 88 3f
       -0.6459993 -1.823284 -0.97498614 1.0644675
0000f0 13 e6 a7 bb 83 06 f2 bf c5 97 12 bf c6 c6 48 bf
       -0.0051238625 -1.8908237 -0.5726283 -0.78428304
000100 3d 9f 20 3c bc 2f 34 3e 81 7e 16 3f 92 00 af bf
       0.00980359 0.17596334 0.5878678 -1.3672049
000110 e6 55 13 3f f1 a8 a9 3e ec 89 e4 bd 81 23 45 3f
       0.57552946 0.33136705 -0.11159119 0.770073
000120 6e d5 01 bf c6 86 f1 bf 57 4d bc 3f ee 19 ef be
       -0.5071629 -1.8869255 1.4711102 -0.4669947
000130 d4 e4 bc 3e d9 2a 54 bf 58 6c 92 bf a3 61 8a 3f
       0.36893332 -0.8287788 -1.1439314 1.0811046
000140 3d ab 35 3e d2 ce 9e 3f 39 9b f0 3d e7 b3 86 bd
       0.17741103 1.2406867 0.11748356 -0.065772824
000150 9d 36 ac bf 27 cb 7f be 04 56 2c be a5 73 c5 be
       -1.3454167 -0.2497984 -0.16829687 -0.38564792
000160 a3 05 cf 3d c4 21 d2 3f 78 57 2d bf e5 c5 a1 bf
       0.10108497 1.6416554 -0.6771159 -1.2638518
000170 0a 1a 12 c0 49 0b 16 40 08 b0 aa be dc 96 88 be
       -2.2828393 2.3444388 -0.33337426 -0.26677597
000180 0d f9 c8 ba 01 07 8c bf 42 9d af 3e 1e bf 23 3f
       -0.0015333012 -1.0939637 0.34299666 0.63963497
000190 fa 55 b3 3e 65 69 f8 3e ba 6d 5f bf da 48 24 3f
       0.35026532 0.4851791 -0.87276804 0.6417366
0001a0 98 30 03 bf d2 be ea bf 87 55 d4 3f 8d 68 2a bc
       -0.51246023 -1.8339484 1.6588601 -0.010400903
0001b0 c8 6f 7e bf 0c 0a 50 3f 06 1b 79 bf 59 12 bb bf
       -0.99389315 0.8126533 -0.9730686 -1.4614974
0001c0 3c fd 86 3f ff a5 59 3e f2 d0 8c bf d4 ca 68 3e
       1.0546031 0.21254729 -1.1001265 0.22733623
0001d0 e7 0b e0 3f 80 52 17 3f 92 61 4f bd f6 50 26 3e
       1.7503632 0.5911026 -0.05063016 0.16241822
0001e0 ea 71 24 3f 48 d6 d2 be d4 f9 b6 be 79 34 f8 bd
       0.6423632 -0.4117911 -0.3573748 -0.12119383
0001f0 b6 bb 51 bf e6 2d 26 be 41 ae 8b 3f 69 79 ba bf
       -0.8192705 -0.16228446 1.0912553 -1.4568301
000200 e9 09 1d c0 79 50 76 3f aa cf 00 3f b0 e5 81 3e
       -2.4537299 0.9621654 0.5031687 0.2537055
000210 38 6c 05 3f 71 2a 00 40 c0 fd 47 bf eb 89 a9 3e
       0.52118254 2.0025904 -0.78121567 0.33113036
000220 f2 2f 98 be db b4 4c 3e 56 11 b3 bf 86 95 40 bf
       -0.2972408 0.19990866 -1.3989666 -0.75228155
000230 41 fa a5 3f d6 3c 94 3f 9d 74 2b 3f aa 23 93 3f
       1.2966996 1.1581066 0.6697481 1.1495259
000240 66 bc 09 3f d9 f2 39 bf 10 d4 4a be 72 26 0c 3f
       0.538031 -0.7263618 -0.19807458 0.5474616
000250 77 df b9 bd 13 9c 1d bf a4 41 e3 3d 14 05 21 3f
       -0.09075826 -0.61566275 0.11096504 0.62898374
000260 b3 28 15 3f 38 9a 82 3f a2 8c 2a 3e f7 b2 8e 3f
       0.5826523 1.0203314 0.1665521 1.1148366
000270 29 55 83 3e 9b 36 23 3f 53 9d f7 3e d4 da 94 bf
       0.2565091 0.63755196 0.48362216 -1.1629281
000280 67 72 15 3e 50 a7 00 3c 4d 95 75 3e 60 c3 8c bf
       0.14594422 0.00785239 0.23982735 -1.0997124
000290 ff 9e 48 bf 91 8b 87 bf b1 9c bf 3e c3 8b e5 3e
       -0.7836761 -1.0589467 0.37424234 0.44833192
0002a0 47 f2 3d bf db 36 00 c0 f0 94 a5 3e f5 e6 0b 40
       -0.7419781 -2.003348 0.32340193 2.1859715
0002b0 c2 cb 17 3e 9b 4f 5c be 6d b5 45 3f 15 85 f6 be
       0.14823821 -0.21514742 0.7722996 -0.4814841
0002c0 f4 f6 e8 3e e8 c8 2e 40 44 2d 8c 3e 48 8c 9c 3e
       0.4550091 2.7310123 0.27378285 0.30575776
0002d0 4b b4 df bf 29 e3 20 be c6 9a 93 bf 81 e9 16 c0
       -1.7476896 -0.15711655 -1.1531608 -2.358002
0002e0 a6 4e 85 bf 55 ee 4c 3f 51 8c b2 bc 7e b7 e2 3f
       -1.0414627 0.80051166 -0.021795424 1.7712247
0002f0 dd aa f9 3e 59 86 b5 3f 60 bc 93 3f 2b af e2 be
       0.4876317 1.4181625 1.1541862 -0.44274268
000300 ac 12 a2 3f 60 98 c1 be 60 8c 9f 3f f5 08 1d 40
       1.2661948 -0.37811565 1.2464714 2.4536717
000310 06 74 62 bf ae 59 53 3f a1 e2 b7 3f d8 5a 0d bf
       -0.8845829 0.82558715 1.4366037 -0.5521674
000320 18 b3 82 3f 5a ba 8c bf da f9 70 3f d1 84 e0 3e
       1.0210905 -1.099437 0.94131243 0.4385133
000330 5a 1c 98 bc 04 76 6e bf 6b e4 8e bf 31 fb dd 3f
       -0.018568207 -0.9314883 -1.1163458 1.7342283
000340 e5 d8 9f be d6 4c 44 bf a7 b0 8e 3e 68 53 9b bf
       -0.31220165 -0.7667974 0.2786915 -1.2134829
000350 ba 48 2e be 12 6c 04 3f d6 5a c2 3f d9 47 a3 3f
       -0.1701993 0.517274 1.5183971 1.2756301
000360 b9 69 ac bf 3e c3 9c bf d8 e8 7c be 07 cd 22 bf
       -1.3469764 -1.2247083 -0.24698198 -0.63594097
000370 65 49 88 be 89 0d a3 3f 86 56 1e 3f a0 95 5c bf
       -0.26618496 1.2738506 0.61850774 -0.8616581
000380 63 1b 2c 3f 0f 42 a9 3e 8b 0e 2f 3f 76 c7 af bc
       0.6722929 0.3305821 0.68381566 -0.021457415
000390 76 4d c2 bd 9c 94 17 3e d5 3c 01 c0 72 e4 f2 bf
       -0.09487431 0.14802784 -2.019338 -1.8975966
0003a0 fe 78 4f bf 0f 21 91 bf d5 b9 14 bf 4f b3 25 be
       -0.81043994 -1.1338214 -0.5809606 -0.16181682
0003b0 09 4a 15 be 95 54 12 3e 32 a4 80 3f 8e 4e 82 bf
       -0.14579023 0.14290078 1.0050108 -1.0180223
0003c0 be 18 6b 3f 3c 75 da bf 22 57 93 3f d4 62 f9 3e
       0.9183463 -1.7067027 1.1510966 0.48708212
0003d0 0d 5b 02 bf c8 3d 92 be c4 4d 47 3f b7 15 80 3f
       -0.5092018 -0.2856276 0.77853036 1.0006627
0003e0 fc 2a 0b bf fa 16 bd be 49 7e 4c 3e d5 63 a1 3f
       -0.54362464 -0.36931592 0.19970049 1.2608591
0003f0 39 d6 91 be dc a5 af bf 93 fa f3 3d c7 b8 9a bf
       -0.2848375 -1.3722491 0.119130276 -1.208764

conv1.weight f4 [32, 128, 3]
000000 26 d3 44 3d 76 10 32 3e b7 3b 05 3e 0b 28 02 3d
       0.04805293 0.17389092 0.1301106 0.03177647
000010 49 f8 a4 3d c4 65 de bd 73 3a 5a 3e 71 03 1a 3e
       0.08055169 -0.10859254 0.21311359 0.15040375
000020 8c 8f 92 ba e9 19 66 be 49 13 36 3e 54 21 08 3d
       -0.0011181696 -0.22470821 0.17780794 0.03323491
000030 2a 6d 8c bc 90 23 d6 bd 50 f8 3d 3d 64 7c 49 3d
       -0.017141897 -0.10456002 0.046379387 0.049190894
000040 b3 f8 83 3d 4b 00 37 3e d9 77 88 be f3 0e 97 be
       0.0644392 0.17871206 -0.26653937 -0.29503593
000050 e7 a3 56 3d e7 a7 31 be 32 29 6d bd e1 91 92 bd
       0.052402403 -0.17349206 -0.057900615 -0.071567304
000060 bb ba 8a bd 1b 03 82 be 61 b8 ba 3d aa a5 e4 bd
       -0.06773897 -0.25392994 0.09117199 -0.111644104
000070 b3 ee 3d 3d 0f 41 ab 3d ef 2e 12 3e 96 96 05 bd
       0.04637022 0.08362018 0.14275716 -0.032614313
000080 6a 47 23 3e 4d 4b dc bd 2c 17 80 be c7 9a 1b be
       0.15945211 -0.1075655 -0.2501768 -0.15195762
000090 19 43 77 be 54 eb d4 3d 4d e6 d0 3d a0 97 42 3e
       -0.2414669 0.10396448 0.102001764 0.19003153
0000a0 ee ed c7 bd e4 54 ba 3d bc d2 4e be e0 d8 d9 3a
       -0.09762178 0.09098223 -0.20197576 0.001662042
0000b0 bc f6 a6 3b 1e d9 30 3e b3 98 3d 3e 03 f4 5d 3d
       0.005095331 0.17270324 0.18515281 0.054187786
0000c0 43 1b 70 3d bd 79 e0 bd 4b 48 ba 3c 1a 4c 87 be
       0.05861975 -0.1096072 0.02273955 -0.26425248
0000d0 79 6e 18 3e a9 dc a3 bd 14 5e be bd c9 76 87 bd
       0.14885892 -0.08001072 -0.09295288 -0.06614453
0000e0 96 41 68 bd 8d 0b 56 be c5 44 08 be a0 50 51 3d
       -0.056703173 -0.20902844 -0.13307483 0.05110228
0000f0 db 9c c1 3d 93 25 ed 3d 44 e8 19 3d 8f 2d 87 3d
       0.09453746 0.11579432 0.03757502 0.066004865
000100 04 aa 70 bd 63 81 1a 3d c7 5f 91 3d ea 71 0b 3e
       -0.05875589 0.03772105 0.07098346 0.13617674
000110 f3 2b fa 3d b0 2e cd 3d 50 cb 19 be 68 16 af 3c
       0.12215414 0.100186706 -0.15018964 0.021372989
000120 7d ac 51 be df 4b 23 3e 81 c6 fc bc c4 df 47 3e
       -0.20475955 0.15946911 -0.030856373 0.19518954
000130 59 a8 94 3d 92 2b 99 3d b9 f6 30 be 8e 78 5b bd
       0.07258672 0.074790135 -0.17281617 -0.053581767
000140 6c bf 3f 3d 04 fe 17 bd dc 44 ca 3b cf ac 98 bd
       0.046813414 -0.037107483 0.0061727595 -0.074548356
000150 52 31 65 3d 55 d0 1e 3d 74 80 38 bd e5 ca 1c be
       0.05595524 0.0387729 -0.045044377 -0.15311773
000160 d8 0e 41 bd b0 65 48 3d 2c 34 ce 3d 01 9b 5e 3e
       -0.047133297 0.0489251 0.10068545 0.21738817
000170 1e d1 15 be 16 6d 90 be 30 f3 10 bd 2c a0 a4 3d
       -0.14630553 -0.28208226 -0.03538817 0.08038363
000180 4e 23 14 be 20 f9 1a be 84 f4 24 bd ab b5 81 3d
       -0.14466593 -0.15134096 -0.04027225 0.063334785
000190 b5 94 bb 3d e9 64 ac bc 6d 8f 27 3e fb 39 b2 bd
       0.09159223 -0.021044211 0.16363306 -0.08702465
0001a0 0f f8 11 be b3 bb 14 3e b8 07 94 bd d5 8e 77 be
       -0.14254783 0.14524727 -0.07228035 -0.2417558
0001b0 2a 71 88 3d b9 af ef bd ff 69 77 3d 79 3e aa 3d
       0.06662209 -0.11703438 0.06040382 0.08312697
0001c0 ae 7a 93 3d 2b d1 47 3e aa 88 92 3e b3 20 50 bd
       0.07201134 0.19513385 0.2861989 -0.050812434
0001d0 66 6e de 3d b9 ba 82 bd 39 67 c4 3d 24 5d 9a 3d
       0.108609006 -0.06383271 0.09590001 0.075372964
0001e0 68 a0 1b 3e 22 c6 a8 bd b9 f5 86 be 5b d7 b0 3e
       0.15197909 -0.08240916 -0.26359347 0.34539303
0001f0 23 70 cd 3d 6a 4c 84 3d 38 7a dc 3d 16 df 26 3e
       0.10031154 0.06459887 0.10765499 0.16296038
000200 8f 15 2a 3e 53 c8 2b 3e 02 80 0d be 88 09 0e bd
       0.16609786 0.16775636 -0.13818362 -0.03467706
000210 4e 24 3e 3e 09 8b 9c bd 27 04 f6 bd fb dc 2b be
       0.18568537 -0.07643706 -0.12012511 -0.16783516
000220 7f ce 84 bc 3c 0e e3 3d 84 cb e2 bc 6e fe 48 bb
       -0.016211746 0.11086699 -0.027684934 -0.003066923
000230 c6 c2 b7 3c 44 18 ee bc 99 fd 85 3d 1c 81 13 3a
       0.022431742 -0.029064305 0.065425105 0.0005626844
000240 5d 9b 08 3e cf f3 69 bd eb cc b5 bc 14 28 b6 3e
       0.13340516 -0.05711728 -0.022192439 0.35577452
000250 a8 26 9e 3d 4b 6b c5 bd c2 65 f6 bd c3 39 17 3e
       0.07722217 -0.09639605 -0.120311275 0.14768128
000260 40 db ef bd 98 a4 9c bd 3d e2 4c be b7 91 3e be
       -0.117117405 -0.07648581 -0.20008178 -0.18610273
000270 8c 64 13 3e ee 7d 67 3e 86 2a 9d bd e3 14 40 3e
       0.14393824 0.22606632 -0.07674126 0.18757968
000280 ee 84 2b be de 6e a7 bd 43 e9 53 3e 8e b4 4e 3e
       -0.16749927 -0.08175443 0.20694451 0.20186064
000290 d5 eb c8 3d 0b a5 c1 3c 59 02 0f 3c 83 f5 20 be
       0.098106064 0.023638269 0.008728587 -0.15718655
0002a0 5f 62 70 3d 15 66 f2 3a 1d 0e 6f 3d 49 1b b7 bb
       0.058687564 0.0018493558 0.05836307 -0.0055879694
0002b0 c7 5a 26 be f4 61 a6 be 61 a0 37 3e e5 96 47 3d
       -0.16245566 -0.32496607 0.17932273 0.04872789
0002c0 26 d3 ca 3c 5a 7b 9c bd 98 60 01 3e 65 a2 01 3e
       0.024758887 -0.07640715 0.12634504 0.12659605
0002d0 dd d9 25 3e aa 45 50 3b cc fc 39 be 48 c2 a6 be
       0.1619639 0.0031779804 -0.1816284 -0.325701
0002e0 2a ac b6 3d a5 29 bb bd db 11 21 be 41 c7 52 3e
       0.089195564 -0.091388024 -0.15729468 0.20583822
0002f0 54 ff 4c 3d 8d 0d 72 3e a2 ff 72 bb 16 95 58 bd
       0.050048187 0.23637982 -0.0037078639 -0.052876554
000300 90 7e 93 3d bd 35 97 bb 19 69 8c 3d d3 f1 9f be
       0.07201874 -0.0046145604 0.06855983 -0.31239185
000310 ef a8 06 3e 69 51 7d 3d fa 66 55 bd ac 58 a4 bd
       0.1315038 0.061845217 -0.05210016 -0.08024725
000320 1a fc 21 bd 23 1c 4f be 57 f2 ad 3c 17 4a 12 3d
       -0.039547063 -0.20225577 0.02123372 0.03571519
000330 1d db 5a be d1 2b 0b bd 5e 46 56 3b 1b aa 34 3e
       -0.21372648 -0.033977333 0.003269575 0.17643015
000340 b5 a1 bb bd 68 a1 ea bc ab a6 46 3d f4 82 31 3d
       -0.091617025 -0.028641418 0.04849879 0.043337777
000350 7f 85 c3 bd 25 e0 1b 3e 7d ec 9a bb 00 21 55 bd
       -0.09546947 0.15222223 -0.0047278986 -0.052033424
000360 db 5c 15 3e e0 00 6c be 43 5e 1a bd c6 51 85 b8
       0.14586203 -0.23047209 -0.03768755 -6.357166e-05
000370 80 70 35 3a 0a f1 c8 3d 45 75 09 be f9 08 59 bd
       0.0006921366 0.098115996 -0.13423641 -0.052987073
000380 89 2e b6 3d 6e 26 16 be e4 de e9 bc 8c 82 87 bc
       0.088955946 -0.14663097 -0.028548665 -0.016541742
000390 fe 4c bd 3e ce 20 bc bd 2b 26 87 bd a8 50 a2 bd
       0.36972803 -0.091859445 -0.06599077 -0.0792554
0003a0 f6 24 b6 bc de 2a eb 3c 06 2d 3a bd ab 80 16 3e
       -0.022234421 0.028706964 -0.045453094 0.1469752
0003b0 89 0e 5d 3c 97 ce 6e bd 02 9a 83 3d ec 36 9d 3d
       0.013492235 -0.05830249 0.06425859 0.07676491
0003c0 37 2b 5b 3d de 3d 05 bd c2 a3 eb 3c ea a9 6b be
       0.05350801 -0.032529704 0.02876461 -0.23014036
0003d0 61 bc 34 3c 99 2e df bd a3 72 83 3d 95 c5 bd be
       0.011031241 -0.1089756 0.064183496 -0.37064806
0003e0 9a 35 9f bd 18 d8 1b be bc 08 81 be a7 e8 02 3d
       -0.077738956 -0.15219152 -0.25201976 0.031960156
0003f0 ba 1b 08 3c 91 d5 a3 bd 05 73 d8 3d 96 d5 d3 3d
       0.008307392 -0.07999719 0.10568813 0.10343473

conv1.bias f4 [32]
000000 6f d2 ee bd c8 64 a3 bb df c6 89 be 46 b1 8b be
       -0.11661231 -0.0049863793 -0.2690954 -0.27283686
000010 28 40 36 be a2 6c 5a be 91 52 0e be 3c 93 9f be
       -0.17797911 -0.21330503 -0.13898684 -0.31167018
000020 43 61 06 be 32 34 4f bd 45 2a b5 bd 58 5a 55 be
       -0.1312304 -0.050586887 -0.08845953 -0.20835245
000030 4b 67 17 be 4f 9e 81 be 9d 3a 78 be 18 9c d8 bc
       -0.14785497 -0.25316092 -0.24241109 -0.026441619
000040 91 e5 69 be 0e fc 2f be 09 21 4a be 07 c6 3f be
       -0.22841479 -0.17185995 -0.19739164 -0.18727885
000050 90 d7 30 bd 92 7d 95 bd f7 9c 22 bd 05 fd 2f be
       -0.043174326 -0.07299341 -0.039700475 -0.17186363
000060 df fa a9 bd 23 9c 82 be d6 86 5e bc 3c ee 0d be
       -0.08299803 -0.25509748 -0.013581952 -0.1386041
000070 96 76 54 be a2 63 ab be e4 ce 54 be 00 57 9f be
       -0.20748362 -0.3347445 -0.20782048 -0.31121063

conv2.weight f4 [32, 128, 3]
000000 1d de de 3d e8 dd 9c 3c 71 fc 0d 3d 93 c7 46 3e
       0.108822085 0.019148782 0.034664575 0.19412069
000010 02 b3 91 bd e3 f4 50 be c7 36 8c bb 50 06 e9 3c
       -0.07114221 -0.20405917 -0.004278991 0.028445393
000020 82 14 69 3d 2f b4 9c 3d 56 0d 9e bb bd e8 82 bc
       0.056904323 0.07651555 -0.004823367 -0.015980119
000030 e7 98 c9 3d 45 fd 92 3d 23 ee 05 3e d6 87 fd bc
       0.09843617 0.071772136 0.13079123 -0.03094856
000040 6a fb 42 3d 2d 23 b3 3e 87 aa 88 be 78 c5 11 bc
       0.04760305 0.34987774 -0.26692602 -0.008897178
000050 34 4c e4 3d 54 2a 25 bc 69 2a 80 bd 2d 3c 40 bc
       0.11147347 -0.010080893 -0.06258089 -0.011733097
000060 51 f6 0e 3e a6 70 c0 3d d3 57 0d 3e 22 d3 88 3d
       0.1396115 0.09396486 0.13803034 0.066808954
000070 e8 06 63 bd 71 a7 a4 bc ab 8b 02 3e c2 a8 bb bd
       -0.05542651 -0.020099374 0.12748592 -0.091630474
000080 0e c3 fe bb f1 45 fb 3d c3 16 c1 bd 47 f1 dc 3c
       -0.007774717 0.122692 -0.094281696 0.026970519
000090 6b 81 ec 3d de b5 67 3d 3d 37 0c 3e 7e 4c 0e 3e
       0.11548122 0.056569926 0.13692947 0.13896367
0000a0 ca d8 a9 bc ec 46 ac 3d 41 e0 03 bd 0e 8c 62 3c
       -0.020733256 0.08411965 -0.032196287 0.013827337
0000b0 25 06 a4 3d 2d da 67 bd ad 72 d7 bc 4c 3d 51 bd
       0.080089845 -0.056604553 -0.026299799 -0.051083848
0000c0 6a cc 0f 3e 6a 53 35 bd 1d 2b 50 3e fc 16 19 3e
       0.14042822 -0.044269003 0.20328946 0.14950174
0000d0 07 c4 89 bd 3d 15 0f 3e 53 31 2e 3d 13 eb 52 bc
       -0.067268424 0.13972946 0.042527508 -0.012873429
0000e0 53 4e 88 bd 5a 32 ba 3b ae 30 07 be 26 97 5e be
       -0.06655564 0.005682272 -0.13202164 -0.21737346
0000f0 31 ee bb bd 45 02 4f 3d e8 21 65 bd 3e 3a 43 3e
       -0.09176291 0.050539274 -0.05594054 0.19065186
000100 04 95 1b bd 38 62 7a bc 40 33 67 be 85 04 a3 3a
       -0.03798391 -0.015282206 -0.22578144 0.001243726
000110 af 28 e2 bd 64 0f ca bd e1 52 81 be 47 f2 2d bd
       -0.11042916 -0.09866217 -0.25258544 -0.04246738
000120 0d 8e 0f 3e 11 11 e2 3d 68 40 fa ba ff f7 e4 3d
       0.14019032 0.110384114 -0.0019092681 0.11180114
000130 f3 f9 41 bd ca 1a 1c 3d 61 8f 87 3d aa ec 02 bd
       -0.04735751 0.038111486 0.06619144 -0.03196398
000140 e5 50 d7 bd 48 9d 4e 3e 29 1a b9 3d f2 a7 4a bc
       -0.10513476 0.20177186 0.09038193 -0.012369143
000150 c8 b2 af bd 9c 4c 5c 3d c8 8d 25 3d ae 66 bf bb
       -0.08579022 0.053783998 0.040418416 -0.005841098
000160 a6 d4 f5 3c c5 e9 e7 3d 70 83 cb 3d 73 36 3b bc
       0.030008625 0.11323885 0.09937179 -0.011426556
000170 e5 dc a0 bd 14 cd 5d 3d 84 70 83 3d e9 d5 86 3d
       -0.07854632 0.054150656 0.06417945 0.06583769
000180 d2 ac f4 3c 0e 6f 23 3d 5d 8c 7d 3e 3d 2a e1 bd
       0.029867563 0.039900832 0.24760576 -0.109943844
000190 58 a1 93 3d 63 74 c4 bd fd 43 79 bc a6 05 0c 3e
       0.07208508 -0.095925115 -0.015213964 0.1367403
0001a0 22 42 ba bc fa 67 50 bd e0 06 f8 3d 6f f5 a1 bd
       -0.022736613 -0.05088041 0.12110686 -0.07908141
0001b0 00 35 5d bd a7 19 c2 3d e6 c3 9f bc 69 e7 c2 bd
       -0.054005623 0.09477549 -0.019502591 -0.09516794
0001c0 7f 3f a0 bd 65 1f c6 bd 57 ad 28 3e c2 06 8c 3d
       -0.07824611 -0.09673957 0.16472374 0.068372265
0001d0 b8 15 a5 bd 82 c6 3b 3e 69 71 64 3d d8 50 7d 3b
       -0.08060783 0.18337443 0.05577222 0.0038652923
0001e0 b2 4f 8f 3d c2 47 44 be 23 ef 5d bd 32 e2 02 be
       0.069976225 -0.19167998 -0.054183137 -0.12781599
0001f0 a5 fb b8 bd 9e 14 f6 bd d6 50 b9 bd 46 29 49 bd
       -0.090323724 -0.12015651 -0.09048621 -0.049111627
000200 ad 05 af 3c 78 eb 41 be 84 eb 55 3b a9 ac 83 bd
       0.021365011 -0.1893748 0.00326416 -0.06429417
000210 62 00 f4 3b f1 30 8a 3d 7c ca 4e bd 2f 79 8b 3b
       0.0074463347 0.06747616 -0.050486073 0.0042563896
000220 68 ad 98 bd 93 5f 73 bc 6d e9 ff bd 5b dc 32 bd
       -0.074549496 -0.01485433 -0.12495694 -0.04366718
000230 16 ed c6 bd ac e6 a3 bd e9 45 e7 3d bc d6 f7 bd
       -0.09713189 -0.080029815 0.11292631 -0.12101504
000240 a5 1e 80 bd 02 51 4a be 9f 76 be bc d4 e5 67 3b
       -0.06255845 -0.19757465 -0.023249922 0.003538479
000250 47 03 e4 3d 0d dc 2e be 4c a4 b3 bc 65 55 6d bd
       0.111334376 -0.1707613 -0.021928929 -0.057942767
000260 c9 32 19 be d8 72 9b 3d 5e 76 03 3d b0 c9 60 be
       -0.14960779 0.07590264 0.032095306 -0.21951938
000270 6b c2 18 be 7e 4f 2f 3d 4d 69 1a be 58 be 24 3e
       -0.14917915 0.04280042 -0.15079232 0.16088235
000280 86 0b 62 3d cc e7 03 3e f9 08 0b b8 fb 1f 11 bd
       0.05518677 0.12881392 -3.314854e-05 -0.03543089
000290 2b 05 43 be 51 33 96 3d aa bd 48 bd 3a 41 df 3d
       -0.1904494 0.073340066 -0.049009003 0.10901113
0002a0 de d5 a6 bd 3c 20 5b be c4 ce a9 bd 40 50 28 3d
       -0.08146261 -0.21399015 -0.082913905 0.041092157
0002b0 30 ef 50 bd 39 b7 ac bb 98 4a 42 bd 2a f6 a9 bd
       -0.051009357 -0.0052708653 -0.04743442 -0.08298905
0002c0 ff 62 42 3d d9 29 cb 3c 8c d0 7b 3d a8 51 e2 3d
       0.04745769 0.024800228 0.061478183 0.11050731
0002d0 2a 80 16 3e c7 40 42 bc 41 1b 8d 3d 1a 23 70 bc
       0.14697328 -0.011856264 0.06889964 -0.014656806
0002e0 a8 e1 99 bd 05 1f aa 3d 29 1c 3c 3e 8e 0e 60 3e
       -0.07513744 0.08306698 0.18370117 0.21880552
0002f0 9d be 06 3e 6c 77 6c be 67 71 71 bc d2 97 cd bd
       0.1315865 -0.23092431 -0.01473651 -0.10038723
000300 af 8e de 3a cf 3b 7f bd 63 57 81 bc 01 cf 14 3e
       0.0016979779 -0.062312897 -0.01578874 0.1453209
000310 86 15 5e be bf e5 e9 bd cd 8c dd 3c 25 d2 27 3d
       -0.21687898 -0.11420774 0.027044678 0.040971894
000320 d2 4f 22 3e e5 6c 4b 3e cc 92 33 bd 41 d8 c6 3c
       0.15850762 0.19865759 -0.04384117 0.02427304
000330 4f 70 4c 3d f8 81 43 3e ca b7 b6 3d f1 33 e8 3d
       0.049911793 0.19092548 0.08921774 0.11338032
000340 64 27 56 be 8b 3e e6 3d 08 4c 2c bd 4e 66 7d 3d
       -0.20913464 0.11242398 -0.042064697 0.061865143
000350 8a 05 91 bd 8c 3d 24 be 55 a3 10 3e c1 37 d7 bd
       -0.070811346 -0.16039103 0.14124806 -0.10508681
000360 05 5f b1 bc 50 9c 3c bd 4e 63 ae 3c 41 3d 82 3d
       -0.021651754 -0.04604751 0.021287587 0.063593395
000370 ef 57 dd bd 0a 47 9b bd dc 2b d2 bd 90 37 16 3d
       -0.108077876 -0.07581909 -0.10262272 0.036674082
000380 53 44 22 be 4d 86 17 be 84 d5 88 bd ce e4 b6 bd
       -0.15846376 -0.14797325 -0.0668135 -0.0893036
000390 81 e6 5f be 9f c8 37 be 46 51 3e be c1 a2 54 3e
       -0.21865274 -0.17947625 -0.18585691 0.2076521
0003a0 a4 df c6 3d b2 09 30 3e cc 43 8c be 38 d4 32 3d
       0.09710625 0.17191198 -0.27395475 0.04365942
0003b0 05 50 7b be 99 2e 26 3d ab 69 c8 3d 8a 45 b4 3d
       -0.24542244 0.040571783 0.097857796 0.08802326
0003c0 6e 99 9e 3d 15 12 ad 3c e6 83 a0 3d b5 0e 64 3e
       0.07744108 0.021126786 0.07837658 0.22271235
0003d0 f4 4f 81 3b 71 8e 6f 3e d8 18 e5 be 89 c6 5e be
       0.0039462987 0.23394181 -0.44745517 -0.21755423
0003e0 47 77 af 3d d8 e2 ef 3c bd 88 2e be fc 4c ad be
       0.08567672 0.029282972 -0.17044349 -0.33847797
0003f0 4e 82 56 3e 0e 38 b6 3d b7 e0 7e 3d 74 95 64 be
       0.20948145 0.0889741 0.062226024 -0.22322637

conv2.bias f4 [32]
000000 4b 02 78 bd fd 2d 43 be 53 47 62 3c 80 b6 35 be
       -0.06054906 -0.19060512 0.01381095 -0.177454
000010 cc e6 1f be 9e c1 9c bb fa f9 47 3d b4 12 ad bd
       -0.15615386 -0.004783823 0.04882238 -0.08450833
000020 c0 43 c0 bd 31 d6 f8 bd a6 47 1a be 6a 7c cb bd
       -0.09387922 -0.12150229 -0.15066394 -0.099358395
000030 cb 3c 3f be 76 e3 4d be bf 9e e7 bd a9 06 99 be
       -0.18675534 -0.201063 -0.11309575 -0.29887894
000040 d7 84 8c be e6 a6 f1 bd 36 91 58 be 7e 86 fe bd
       -0.274451 -0.117994115 -0.21149144 -0.12427996
000050 e2 e5 dc bd 84 3a 4b bd fb d4 2a be 87 3f 14 bd
       -0.10786034 -0.04961635 -0.16682808 -0.036193397
000060 ff 0c 0a be d9 0c 48 be ea 5f 04 be 01 06 8c be
       -0.1348152 -0.19536151 -0.12927213 -0.2734833
000070 5f a6 bc bd 5b 77 76 be d4 e7 39 be 96 7a 18 b9
       -0.0921142 -0.24068968 -0.18154842 -0.00014541516

conv3.weight f4 [256, 64, 5]
000000 5f b6 f6 bd 1b d7 81 bc 9e 9d 0a be 53 af cd 3d
       -0.12046503 -0.01584964 -0.13536689 0.10043206
000010 71 8d 2a be 5c bd 96 3d 2b 1f 90 bd 27 87 86 3e
       -0.16655518 0.07360336 -0.07037195 0.26274988
000020 aa 6d 05 3e a1 17 f4 bd 8f 50 fc 3d a5 46 62 3e
       0.13030115 -0.11918569 0.12320053 0.22097261
000030 af 77 6f 3d 16 e2 2c be 2b 70 90 be 67 1e 22 be
       0.05846375 -0.1688312 -0.28210577 -0.1583191
000040 91 26 b4 3d 27 e8 8d bc b0 cc 18 be 23 40 bf bb
       0.087964185 -0.017322613 -0.14921832 -0.005836503
000050 64 71 89 3d e8 dc 92 bd 28 94 d7 3d e7 da 9c bd
       0.06711081 -0.07171041 0.105263054 -0.0765894
000060 37 b1 27 3d d6 3f 57 be fe 56 22 3e 67 45 18 3e
       0.04094049 -0.21020445 0.15853497 0.14870225
000070 80 8a 18 3e d3 82 23 bb d4 9b a4 bd 00 38 a9 bd
       0.14896584 -0.0024949803 -0.08037534 -0.08262634
000080 bc 50 fe 3d 3d c3 53 bd 94 c9 fd 3d 56 ef 84 3d
       0.124177426 -0.051699866 0.123919636 0.06490962
000090 cb 6c bd 3d 76 d3 6f 3c 41 5e 24 bd 10 b1 d3 3d
       0.09249266 0.014637819 -0.04012895 0.10336506
0000a0 0c 39 7b bc eb 00 03 bd 62 10 c2 bc f2 76 80 bd
       -0.015333425 -0.031983297 -0.023689453 -0.06272687
0000b0 b9 26 94 bd 78 02 46 bc bb d4 d1 3d 6d 74 db bd
       -0.07233948 -0.0120855495 0.10245653 -0.10715566
0000c0 e8 6f 56 bd 8b 9b 10 be 39 4b 30 3d 3c 54 89 3d
       -0.052352816 -0.14121835 0.043040488 0.067055196
0000d0 e0 5f 60 3d 35 7c 1b bd c3 67 44 be 4d 12 4e be
       0.054778934 -0.03796025 -0.19180207 -0.20124169
0000e0 0b 0a 8d bd 9b 61 52 3d f6 15 0f be 9a 1e 4f bd
       -0.06886681 0.051362615 -0.13973221 -0.050566293
0000f0 17 7b f6 bc 9f c7 73 3d 17 bc db 3d dc 18 90 bc
       -0.03008799 0.059516545 0.10729235 -0.017589979
000100 1e 45 44 be 72 cc 67 bd dc 5c b3 3d 04 94 f9 bc
       -0.19166991 -0.05659146 0.08757946 -0.030466087
000110 08 b1 a0 bb af b4 c7 bd ea 05 a2 bd 56 c5 cc 3d
       -0.0049039163 -0.097512595 -0.07911284 0.09998576
000120 90 ea e0 bd e1 13 99 bb 87 a0 72 bd c4 1f 74 be
       -0.10982239 -0.004671559 -0.059235122 -0.23840243
000130 82 43 dd bd bd 7c fc 3c 3f ba b0 bc 79 0f e8 bd
       -0.10803892 0.030821199 -0.021573184 -0.11331076
000140 6c 1d eb bc 69 80 83 3d e6 cb 29 3e ea 3e 70 bc
       -0.028700553 0.06420977 0.16581687 -0.014663437
000150 84 d3 fb bd 27 11 32 bd 43 69 5f bd 15 7d 86 3d
       -0.12296203 -0.04347339 -0.054543745 0.06566826
000160 0b 27 f8 bc f6 37 aa be 3d da 73 bd 07 57 ac 3e
       -0.030292055 -0.3324582 -0.0595343 0.33660147
000170 82 f8 79 3d c0 ed 8e 3e 65 67 17 be f6 3c a2 3c
       0.06102801 0.27915764 -0.14785536 0.019804459
000180 a4 07 10 3e d1 af 4a 3e d6 77 1d be 2c 63 af 3d
       0.14065415 0.19793631 -0.15377745 0.085638374
000190 b1 22 e2 bd b9 f3 e8 bd ab 44 c6 bd dc 66 61 bd
       -0.11041773 -0.113746114 -0.09681066 -0.055029735
0001a0 c1 40 6a bc b9 0b 15 bd 2b 84 29 be 78 aa 07 be
       -0.014297665 -0.036388133 -0.16554324 -0.13248622
0001b0 0c 7f 14 be 9d 1f 1a be 1f 83 c2 bb 5c 8b 72 be
       -0.1450159 -0.15051122 -0.005936041 -0.23685974
0001c0 3f f0 b8 3c 4d 52 88 bd 1d d6 c0 bd d3 14 eb 3c
       0.022575496 -0.06656323 -0.09415839 0.028696453
0001d0 2f c7 00 3e 79 6f 4b be 48 84 d7 3d 56 23 38 3d
       0.12575983 -0.19866742 0.105232775 0.044955574
0001e0 15 d5 e2 bb 1c 28 99 3d 90 18 95 be 97 3f 03 3e
       -0.006922374 0.074783534 -0.29120302 0.12817226
0001f0 04 22 a7 3d 47 bd 38 bd 3f d3 77 3e e5 2b dd bd
       0.08160785 -0.045102384 0.24201678 -0.10799388
000200 2c 5e 31 3e 3a 25 a8 bc fe 76 0c 3e cd 6f 31 3e
       0.1732108 -0.020525564 0.13717267 0.17327805
000210 01 14 95 be 46 90 5d 3e c7 a5 96 3e 15 10 4f bd
       -0.29116824 0.21637067 0.29423353 -0.050552446
000220 8c 1e e8 bc 42 89 31 be 32 42 38 bc cd 3c 82 3d
       -0.028334878 -0.17337516 -0.011246251 0.06359253
000230 ff 8b de bd 59 69 10 3d 62 b5 23 3e e3 0e 19 3e
       -0.10866546 0.035256717 0.15987161 0.14947085
000240 76 3a 53 3e fe 7b 86 bc 0e de 07 3e d7 fc 1b bd
       0.2062777 -0.016416546 0.13268301 -0.038082924
000250 97 02 95 bc 11 6e ec bd 19 f0 e5 bc 39 09 10 be
       -0.018189711 -0.11544431 -0.028068589 -0.14066018
000260 b1 1a 2e bc 12 7b 2c bd 00 93 62 bd cd 93 8e 3c
       -0.010626481 -0.042109556 -0.05531597 0.017404461
000270 90 01 2b 3a 65 d7 8c 3d b0 af 3f 3d d1 eb a3 bd
       0.0006523365 0.06877021 0.046798408 -0.08003963
000280 d2 b6 0a be 71 a6 72 be e9 26 17 be 00 86 ca 3d
       -0.13546303 -0.23696305 -0.14760937 0.0988884
000290 92 ae 56 3e 66 dd c5 bb a6 cd 89 3d 24 49 bc bd
       0.20965031 -0.0060383556 0.067286775 -0.09193638
0002a0 51 f5 6c 3d a7 89 3f be 97 7a 7f bd 2b e0 66 bd
       0.05785114 -0.18704854 -0.06237277 -0.056366127
0002b0 69 df d7 bc 10 c0 32 bd 6f 5e d5 bd c1 e2 04 3e
       -0.026351647 -0.043640196 -0.104184024 0.12977125
0002c0 4b 82 6f 3d c7 08 8b be b9 7e 6a 3e 89 63 ae ba
       0.058473866 -0.27155134 0.22899903 -0.001330481
0002d0 6d 38 94 bd fe 59 94 bd 36 a1 b5 3d 36 76 35 bd
       -0.07237325 -0.07243727 0.08868639 -0.044302188
0002e0 bf 9a 8d bd 50 7c 91 bc e8 c0 27 be d3 52 62 be
       -0.06914281 -0.017759472 -0.16382182 -0.22101907
0002f0 e0 16 82 bc 36 5f 76 3c 2b 04 23 be 3c 12 58 bd
       -0.015880048 0.0150373485 -0.15919559 -0.052751765
000300 8c 18 c3 bd c6 48 ef 3d 42 9d 98 3b b9 ae ef bd
       -0.09526166 0.11683802 0.0046574185 -0.117032476
000310 f7 44 e8 3b dc ec 6d 3d fb 04 bc bc 5b 38 e9 3c
       0.0070882994 0.058087215 -0.022951594 0.028469255
000320 4f 48 78 3d 3d 35 34 bd 95 c9 d2 bd 26 4d 3e bd
       0.060615834 -0.043996084 -0.10292355 -0.046460293
000330 89 a7 b7 3d 68 c8 55 3d b7 b3 25 3d 3f d6 47 3e
       0.08967502 0.052193075 0.040454593 0.19515322
000340 87 0b 0c be 05 b7 06 3e 0e 1d 3d bd 65 85 24 3d
       -0.13676272 0.13155754 -0.046170287 0.040166277
000350 92 c1 39 be 74 87 08 be 17 91 af bd 78 d0 2e 3d
       -0.18140247 -0.13332921 -0.085725956 0.04267928
000360 68 77 f2 3d f4 71 7d bd b3 15 00 bd 0d ac 7a be
       0.11839181 -0.061876252 -0.031270694 -0.24479695
000370 41 a7 1a bd ae cf 79 3c 2d ae 3f 3e e8 73 55 be
       -0.037757162 0.015247269 0.18718787 -0.20844996
000380 63 ec da 3c ed 1e c2 3d fd 09 48 3e cd 5a 9f be
       0.026724046 0.09478555 0.1953506 -0.31123963
000390 65 61 ee 3c 31 13 81 3d 65 a8 e5 bd ea da 57 3c
       0.029099176 0.063024886 -0.11213759 0.013174752
0003a0 81 14 01 3e 92 44 61 bd ff 83 aa bd de 30 d7 3c
       0.12605478 -0.054997034 -0.083259575 0.026268419
0003b0 33 b6 09 bd 08 98 75 3d 33 99 89 3d 92 c2 1b 3d
       -0.033621024 0.05995944 0.067186736 0.038027354
0003c0 cc ee ca 3d 59 30 23 3e ff 3f c0 3d cd df af bd
       0.09908828 0.15936412 0.09387206 -0.085876085
0003d0 db 21 ba bd f8 b4 cc 3d 4e fb be 3d 57 f6 1d 3d
       -0.09088489 0.099954545 0.09325276 0.038565006
0003e0 d4 bf 1b be be 95 b4 3d c2 0e 23 bc ef 25 ca 3d
       -0.15209895 0.088176236 -0.009952249 0.098705165
0003f0 1f 6b 73 3d b8 b2 9f bd ba 7c f4 3c 2e 69 d2 3a
       0.05942833 -0.0779776 0.02984463 0.0016053075

conv3.bias f4 [256]
000000 aa a1 05 be ca 6a 45 be b7 e1 7d 3d 4a ed 80 bd
       -0.13049951 -0.19279018 0.061982837 -0.06295259
000010 84 0a 0c be ba d1 82 bd ae 32 f3 bc 4b 76 b3 3e
       -0.13675886 -0.063876584 -0.029687252 0.35051188
000020 cc ca bf 3c 94 66 c8 bc 6c e0 10 be 90 20 3a 3d
       0.02341213 -0.024462976 -0.1414811 0.04544121
000030 99 f3 30 bd 7e 90 c7 3d 49 62 dc bb 15 1b fe bd
       -0.043201063 0.097443566 -0.0067255837 -0.12407509
000040 0a bd 59 bd 04 bd 50 bd 30 5d 4e bd aa 61 14 bd
       -0.053158797 -0.05096151 -0.05038184 -0.036225952
000050 66 e0 cb bd 6d 14 3d bd 08 f9 a9 bd b3 c8 e0 bc
       -0.0995491 -0.046162058 -0.08299452 -0.02743945
000060 31 39 bd bd ec fc 53 bd 63 b9 91 bd 91 da 44 be
       -0.09239424 -0.051754877 -0.07115438 -0.19224001
000070 1d 32 a1 bc 02 e6 4e be 7a 81 e8 bc 7a aa 6f 3e
       -0.019677216 -0.20204929 -0.028382052 0.23404875
000080 bc c2 b4 be 32 dd f4 3c b8 e8 0f be 82 a4 2e 3e
       -0.3530482 0.02989063 -0.14053619 0.17054942
000090 46 d7 e9 bc 7a 21 c2 bd 95 b4 87 bd da 67 38 bc
       -0.028545033 -0.094790414 -0.0662624 -0.011255229
0000a0 5d 53 8b bd 62 93 a0 3d 13 03 80 bd 77 85 29 be
       -0.0680301 0.07840611 -0.06250586 -0.16554819
0000b0 40 c7 07 be e4 d9 60 bd 88 4a 45 bd de 28 c2 3b
       -0.13259602 -0.054895297 -0.04816678 0.005925282
0000c0 cf a1 a5 bd 45 e2 a3 bd 6b 14 c4 3d ba 89 19 be
       -0.08087503 -0.08002142 0.09574207 -0.14993945
0000d0 22 36 bf bd 61 38 8b 3d 32 04 1e bd 51 88 04 be
       -0.09336497 0.06797863 -0.03857822 -0.12942626
0000e0 7a 6c fd bd b4 f5 0c be f4 27 c3 bd f4 2a 83 bd
       -0.12374206 -0.13765603 -0.09529105 -0.06404677
0000f0 77 99 1d be 3a b5 46 3d 7b ee 52 3b a8 f8 a5 bd
       -0.15390573 0.048512675 0.0032185602 -0.08104068
000100 38 4e 1f be 02 ba 04 be 0b 43 03 be 2e de 60 be
       -0.15557182 -0.12961581 -0.12818544 -0.21959755
000110 95 d3 17 bd 65 24 0e be f8 bf b2 bd e4 c3 99 be
       -0.037067015 -0.13881071 -0.087280214 -0.30032265
000120 82 4a 7e bd 0e 91 87 3b a6 b8 cd 3b 04 1c 6d be
       -0.062082775 0.004137165 0.0062781153 -0.23155218
000130 db 3b 2e 3d b4 76 ea 3d d0 22 38 be af 38 d4 bc
       0.04253755 0.11448422 -0.1798203 -0.025905935
000140 80 de 74 be 57 db 38 bc 64 89 ea 3b 7f e0 26 bd
       -0.23913002 -0.011282763 0.0071574915 -0.04074144
000150 f6 2f eb bd 38 89 37 be b4 b2 0f be 4f ac 12 3e
       -0.11483757 -0.17923439 -0.14033014 0.14323543
000160 e0 3f a1 bd 53 fb 59 3d 5f 86 47 be 43 d9 be bd
       -0.07873511 0.053218197 -0.19484852 -0.09318783
000170 d8 20 0d be 6a 62 f4 bd b6 ca 95 be e9 30 8e 3d
       -0.1378206 -0.119328335 -0.2925622 0.069429226
000180 97 fd fc bd 54 b7 b8 bd cb e6 01 be 1a ea ff 3c
       -0.12353056 -0.09019342 -0.12685697 0.031239558
000190 13 a6 27 ba a0 77 40 bc e2 fa 97 bc b5 0a d9 3b
       -0.00063952914 -0.011747271 -0.018552247 0.006623591
0001a0 87 26 0f bc 22 d1 e5 bd 1f 70 b7 bd 85 79 0d be
       -0.008737213 -0.112215295 -0.08956932 -0.13815887
0001b0 76 2e fe bc e8 11 15 be 5c 75 43 be 6e e3 69 3c
       -0.031028014 -0.14557612 -0.19087738 0.014275415
0001c0 de 15 78 bd 3d 0b 0f 3d 62 2f 23 bc 86 de b8 bd
       -0.06056773 0.034922827 -0.009960027 -0.09026818
0001d0 31 53 ea bc 7d 3f 38 bd 7a 37 5c 3d e0 fc c8 3d
       -0.028604122 -0.044982422 0.053763844 0.09813857
0001e0 1c 5b ae bd 1a 6e 0b be 68 ff 24 3e 00 88 80 bd
       -0.085134715 -0.13616219 0.16113055 -0.0627594
0001f0 3c c0 cf 3c 18 64 65 3d 6d a5 df bd 03 d0 b2 bc
       0.02536022 0.05600366 -0.10920224 -0.021827703
000200 ff 22 ac bc 17 e0 c5 3c 24 f0 29 3b 99 2e 8d bd
       -0.021012781 0.024154706 0.0025930488 -0.068936534
000210 f2 7f 80 be c0 65 54 3d 5a 65 45 bd 84 07 49 be
       -0.25097615 0.05185485 -0.04819236 -0.19631773
000220 4f e3 4f bd 49 76 fb 3d 4f f5 58 bd e9 2e 0a bd
       -0.050753888 0.122784205 -0.05296832 -0.033736143
000230 be 3e 63 be 48 c9 20 be e5 24 c9 bd 7a e3 c6 bd
       -0.22191903 -0.15701783 -0.0982149 -0.097113565
000240 de 8a 30 ba be dd 11 be 26 c9 36 3d 83 89 38 be
       -0.000673456 -0.14244744 0.044625424 -0.18021207
000250 28 33 27 be 5d 2b 4e 3e 54 aa 62 be 9b b6 2a bc
       -0.16328108 0.2013373 -0.22135288 -0.010419513
000260 09 b3 ae bd 3d 25 12 be 0c a2 70 3e f9 5c 21 bd
       -0.08530242 -0.14272018 0.23499316 -0.039395306
000270 08 8e 5b bd 06 37 0e be 04 e2 e7 bc b4 59 5f be
       -0.05360225 -0.13888177 -0.028306015 -0.21811563
000280 54 f9 2f be df 8e 31 be a1 cd 71 3c 67 5f d2 bd
       -0.17184955 -0.17339657 0.014758498 -0.10272103
000290 81 32 72 bd fe f3 aa bd 62 c1 3d 3e 62 50 88 be
       -0.059130196 -0.08347319 0.18530801 -0.26623827
0002a0 6d e1 e7 bd a5 6a 17 be fe 3c 0b be 65 d9 21 3c
       -0.113222934 -0.14786775 -0.13597485 0.009878491
0002b0 dd 30 16 bd de c1 0d bd 03 21 b1 bc cd e4 e1 bb
       -0.036667693 -0.034608714 -0.021622187 -0.0068937303
0002c0 66 36 6d be 57 6e 08 3d c2 45 00 be 08 84 aa 3c
       -0.23165283 0.033308353 -0.1252661 0.02081491
0002d0 4d 45 81 3d e4 21 a9 3c e5 95 94 bc 91 25 99 be
       0.06312046 0.020646043 -0.018137882 -0.29911473
0002e0 79 56 d6 3a 2f e5 4d 3c 40 9b 1e bd b0 94 c8 bd
       0.0016352675 0.012566849 -0.038722277 -0.09793985
0002f0 06 68 bd bd cf 00 86 3d 31 8a 56 be 48 cd 68 be
       -0.092483565 0.06543123 -0.20951153 -0.22734559
000300 89 38 b2 bd bd 2e 22 be f4 88 c2 bd 45 c5 81 bd
       -0.087021895 -0.15838142 -0.09498778 -0.06336454
000310 86 65 02 3e 54 e1 e9 3c 89 42 90 bd f9 59 18 be
       0.1273404 0.028549828 -0.070439406 -0.14878072
000320 a1 11 37 be cc 4a 18 3d 03 70 fb bc 95 0a 06 be
       -0.17877819 0.037180707 -0.03069306 -0.13089974
000330 0e f0 87 bd c4 a2 cc 3d 85 bb 4a be 59 8d 2f be
       -0.06637584 0.099919826 -0.19798096 -0.17143764
000340 44 26 b9 bd 56 2b ac bd e7 d0 92 be 55 0e f5 3d
       -0.09040502 -0.08406703 -0.28675005 0.11965624
000350 a2 99 2f 3e 68 89 25 3e 27 dd be bc e2 4f 76 bb
       0.1714845 0.16165698 -0.023298813 -0.0037584235
000360 b6 7e 7d bd c6 82 ff 3d d3 86 4e be 2d c0 10 be
       -0.06188842 0.12476115 -0.20168619 -0.14135809
000370 fa 84 0c be 6f 1a c4 bd 6d 04 b1 bd 79 ec 84 be
       -0.13722602 -0.09575354 -0.08643422 -0.25961664
000380 88 5c 05 3c b8 a1 0b be 1b 38 f1 bd a4 29 89 3e
       0.008139737 -0.1363591 -0.117782794 0.26789582
000390 eb 7f f6 bd 65 9d 8a bd d9 8a 07 bd 6b 40 ec bc
       -0.12036117 -0.06768302 -0.0330914 -0.02883931
0003a0 2a df 31 be da 98 e1 bd 08 71 16 bd 0a 96 54 3d
       -0.17370287 -0.11015482 -0.03672889 0.0519009
0003b0 b6 28 5e be 47 d5 88 bd a6 85 8a 3e 91 48 a7 3d
       -0.21695217 -0.066813044 0.2705509 0.08168138
0003c0 e6 96 31 be 22 18 b4 3d 9e 67 7e bd 17 c5 4d be
       -0.1734272 0.087936655 -0.062110536 -0.20094715
0003d0 f7 51 99 bc 46 09 83 3d 04 fd 18 be f6 6a 70 bd
       -0.018715842 0.06398253 -0.14940268 -0.058695756
0003e0 d8 34 88 bc 44 18 42 bb 43 fb 6f 3e 95 a1 66 be
       -0.01662676 -0.0029616514 0.23435692 -0.22522576
0003f0 d2 2b 8b 3e 2e 79 b8 3c ab 89 43 bc b9 59 81 bd
       0.2718187 0.02251872 -0.011934678 -0.06315941

fc.weight f4 [12, 256]
000000 f8 71 94 bc 82 f3 53 be c2 1f f2 3c f8 58 fe 3c
       -0.01812075 -0.2069836 0.029556159 0.031048283
000010 3c 1c d1 3c 60 55 4c 3d 1d 24 1a bd 71 b1 3f 3c
       0.025526159 0.049886107 -0.037632097 0.01170002
000020 9b 45 9a bd 96 da 39 be ec 75 ff bc 39 7d eb bc
       -0.075328074 -0.1814979 -0.03118416 -0.028746234
000030 3c 29 45 bd 3e c5 68 3d 29 ee 52 be 49 a9 06 be
       -0.048135027 0.05682873 -0.20598663 -0.13150515
000040 fb 6f bd be 8e 21 54 3d 2b 77 8e be f6 b5 92 3c
       -0.36999497 0.051789813 -0.27825293 0.017909031
000050 25 33 c1 bd c4 0a 14 3d 05 ae 34 3d 54 ca 9e 3d
       -0.09433583 0.03614308 0.04411127 0.07753435
000060 69 d0 e7 bd dd e9 80 bd 04 3c 30 3d e1 e2 b0 bc
       -0.11319048 -0.06294606 0.043025985 -0.02159256
000070 3c 31 bb bc 41 05 fa bd 14 98 fc bc cc bd 7c 3c
       -0.022850625 -0.12208033 -0.030834235 0.0154261105
000080 03 fd 3b be d0 e4 84 bd d4 c5 9e bc b5 c7 52 3d
       -0.18358235 -0.06488955 -0.019381441 0.051459987
000090 d2 92 81 bd 9a a1 98 3a 03 e6 b4 bd 27 a1 ad bc
       -0.06326832 0.0011644841 -0.08832934 -0.021195007
0000a0 12 61 65 bd 1f 6c e4 bd b0 45 8f 3d b1 cc d4 bb
       -0.056000777 -0.11153435 0.06995714 -0.0064941277
0000b0 bf 89 93 be c8 db d4 3c e9 93 1c bd f4 df 15 3d
       -0.2881603 0.025983706 -0.038226996 0.03659053
0000c0 98 64 a1 bc f4 61 f9 3c 73 f0 15 3c d5 1c a7 bc
       -0.019701287 0.030442216 0.009151566 -0.02039949
0000d0 ec ec 1c 3d 0a 6c 78 3d f6 31 e3 bd 22 8d 00 3c
       0.038311884 0.06064991 -0.11093514 0.007846149
0000e0 93 e1 0b be b1 9f 2b bd 02 f4 b9 3c ee 10 96 3d
       -0.13660268 -0.04190034 0.02269936 0.07327448
0000f0 2c fa 43 bd 95 5e 6c 3c 58 c8 d7 bd f3 b8 97 bd
       -0.047846004 0.014426847 -0.105362594 -0.07408323
000100 66 be c9 bc 2f 63 40 bd d0 82 c6 bb b3 35 6a 3d
       -0.024626922 -0.04696959 -0.0060580745 0.057180118
000110 ef b4 b8 3d b1 56 57 3c 69 29 77 bd 8a 2c d7 bd
       0.09018885 0.013143227 -0.060342226 -0.10506542
000120 75 73 e0 3c cd d3 a3 bd 16 74 14 be f7 f8 44 3c
       0.027398804 -0.07999382 -0.14497408 0.0120222485
000130 0f 06 55 be 4c 0c 37 3c ce ce 84 3d 12 e8 5d bc
       -0.20803092 0.011172365 0.06484757 -0.013544099
000140 b7 2a 4c bd e3 90 f0 3c 21 c5 dd 3c f9 bc 15 be
       -0.049845424 0.029365962 0.027071537 -0.14622869
000150 68 38 51 3d 81 19 3e be 9d d6 13 3c 07 4f d7 3b
       0.051079184 -0.18564416 0.009023336 0.0065707
000160 fd f1 ac 3c f5 70 ec 3b 39 27 da bd 9b 86 12 3d
       0.021111483 0.007215614 -0.106520124 0.0357729
000170 5e 8d 84 bd f6 85 5b 3d 29 c5 0d be 27 ef 54 3b
       -0.06472276 0.053594552 -0.13844742 0.0032491179
000180 1b 74 47 bd cc 01 3d bb 41 63 ee bd 71 56 c4 be
       -0.04869471 -0.0028840182 -0.11640025 -0.383472
000190 8a 19 37 3d 43 8f 9c 3d 80 6b 0e bd 02 5d c4 3c
       0.04470209 0.076445125 -0.03477049 0.02397013
0001a0 1c 98 9a bd f4 05 8d 3d 31 d6 0e be b4 1c 1b 3d
       -0.07548544 0.06885901 -0.13948895 0.03786917
0001b0 03 14 29 3d da c4 ba 3b cc 85 b7 3b d1 1f b7 3c
       0.04127885 0.005699736 0.0056006666 0.022354038
0001c0 af 42 29 bd 98 09 9c 3c c1 05 99 bd d9 ae 1e 3d
       -0.04132336 0.019047543 -0.074718006 0.038740966
0001d0 f7 f7 99 3d 29 5b 51 bc 28 2c 84 3c 56 d5 51 3d
       0.07517999 -0.012778082 0.016134337 0.051228844
0001e0 ff 53 e9 3c f7 9c 72 bd 75 9e 0d 3d f9 a6 14 3d
       0.028482435 -0.059231725 0.034574945 0.03629205
0001f0 c9 46 88 3d 26 36 a7 3c 4f e2 56 be 10 12 cd bd
       0.06654126 0.020411562 -0.20984767 -0.10013211
000200 d2 a2 04 3d 75 0c 9d 3b d5 f3 dd 3b 36 62 a5 bd
       0.03238184 0.0047927448 0.006773452 -0.08075373
000210 f2 91 22 3d ba 64 4b 3d b1 2b 43 bc c0 c0 6e bd
       0.039689966 0.049656607 -0.011912272 -0.05828929
000220 96 0c f6 3c 2c 83 09 3d 2c 5f 0a bd 42 bf 66 3d
       0.030035298 0.03357236 -0.03378217 0.05633474
000230 b8 c8 67 bd d7 15 a1 3d 83 0f 75 bd 34 f0 80 3d
       -0.056587905 0.07865494 -0.059829246 0.06295815
000240 15 19 02 3d dd 84 9e bd a5 1d 8b 3c 41 14 9c bd
       0.0317622 -0.077401854 0.016981909 -0.076210506
000250 13 cf 03 be 72 fb 81 3d 5b f9 1e be ad 46 96 39
       -0.12871961 0.063467875 -0.15524809 0.00028662887
000260 be 5f c2 bd 8c 87 ab bb 50 b8 0f 3d 26 38 87 3b
       -0.094909176 -0.0052346643 0.035087883 0.0041265665
000270 ab d8 e1 3c 35 c5 0d be 4a f5 5b be 1a f6 57 3d
       0.027569136 -0.1384476 -0.21480289 0.052724935
000280 f0 44 03 bd 76 64 dd bd 07 67 f9 bd da 5d 89 3c
       -0.032048166 -0.10810177 -0.12177854 0.016768385
000290 89 85 d9 bd 85 f0 0d bd a1 f4 86 3d 86 7c cd bd
       -0.10621173 -0.034653205 0.06589628 -0.100335166
0002a0 e8 03 35 bd e1 58 89 3d 59 2f 62 3c fe 78 80 be
       -0.04419318 0.067064054 0.013805234 -0.2509231
0002b0 4a 62 01 be 8b 7b 83 bd 70 8f aa 3c 38 42 19 bc
       -0.1263515 -0.06420048 0.02082035 -0.009354167
0002c0 9a 52 98 3c ec f8 05 3d c9 c0 99 3d 29 12 d1 bc
       0.018594075 0.032708094 0.07507474 -0.025521355
0002d0 d2 f7 09 be 6f 53 b8 3d db 4b 3f 3d 10 dc 52 be
       -0.13473442 0.09000289 0.0467032 -0.2059176
0002e0 5e d2 35 bd 68 c2 b0 bd 9e 66 cc 3d c6 64 cd bd
       -0.044390075 -0.0863083 0.0998051 -0.10028987
0002f0 05 42 49 be 4d a7 94 bc e7 25 f5 bb 6e 41 b8 bd
       -0.1965409 -0.018146181 -0.007481325 -0.08996855
000300 5e c6 d5 ba c9 ad d8 3c bf ca 45 bd 10 c7 0d 3e
       -0.0016309728 0.026450055 -0.048289057 0.13845468
000310 a4 5f 59 be d7 00 e4 bd f6 a8 d2 3c 56 bd 75 3d
       -0.2122789 -0.11132973 0.025715332 0.059995018
000320 b6 ed 3a 3d a1 1a 59 3d e0 fd 25 3d ad bd 39 3d
       0.045636855 0.05300391 0.040525317 0.045346905
000330 81 f3 01 3d 4d ca 94 3d 34 55 d4 bc cd 6b 97 bc
       0.031726364 0.07265148 -0.025919534 -0.01848402
000340 e5 c7 63 bc c9 4c 58 bd ae 23 01 bc ed 2c 3b 3d
       -0.013902639 -0.052807603 -0.007882042 0.04569714
000350 03 ca 16 3d c9 d3 95 3d 13 72 d9 bd bc 08 27 3c
       0.036813747 0.073157854 -0.10617461 0.0101949535
000360 1a 2b 96 bd f2 de 6f be 09 b7 d9 bc d1 e8 11 bb
       -0.0733244 -0.2342489 -0.026576536 -0.0022264014
000370 39 4a c3 bc db 78 08 be 6c 56 1f bd 1d 4f 0f bd
       -0.023839103 -0.13327353 -0.038900778 -0.034987558
000380 32 97 27 be 54 7c a0 bc 29 c4 81 bd af 75 85 bc
       -0.1636627 -0.019590534 -0.06336243 -0.016291467
000390 79 e4 85 bd 7c 3a 81 be 19 35 a4 39 4b e3 43 3b
       -0.06537718 -0.25239933 0.00031320078 0.0029890116
0003a0 bd 9a 83 bc 39 94 8d bb 33 49 5d bd e9 cb e4 bc
       -0.016064996 -0.004320648 -0.054024886 -0.027929263
0003b0 29 cc f5 bc ca 3d a0 3d 05 43 a8 3d 73 57 d8 bc
       -0.030004578 0.07824285 0.08215908 -0.026408887
0003c0 c3 96 a2 3c a7 a5 09 bd 85 92 97 bd b5 b5 8b bd
       0.01984728 -0.033605244 -0.07400993 -0.06821767
0003d0 e5 1b 6a be 65 87 75 3d 3d ab 36 3c 53 6e dd 3c
       -0.22862203 0.059943575 0.011149225 0.027030146
0003e0 d6 65 af be d7 56 50 3d bb 36 65 3c b0 42 41 bd
       -0.34257382 0.050864067 0.0139901 -0.04718274
0003f0 97 97 2d bd 0f 54 fd bc 5f 1c 0b be 3d 0a 35 bd
       -0.042380895 -0.030923871 -0.13585041 -0.044199217

fc.bias f4 [12]
000000 22 55 03 be 83 b6 8b be 34 73 10 bf a1 64 05 ba
       -0.12825444 -0.27287683 -0.56425786 -0.0005088542
000010 e4 24 da be 5b c8 8e be c9 9b 24 be e1 0e cf bd
       -0.4260627 -0.27887234 -0.16075052 -0.1011026
000020 f5 02 9b be 7f 3d 64 3e 6e f3 80 bd d2 04 e0 be
       -0.30275694 0.22289084 -0.062964305 -0.43753678
