src/main/python/saved_models/java_1_28_CNNClassifier1_128embs_109id_16hd_0hl_Falsebid5kernel0.3dropout_2.pt (torch, 297163 bytes, 9 tensors)

emb.weight f4 [109, 128]
000000 e1 7c 28 3f ab 60 f6 3e d7 9b 50 3f f6 e4 5a 3f
       0.6581555 0.48120627 0.8148779 0.85505617
000010 cf 1c 73 3f 41 f0 a2 3f eb c0 a5 3f 3c 96 89 bf
       0.94965833 1.272957 1.2949499 -1.0748973
000020 78 ea a0 3f d1 cb 1d 3f 9b d5 12 bf 80 94 a4 bd
       1.2571554 0.61639124 -0.57357186 -0.080361366
000030 c1 64 55 be 9b 54 08 c0 1f 4e 01 c0 c8 61 8a 3f
       -0.20839216 -2.130164 -2.0203931 1.081109
000040 91 73 69 3f 30 64 03 bf ab d1 76 3e b7 b6 b5 3e
       0.91191965 -0.5132475 0.2410342 0.35490963
000050 3f 18 b1 bf a9 81 b0 3c fa 03 9b bc 42 1f 2c bf
       -1.3835524 0.021546202 -0.018922795 -0.67235196
000060 1c d6 c3 3f ee b6 bf 3f 0b ba 8c bf 25 71 c6 bf
       1.5299716 1.4977701 -1.0994276 -1.5503279
000070 ab cd 76 bf 89 0a 9b 3f a3 f7 12 3f df ba 1b 3f
       -0.96407574 1.211259 0.57409114 0.6083202
000080 9f 12 c1 3d a1 62 8a bd 3b fb e2 be ef df 92 3f
       0.0942738 -0.06757093 -0.443323 1.1474589
000090 60 bf 64 bf 83 4f 4f 3f 06 dc 6d bf 30 7e a5 3e
       -0.89354515 0.809807 -0.92913854 0.32322836
0000a0 df 4f 97 3d 43 fd 5d 3e fa dd af be 24 03 b5 3f
       0.07388281 0.21678643 -0.34349042 1.4141583
0000b0 60 18 40 bf 8b 79 bc be ff e9 83 be 4c 49 0f 3f
       -0.75037193 -0.3681148 -0.25764462 0.5597122
0000c0 b1 d8 8d be 27 b6 86 3f bd 1e d9 bf 78 52 32 bf
       -0.27704385 1.0524338 -1.6962506 -0.6965709
0000d0 1f 92 54 3f 17 dc 1d bf fa dc b1 be e9 d7 88 be
       0.83035463 -0.61663955 -0.34738904 -0.26727226
0000e0 a7 c1 57 3e b3 99 05 3e c6 b1 e9 3e 31 1f b1 be
       0.21069966 0.13046913 0.45643443 -0.3459411
0000f0 d2 e5 89 be 1f 7a c1 3e 69 0f fa bf 92 f4 74 bd
       -0.2693315 0.37788484 -1.9535953 -0.059803553
000100 88 5d e7 3f 0a 2d cf 3f 53 5a f8 be 36 46 39 3e
       1.8075418 1.618562 -0.48506412 0.1809319
000110 85 f0 a2 3e 0f 88 d2 bc af 07 cd bd 23 11 4f bd
       0.31824127 -0.025699643 -0.10011231 -0.050553452
000120 f4 ba 5d bf b4 5a 0d c0 60 28 89 3f 99 80 17 be
       -0.8661339 -2.208661 1.0715446 -0.1479515
000130 bf 58 91 bf 01 36 b8 3d d5 d2 aa be 43 2c 02 3e
       -1.1355208 0.089946754 -0.33363977 0.12712197
000140 da 49 84 3f b1 a2 e5 3f 62 6e dd 3d dc 64 20 bf
       1.0335038 1.7940274 0.108120695 -0.626539
000150 f9 a5 ba bf b5 0e 1d 40 01 06 ca bf e3 2f cc bf
       -1.4581901 2.4540226 -1.5783082 -1.5952114
000160 a0 3d 91 3f 0c 90 29 bf 08 9e a1 be b3 75 6d bf
       1.1346931 -0.66235423 -0.3156588 -0.9275772
000170 c7 3b f0 bf ae dc d1 3f 6d 3c 8f 3f 19 80 5f 3f
       -1.8768243 1.6395471 1.1190315 0.87304837
000180 33 8f dd 3e df 00 18 3d 27 7e e6 bf 59 08 91 bf
       0.43273315 0.037110206 -1.8007249 -1.1330673
000190 d7 6e 78 3e b4 19 b8 3e 4c 25 c6 3f 0e 13 b0 3e
       0.24261032 0.3595711 1.5480132 0.34389538
0001a0 60 6e 04 3f bc 59 f2 3e 16 33 b5 3e 1e ec d1 bd
       0.5173092 0.47334087 0.35390538 -0.10250114
0001b0 8a cc 0b bf 90 7e 3d 3f da a0 2f 3e f1 06 b7 bf
       -0.54608977 0.74021244 0.17151204 -1.4298993
0001c0 6f b7 06 c0 c7 d3 5e be cb 20 ac bf 36 27 53 3e
       -2.104946 -0.21760474 -1.3447508 0.20620427
0001d0 32 d9 7c bf 87 bd 14 bf 6c 80 31 be 3f 4e 89 3e
       -0.98768914 -0.58101696 -0.17334145 0.2681751
0001e0 2e 2b 48 3f 7c b0 a1 3e 56 20 51 bf 4b 4e 6a 3f
       0.78190887 0.3157996 -0.81689966 0.91525716
0001f0 af 91 2f bf c2 54 fe be b6 07 0a c0 18 45 40 3d
       -0.6858167 -0.4967404 -2.1567206 0.046940893
000200 42 d5 55 bf af 3e 47 bd 8a f9 1a 3f bb 9d a0 bf
       -0.8352853 -0.048643764 0.60537016 -1.2548136
000210 3d b6 db bf 48 a1 29 3f ad 16 28 bf 38 0a 55 bf
       -1.716499 0.6626172 -0.656596 -0.8321872
000220 15 62 11 c0 4b ee 78 bf ec 04 29 bf 38 07 81 bf
       -2.2716115 -0.97238606 -0.66023135 -1.0080328
000230 01 81 4a be af ca b0 3e e9 5f 5f bf 01 f3 0b 40
       -0.19775774 0.34529635 -0.8725572 2.1867068
000240 c9 d2 ce be 55 9a 10 3f ee 51 8b 3f 25 ff 97 3f
       -0.4039519 0.5648549 1.0884378 1.1874739
000250 5c 9f 97 3f c9 bf 2d bc a9 26 b1 3f fb ce 31 3f
       1.1845508 -0.010604807 1.3839923 0.6945645
000260 8f ce 6b bd 33 3b 89 3f 8f 1e 70 bf af e6 40 3f
       -0.057570037 1.0721191 -0.9379663 0.75351995
000270 27 30 a1 3f eb 69 c6 be b9 ca c7 be 78 8f c5 3d
       1.259282 -0.38752684 -0.39021853 0.09646505
000280 ee 56 12 c0 cf 89 5d 3d 56 e0 9f 3f 39 0f 6c bf
       -2.2865558 0.054086503 1.2490337 -0.9221073
000290 70 18 1d 3f 23 d6 8b be 8a f6 80 3c a0 a8 9c bf
       0.61365414 -0.2731181 0.015742559 -1.223896
0002a0 28 f6 17 bf 50 0c 5c 3f cd 5c 39 bf 59 bc b4 be
       -0.5935998 0.8595629 -0.7240723 -0.35299948
0002b0 94 1f 1d 3f 37 24 88 3e 6b 67 b2 bf a4 c6 17 bf
       0.6137631 0.2659013 -1.3937811 -0.59287477
0002c0 b0 e8 99 3f 23 77 f4 bf b7 f4 da be 8e 08 10 3d
       1.2024136 -1.9098858 -0.42764828 0.03516441
0002d0 76 46 58 3f d2 5f 32 bf d8 3f 3a 3f ad cf 67 bf
       0.84482515 -0.6967746 0.7275367 -0.90551263
0002e0 57 50 4e bf 44 59 b1 be 8b 45 8b 3f dd 02 a6 be
       -0.8059134 -0.34638417 1.0880598 -0.3242406
0002f0 31 d4 b1 3f 04 09 3d bf 83 06 45 bf d6 f6 41 3f
       1.3892881 -0.7384188 -0.7696306 0.75767267
000300 fd c9 49 3f 6c d3 53 be 4f c4 5c be c2 4e af bf
       0.78823835 -0.2068612 -0.21559261 -1.369591
000310 34 2f f3 be 4c 15 0e bf 2e 3b 52 3c 3e d0 7e bd
       -0.4749695 -0.55501246 0.012831492 -0.062210314
000320 dd bd 15 3f 88 51 80 bf f1 7f d0 be 6f 64 88 be
       0.58492833 -1.0024881 -0.40722612 -0.26639125
000330 7a 79 1b bf 11 25 91 3e a3 78 21 3f 18 72 d4 bf
       -0.60732234 0.28348592 0.630747 -1.6597319
000340 26 ed 3a bf f5 e4 8e 3f af a7 12 bf 84 cd 32 3f
       -0.7301811 1.1163622 -0.57287115 0.6984484
000350 14 bf c2 bf 79 d0 b1 3f 12 51 83 bf 25 67 d5 3d
       -1.5214562 1.3891746 -1.0259116 0.10420064
000360 e6 d6 d4 3f aa f8 64 3d cf 23 24 3f 18 b3 c8 bd
       1.6628082 0.055901207 0.6411714 -0.097997844
000370 40 7b 03 c0 44 1d 37 3f 30 cf 00 3f c1 84 c4 3f
       -2.0543976 0.7152903 0.50316143 1.5353013
000380 9d 73 76 3f 0b 67 ef be 0b d3 86 bf b6 56 10 3e
       0.9627016 -0.46758303 -1.0533155 0.14095578
000390 48 79 b3 3e 78 eb 4a bf 13 f9 4e 3e d0 fa 65 bf
       0.35053468 -0.79265547 0.20212202 -0.89835835
0003a0 14 e6 cc 3f 77 4c a8 3f c7 85 be 3e f6 35 06 bf
       1.6007714 1.3148335 0.3721144 -0.5242609
0003b0 8e c8 a9 3f 9a 1b 16 3f fe 80 94 3f b5 2b 70 3e
       1.326433 0.58635867 1.1601865 0.23454173
0003c0 20 90 55 3f b0 e1 3f 3f 96 b3 78 bf 47 db e2 3c
       0.8342304 0.74953747 -0.97149026 0.02769245
0003d0 82 73 34 bf c3 f5 82 bf 9c 15 67 be 07 f8 12 bf
       -0.7048875 -1.023125 -0.22566837 -0.5740971
0003e0 f2 2a 22 bf 29 90 ee 3f 03 8c 68 3f c9 96 3e bf
       -0.6334678 1.8637744 0.9083864 -0.7444883
0003f0 a6 41 47 3e 51 3e ab 3d e4 8e 0d 3f 91 95 03 3f
       0.19458637 0.08361495 0.5529616 0.51400095

conv1.weight f4 [16, 128, 5]
000000 41 32 27 bd 42 74 0a 3e 15 ef b6 3c 06 ee b6 3d
       -0.04081941 0.13520911 0.0223308 0.08932118
000010 b9 b1 c7 bc da ed 5d 3c bc 75 b8 bc d7 f8 16 3c
       -0.024376737 0.013545478 -0.022517078 0.0092146015
000020 ec a7 db bc 18 4f 31 bd 24 56 a6 bd 3a c2 20 be
       -0.02681347 -0.04328832 -0.08121899 -0.15699092
000030 cf 12 60 3d 0a 02 c5 3c 47 d9 25 be fe a0 be bd
       0.054705437 0.024048824 -0.16196166 -0.093080506
000040 bc 59 b0 3c 4f 30 9b bb f1 0a 2e be 02 0f 9a bc
       0.021527164 -0.0047359834 -0.16996361 -0.018805984
000050 45 49 81 bd 15 f3 31 bd 24 33 58 3c 2c bd 33 3e
       -0.06312803 -0.04344471 0.013195787 0.17552632
000060 e9 96 ab ba e8 50 5a 3d 19 32 23 be 1b 81 60 3d
       -0.0013091239 0.053299814 -0.1593708 0.054810625
000070 eb 20 28 3d b7 ed 45 be 5b 7c 3e bc b6 6e 61 3d
       0.041047018 -0.19328962 -0.011626328 0.055037223
000080 aa da 06 3d 66 0c 17 3e 5d 9c 05 be be 9c e1 bd
       0.032923378 0.14750823 -0.13047929 -0.11016224
000090 8a e3 01 3e 1a 44 11 be 3d 2a 95 bd 52 bd 63 bd
       0.12684456 -0.14186135 -0.07283447 -0.05560047
0000a0 01 fb 7b 3d e1 86 1d bc 05 61 79 3d 01 ac 8f 3e
       0.061518673 -0.009614677 0.06088354 0.28060916
0000b0 7b 5c dc 3d 03 ad 3a be 75 6f fc bd 27 9b 33 3e
       0.10759827 -0.18230061 -0.12325946 0.17539655
0000c0 61 c0 47 3d 87 13 2e bd e1 44 3c 3d 22 f0 1e 3e
       0.04876745 -0.04249909 0.045964126 0.15521291
0000d0 9d 36 e9 3c 6c 7e 0a be 3c 5c 1a 3e a4 0b ce 3d
       0.028468424 -0.13524789 0.15074247 0.10060814
0000e0 59 ed a3 bd 1d 25 c4 bd cf 5a 88 be 8a 6c b2 bd
       -0.08004255 -0.09577391 -0.2663178 -0.087121084
0000f0 23 0b 09 bd 8e be 61 be 9f 08 54 be 53 26 0d be
       -0.033457886 -0.22045347 -0.20706414 -0.13784151
000100 a4 46 4e bd d9 61 31 bd 82 ea 7d bd 68 41 69 3d
       -0.050360337 -0.043306205 -0.061991222 0.056947142
000110 83 b1 4c be ed ab fc bb 8c f8 4b 3c 9c 53 67 bd
       -0.1998959 -0.007710925 0.012449395 -0.05647622
000120 bb 07 22 be fe b7 67 3c 5f e5 e8 3b 0a 20 73 be
       -0.15823261 0.014142988 0.0071074213 -0.2374269
000130 42 06 73 bc 91 3f 1f be fd 7d c7 bd e8 c5 9f bd
       -0.014833035 -0.15551592 -0.09740827 -0.078014195
000140 6b 91 df bb 52 5d bc bc c6 fb 59 bd 23 e9 01 3e
       -0.006822755 -0.022993717 -0.053218625 0.12686591
000150 0d 84 31 3d 17 06 33 be 00 6e 96 bd 87 7e 38 be
       0.043338824 -0.17482792 -0.073451996 -0.18017016
000160 95 00 a7 be 7f bd 62 3d b4 3a 3a 3d 6d c0 6a 3d
       -0.32617632 0.0553565 0.04546614 0.057312418
000170 c0 e7 8c bb 68 dd 16 bd c1 f1 01 be de 81 80 3d
       -0.0043000877 -0.036832243 -0.12689878 0.0627477
000180 55 37 11 3e 94 e2 17 bd cd 01 87 be 46 4b 90 3d
       0.14181264 -0.037081316 -0.2636856 0.07045607
000190 49 86 17 3d 47 9e 01 3d 38 dc 89 3d 8f c2 d0 3d
       0.0369933 0.031645086 0.067314565 0.10193359
0001a0 7e 38 87 3d d0 29 b0 3d 08 91 b7 bd 1c cc 93 3c
       0.06602572 0.08601725 -0.089632094 0.018041663
0001b0 e2 83 64 3e af ab 02 be 3c 6e 61 bc 4b 89 00 3e
       0.22315934 -0.12760805 -0.013759192 0.12552373
0001c0 29 c8 03 3e 2a 61 59 3e 4c 27 ca bd b0 1d 84 3d
       0.12869324 0.21228471 -0.098707765 0.06450975
0001d0 47 88 fd 3c b0 d4 44 3c 7a 64 39 be 94 44 fb 3d
       0.030948771 0.012013599 -0.18104735 0.122689396
0001e0 4d 28 0d bd 63 71 a3 3d c5 05 26 be 36 24 1b be
       -0.034462262 0.07980611 -0.16213138 -0.15150532
0001f0 a8 2f 80 bd 90 e7 83 bd b4 a2 71 3d 5d ff 56 3d
       -0.0625909 -0.064406514 0.058993056 0.052489627
000200 7a 66 39 3e af 88 84 bd 52 8b bb bd f2 03 75 bd
       0.18105498 -0.06471383 -0.091574326 -0.059818216
000210 a3 26 f9 bc a7 34 20 3e 05 47 19 3e 0b ce 1e bd
       -0.030413931 0.15645085 0.14968498 -0.038770717
000220 db e2 23 3e d5 f6 49 3c 8b 75 3e 3e ae a1 39 3e
       0.16004507 0.012326916 0.18599527 0.18128082
000230 e0 79 82 3c d6 29 18 3e 03 b6 e4 3d 48 e2 d0 bc
       0.015927255 0.14859709 0.111675285 -0.025498524
000240 54 8f b2 bd 38 f7 c2 3d ab 90 f2 3d 45 5e 55 3d
       -0.08718744 0.095198095 0.118439995 0.052091856
000250 47 56 94 3e 2d 7d 6c 3e 2b 15 27 3e 68 c0 a3 3d
       0.28972074 0.23094626 0.16316669 0.07995683
000260 35 42 b6 3d 1e 34 bf 3e bf df 11 3e f5 d3 bb 3b
       0.08899347 0.3734445 0.14245509 0.0057320544
000270 40 82 1b bd b4 78 4c 3d 5d 06 6f bd 6e 44 8f bd
       -0.037966013 0.0499198 -0.058355678 -0.06995474
000280 cc ff d7 bd 31 ce 42 3d 34 31 9a 3d 8d f1 4f 3e
       -0.10546836 0.04755992 0.07528916 0.20306988
000290 f5 7e 02 3e 95 9c 97 3c db a6 6c bc 92 06 e9 bc
       0.12743743 0.018507281 -0.014444078 -0.028445516
0002a0 6e 47 2e be a7 2a 1e 3e eb 3c a5 bb b4 5d 8b bd
       -0.17019436 0.15445958 -0.0050426624 -0.06804982
0002b0 6d fc fb bb 7e 5c c3 3d 78 77 f9 bc d4 ca c8 3c
       -0.0076900036 0.09539126 -0.030452475 0.024510778
0002c0 03 42 4a 3d fb be f3 ba d5 26 5e be ee 4a d6 3d
       0.04937936 -0.0018596345 -0.216945 0.104635105
0002d0 eb f9 47 bd 69 7f 9f bd dd c6 a8 bd 69 40 3c 3e
       -0.048822325 -0.077879734 -0.08241055 0.18383946
0002e0 1f cb e2 bc ee 5d 5e 3d 60 e3 3b 3d 3a 4a 47 bd
       -0.027684746 0.054288797 0.04587114 -0.048654772
0002f0 47 7f d3 3c b7 a8 13 bd 87 e1 98 bd f3 0f 14 3e
       0.025817527 -0.03604957 -0.07464891 0.14459209
000300 9e 2a 7e 3e 47 c4 1b 3e a7 c8 82 3c ac 0f 36 3d
       0.24820945 0.15211593 0.01596482 0.04444854
000310 dd 04 a5 3d f2 73 03 3d b1 88 b8 3c 77 a6 7d 3d
       0.08057568 0.032092996 0.022526117 0.06192633
000320 f1 95 22 3e 03 ab 9c 3d 7b ce 81 3d 30 25 50 be
       0.1587751 0.076498054 0.06338211 -0.20326686
000330 1f a7 43 3e cf 26 06 bd ea ff 40 3c 16 15 88 3d
       0.1910672 -0.032751855 0.011779765 0.06644647
000340 46 35 56 3e 0c 02 f3 3d 72 f9 7e 3d 8b a1 b6 bc
       0.2091876 0.11865625 0.06224961 -0.022293827
000350 fe aa 83 bb f7 de 2a bd b2 f3 ad b8 7d a4 4a bc
       -0.0040181866 -0.041716542 -8.2946746e-05 -0.012368319
000360 e8 df 05 3e 83 1d 57 be 28 12 15 be 26 92 44 bd
       0.13073695 -0.21007352 -0.14557707 -0.04799094
000370 50 53 97 bc e6 d7 cb 3d f1 a9 b8 ba 7f 03 80 3d
       -0.018472344 0.09953289 -0.0014088732 0.06250667
000380 8d 8c c7 bd 1e 73 07 3e 3c bc 02 be 7a 5a 53 be
       -0.09743605 0.13227507 -0.12767118 -0.20639983
000390 e6 6c 58 bd b8 5e e9 3c fa 2d b1 bd 8c 1b 95 bd
       -0.05283823 0.028487548 -0.086513475 -0.07280645
0003a0 44 93 14 3e 40 36 cf 3d 6b 5f 98 be 37 48 3a be
       0.14509302 0.10117769 -0.29760298 -0.1819161
0003b0 da 76 75 be 39 f8 77 bd 59 68 5f bd 97 bb 91 be
       -0.2397112 -0.060539458 -0.054542873 -0.28463432
0003c0 6b c6 32 3d 6d 87 3e 3d 2e 0d 4d 3e 27 39 9d bd
       0.043646257 0.04651587 0.20024559 -0.076769166
0003d0 6a d7 ae 3d df c3 43 bd c5 e9 7c bd 33 37 10 3e
       0.08537181 -0.04779422 -0.061746377 0.14083557
0003e0 53 43 7d be 97 dc 94 bd 49 50 1c 3d 03 1d da bc
       -0.24732713 -0.07268637 0.038162503 -0.026625162
0003f0 52 4c 35 be aa 4d 44 3e 24 c1 3f 3d ad dd 1a bd
       -0.17704895 0.19170251 0.046815053 -0.037809063

conv1.bias f4 [16]
000000 f2 f7 dd bd aa 7f c1 3d 41 cf f5 3d ae a3 0a be
       -0.108383074 0.09448178 0.12002421 -0.13539001
000010 ce 2f d1 bd a1 b3 17 be 24 71 c9 bd 70 ed 2e be
       -0.10214196 -0.14814617 -0.09836033 -0.17082763
000020 dd 81 4d be 83 f4 fc bc 4e 9f 18 3e 59 d4 04 be
       -0.2006907 -0.030878311 0.1490452 -0.12971629
000030 21 8b 50 bc a0 d9 b5 bd 85 19 1b be aa 48 d2 bd
       -0.012728483 -0.08879399 -0.15146454 -0.10267766

conv2.weight f4 [16, 128, 3]
000000 46 ee 88 bd 52 cc a6 3b 1b 18 e3 bd eb d0 09 3e
       -0.06686072 0.005090275 -0.11088582 0.13458602
000010 5e 93 0e be b8 dc 95 3d c1 90 7a be f8 de ba bd
       -0.13923404 0.073174894 -0.24469282 -0.09124559
000020 8b 3d 5c bd b4 72 6f be 12 86 41 be 71 de 03 be
       -0.05376963 -0.233836 -0.188988 -0.12877823
000030 c6 4f 94 bd 26 a6 de bd 8f 1f c6 bd 02 06 81 3e
       -0.07241778 -0.10871534 -0.09673988 0.25199896
000040 67 cf 75 3d 60 a0 b7 3c e3 af 7b bd 26 56 fb 3d
       0.060012247 0.02241534 -0.061447036 0.12272291
000050 b1 89 84 3d ae 4a f9 3d d9 a8 63 3b 8d e1 dc ba
       0.06471575 0.12172447 0.0034738092 -0.0016851887
000060 dc 7a f6 3d 3e ae ef 3c 56 fb 0f 3e 03 7a b2 bd
       0.12035152 0.02925789 0.14060721 -0.08714678
000070 dd 5c f5 3d 94 99 1c 3e 6e c8 2f 3e c2 e2 a0 3d
       0.11980603 0.1529296 0.17166302 0.078557506
000080 38 32 3a bd 27 ad 75 3d 35 f8 3a 3d 5a f8 fc bc
       -0.04545805 0.059979584 0.045646865 -0.030880142
000090 98 c2 6c be e8 c5 2e bd e3 69 a8 bc 71 81 4e 3b
       -0.23121107 -0.042669207 -0.020558303 0.0031510259
0000a0 aa 72 68 3c 5d 65 08 3d 12 c2 6a 3c 7a a4 86 bd
       0.014187494 0.033299793 0.0143284965 -0.0657434
0000b0 96 57 fd bd d4 59 27 be cf 01 9c be 2d 69 50 bd
       -0.12370221 -0.1634286 -0.3047013 -0.050881553
0000c0 ac 7f 85 3d 36 51 e5 bd 85 87 04 be ad 7c 18 be
       0.06518492 -0.111971304 -0.12942322 -0.1489131
0000d0 22 79 fa bd 4d 05 6b 3d ab 5c da bd dd 93 90 bd
       -0.122301355 0.057378102 -0.10662206 -0.07059453
0000e0 d5 c4 32 3e c2 69 d6 3c 9b a2 36 bb 17 07 4e 3e
       0.17457898 0.026173476 -0.0027867917 0.20119892
0000f0 bf 3a f9 3d 30 ce 91 3d b1 ee 41 be 97 fa 94 bd
       0.12169408 0.07119405 -0.1893871 -0.07274359
000100 84 a4 20 3e b7 c5 e3 bd 3a 4a 22 3e 35 83 b9 3d
       0.15687758 -0.111216955 0.15848628 0.09058229
000110 f8 83 95 bd 64 eb 47 3b 1c 46 47 3d ae 37 39 3e
       -0.07300562 0.0030505294 0.048650846 0.18087646
000120 53 fe 8d 3d 80 92 1a be 14 d1 9a 3d 42 a2 67 3d
       0.06933274 -0.15094948 0.0755941 0.056551225
000130 29 a0 9f bb a0 56 37 be 34 f7 dd 3d 63 d7 83 3e
       -0.0048713875 -0.17904139 0.10838166 0.25750265
000140 f1 3b 0f bd 1d d9 e3 3d 9c 2c b1 bd 5a 8e ce bb
       -0.034969274 0.111253954 -0.08651087 -0.0063035907
000150 1b 07 25 bd be df cc bd b4 46 d2 3c c2 16 18 3e
       -0.04028998 -0.10003613 0.02566848 0.14852431
000160 ce d5 46 3e 4d 5f 70 bd 49 62 04 3e 51 b6 66 3e
       0.19417498 -0.058684636 0.12928118 0.22530486
000170 11 62 08 bc c6 81 8a 3e 9d 2f af bc 5c ac 38 be
       -0.008324162 0.27052134 -0.021385008 -0.180345
000180 ee 6a 8f 3d 82 fe 1b 3e 2a f8 00 3d 92 05 fd bc
       0.07002817 0.15233806 0.031486668 -0.030886445
000190 86 a4 1e bd 30 d4 fc bd c8 03 54 bc f2 83 90 3d
       -0.03873112 -0.12345159 -0.012940355 0.070564166
0001a0 86 4c 07 be 92 49 83 3d ad c0 b3 3d ce 94 15 3e
       -0.13212785 0.06410517 0.08776984 0.14607546
0001b0 94 f2 38 3d 1c 30 38 be cb e3 0b bc 77 6c 40 3e
       0.045153216 -0.17987102 -0.008538197 0.18791376
0001c0 e7 c5 11 3d ab 04 e9 bc 94 66 6e 3d 5b 9e 68 3e
       0.035589125 -0.028444609 0.058203295 0.22716658
0001d0 67 2a ca bd b4 7a c1 bd 7c b5 07 bd 95 1e 33 3e
       -0.09871369 -0.09447232 -0.03313206 0.17492135
0001e0 04 95 cb 3d 29 07 03 3e 34 f6 ee 3a f4 5c 03 3e
       0.09940532 0.127957 0.0018231333 0.12828428
0001f0 d9 b0 e4 3d 2a 61 10 3d 9c 83 02 be 88 c5 a2 bd
       0.111665435 0.035248913 -0.12745517 -0.07947832
000200 d7 d3 ab 3d fa 9b 89 bd c4 0f d8 3c 49 a7 16 be
       0.083900146 -0.06719203 0.026374705 -0.14712252
000210 3d be 96 3c 13 ca 54 be 3c e6 df bd 64 ae 1a be
       0.01840126 -0.2078021 -0.109325856 -0.15105587
000220 0b aa d0 bd 29 30 94 3e d5 a7 7d 3d 11 57 ca bb
       -0.10188683 0.28942993 0.061927635 -0.00617493
000230 a6 5a 53 3d d8 38 8d be 7f c1 b6 bb c1 fe 65 3d
       0.05160012 -0.2758243 -0.0055772658 0.056151155
000240 14 a7 1c 3e d7 07 8c 3d 62 11 88 3e bf 21 54 3e
       0.1529811 0.06837433 0.26575762 0.20715998
000250 20 c0 58 3d c3 a2 fb bc ec 45 01 be 36 ee 9a 3c
       0.0529176 -0.03071726 -0.1262433 0.018912416
000260 85 dd 62 be fb 6e d5 3d 03 06 c8 bc 2f 08 11 3d
       -0.22154815 0.104215585 -0.02441693 0.035408195
000270 9f 62 54 be 26 b5 bc 3d cb 41 23 bd 3f aa 71 bc
       -0.20740746 0.09214239 -0.039857667 -0.0147500625
000280 72 8a ea 3b da f6 df bc 80 5e e6 bd 27 f9 74 be
       0.0071576172 -0.027339388 -0.11248493 -0.23923169
000290 df 9f 57 bd 5c be 73 be 0c 5a 2d be 4a 55 57 3d
       -0.0526427 -0.23803085 -0.16928881 0.052571572
0002a0 ac 72 d2 bd 0a ae 66 3e 94 05 ae bd b7 df 0e bd
       -0.10275778 0.22527328 -0.08497158 -0.03488132
0002b0 d3 bb 4d 3e 10 b8 29 bd 66 a6 9b 3d 47 ab 89 bd
       0.2009118 -0.0414353 0.07600097 -0.06722122
0002c0 bc 72 be bd 9f 9b 76 3d 3b 6e c7 3d f4 dc 88 bc
       -0.092992276 0.060207006 0.09737822 -0.016706921
0002d0 60 49 a5 bc 0e ac 39 be 00 0c 3d be d7 19 9a bc
       -0.02017659 -0.1813204 -0.18461609 -0.01881115
0002e0 46 d1 86 be 67 97 6f 3d 8e da 6e be 4d 7a 22 3c
       -0.26331538 0.058493998 -0.2332556 0.009916854
0002f0 5a 07 88 3d 81 b5 84 3e 30 57 78 bc 87 f3 06 3d
       0.06642027 0.25919726 -0.015157506 0.03294709
000300 e1 29 86 3d f5 af 6b be 5a 01 17 3e 52 e3 00 be
       0.065509565 -0.23016341 0.1474661 -0.12586716
000310 8b b5 da bd 4c c5 34 3a 93 f3 8c be 3b 49 37 3e
       -0.10679158 0.00068958546 -0.27529582 0.17899029
000320 f7 31 80 3d 53 9d d0 bd 31 db 63 3d 93 10 ee bc
       0.0625953 -0.10186257 0.05562896 -0.029060638
000330 e0 da 28 be 6c f3 96 bb 5a 39 c4 3d 0c cb 9a 3d
       -0.16489744 -0.004606655 0.095812514 0.07558259
000340 f8 8d 39 be 52 9c 43 3e ef 24 49 3d f8 f8 88 be
       -0.18120563 0.191026 0.04910749 -0.26752448
000350 f7 b1 c1 3d 99 10 0c bd 3a cf 41 be ba e3 85 bd
       0.09457772 -0.034195516 -0.18926707 -0.06537576
000360 11 69 87 be 2b 2a 24 3e 52 20 c3 3d c4 6e 47 be
       -0.26447347 0.16031711 0.09527649 -0.19475847
000370 ab 63 c2 bd 56 0a 8e be 14 57 2d bd f1 2a a1 3d
       -0.094916664 -0.2774226 -0.042319372 0.078695185
000380 55 19 26 3d ec c2 1f 3e 4a 4f ca bd 36 34 d0 bd
       0.040551502 0.156017 -0.098784044 -0.101662084
000390 9e b2 05 bd 4e 27 46 bd 43 1b 4a be f2 d8 8a be
       -0.032641046 -0.048377328 -0.19736962 -0.2711864
0003a0 74 1b d2 bc c1 84 d0 bc 54 f4 d8 bd 8d f9 74 be
       -0.025647856 -0.025453927 -0.10593477 -0.23923321
0003b0 53 50 b9 bd 5b 86 18 bd 92 b4 97 bd 9f a7 c5 bd
       -0.09048524 -0.037237506 -0.07407488 -0.09651112
0003c0 53 80 16 3d 56 70 8b bc 76 9f 20 bd b4 f5 06 3e
       0.036743473 -0.01702134 -0.039214574 0.13179666
0003d0 50 3d 67 3d 0d d7 ac 3e a8 38 0d 3e d7 31 a3 3d
       0.056454957 0.3375782 0.13791144 0.079684906
0003e0 d8 e7 13 3e 2c 90 a4 3d 4d 7e 3a 3d 5b 56 af bd
       0.1444391 0.08035311 0.045530606 -0.08561393
0003f0 65 39 ef bd 64 84 80 3d cf 13 a7 3e fc 3c 77 3d
       -0.11680869 0.062752515 0.326323 0.060360894

conv2.bias f4 [16]
000000 0e 9d a9 be 25 4d 1d be 30 d3 a1 be d0 53 25 be
       -0.33127636 -0.1536146 -0.31606436 -0.16145253
000010 9a 58 2e be ec 1b 71 be 73 e1 6a bd dd e0 49 bd
       -0.17025986 -0.23545808 -0.05734391 -0.049286712
000020 83 de 8c 3c 18 d6 02 be 74 0d bb bd 03 ed f7 bd
       0.017195946 -0.12776983 -0.09133425 -0.12105753
000030 9f 4b 34 3d 31 d5 10 3e bb 7a 3d be ba 45 a8 bc
       0.04401743 0.14143826 -0.18503849 -0.02054106

conv3.weight f4 [256, 32, 5]
000000 c9 15 16 be 67 d3 ed bd 7f 14 12 3e 79 f7 ab bd
       -0.14656748 -0.116125874 0.14265631 -0.08396811
000010 61 f5 cc bd 45 30 6a bd 31 0f 13 3c 59 38 e1 3d
       -0.1000774 -0.05717494 0.00897579 0.109970756
000020 59 7d 30 bc 93 c0 8b bc e2 3d db 3d 85 c0 93 bd
       -0.010772073 -0.0170596 0.107051626 -0.072144546
000030 22 bd 99 3d 39 b4 80 3d d7 97 45 3d a8 ca 78 be
       0.07506777 0.06284375 0.04824051 -0.24296057
000040 88 49 5a be 34 a0 4d be ff 4c 6f 3d 89 0d 40 3d
       -0.21317112 -0.20080644 0.05842304 0.046887908
000050 ac 5c 1d 3e 3b 23 d9 bd 00 54 8d 3d 17 40 a1 3c
       0.15367383 -0.10602423 0.06900787 0.01968388
000060 3b 91 0b bd 68 34 7e bd cc c5 a4 be c2 f0 d4 3d
       -0.03407405 -0.062061697 -0.32182157 0.103974834
000070 31 a3 01 3d ee 93 db 3c 08 16 99 bd f2 2a 40 be
       0.031649772 0.026803937 -0.07474905 -0.18766382
000080 27 d4 08 be a3 43 1e 3d d6 6b 2f bd ac 46 2b be
       -0.1336218 0.038638722 -0.04282745 -0.16726178
000090 35 92 b9 be ab 41 31 3d 57 80 3a 3e 56 4f d3 bb
       -0.3624436 0.043275516 0.1821302 -0.0064486666
0000a0 bd a5 1a 3c 4c 19 3b be c4 71 ab bd c5 95 1b be
       0.009438929 -0.18271369 -0.083713084 -0.15193851
0000b0 f6 d5 1b bd 61 3b 16 3e b8 78 23 3e f4 20 dd 3c
       -0.038045846 0.14671089 0.1596402 0.026993252
0000c0 d2 94 1b be 97 85 bb bc c7 15 36 3e be f3 c2 3d
       -0.15193489 -0.022890849 0.17781745 0.095191464
0000d0 ba 3b ce 3c 22 c9 f2 3d 3f 71 91 3c 9a ef 01 be
       0.025174964 0.11854769 0.017754195 -0.12689057
0000e0 74 fd 1f be 27 e8 62 be 56 3e d5 3a 40 ed 5b bc
       -0.15624028 -0.22158872 0.0016269188 -0.013423264
0000f0 02 c5 47 be 8d de 5a 3e 8c e1 1d be 79 b5 65 be
       -0.19508746 0.21373959 -0.1541807 -0.22432508
000100 37 6f eb 3d dd c6 08 3e a8 46 22 be a2 05 58 3d
       0.11495822 0.1335711 -0.15847266 0.052739747
000110 a4 10 25 3d f8 bd 8e 3d 7e 3a f2 bb 07 d2 fa bd
       0.040299073 0.069698274 -0.0073922267 -0.12247091
000120 7e 87 fe bd 4e 3e a2 bb 03 5a 23 be 0d 22 17 3e
       -0.12428187 -0.004951275 -0.15952305 0.14759083
000130 8a 7f 7b be c5 b9 01 3a a5 56 9f 3d a1 ea dc bc
       -0.24560371 0.0004948641 0.07780198 -0.026967349
000140 2c 6c 05 be 73 5b 57 be c7 e4 50 be a0 44 db bd
       -0.13029546 -0.21030979 -0.20399772 -0.107064486
000150 c6 7d d8 bc 0f 4d 17 3e 23 6d 59 bd 6a 95 6f be
       -0.026427161 0.1477549 -0.053082597 -0.2339684
000160 92 75 03 3b 23 b3 8e 3d 79 91 87 3d e5 ed f0 be
       0.002005909 0.06967761 0.066195436 -0.470565
000170 4e 64 2a 3d 26 89 f3 bc 27 05 44 be cc 8d 72 3c
       0.041599564 -0.029728483 -0.1914259 0.014804315
000180 0d 74 74 be 38 49 ed bd f9 65 95 bb 35 4a 13 3e
       -0.23872395 -0.11586231 -0.004559275 0.14383776
000190 12 6e 83 3b 3a e1 59 be 39 8d a4 bd d3 59 cc 3d
       0.004010924 -0.21277323 -0.080347486 0.0997807
0001a0 7a 96 2f be 16 e8 3d be 3f 75 74 be dd ee a1 3d
       -0.17147246 -0.18545565 -0.23872851 0.07906888
0001b0 1b 9a 82 3c df ff 95 be 56 e6 e2 bd a3 63 69 bd
       0.015942624 -0.29296777 -0.11079089 -0.056979787
0001c0 a6 bb 9a 3e 37 e1 46 bd 83 7e a4 3d 1a 01 0f bd
       0.3022129 -0.048554625 0.08031943 -0.03491316
0001d0 6a 53 ba bc a5 f7 07 be 32 94 24 bd 92 c7 0c bd
       -0.022744853 -0.13278063 -0.040180393 -0.034370013
0001e0 84 14 98 bd ad 2c ae 3e c7 be e3 bb 1c fe d4 bc
       -0.07425788 0.3401846 -0.0069502327 -0.026000075
0001f0 16 db ae bd 26 d2 36 3e 7c 63 ca be 62 13 e3 3d
       -0.08537881 0.17853603 -0.39529026 0.11087681
000200 08 dc 44 be 88 22 ec 3d 44 1e 09 be 52 3a 54 be
       -0.1922456 0.11530024 -0.13390452 -0.20725372
000210 61 5f f7 bd c3 c1 79 3d 1e 07 77 3d c6 f4 3e be
       -0.12078739 0.0609758 0.06030952 -0.18648061
000220 d5 72 9e bc a3 a5 e9 bc 90 73 63 3e 9c 18 45 3d
       -0.019341866 -0.028521365 0.22212052 0.048119172
000230 78 32 47 be 74 74 a1 3e 3a f4 85 3d 6f 79 3f 3e
       -0.19452846 0.3153416 0.06540723 0.18698667
000240 a6 26 b7 bd 3a bb 8c bd a2 e8 ca be f5 a3 04 3e
       -0.089429185 -0.06871648 -0.3963061 0.1295317
000250 3d 92 c6 3d 85 77 af 3d e5 43 11 be 84 09 c7 3d
       0.096958615 0.085677184 -0.14186056 0.09718612
000260 bb 22 8a bc c9 3c 81 3d 71 be fb bc aa de e4 bd
       -0.016862264 0.06310422 -0.030730458 -0.11175282
000270 9d 65 8a bd b2 86 52 3e 7b 74 66 be 8a d5 68 bd
       -0.067576624 0.20559195 -0.22505371 -0.05684427
000280 4e 59 cb 3d b5 74 81 be ff 4d b1 bc 77 62 86 bc
       0.09929143 -0.25284353 -0.021643637 -0.016404374
000290 b0 43 1d be 76 43 fa ba 1e 39 85 be a7 ac 67 3e
       -0.15357852 -0.0019093591 -0.2602014 0.22624455
0002a0 1a 38 07 3e 9a fc e5 3d 9a ec 03 bd d8 51 8f 3d
       0.13204995 0.112298205 -0.032208063 0.06998032
0002b0 36 be fa bd 19 1a 6c be c5 d6 37 bd 01 8f 8e be
       -0.12243311 -0.2305683 -0.044882555 -0.27843478
0002c0 3c 64 04 be 99 5a 78 3d be ab 4f 3e 95 0e 18 bd
       -0.12928861 0.060633276 0.20280358 -0.03712328
0002d0 33 90 6f 3d 0a fd 64 be 56 6a f5 3b 78 c7 e5 3d
       0.05848713 -0.22362152 0.007489483 0.11219686
0002e0 07 73 36 3d 2c 8f 53 3d 18 06 be be 81 b1 c9 3d
       0.044543292 0.05165021 -0.37114024 0.09848309
0002f0 dc 4e 11 3d 12 f5 8a bd f3 cc 48 bb e2 4c ce 3c
       0.035475597 -0.06785025 -0.0030639737 0.025183145
000300 6e 85 cf bd dc 25 80 3d 3b d4 bc bb 5b f6 5b 3d
       -0.101328716 0.06257221 -0.0057626045 0.05370174
000310 2e 41 ae bd 3a 55 3e 3e b1 f4 95 3c e4 6b 9e ba
       -0.08508526 0.18587199 0.018305155 -0.0012086597
000320 17 ce b0 ba c8 fb 79 3d 3c 42 0c be 59 9e da 3c
       -0.0013489154 0.061031133 -0.13697141 0.026686834
000330 f1 b3 18 3e 74 47 81 bd d6 45 05 be dd 97 a3 bd
       0.14912392 -0.06312457 -0.13014922 -0.0798795
000340 3a b0 69 3d 01 5f a7 3d ff dd b2 bd 6f ea 7c bd
       0.05705283 0.081724174 -0.08733749 -0.06174701
000350 a9 c0 f2 3c f1 56 3c 3d 54 20 47 3d 49 f2 7f bd
       0.029632883 0.04598135 0.048614815 -0.06248692
000360 25 2c 1b 3d 9d 1f 9b be c5 0b 23 be ea 58 e1 bd
       0.037883896 -0.30297557 -0.15922458 -0.11003287
000370 3c 16 4a be e0 c3 10 3f de f6 1b bd 10 3a 8b 3d
       -0.19735044 0.5654888 -0.038077228 0.06798184
000380 86 e2 94 bd 54 4c e2 3d 5c 3f 1f 3d 9d 6b b1 3d
       -0.072697684 0.11049715 0.038878784 0.08663104
000390 68 52 09 be fd 64 4d bd 20 9f d2 3d fe b4 2d be
       -0.13410342 -0.050145138 0.10284257 -0.16963574
0003a0 f8 3c 15 be 02 7d 6b bd 90 dd 67 bd ee a6 ab 3c
       -0.14574039 -0.057492264 -0.056607783 0.020953622
0003b0 7d 0d 83 bb 7d 62 0c 3e b4 72 6f bd 62 92 01 bc
       -0.0039994107 0.13709445 -0.058459 -0.007908436
0003c0 0c b0 db 3c cb ed 5f 3b ee 4e 53 be eb b0 3b bd
       0.026817344 0.0034168835 -0.20635578 -0.04582302
0003d0 5c 67 10 bd 9c 8b 9c 3d b5 43 91 be 8d 9f fe 3c
       -0.03525482 0.07643816 -0.2837197 0.03108194
0003e0 57 1d 23 bd a0 a0 0a 3e 51 45 af 3b 62 ab 26 3e
       -0.039822903 0.13537836 0.0053488393 0.16276315
0003f0 f6 d0 58 be f4 0b 60 be f4 cb af bd 0a 4f 3e 3e
       -0.21173462 -0.2187956 -0.08583823 0.18584839

conv3.bias f4 [256]
000000 ae 8a c6 bd a6 b0 9f be 94 7f 3a be 5e 9a c7 bb
       -0.0969442 -0.3118946 -0.1821273 -0.0060914
000010 49 49 64 be e3 e1 30 be 3b 76 96 bd 17 15 37 be
       -0.22293581 -0.17273669 -0.073467694 -0.17879139
000020 3e 4e 2e be 48 95 fc bd 17 26 26 be be 9f 0c be
       -0.17022035 -0.12333161 -0.16225468 -0.13732812
000030 da 42 5c be 06 3a 29 3d 44 1d 82 bc 91 be 82 bd
       -0.21509877 0.0413151 -0.015883096 -0.06384004
000040 21 1d 15 3e 93 5b 81 bd c6 fc 0a bd 98 b5 11 3d
       0.14561893 -0.063162945 -0.03393247 0.035573572
000050 c6 e7 0b be 00 07 b6 bc b8 82 a1 bd 14 f0 ba bd
       -0.13662633 -0.022220135 -0.07886261 -0.091278225
000060 ad ca dd 3b 66 10 90 be 20 c0 6e be 7d e4 58 3e
       0.0067685456 -0.2813751 -0.23315477 0.21180911
000070 33 73 9a bd 4f 70 3e be a3 a3 b1 3e 8e 88 b2 3c
       -0.07541504 -0.1859753 0.34695157 0.02179363
000080 ca 31 41 be 09 04 a4 3e 59 0b ca 3d 74 85 31 be
       -0.1886665 0.3203433 0.09865446 -0.17336065
000090 00 10 1b be ba 03 a2 bc 25 e4 ab 3b 00 9b 4d be
       -0.15142822 -0.019777168 0.005245703 -0.20078659
0000a0 9b 73 f7 bd 20 fb 9f be f4 55 bf bd 7e 39 66 bd
       -0.12082597 -0.3124628 -0.09342566 -0.056207173
0000b0 5a a6 c5 3c 8a af e6 bd 09 1e 92 bd 30 b1 ec be
       0.024127174 -0.1126395 -0.07134635 -0.46228933
0000c0 e7 b4 f1 bd ec 2b 8b bc 77 da 97 be d4 79 1f 3c
       -0.118020825 -0.016988717 -0.29658863 0.009733636
0000d0 52 c2 10 be 49 5e 27 be a0 68 5c bd 94 d9 d0 bd
       -0.14136627 -0.1634456 -0.053810716 -0.1019775
0000e0 1a 69 a7 bd 31 08 ad bd 0f 9b f3 bd ac 20 b4 3d
       -0.081743434 -0.08448828 -0.118948095 0.08795294
0000f0 42 1c cb bd 9b 04 9c bd e6 5c 88 3d 73 59 d8 bd
       -0.09917499 -0.07618066 0.06658344 -0.10563936
000100 5e 17 6f bd 11 52 77 bd c7 19 06 3e 0b 7c e2 3d
       -0.058371894 -0.060381 0.13095771 0.110588156
000110 2c 5a 5f be 8a 88 59 be 2a 78 cf bd 70 ec 25 be
       -0.21811742 -0.21243492 -0.10130341 -0.16203475
000120 20 50 d7 bd 45 7e 51 be ad 3e c7 bd e2 12 be bc
       -0.105133295 -0.20458324 -0.09728751 -0.023202363
000130 b5 16 60 bd 58 01 f9 bd 89 7a a9 bd 85 48 2c bd
       -0.054709155 -0.121584594 -0.08275325 -0.042061348
000140 d7 d7 9f be 05 f5 a5 3d 18 46 38 bd 28 fa 33 be
       -0.3121936 0.081033744 -0.04498872 -0.17575896
000150 39 33 d8 bd 70 ad c3 3b 3b f1 d1 3d 67 0f ce bd
       -0.10556645 0.005971603 0.10251089 -0.100615315
000160 3b e8 48 be b9 ae a6 bd f4 22 18 be 4c ec a2 bd
       -0.19619839 -0.081387945 -0.14857084 -0.07955226
000170 aa c5 76 bc d1 51 73 be db 35 32 be 67 96 88 bc
       -0.015061775 -0.23761679 -0.17403357 -0.01667328
000180 6b ce f3 3c 0d 0e db be 53 f1 f7 bb 2c fd fc bd
       0.029761514 -0.42784157 -0.00756661 -0.12352976
000190 5b d8 1b bd 0b a0 c8 bd 53 d6 cb 3d 27 76 39 be
       -0.03804813 -0.09796151 0.099529885 -0.18111478
0001a0 36 86 1b 3d e9 3c 9d be b7 87 0b 3e e8 c4 5b be
       0.03796979 -0.30710533 0.1362599 -0.21461833
0001b0 ca 87 8d be 09 61 91 be b8 79 c4 bd cd 31 c6 bd
       -0.2764266 -0.28394344 -0.095935285 -0.096774675
0001c0 61 58 ad bd 3f af b0 3d 84 4e 1c 3e f2 49 13 3d
       -0.084641226 0.086271755 0.15264326 0.03595919
0001d0 dd dd 0a be 09 26 79 be dd 07 83 3e 1a c0 59 3d
       -0.13561197 -0.24330916 0.25591937 0.053161718
0001e0 d3 9f 0a be fe d2 8c bd a7 e9 ab be 7a 8e ad be
       -0.1353753 -0.06876181 -0.335767 -0.33897763
0001f0 11 e2 ab bd 71 40 85 bd 54 ad e3 3d 46 75 d0 be
       -0.08392728 -0.06506432 0.11117044 -0.40714473
000200 8e c2 dd bd 70 62 a7 be 2e 81 34 be ee ad 37 bb
       -0.10828124 -0.3269229 -0.17627403 -0.0028027254
000210 ea 4c bd be 91 21 80 bd 15 b6 7a be 45 5b 98 be
       -0.36972743 -0.06256402 -0.24483521 -0.29757133
000220 e5 f0 ea bb 60 c1 62 be 1e 09 30 bd 07 de 32 be
       -0.00716983 -0.22144079 -0.042977445 -0.17467509
000230 83 a6 6d bb a7 37 15 bd 2a 4c 06 be ae 44 68 be
       -0.0036262579 -0.036430027 -0.13114992 -0.22682449
000240 dc 32 03 bd af af 5c bd 9f 67 f5 3d 50 c7 bc bd
       -0.032030925 -0.053878482 0.11982655 -0.09217703
000250 52 27 14 bd 21 73 f2 bd 18 11 67 be e5 25 3e be
       -0.03617031 -0.11838365 -0.22565114 -0.18569143
000260 b8 4a e5 ba 67 49 0c be 34 ca 64 bc 48 23 11 3d
       -0.0017493581 -0.13699876 -0.013964225 0.035434037
000270 af 88 1e bd 22 9f 94 3d 39 3c f5 3b c3 c2 5a be
       -0.03870457 0.07256915 0.0074839857 -0.21363358
000280 6a ad 01 3c 97 da 61 be 61 23 0d be 96 d7 0b 3c
       0.00791488 -0.22056042 -0.13783027 0.008535286
000290 d9 14 1b be ad 76 85 be c5 26 2d be 86 c8 84 bd
       -0.15144671 -0.26067105 -0.1690932 -0.06483559
0002a0 c5 69 9e be 66 d9 0d 3e bd 94 0e be 24 45 66 bc
       -0.3094007 0.13852462 -0.13923927 -0.01405457
0002b0 32 52 e0 be 8e f1 44 be a7 1e 59 3b 88 2c 35 bc
       -0.4381271 -0.19232771 0.0033129842 -0.01105798
0002c0 45 2a b7 3d 07 d5 2e bb 5e aa b8 be a4 e2 6f bd
       0.08943609 -0.0026677267 -0.3606748 -0.05856575
0002d0 80 94 ad be 91 99 13 3c 9a 0a d1 be b8 42 1f be
       -0.3390236 0.009008781 -0.408284 -0.15552795
0002e0 13 78 e2 bd 4e 45 8f 3a 95 b5 af 3d 43 88 6e bd
       -0.110580586 0.0010930689 0.08579556 -0.058235418
0002f0 80 20 84 be 28 cd 57 3d 62 77 87 3e 10 55 d2 3c
       -0.25806046 0.052685887 0.2645827 0.025675327
000300 ed f2 92 be b3 b3 cf 3d c1 72 c9 bd 69 15 a2 be
       -0.28700963 0.10141697 -0.09836341 -0.3165696
000310 99 58 87 bd 67 ad 8d 3c 84 65 9f bd 10 2d 7c 3d
       -0.066086955 0.017294599 -0.077830344 0.061566412
000320 9c 22 91 3d a2 ca c2 3d b8 2c 12 be 89 a4 2b be
       0.07086679 0.095113054 -0.14274871 -0.16761984
000330 46 41 1c be b3 f1 a7 3c 51 70 15 3e b5 6d 13 be
       -0.15259275 0.020500993 0.14593627 -0.14397319
000340 65 56 8d 3c 0d 5e a2 bd 26 67 1e 3c ba ed bf bc
       0.01725311 -0.07928095 0.009668147 -0.023428787
000350 38 72 b3 3c c3 c1 02 3d fe 53 3d be 67 59 f9 3c
       0.02190505 0.031923067 -0.18489072 0.030438138
000360 d9 8e c0 bd ce 5d 1e be f0 61 ab bd 1d 19 a9 bb
       -0.09402246 -0.15465471 -0.083682895 -0.0051604644
000370 27 cf ae bd cc 36 04 3e 8f 08 56 be 32 65 81 bd
       -0.08535605 0.12911528 -0.20901702 -0.063181296
000380 09 90 b6 be d5 fa 01 3e 1b ac 7d be a6 cb 63 be
       -0.35656765 0.12693341 -0.24772684 -0.22245654
000390 05 01 b7 bc 68 28 a8 3d fd 6e 12 be ee 87 00 be
       -0.022339353 0.08210832 -0.14300151 -0.12551853
0003a0 93 3f 01 3e 7f 42 64 be 49 00 73 be 04 24 d9 bd
       0.12621908 -0.22290991 -0.23730578 -0.106025726
0003b0 bf d0 16 3e 07 cf 17 be 95 a2 dd bd 58 c2 34 be
       0.14728068 -0.14825068 -0.10822026 -0.17652261
0003c0 c2 64 95 be 09 f0 e6 be d6 a7 91 bb a3 93 04 3e
       -0.29178435 -0.45105007 -0.0044450564 0.12946944
0003d0 a2 d2 dc bc 60 fa 96 bb 4b fd 4d bd ac 60 c6 bc
       -0.026955906 -0.0046074837 -0.050290387 -0.024216019
0003e0 0f 07 ad bd fb ec 94 be c4 7c 2f 3d de 9d 3d 3c
       -0.08448612 -0.29087052 0.042843595 0.011573283
0003f0 bf 8b 0e 39 9b f6 9a bd 35 e5 5a be 6b 60 46 be
       0.00013594235 -0.075665675 -0.21376498 -0.19372718

fc.weight f4 [8, 256]
000000 fe 73 19 bc 6d ad ce bc 6f 4e 28 3c 31 07 6b be
       -0.009366034 -0.02522918 0.010272606 -0.22951962
000010 b1 e6 0e 3d 57 3b 60 3d 15 f7 ec bd 7b 57 89 3d
       0.034887973 0.05474409 -0.11570565 0.06706139
000020 d2 60 df 3c a2 4e ec bc e0 06 8f bd 06 0c 76 3c
       0.027267847 -0.028846089 -0.06983733 0.015017515
000030 74 9f e3 3c fe 16 c8 3d e4 c2 a2 bb 1b 5c 54 be
       0.027785994 0.097700104 -0.0049670804 -0.2073826
000040 73 f5 a0 bd d4 3e 8c bd b3 c8 d3 bd 3e b9 80 bd
       -0.07859316 -0.06847921 -0.10341015 -0.06285332
000050 21 11 fd bc 2d bc bd 3c fb e1 b3 bd 95 b3 2d 3d
       -0.030891957 0.023161018 -0.08783337 0.04240759
000060 7a af 86 bb 64 d9 83 3d 6d 05 30 bd 0d e7 fa 3b
       -0.004110274 0.06437948 -0.042973924 0.007656938
000070 b0 e6 9a bc f2 30 ea bb b0 77 07 3c ec 96 7e be
       -0.018908828 -0.007146948 0.008268282 -0.2486226
000080 ba bc 35 bd 2f a8 47 3d 70 a2 1b 3e 83 87 1a be
       -0.044369437 0.048744377 0.15198684 -0.15090756
000090 77 22 d9 bd cd 8a fd bd 27 87 4b bd 23 12 95 bd
       -0.10602277 -0.1237999 -0.04968944 -0.0727885
0000a0 00 e4 23 bd d4 d3 ea bd e2 3e f5 bc e3 2c 9a be
       -0.04001236 -0.11466184 -0.029937211 -0.3011237
0000b0 74 1b b5 3d 52 99 4a bd 8a a0 8a bd d9 b6 e2 bc
       0.08843127 -0.049462624 -0.06768902 -0.02767508
0000c0 21 a2 6f 3c 0f a1 dd bd 0a 03 e5 bd 2b fe 1e 3c
       0.014626057 -0.10821735 -0.1118222 0.009704153
0000d0 84 37 40 bc 9a 73 73 3c b6 59 fc bd fc ce bd 3b
       -0.011731986 0.0148591045 -0.123217985 0.0057924967
0000e0 c4 bb 8c bd f2 a0 0d bd fb 42 bd 3b 61 c3 b8 bd
       -0.06871751 -0.034577318 0.005775807 -0.090216406
0000f0 4a b3 9c bd 67 1f 61 bc 27 28 28 be 8b 09 c0 ba
       -0.07651384 -0.013740397 -0.16421567 -0.0014651282
000100 f6 4c 2d 3d be 21 c9 3c 47 7c 4b 3c da 0c 81 bd
       0.042309724 0.024552222 0.012419767 -0.06301279
000110 b4 3d e5 bd 4e d9 4b bc b8 76 92 bc 6f 87 2c bd
       -0.111934096 -0.012441946 -0.017878875 -0.042121347
000120 db 50 a5 bd bd 51 10 bb 3d 83 2f bb 9d 43 1c 3d
       -0.080720626 -0.0022021376 -0.0026781105 0.03815042
000130 47 47 02 bd 08 5e 01 bd ab ca 88 bc b6 37 9a 3d
       -0.031806257 -0.031583816 -0.016698202 0.07530157
000140 e9 07 97 bd f7 5a e3 bd 73 b1 f5 bd 27 fe a2 3c
       -0.073745556 -0.111013345 -0.119967364 0.01989658
000150 74 6e 70 3d 42 7c 33 3d 1f 51 52 be e0 a7 14 bd
       0.058699086 0.043819673 -0.20538758 -0.03629291
000160 f4 81 c1 3d 65 df 0a bc 42 cf 96 bc 6b e1 c0 bc
       0.09448615 -0.008476113 -0.018409375 -0.023544988
000170 00 ee e9 bd 39 5b 4c bd d9 5f 05 3b c4 63 cd 3d
       -0.11422348 -0.049891684 0.002035132 0.100287944
000180 52 48 b8 3d e7 74 54 bc d2 93 f2 bd 0e 1e 6a bd
       0.08998169 -0.012967325 -0.11844601 -0.05715757
000190 2d ef 01 3d a0 08 de bd bc e7 78 3e e3 33 3b bd
       0.031722236 -0.10841489 0.2430715 -0.04570378
0001a0 69 db c4 bc a0 95 03 bd cb 3f 12 bd 41 26 ae bd
       -0.024030404 -0.032125115 -0.03570537 -0.0850339
0001b0 46 66 2e bd a0 76 f7 bc 0a bf 82 3d 6d 09 9e bd
       -0.042578004 -0.030207932 0.06384094 -0.077166416
0001c0 92 98 52 bd 0d 3c c2 3b de c9 de 3c f6 73 57 be
       -0.051415034 0.005927569 0.027195867 -0.2104033
0001d0 ca 72 ef 3c 0a 2c dc 3c c7 4e 2a 3c a0 1d 1b bd
       0.02922954 0.026876468 0.010394759 -0.03787005
0001e0 8b ca 42 3d bd 42 aa bc 7b 05 6e bd d6 71 0c be
       0.04755644 -0.020783776 -0.058110695 -0.137153
0001f0 b2 e1 3f bd e5 de 3f be b2 f3 6f bd ce 79 c0 bd
       -0.0468461 -0.18737371 -0.058582015 -0.093982324
000200 6c 3a 78 bd 5c 80 1e be 45 23 38 bc 02 98 3a 3d
       -0.06060259 -0.15478653 -0.011238878 0.045555122
000210 29 12 b9 bd 81 73 ca bd 36 98 37 bc 51 99 b0 3c
       -0.09036667 -0.09885312 -0.0112057235 0.021557482
000220 8f 27 9b 3d b5 a9 25 bd 93 17 d2 bc 73 34 26 bd
       0.075759046 -0.04044505 -0.025646007 -0.040577363
000230 c4 a3 8a 3d cf 33 01 3d 7d 2d 33 3d 4a 9a 8a bd
       0.06769517 0.03154355 0.043744553 -0.067677096
000240 3e 05 39 bc 3f 5d 27 be 1b 99 0f 3d 55 1f 35 bd
       -0.011292754 -0.16344164 0.035058122 -0.044219334
000250 58 de 76 ba 21 29 e3 3c 54 47 76 3d 9e 41 ac 3d
       -0.0009417287 0.027729573 0.060126618 0.08410953
000260 53 25 fb 3c 3a 74 19 bd 37 79 de 3c 83 e3 18 be
       0.030657446 -0.037464358 0.02715741 -0.14930539
000270 5e 2b 57 3d 28 a8 ae 3c a1 3b 80 bb b4 4a 05 bd
       0.052531593 0.021320418 -0.0039133583 -0.032541946
000280 f5 8b aa bd 87 26 29 bd 39 7a 43 bc 5f 23 13 be
       -0.08327476 -0.04129651 -0.011930996 -0.14368962
000290 eb fe b3 3c 7d 59 41 3d e7 d2 9e bd 92 70 07 be
       0.02197214 0.047204483 -0.0775507 -0.13226536
0002a0 07 45 8a bd 1b 64 a1 3d e6 c3 fd bd 28 9d b8 bd
       -0.06751447 0.07880422 -0.1239088 -0.0901435
0002b0 98 70 e9 bd 22 9a 4c 3d 13 dc 3e bd f5 30 26 bd
       -0.11398429 0.04995168 -0.046596598 -0.040574033
0002c0 60 2b 15 3e ca fb 8e bc 0f 5f 46 be 98 d4 e8 ba
       0.14567327 -0.017454047 -0.193722 -0.0017763553
0002d0 5d 7b 2b bd e2 2b bb bd dc e1 1e be 92 0d 66 3d
       -0.041865695 -0.09139229 -0.15515846 0.056165285
0002e0 ad 1d a3 bd c9 10 09 be d6 b2 96 3d ea 5b 83 3c
       -0.079646446 -0.1338531 0.07358329 0.016035039
0002f0 f6 27 34 bd 09 38 38 3d e5 d6 a8 3c 89 15 b7 3c
       -0.043983422 0.044975314 0.020610282 0.022349136
000300 5e df d8 bd 90 05 d5 bd 36 37 c7 bd c9 90 82 bd
       -0.10589479 -0.104014516 -0.097273275 -0.06375272
000310 ce 7d 8b bd 0c 2b cf 3d 75 99 0a 3d 63 63 0d 3b
       -0.06811105 0.101156324 0.033837754 0.0021574132
000320 83 67 df 3c 1c 3e 91 3d c1 1e b0 bb f0 61 94 3d
       0.027271038 0.070919245 -0.00537476 0.072452426
000330 3f 30 d2 3c 49 26 c6 3d e5 f7 24 3d e2 b2 0d bd
       0.025657771 0.09675271 0.040275473 -0.034594424
000340 3e ea 94 3d 13 12 bb 3c 73 38 b4 3c 83 0c 42 3d
       0.07271241 0.022835767 0.021999573 0.047375213
000350 0a db 4d 3d 27 ed 07 bd 19 08 04 bd 2e 86 09 3d
       0.05025772 -0.03318515 -0.032234285 0.03357523
000360 58 6c 00 be 69 ca 9d bd d7 04 d1 3d b3 93 eb bc
       -0.1254133 -0.07704622 0.10206001 -0.028756952
000370 a2 25 12 3d 5e 43 98 ba cb 4d c0 bd 80 7b b3 3b
       0.03568042 -0.0011616757 -0.09389838 0.005477369
000380 df 78 8a bd 52 f0 dd 3b 1b 92 23 3d cd 6c 7f bb
       -0.067613356 0.006773033 0.03993426 -0.0038974762
000390 4b 70 69 3d c1 9f 1d be b0 c9 8c bd 1f 92 fc 3c
       0.056991857 -0.15392973 -0.06874406 0.030831395
0003a0 58 11 47 3d 3c 55 39 be da 78 52 3a b1 c6 79 bc
       0.048600525 -0.1809892 0.00080288725 -0.015245126
0003b0 7d 4b ef 3c da b0 63 bd 66 ea cf bb f2 51 65 bd
       0.0292108 -0.05558858 -0.006345081 -0.055986352
0003c0 3c 0b 76 bd 09 37 5e be fa 27 23 3e 95 95 aa bd
       -0.060069308 -0.21700682 0.15933219 -0.08329312
0003d0 dc cf 0f be c1 d7 69 3d d5 df 86 bd 45 e0 6a bd
       -0.14044136 0.057090525 -0.06585661 -0.057342786
0003e0 7b 84 5c bd 4d c8 29 be c7 e4 bc bc f7 63 7f 3d
       -0.05383728 -0.16580315 -0.023058308 0.062351193
0003f0 dd 55 4a 3c 18 59 f3 bd aa 58 9e bd 66 a6 94 3c
       0.012349573 -0.11882228 -0.07731755 0.018145751

fc.bias f4 [8]
000000 22 a6 92 bd 58 e4 ea be 11 de 82 be d6 b2 b8 be
       -0.071605936 -0.45877337 -0.25560048 -0.3607394
000010 49 70 70 be a2 8c 70 3e 29 22 f7 bd c1 86 13 be
       -0.23480333 0.23491147 -0.120670624 -0.14406873
