src/main/python/saved_models/javascript_1_37_CNNClassifier1_128embs_130id_16hd_0hl_Falsebid3kernel0.5dropout_2.pt (torch, 291531 bytes, 9 tensors)

emb.weight f4 [130, 128]
-0.7623831 1.299565 0.7867214 0.037003446 2.0063221 1.7046984 0.5713986 0.24095552
0.39079988 -0.3873059 1.0521288 0.33921516 0.6206197 0.0050624534 -0.5873167 0.33666235
0.35585636 -0.46608186 0.6832305 0.103806436 -0.01831208 -0.44015855 -0.5572576 0.2848273
-0.13569011 0.2689952 -1.9060695 0.8354019 -0.82722074 0.29543352 1.4237537 0.5071645
-0.17078432 0.8608472 -0.18514301 0.8758491 1.4675505 0.015048207 -0.805472 -0.69844824
0.27916276 -0.026162911 -0.8581935 -1.6174858 0.44027132 -0.33801132 0.7035735 -0.64949995
-0.021512788 1.7115548 0.9905084 -0.44878253 0.9326113 0.46363327 0.31650722 -0.15918532
-1.2150539 -2.3660443 1.0763249 0.61230373 -0.2192595 -0.20762885 1.2949606 -1.7383254
-1.4184308 -0.83898056 -0.89176553 1.2610762 -2.0590892 -1.3663808 -1.6628704 1.1658393
-0.25661364 0.89966154 -0.9678865 -0.1277902 0.058750372 0.6075312 0.026975194 -0.5876563
-0.9086132 1.3225341 -0.55168456 0.14187112 -0.5747411 0.07833498 0.41451183 0.16796947
0.85470605 -0.85859555 -0.93235093 0.716605 -0.243468 1.1986662 0.4079155 0.06444531
0.7007986 1.4919225 -0.36460146 -0.5735181 0.70547736 -1.3500928 -0.27609435 -0.61506265
0.35677403 0.10105318 0.027461492 0.6885288 0.10900107 -0.3017746 1.5600406 -0.5482018
1.2298594 -1.4994762 1.9403992 -0.27940008 -1.1072028 2.4449925 -0.5245805 -3.0281568
-1.1776397 0.9113219 -0.7095525 -0.29372284 -0.8403427 -1.2839366 -2.0899994 0.3897169
1.7518016 0.9751507 1.1539148 0.76619905 -1.3100455 1.5190011 0.79576236 -0.4611503
-0.15763697 0.20652188 -0.17606612 -1.6487854 0.8605282 0.93119377 0.43290946 -1.4331055
-1.408801 0.9042209 0.6079219 0.18108344 -0.4284756 -0.2144601 1.8038912 0.566326
0.43459097 0.87418294 -0.030205544 -1.1489561 0.29191488 -0.52493304 -1.1602536 0.2952082
0.04354688 -0.7950061 -1.2716713 -2.1342516 -0.35661244 -0.3579778 -1.2482096 0.013570281
1.6572324 -1.9132005 0.46356803 -1.2972586 -0.69480366 -0.5939808 -0.70250225 -0.75850004
-2.2682073 -0.7973244 2.645369 -2.441012 0.8181944 -1.0219008 -0.62844366 -0.08816782
-0.5296789 1.0801543 -2.3480885 0.21743867 -0.2608245 0.77958155 0.32203624 -2.1076636
0.2948108 0.018428003 -1.8460898 -0.31898907 -1.1313871 0.42910343 1.8853414 1.1686631
0.76811665 -0.75122595 1.2568454 1.335041 1.8454988 0.20071703 -1.4404471 1.5534875
0.9437835 -1.8650122 -0.86133033 0.063581355 -0.63606995 0.64587706 -1.1878673 -0.26181635
0.85404575 -0.86339957 -0.1757965 0.9023146 -0.16748291 0.28419927 -0.25189835 0.43184045
-0.14338951 2.0830114 -0.66241574 -1.3472347 -0.32308972 -0.9572746 -0.95223564 -0.72864234
0.83131546 0.40584278 0.16151203 0.59565395 0.8509737 0.81046844 2.6159754 1.3161786
0.26884514 1.0752193 -0.08639727 -1.1002953 0.88153577 0.6463027 1.1938381 -0.23681967
0.13255213 1.4450976 -0.7807912 -1.2750093 0.31663948 0.2559185 0.70563364 0.02701811
00000000: 8a2b 43bf 2558 a63f 9366 493f ed90 173d
00000010: 9567 0040 8f33 da3f 2e47 123f 0bbd 763e
00000020: ec16 c83e f54c c6be 28ac 863f 9cad ad3e
00000030: efe0 1e3f f0e2 a53b 635a 16bf 025f ac3e
00000040: ce32 b63e 48a2 eebe 32e8 2e3f 7898 d43d
00000050: 3703 96bc 765c e1be 6fa8 0ebf e2d4 913e
00000060: 59f2 0abe bdb9 893e 16fa f3bf e6dc 553f
00000070: bdc4 53bf 1043 973e 903d b63f 88d5 013f
00000080: 16e2 2ebe 7b60 5c3f 2196 3dbe a637 603f
00000090: b2d8 bb3f c18c 763c 6a33 4ebf 81cd 32bf
000000a0: 6cee 8e3e 9a53 d6bc 92b2 5bbf c609 cfbf
000000b0: 3e6b e13e d20f adbe 651d 343f a145 26bf
000000c0: 963b b0bc 3a14 db3f f591 7d3f d3c6 e5be
000000d0: 9dbf 6e3f 5761 ed3e 3c0d a23e 7a01 23be
000000e0: e386 9bbf 456d 17c0 04c5 893f f0bf 1c3f
000000f0: 9085 60be a89c 54be 45c1 a53f 7281 debf
00000100: 248f b5bf 6ec7 56bf bf4a 64bf f26a a13f
00000110: 1ec8 03c0 91e5 aebf f0d8 d4bf 393a 953f
00000120: dd62 83be 3850 663f 69c7 77bf 6fdb 02be
00000130: 3ba4 703d 2a87 1b3f 15fb dc3c a570 16bf
00000140: e09a 68bf cc48 a93f 333b 0dbf aa46 113e
00000150: 3c22 13bf 176e a03d e53a d43e 3000 2c3e
00000160: 04ce 5a3f ebcc 5bbf 8dae 6ebf 6d73 373f
00000170: ad4f 79be e56d 993f 4dda d03e e7fb 833d
00000180: 8967 333f 51f7 be3f 0bad babe 15d2 12bf
00000190: 2a9a 343f d7cf acbf 3d5c 8dbe bf74 1dbf
000001a0: 16ab b63e f8f4 ce3d ecf6 e03c 6c43 303f
000001b0: f43b df3d 3382 9abe 69af c73f f456 0cbf
000001c0: 086c 9d3f d6ee bfbf 005f f83f 870d 8fbe
000001d0: d2b8 8dbf c27a 1c40 e84a 06bf 52cd 41c0
000001e0: e6bc 96bf 644c 693f 3ca5 35bf d762 96be
000001f0: b320 57bf 0958 a4bf 8dc2 05c0 f988 c73e
00000200: 093b e03f 7aa3 793f 7bb3 933f 9f25 443f
00000210: 92af a7bf a16e c23f 15b7 4b3f e41b ecbe
00000220: 966b 21be 797a 533e ad4a 34be 660b d3bf
00000230: 934b 5c3f b762 6e3f 4fa6 dd3e 0070 b7bf
00000240: 9753 b4bf 057b 673f c5a0 1b3f f06d 393e
00000250: 2761 dbbe 6e9b 5bbe e8e5 e63f befa 103f
00000260: b582 de3e 74ca 5f3f 9e71 f7bc fe10 93bf
00000270: de75 953e 0362 06bf 3183 94bf 8725 973e
00000280: 375e 323d 8585 4bbf 20c6 a2bf 9497 08c0
00000290: e895 b6be de48 b7be 55c5 9fbf e255 5e3c
000002a0: 3120 d43f c1e3 f4bf ca58 ed3e 920c a6bf
000002b0: a7de 31bf 200f 18bf 30d7 33bf 0f2d 42bf
000002c0: 4f2a 11c0 741d 4cbf ba4d 2940 8a39 1cc0
000002d0: 3075 513f a5cd 82bf afe1 20bf 5491 b4bd
000002e0: 0999 07bf 7f42 8a3f 1547 16c0 3ea8 5e3e
000002f0: ca8a 85be a892 473f efe1 a43e f6e3 06c0
00000300: 71f1 963e 53f6 963c ac4c ecbf 8952 a3be
00000310: 4bd1 90bf 72b3 db3e de52 f13f c196 953f
00000320: 4ba3 443f 5850 40bf 4fe0 a03f a0e2 aa3f
00000330: 4e39 ec3f c488 4d3e 9260 b8bf aed8 c63f
00000340: cc9b 713f b8b8 eebf 2580 5cbf f136 823d
00000350: 7bd5 22bf 3358 253f 090c 98bf cb0c 86be
00000360: bea2 5a3f c107 5dbf ff03 34be 17fe 663f
00000370: a480 2bbe 9182 913e d2f8 80be 311a dd3e
00000380: b3d4 12be 0f50 0540 1494 29bf 3072 acbf
00000390: 046c a5be f30f 75bf b7c5 73bf 4e88 3abf
000003a0: 17d1 543f a0ca cf3e 6963 253e c77c 183f
000003b0: 6ad9 593f dc7a 4f3f 246c 2740 8a78 a83f
000003c0: 12a6 893e c9a0 893f 0df1 b0bd 7ad6 8cbf
000003d0: 54ac 613f 1874 253f b0cf 983f db80 72be
000003e0: bfbb 073e f5f8 b83f efe1 47bf 8133 a3bf
000003f0: 921e a23e c007 833e 68a4 343f 1555 dd3c

conv1.weight f4 [16, 128, 3]
-0.065024376 0.04637373 -0.06859358 0.13176973 0.0065187495 -0.059289392 -0.023242872 -0.060962114
0.0035430796 -0.022516 0.052760568 0.041837703 -0.06643552 0.0065055955 -0.052657064 0.10841731
-0.032788917 0.04015053 -0.098875135 0.0071009425 0.17596456 -0.13386734 -0.17644264 -0.17693259
-0.19504644 0.095003635 0.007669202 -0.07411956 0.14017235 0.14997722 0.012665899 -0.21786207
-0.17845352 -0.10739363 -0.034679778 0.13994455 -0.0076583265 -0.0018231067 0.17811778 0.1834888
0.2573382 0.019504962 -0.04809958 0.1469148 0.114509955 0.11696442 0.14354481 0.003565117
-0.1322377 -0.14189129 -0.094048224 0.07496282 0.01887691 -0.05804121 -0.044179983 0.16378555
0.06194328 -0.06101698 0.17123535 0.07592254 0.061795242 0.038521357 -0.0041197296 -0.018755538
0.16533855 0.19840696 0.11729945 -0.06805119 -0.023508724 -0.19682969 -0.07127692 0.027867978
0.07795522 -0.028655486 0.036366094 -0.04675841 0.04267363 -0.03470874 -0.12198066 0.06258744
0.007611621 0.054902714 0.092912845 -0.009842471 -0.071688466 -0.03663121 -0.11312152 -0.042396992
0.06132497 -0.15058216 0.074651256 0.00016204423 0.12641251 -0.1271411 -0.28750327 -0.23005919
-0.0752668 -0.025854852 0.13547538 -0.04947487 -0.2762774 -0.07395527 0.062904686 -0.021162521
-0.088208035 -0.12333739 0.04419702 0.06134866 0.053231616 0.12851883 -0.012279528 0.14232281
-0.094372965 -0.08157365 0.2467387 0.068512276 0.038528062 -0.123806484 -0.078064874 0.035723228
0.12242379 0.14943482 0.05374603 0.17127861 0.16421701 0.008057205 0.09475116 0.16429375
0.08255532 -0.26431853 -0.041800074 0.008872606 0.13440025 -0.015185104 0.10996017 0.015008962
0.5540604 0.008887419 0.07669825 0.10695886 0.07343881 -0.0152072655 -0.077810265 -0.11584848
0.06111044 0.02871616 0.07524778 -0.03698073 -0.039444927 0.11636639 0.06874481 -0.2275887
0.09070133 0.18637368 0.1715058 0.08270644 -0.19275393 -0.395536 -0.23678467 -0.19352615
-0.10725199 -0.07467607 -0.19700873 -0.060324594 -0.20593528 0.17208244 0.27316725 0.18300359
-0.03361292 -0.3241998 0.046941362 -0.002624834 -0.030694438 -0.07689502 0.1353678 0.09737566
0.11082488 0.118610844 -0.013470138 0.08906934 0.019958109 0.07263059 -0.030762935 0.0010214073
-0.0511854 0.009785968 0.06592193 -0.24817364 -0.13800552 -0.108629055 -0.25335056 -0.08602146
-0.015660018 -0.06842697 -0.030767428 -0.041207757 -0.20750442 -0.07913469 0.07627332 0.324027
0.01504178 -0.042061534 0.12661973 0.061827604 0.096379735 0.10134459 0.03463168 -0.11261998
0.14837179 -0.13734965 -0.038829587 0.066740744 -0.045952547 0.11054088 0.078295425 0.07125603
0.15110376 0.101943284 0.056815982 -0.10338744 -0.027326014 -0.043567523 -0.10067744 -0.044792365
-0.13433658 -0.064572364 0.19847049 -0.049947154 -0.3095474 -0.06857942 0.0018294088 0.09914846
-0.07925852 0.05391946 0.06688777 0.10170083 0.035128463 -0.059041172 0.01702865 0.028264256
0.07629391 0.37971932 0.15908773 0.1751661 0.02997726 -0.107312955 0.113308765 -0.03592586
0.075410575 -0.050611287 -0.16661297 -0.13111907 -0.04418853 0.06438152 -0.018493267 0.140948
00000000: 802b 85bd 61f2 3d3d ca7a 8cbd a5ee 063e
00000010: 3c9b d53b 6fd9 72bd d667 bebc 69b3 79bd
00000020: 0333 683b 7973 b8bc 771b 583d 035e 2b3d
00000030: 590f 88bd e42c d53b efae 57bd e509 de3d
00000040: ac4d 06bd e274 243d 0c7f cabd 06af e83b
00000050: 0e30 343e 8514 09be 61ad 34be d12d 35be
00000060: 41ba 47be 4491 c23d ee4d fb3b ffcb 97bd
00000070: 5789 0f3e a193 193e a184 4f3c 3c17 5fbe
00000080: 85bc 36be 31f1 dbbd 620c 0ebd a04d 0f3e
00000090: b3f2 fabb 4ff5 eeba 8264 363e 7de4 3b3e
000000a0: d5c1 833e dfc8 9f3c 1104 45bd d570 163e
000000b0: 3284 ea3d 0b8b ef3d 69fd 123e bda4 693b
000000c0: 5269 07be f34b 11be 5b9c c0bd 1b86 993d
000000d0: c0a3 9a3c 9fbc 6dbd 12f6 34bd 66b7 273e
000000e0: 3db8 7d3d f1ec 79bd 5258 2f3e 477d 9b3d
000000f0: 021d 7d3d 92c8 1d3d ccfe 86bb 37a5 99bc
00000100: 824e 293e 322b 4b3e b23a f03d 6c5e 8bbd
00000110: 5e95 c0bc b98d 49be a2f9 91bd 634b e43c
00000120: fda6 9f3d e9be eabc 9df4 143d bf85 3fbd
00000130: 8bca 2e3d c02a 0ebd ffd0 f9bd d82d 803d
00000140: e86a f93b abe1 603d 1749 be3d 5142 21bc
00000150: 67d1 92bd 9c0a 16bd 41ac e7bd 78a8 2dbd
00000160: e42f 7b3d 3632 1abe c2e2 983d 6bea 2939
00000170: 4872 013e 4731 02be a133 93be a394 6bbe
00000180: 7b25 9abd 8ecd d3bc 0fba 0a3e 29a6 4abd
00000190: 3b74 8dbe dc75 97bd 2cd4 803d 065d adbc
000001a0: 6aa6 b4bd 5098 fcbd ef07 353d bc48 7b3d
000001b0: 6509 5a3d 719a 033e 1330 49bc 12bd 113e
000001c0: 9d46 c1bd 1610 a7bd 12a9 7c3e 2a50 8c3d
000001d0: 9acf 1d3d 418e fdbd 7ae0 9fbd 8552 123d
000001e0: 53b9 fa3d 7105 193e cc24 5c3d a963 2f3e
000001f0: 8128 283e 5e02 043c e50c c23d 9f3c 283e
00000200: c312 a93d c254 87be 8e36 2bbd 685e 113c
00000210: 38a0 093e f1ca 78bc cc32 e13d 26e8 753c
00000220: e7d6 0d3f 899c 113c f913 9d3d 3f0d db3d
00000230: 1667 963d e527 79bc fd5a 9fbd f841 edbd
00000240: f14e 7a3d 273e eb3c 821b 9a3d 1b79 17bd
00000250: 0191 21bd 8051 ee3d 14ca 8c3d 030d 69be
00000260: 9ec1 b93d bed8 3e3e 379f 2f3e fe61 a93d
00000270: 4961 45be b283 cabe ae77 72be b82b 46be
00000280: eea6 dbbd c4ef 98bd a8bc 49be ec16 77bd
00000290: b3e0 52be 6136 303e 94dc 8b3e 4b65 3b3e
000002a0: b4ad 09bd 84fd a5be 9645 403d 6805 2cbb
000002b0: e772 fbbc 237b 9dbd db9d 0a3e e46c c73d
000002c0: 28f8 e23d 3eea f23d dbb1 5cbc fc69 b63d
000002d0: 307f a33c 59bf 943d 8d02 fcbc bee0 853a
000002e0: c8a7 51bd 5355 203c 1402 873d 3b21 7ebe
000002f0: 5251 0dbe e978 debd 2ab7 81be 052c b0bd
00000300: 7049 80bc 7023 8cbd f90b fcbc 77c9 28bd
00000310: 0a7c 54be 5e11 a2bd 3035 9c3d dee6 a53e
00000320: cc71 763c b748 2cbd 9aa8 013e f13e 7d3d
00000330: bd62 c53d c18d cf3d f3d9 0d3d 4ea5 e6bd
00000340: c6ee 173e 63a5 0cbe c60b 1fbd 5faf 883d
00000350: bd38 3cbd 4263 e23d 5a59 a03d aeee 913d
00000360: f2ba 1a3e a4c7 d03d e0b7 683d cbbc d3bd
00000370: ceda dfbc dc73 32bd f92f cebd 3378 37bd
00000380: 878f 09be 843e 84bd d93b 4b3e 6395 4cbd
00000390: ff7c 9ebe 5e73 8cbd c6c8 ef3a 590e cb3d
000003a0: 4a52 a2bd a7da 5c3d 75fc 883d 8648 d03d
000003b0: dde2 0f3d 28d5 71bd ab7f 8b3c 718a e73c
000003c0: fb3f 9c3d 926a c23e e5e7 223e be5e 333e
000003d0: df92 f53c e5c6 dbbd 6d0e e83d ff26 13bd
000003e0: dc70 9a3d c84d 4fbd 979c 2abe 1444 06be
000003f0: 08ff 34bd 75da 833d 317f 97bc ac54 103e

conv1.bias f4 [16]
-0.073569566 -0.15888266 -0.13075821 -0.2078176 -0.5428626 -0.19182266 -0.20341215 -0.35041648
-0.18721588 -0.0979598 -0.09046036 -0.19721426 -0.021593602 -0.40466186 -0.1362276 -0.25115913
00000000: a4ab 96bd 23b2 22be 7be5 05be 23ce 54be
00000010: 0bf9 0abf 296d 44be 464b 50be ca69 b3be
00000020: 85b5 3fbe 269f c8bd 4843 b9bd 89f2 49be
00000030: 11e5 b0bc d72f cfbe 3f7f 0bbe ee97 80be

conv2.weight f4 [16, 128, 3]
0.049496617 0.010719415 -0.1700425 0.1279488 0.0066171074 -0.03399184 0.006349461 -0.24816717
0.084425695 -0.017005313 0.015136084 0.027999338 -0.13238913 0.10571916 -0.0804857 0.01194974
-0.2288749 0.10324599 -0.21245022 0.28932238 0.08759015 0.22297396 -0.0688628 -0.091815375
-0.059893984 0.038138963 0.15906386 -0.11768598 0.0512251 0.17083666 0.01857473 -0.1419667
-0.21177849 0.11779528 0.12756427 0.023263197 0.15822749 -0.14369705 0.15312131 -0.13529745
0.31147143 0.14944884 -0.18591987 0.08975867 -0.03820936 -0.1428121 0.07827148 0.03834722
-0.058726516 -0.4217431 0.015244976 0.11350839 -0.035679772 0.08076223 -0.14151797 -0.14534712
0.03763403 -0.17866085 0.2681591 -0.03365257 -0.06026419 -0.10517754 0.1298383 0.05284619
-0.012466516 0.0870863 -0.12706774 0.17503634 -0.20847641 0.35656193 0.065930314 0.04776183
0.09736183 -0.14803731 -0.09586223 -0.15704225 -0.024961997 0.11235961 0.13707499 -0.09733972
0.11192136 -0.1400157 0.17499557 -0.0066382363 -0.108190246 0.06884864 -0.0050459024 -0.2175334
-0.059076387 -0.045993894 -0.18788607 -0.05122378 0.08848635 0.16503833 0.09925875 -0.20633855
0.091986254 0.11054158 -0.020576596 -0.16127306 0.06557945 -0.24971414 0.053057585 -0.03288735
-0.04245532 -0.0673526 0.29957122 0.04333761 -0.039070755 0.06272753 -0.07693229 -0.1289095
-0.018924402 -0.25614348 0.042652197 0.22622177 -0.1404558 0.16363358 0.16298155 0.048224434
-0.11102057 0.053784404 -0.03946705 -0.01922494 0.18496166 0.16759941 -0.14812662 0.16245918
-0.050119452 0.04215 -0.02333453 0.068073645 -0.24145883 -0.0074305222 0.024618471 -0.43546227
-0.17016701 0.2844132 -0.039033145 0.18055265 -0.07162191 -0.03056174 -0.06894522 -0.027000397
0.16851063 -0.083809055 -0.1264551 -0.21195935 0.037337437 -0.030234596 0.106818505 -0.14663504
-0.03310159 -0.09392305 -0.11626262 -0.021958241 0.060169403 0.10363508 -0.060840115 -0.021133011
0.12539895 -0.12735455 0.104449406 -0.014768951 0.05349648 -0.11638683 0.14852445 0.008127438
0.09422858 -0.08291555 0.097086936 0.091921456 0.09363134 -0.008224485 -0.23288362 0.021536576
-0.040953238 0.17813393 -0.03901756 -0.08547857 0.08114383 0.16132414 -0.13524455 0.1388777
-0.06670147 0.25863662 0.0726948 -0.19854322 -0.07986479 0.17247875 0.15086241 0.113416605
-0.008019761 0.15527065 -0.07169014 0.0095552 -0.26683393 -0.103774354 -0.106052004 -0.008675379
-0.19196312 0.0034300897 0.39616492 0.26049477 -0.06424941 0.061960503 -0.09869697 0.045749646
0.08572966 0.0018741641 -0.25943363 0.13036057 -0.13277291 -0.14684367 0.055512622 0.12102783
-0.08258215 0.14403552 0.22506447 0.015922707 0.16003107 0.047481496 -0.040151756 0.07280845
-0.034121223 -0.005765613 -0.04701925 0.12457548 0.033905666 0.1604988 -0.016691541 -0.02212953
0.0031541472 0.0031039221 0.053410273 -0.054773685 0.11407364 0.26181912 -0.16885918 -0.00054313475
-0.16851375 0.10013718 -0.051841237 0.13111241 -0.021877632 0.04980186 0.0068506654 0.02294379
-0.04012907 0.14082463 -0.16095701 -0.22673865 -0.16495208 0.33565906 -0.08233317 0.046854474
00000000: f7bc 4a3d 7ca0 2f3c 9f1f 2ebe 0305 033e
00000010: 52d4 d83b 073b 0bbd 240f d03b 891f 7ebe
00000020: 61e7 ac3d ba4e 8bbc 56fd 773c de5e e53c
00000030: 0491 07be 4983 d83d b0d5 a4bd d8c8 433c
00000040: 2f5e 6abe a272 d33d 8d8c 59be 1022 943e
00000050: 7762 b33d 4953 643e f107 8dbd b309 bcbd
00000060: 6553 75bd 9a37 1c3d a3e1 223e 5905 f1bd
00000070: 69d1 513d ceef 2e3e 082a 983c b85f 11be
00000080: 76dc 58be a73e f13d 35a0 023e 7692 be3c
00000090: 6306 223e 5225 13be d5cb 1c3e 6a8b 0abe
000000a0: 2f79 9f3e 1e09 193e c761 3ebe 65d3 b73d
000000b0: 6b81 1cbd 563d 12be cc4c a03d f911 1d3d
000000c0: 378b 70bd b6ee d7be 10c6 793c 1677 e83d
000000d0: f424 12bd ab66 a53d 16ea 10be e0d5 14be
000000e0: 2426 1a3d dff2 36be 264c 893e 47d7 09bd
000000f0: 95d7 76bd 5267 d7bd 55f4 043e 3f75 583d
00000100: 5c40 4cbc 4d5a b23d 0c1e 02be ba3c 333e
00000110: d77a 55be 498f b63e 7906 873d e9a1 433d
00000120: a465 c73d 1897 17be 6b53 c4bd afcf 20be
00000130: 1a7d ccbc cc1c e63d 635d 0c3e 0c5a c7bd
00000140: 0737 e53d 4760 0fbe 0a32 333e 9085 d9bb
00000150: d992 ddbd 8400 8d3d 1958 a5bb 13c1 5ebe
00000160: 15fa 71bd 1864 3cbd 3565 40be 07d0 51bd
00000170: 5538 b53d cfff 283e 2c48 cb3d 6a4a 53be
00000180: 4a63 bc3d a063 e23d 4090 a8bc c424 25be
00000190: 854e 863d 10b5 7fbe e952 593d e3b4 06bd
000001a0: a1e5 2dbd 29f0 89bd 6661 993e c782 313d
000001b0: a808 20bd 4b77 803d ad8e 9dbd da00 04be
000001c0: 5907 9bbc 3d25 83be 12b4 2e3d aea6 673e
000001d0: a5d3 0fbe 908f 273e a3e4 263e fc86 453d
000001e0: c15e e3bd 094d 5c3d 34a8 21bd 9f7d 9dbc
000001f0: 9766 3d3e 2e9f 2b3e 81ae 17be b35b 263e
00000200: 0e4a 4dbd 7aa5 2c3d 0e28 bfbc 326a 8b3d
00000210: fc40 77be bd7b f3bb adac c93c e9f4 debe
00000220: 4340 2ebe 9b9e 913e 38e1 1fbd cbe2 383e
00000230: 82ae 92bd 9d5c fabc 2733 8dbd f02f ddbc
00000240: 0d8e 2c3e 15a4 abbd 727d 01be df0b 59be
00000250: 24ef 183d 8bae f7bc a9c3 da3d 7f27 16be
00000260: 8895 07bd ba5a c0bd 191b eebd c5e1 b3bc
00000270: 3174 763d a13e d43d 7c33 79bd 231f adbc
00000280: 9568 003e 3b69 02be 92e9 d53d 78f9 71bc
00000290: 201f 5b3d 385c eebd cb16 183e f228 053c
000002a0: eafa c03d a1cf a9bd 84d5 c63d 5141 bc3d
000002b0: cac1 bf3d febf 06bc 0b79 6ebe 796d b03c
000002c0: 95be 27bd be68 363e e1d0 1fbd 630f afbd
000002d0: bd2e a63d 2832 253e 8c7d 0abe f535 0e3e
000002e0: c89a 88bd 056c 843e 03e1 943d ea4e 4bbe
000002f0: 2790 a3bd 459e 303e ad7b 1a3e f746 e83d
00000300: 5165 03bc 45ff 1e3e 48d2 92bd 6a8d 1c3c
00000310: 759e 88be a687 d4bd cb31 d9bd 2d23 0ebc
00000320: fb91 44be 5bcb 603b 21d6 ca3e 925f 853e
00000330: 3295 83bd 4cca 7d3d a321 cabd fb63 3b3d
00000340: 0893 af3d 83a6 f53a 7cd4 84be 3e7d 053e
00000350: 9ff5 07be 305e 16be 3461 633d 70dd f73d
00000360: d520 a9bd 0c7e 133e 4d77 663e 5670 823c
00000370: 2fdf 233e f57b 423d 2b76 24bd 991c 953d
00000380: b2c2 0bbd 78ed bcbb 4297 40bd 6e21 ff3d
00000390: abe0 0a3d cc59 243e b3bc 88bc fd48 b5bc
000003a0: cfb5 4e3b 2c6b 4b3b bbc4 5a3d 5f5a 60bd
000003b0: 719f e93d 280d 863e 6ce9 2cbe 2861 0eba
000003c0: de8e 2cbe b914 cd3d 7a57 54bd 5542 063e
000003d0: b838 b3bc 09fd 4b3d 8c7b e03b 9df4 bb3c
000003e0: 615e 24bd 5534 103e ead1 24be 2d2e 68be
000003f0: 33e9 28be 81db ab3e 4b9e a8bd 7aea 3f3d

conv2.bias f4 [16]
-0.026030583 -0.25135714 -0.35712773 -0.11221068 -0.02002179 -0.4905211 -0.16487269 -0.31847483
-0.10498057 -0.48801342 -0.15564676 -0.3375211 -0.09337553 -0.22414522 -0.015816616 -0.2957259
00000000: 173e d5bc e2b1 80be 72d9 b6be b7ce e5bd
00000010: bd04 a4bc 9525 fbbe 63d4 28be 220f a3be
00000020: 0e00 d7bd e5dc f9be dd61 1fbe 91cf acbe
00000030: ab3b bfbd 5386 65be d991 81bc 6369 97be

conv3.weight f4 [256, 32, 5]
-0.008082274 0.2163524 0.023041531 -0.02433002 -0.16298185 0.018600663 -0.05318115 -0.066704355
-0.46318588 -0.035586238 -0.22931077 -0.39025635 -0.33639967 -0.01749328 -0.045091666 -0.0025335387
-0.45155144 -0.15357536 -0.37584007 0.039522067 0.022723995 -0.40580958 -0.2472001 0.05217976
-0.2212625 0.04727477 -0.017417228 0.11126213 -0.018200425 -0.15986858 -0.0010964846 0.02739993
-0.32017577 -0.3291755 0.13775694 -0.42002723 0.08006493 -0.2691458 -0.18980317 0.10640128
-0.051176284 0.008378003 -0.049523618 0.2394849 0.01722738 -0.05209324 -0.30508935 -0.08834158
0.015618095 -0.06688275 0.09076861 -0.1641851 -0.01834393 -0.081491254 0.010806153 -0.094050795
-0.2236909 -0.217346 -0.28454787 0.21506278 -0.12415823 -0.15779246 -0.2082045 -0.25932118
-0.018309055 0.10385665 0.0061617037 0.0023711638 -0.07172486 0.028347367 -0.28041884 -0.020482445
-0.30108705 -0.29255384 -0.012330664 -0.2770065 -0.13577823 -0.042700477 -0.4808215 0.024667794
-0.12994576 0.11377697 -0.4036584 -0.2680332 -0.02160393 0.060161 0.07218848 0.35943148
0.19812407 0.037942935 -0.061457474 -0.14669646 0.12569682 -0.047910243 0.27746084 0.006863639
0.0047867866 -0.3348452 -0.52453333 0.020649334 0.041316412 -0.32911038 0.07719679 -0.22411425
0.0021703036 0.041228786 0.052763443 0.1999984 0.11398989 -0.07983897 0.05899762 0.072977826
-0.06386383 -0.2143475 -0.14616178 -0.031630255 -0.063667804 -0.02458586 -0.38446313 -0.01937879
-0.1099088 -0.3204843 -0.042196378 -0.18518223 -0.049585804 0.06787835 -0.32071424 0.15637368
-0.30879414 0.08676601 -0.015175677 -0.07099827 0.17542036 0.05391428 -0.2109391 -0.13380276
-0.1605123 -0.11457023 0.1025146 -0.1850698 0.029862005 -0.037653223 -0.016958343 -0.29969642
-0.08855689 -0.06295224 -0.3178582 -0.012133459 -0.16798246 0.15857516 -0.18708815 -0.038745888
-0.27006933 -0.107640095 -0.04698138 0.09678343 0.066042766 0.09966249 0.082070924 0.03966261
0.046319224 -0.078202486 -0.07079356 -0.20241919 -0.048118353 0.051988415 -0.110308416 -0.27099034
-0.21982162 -0.11552802 -0.08112024 0.032956693 -0.33634156 -0.13125178 -0.026643049 0.084939845
-0.23555061 -0.07178969 -0.018174486 0.1454796 -0.13340989 -0.0790351 -0.19884996 -0.11499595
-0.12857099 -0.04024441 -0.058713086 0.035409223 0.01692086 -0.021111632 -0.11719133 -0.044441503
-0.28332698 -0.13703696 -0.08722605 0.030331906 0.016457204 -0.27956927 -0.21074507 0.042507302
0.11704555 -0.18054281 -0.09471102 -0.24539988 -0.05853677 -0.075772375 -0.121123776 -0.25234848
-0.009758828 0.023885071 0.07984887 -0.1541453 0.07673344 -0.22175425 0.050021764 0.06631403
-0.030079212 0.039612032 0.10212463 -0.061212093 -0.059374016 -0.26080674 -0.09969554 -0.06669499
-0.12138171 0.0785579 -0.20374843 -0.037579816 -0.119689055 -0.03209924 -0.1520358 -0.22793049
-0.024484014 -0.12609053 -0.09297481 0.031933963 0.06824552 -0.115962 -0.07509225 -0.059669103
0.14444518 -0.12034868 0.20533006 -0.09704595 0.20990926 -0.034949206 -0.03586967 0.08651237
-0.09706137 0.15530401 0.001777456 -0.06715334 -0.27318594 -0.17447948 -0.13343075 0.1103797
00000000: 846b 04bc 7c8b 5d3e 98c1 bc3c c04f c7bc
00000010: b7e4 26be 6b60 983c 7ad4 59bd 4b9c 88bd
00000020: b326 edbe e0c2 11bd 71d0 6abe aecf c7be
00000030: 943c acbe 114e 8fbc 0ab2 38bd ba09 26bb
00000040: c031 e7be dc42 1dbe 1c6e c0be e4e1 213d
00000050: ac27 ba3c 46c6 cfbe 0622 7dbe 72ba 553d
00000060: a392 62be 30a3 413d 93ae 8ebc 66dd e33d
00000070: 0f19 95bc 97b4 23be ebb7 8fba d175 e03c
00000080: 14ee a3be b189 a8be 2810 0d3e cf0d d7be
00000090: 15f9 a33d 7acd 89be c35b 42be eae8 d93d
000000a0: 399e 51bd e443 093c 47d9 4abd 883b 753e
000000b0: 6f20 8d3c b95f 55bd ac34 9cbe 6eec b4bd
000000c0: 0ae3 7f3c d3f9 88bd e5e4 b93d 2420 28be
000000d0: 0246 96bc e3e4 a6bd 4a0c 313c b49d c0bd
000000e0: 3a0f 65be f38f 5ebe 42b0 91be 6b39 5c3e
000000f0: ac46 febd 5994 21be 8f33 55be bfc5 84be
00000100: dffc 95bc ccb2 d43d 1ee8 c93b 8765 1b3b
00000110: 7ce4 92bd bd38 e83c 0f93 8fbe cdca a7bc
00000120: 1528 9abe 9ec9 95be 8e06 4abc ccd3 8dbe
00000130: 7309 0bbe b2e6 2ebd 3c2e f6be 1d14 ca3c
00000140: 8010 05be e603 e93d 50ac cebe a63b 89be
00000150: bafa b0bc 616b 763d 8ed7 933d 6707 b83e
00000160: 09e1 4a3e 0d6a 1b3d d5ba 7bbd 9937 16be
00000170: abb6 003e 883d 44bd 590f 8e3e 61e8 e03b
00000180: 7ada 9c3b d470 abbe d147 06bf cb28 a93c
00000190: 663b 293d 2881 a8be 5a19 9e3d 357e 65be
000001a0: a73b 0e3b 84df 283d 7b1e 583d 61cc 4c3e
000001b0: 8873 e93d 9d82 a3bd 7da7 713d 6675 953d
000001c0: 0acb 82bd e97d 5bbe 6fab 15be ba8e 01bd
000001d0: 4464 82bd 4968 c9bc 5ad8 c4be 45c0 9ebc
000001e0: dd17 e1bd 8516 a4be 1cd6 2cbd 69a0 3dbe
000001f0: 7c1a 4bbd ce03 8b3d a834 a4be 6c20 203e
00000200: 441a 9ebe 61b2 b13d 67a3 78bc 8a67 91bd
00000210: 65a1 333e 38d5 5c3d 6b00 58be 9703 09be
00000220: 565d 24be cca3 eabd 2df3 d13d f082 3dbe
00000230: 2aa1 f43c 443a 1abd 39ec 8abc cf71 99be
00000240: 515d b5bd 1bed 80bd 4fbe a2be 6acb 46bc
00000250: 9803 2cbe 8761 223e 0994 3fbe 02b4 1ebd
00000260: 8746 8abe 6972 dcbd 8c6f 40bd 6436 c63d
00000270: 6e41 873d d91b cc3d cd14 a83d 4375 223d
00000280: 3ab9 3d3d a028 a0bd 37fc 90bd fa46 4fbe
00000290: c017 45bd cef1 543d 61e9 e1bd 3fbf 8abe
000002a0: eb18 61be f499 ecbd 5e22 a6bd 99fd 063d
000002b0: f634 acbe de66 06be 8642 dabc f1f4 ad3d
000002c0: 2e34 71be 7906 93bd a9e2 94bc 9bf8 143e
000002d0: 9a9c 08be 28dd a1bd 539f 4bbe ff82 ebbd
000002e0: 1da8 03be 53d7 24bd 227d 70bd 4309 113d
000002f0: 9e9d 8a3c 4df2 acbc 0202 f0bd 4b08 36bd
00000300: 3c10 91be 6b53 0cbe 92a3 b2bd 9e7a f83c
00000310: 42d1 863c b423 8fbe 8ecd 57be 231c 2e3d
00000320: 94b5 ef3d 37e0 38be daf7 c1bd 1b4a 7bbe
00000330: 41c4 6fbd 8c2e 9bbd be0f f8bd d233 81be
00000340: 7ee3 1fbc a0aa c33c ce87 a33d 44d8 1dbe
00000350: 6c26 9d3d 8c13 63be 9fe3 4c3d a6cf 873d
00000360: ae68 f6bc 3a40 223d b826 d13d 88b9 7abd
00000370: 2b32 73bd 7688 85be 2d2d ccbd 6297 88bd
00000380: f996 f8bd f7e2 a03d 6ea3 50be 4bed 19bd
00000390: 891f f5bd 7e7a 03bd 46af 1bbe 9c66 69be
000003a0: b392 c8bc e01d 01be 9469 bebd 30cd 023d
000003b0: 4fc4 8b3d 7c7d edbd f7c9 99bd 9767 74bd
000003c0: 70e9 133e 5e79 f6bd 0b42 523e 07c0 c6bd
000003d0: 74f2 563e e626 0fbd 13ec 12bd 662d b13d
000003e0: 1dc8 c6bd 0408 1f3e 87f9 e83a b187 89bd
000003f0: 07df 8bbe c0aa 32be 12a2 08be c10e e23d

conv3.bias f4 [256]
0.5645552 0.26034185 -0.1274304 -0.23932937 -0.042439252 0.6272952 -0.05521927 -0.004385524
-0.13126755 -0.13454357 -0.12308554 -0.27119905 0.50991493 -0.00606613 0.65881675 -0.17956364
0.34695265 0.00047922952 0.38030368 -0.28551856 0.058766 0.69960463 -0.09656444 0.4643001
-0.28355968 0.21105285 0.29353392 -0.14449033 0.103421725 0.0075262785 -0.2532949 0.5479364
0.22021717 0.6517648 0.40644562 -0.18964583 -0.15435536 -0.016608782 -0.26435474 -0.21232209
0.24034688 -0.13464774 -0.24366139 0.20540868 -0.06504064 0.032862905 -0.023540173 -0.13710533
-0.111413844 0.220891 0.25199202 -0.30097649 -0.18130034 0.672335 -0.122761406 -0.22644621
-0.093889855 -0.05112317 -0.13820069 -0.20563215 0.40299183 -0.12231871 -0.28565273 -0.2112081
-0.09312634 0.5709758 -0.15802805 0.23326807 0.6197195 0.4898026 0.0350219 -0.043192223
0.24600762 -0.022801276 0.2750754 -0.12303783 -0.036250055 -0.25998756 -0.02772909 -0.25106084
-0.12514657 -0.21775687 0.29125556 -0.047144186 -0.069413155 -0.06718053 0.25237438 -0.41209394
-0.24697883 0.3728134 -0.06011166 -0.31377286 -0.24157363 0.5574252 -0.26533416 0.3222295
-0.023275735 -0.1911585 -0.3052243 0.38895375 0.38637817 0.3296479 -0.13586059 0.43666625
0.07939942 0.18774667 -0.12968896 -0.059208903 0.53887814 -0.07253537 -0.2705777 -0.071041614
-0.13043249 0.5263299 -0.08895185 -0.041409753 0.2081802 0.43834838 -0.07618721 0.63857514
-0.06818487 -0.23532818 0.3844246 0.12731797 0.5077573 -0.23188205 -0.19147469 -0.27954862
-0.1484471 -0.239535 0.27243257 0.8227068 0.92648506 0.46236598 -0.12858891 -0.21844035
0.5745469 0.31956983 -0.21144834 0.409561 0.3364357 -0.16825424 0.15128516 0.50644493
-0.105010785 0.465052 -0.02265596 0.37901384 -0.05220964 -0.07830477 -0.21352789 -0.26246512
0.54180634 0.33908784 -0.31644022 0.36421525 0.19678034 -0.1203223 0.32045868 -0.14369138
0.54677695 0.5617845 -0.083257824 -0.10580888 -0.33212015 0.55002064 0.06299473 0.34856865
-0.040208634 -0.31504002 0.17750259 0.009606703 -0.0026741493 0.35354146 0.3007021 -0.15648432
0.29762858 -0.13658018 0.4683279 0.5028237 0.74293655 -0.07797579 -0.028356794 -0.050670933
-0.21459411 -0.24665959 -0.26126587 0.15153466 -0.07581862 -0.021864735 0.3872343 -0.12740521
-0.179806 -0.09465881 -0.16753705 0.13695388 -0.20381053 0.14719793 0.0887489 -0.065182604
0.78647137 -0.20381615 -0.13181473 -0.19830385 -0.13067688 0.69074434 -6.5159285e-05 0.0017395241
0.22031611 -0.14470795 -0.12614593 -0.14888838 -0.1913589 -0.050984394 -0.015710875 -0.36263236
0.21902154 0.97291744 -0.17383261 -0.21525602 -0.07307725 0.63734907 -0.203651 -0.19996487
0.39818472 -0.09891488 -0.04268942 -0.043747555 -0.06396802 -0.103272 -0.17284851 -0.21783519
0.5133652 -0.29876953 -0.047635384 0.5445988 0.22087415 -0.08325666 -0.15891246 0.5646936
-0.10208712 -0.20666626 0.03210794 -0.057689495 0.16953608 0.19536883 0.22657983 -0.131958
-0.008048561 -0.18009754 0.7011938 0.57677346 -0.024433266 0.4948445 -0.0754513 0.45045623
00000000: b186 103f 874b 853e 1d7d 02be c212 75be
00000010: c8d4 2dbd 6b96 203f 9a2d 62bd 71b4 8fbb
00000020: 006b 06be cac5 09be 4614 fcbd 9ada 8abe
00000030: c989 023f 63c6 c6bb 37a8 283f 88df 37be
00000040: c7a3 b13e 1941 fb39 2ab7 c23e 7d2f 92be
00000050: 9eb4 703d 4a19 333f 94c3 c5bd beb8 ed3e
00000060: bc2e 91be 3d1e 583e 144a 963e 46f5 13be
00000070: c5ce d33d 009f f63b deaf 81be 8f45 0c3f
00000080: 9c80 613e 0fda 263f a419 d03e 8432 42be
00000090: 550f 1ebe 240f 88bc 8159 87be f66a 59be
000000a0: 7e1d 763e 19e1 09be 5f82 79be a756 523e
000000b0: 0734 85bd 419b 063d 52d7 c0bc 5765 0cbe
000000c0: f12c e4bd 4031 623e 1905 813e 9719 9abe
000000d0: cca6 39be 261e 2c3f 556a fbbd 84e1 67be
000000e0: 5349 c0bd 8766 51bd 7b84 0dbe 3c91 52be
000000f0: f254 ce3e 3b82 fabd 1341 92be f046 58be
00000100: 06b9 bebd 782b 123f 1bd2 21be d3dd 6e3e
00000110: f0a5 1e3f 68c7 fa3e 2073 0f3d 54ea 30bd
00000120: 6ce9 7b3e bec9 babc afd6 8c3e 42fb fbbd
00000130: f07a 14bd 171d 85be 1e28 e3bc 0c8b 80be
00000140: 6c26 00be a8fb 5ebe 731f 953e 431a 41bd
00000150: 7c28 8ebd f295 89bd 3737 813e fafd d2be
00000160: 05e8 7cbe 66e1 be3e a537 76bd d6a6 a0be
00000170: 145f 77be 6bb3 0e3f e1d9 87be 44fb a43e
00000180: c1ac bebc 0ebf 43be 5c46 9cbe f224 c73e
00000190: 5cd3 c53e 9cc7 a83e 0a1f 0bbe b892 df3e
000001a0: 2a9c a23d aa40 403e 2fcd 04be 0985 72bd
000001b0: ebf3 093f 6d8d 94bd 2989 8abe 447e 91bd
000001c0: 1890 05be 8ebd 063f 632c b6bd 469d 29bd
000001d0: 312d 553e 336f e03e 0a08 9cbd a979 233f
000001e0: 82a4 8bbd dff9 70be 4dd3 c43e a45f 023e
000001f0: 62fc 013f 7d72 6dbe f111 44be ff20 8fbe
00000200: 8402 18be aa48 75be 487c 8b3e ea9c 523f
00000210: 202e 6d3f 3cbb ec3e d0ac 03be d4ae 5fbe
00000220: 8115 133f a89e a33e ea85 58be fbb1 d13e
00000230: 4d41 ac3e d74a 2cbe 7fea 1a3e 60a6 013f
00000240: e50f d7bd 4c1b ee3e fe98 b9bc 1a0e c23e
00000250: c7d9 55bd 405e a0bd 0ea7 5abe d461 86be
00000260: d2b3 0a3f ec9c ad3e 7404 a2be 6c7a ba3e
00000270: c980 493e 8a6b f6bd 2913 a43e d523 13be
00000280: 93f9 0b3f 1cd1 0f3f 1483 aabd 53b2 d8bd
00000290: a70b aabe 27ce 0c3f 6203 813d 9777 b23e
000002a0: cfb1 24bd ed4c a1be 3dc3 353e 6f65 1d3c
000002b0: c840 2fbb 6303 b53e a0f5 993e 6d3d 20be
000002c0: c662 983e addb 0bbe adc8 ef3e 0eb9 003f
000002d0: 1731 3e3f c5b1 9fbd 824c e8bc 538c 4fbd
000002e0: 8fbe 5bbe 5594 7cbe a4c4 85be e72b 1b3e
000002f0: cb46 9bbd ac1d b3bc 9343 c63e 8376 02be
00000300: 101f 38be 7adc c1bd d58e 2bbe a33d 0c3e
00000310: b5b3 50be 0ebb 163e fcc1 b53d 757e 85bd
00000320: 3056 493f 2eb5 50be 71fa 06be 2a10 4bbe
00000330: 29d0 05be 9fd4 303f 20a6 88b8 be00 e43a
00000340: 8c9a 613e 522e 14be 662c 01be 3276 18be
00000350: 96f3 43be 03d5 50bd 18b4 80bc f3aa b9be
00000360: 2f47 603e 1e11 793f 2d01 32be 136c 5cbe
00000370: 86a9 95bd 4f29 233f e389 50be 97c3 4cbe
00000380: dede cb3e e293 cabd 1adb 2ebd a330 33bd
00000390: aa01 83bd 4580 d3bd 33ff 30be 3010 5fbe
000003a0: e76b 033f 52f8 98be 521d 43bd d46a 0b3f
000003b0: d52c 623e 7882 aabd f3b9 22be c38f 103f
000003c0: 0d13 d1bd 52a0 53be 9e83 033d d24b 6cbd
000003d0: de9a 2d3e c40e 483e 8b04 683e ff1f 07be
000003e0: 1dde 03bc 7d6b 38be 7081 333f 6da7 133f
000003f0: 4628 c8bc 425c fd3e 3686 9abd 33a2 e63e

fc.weight f4 [8, 256]
-0.20373839 -0.16642827 -0.030219607 0.059242126 -0.083068125 0.019272849 0.052301053 -0.023376282
-0.008766599 0.01683846 -0.16199477 0.049897797 -0.09797534 0.059214655 -0.05998055 0.044099122
-0.2724705 -0.08422915 -0.06446548 -0.04872167 0.039638694 -0.107600115 -0.012176778 -0.0022138797
-0.0082579 -0.0010752719 -0.05516622 0.07378169 0.0891197 -0.13902071 0.08237823 -0.25247657
-0.04333457 0.023530528 -0.056788914 -0.018830942 0.0136778895 -0.07354308 0.030021172 0.041326735
-0.059475202 0.009057585 0.036284316 -0.13300686 0.033263054 -0.1263095 -0.028488843 0.06415198
0.074900836 -0.052436363 -0.01811307 0.05165909 0.010959483 -0.079463065 0.03533005 -0.0580355
0.07473123 -0.04450359 0.20599656 0.06906918 -0.0030432718 0.0324137 0.15543295 -0.009731246
0.058658972 -0.26640534 -0.03468971 0.011536195 -0.45755342 -0.02110246 -0.012903794 0.053876624
-0.026426924 0.019223427 -0.04836767 -0.048857916 -0.11401074 -0.0382143 -0.02451353 0.018814366
0.09267804 -0.017972725 -0.14334027 0.13490762 0.014702432 -0.058571786 -0.069907635 -0.05504006
0.043145604 -0.005848384 -0.050882168 -0.050490092 0.015973756 -0.10189417 0.09025798 -0.16222024
0.0876919 0.016091486 0.054065213 -0.043253753 -0.126761 -0.011638324 0.02184467 -0.066406906
0.07074051 -0.04897716 -0.003031595 0.071503684 -0.07525847 0.06413686 0.044890124 0.05882205
0.003521027 -0.3631281 -0.0867319 -0.0451707 -0.018671354 -0.16474319 -0.112137645 -0.09918694
0.015396545 0.08400776 -0.19257756 0.10261986 -0.0109331515 -0.10405018 -0.014671676 -0.14602591
0.006187824 0.05074545 -0.2073321 -0.18217324 -0.3141436 -0.084343284 0.077122286 -0.0009183687
-0.29739314 0.038744565 -0.06385456 -0.018727368 -0.004130781 0.0712102 -0.07113583 -0.36981145
-0.0146271195 -0.27023387 -0.06193915 -0.13699543 -0.019057527 0.08296529 0.027948791 0.016599875
-0.20277533 0.013859662 0.018299734 -0.23608533 0.08572467 0.02757407 0.028007442 -0.037542276
-0.07447587 -0.25755644 0.0018922052 0.008879042 0.03466402 -0.17141485 0.017743178 -0.10508532
0.08194054 0.035761956 0.098304614 -0.054380994 -0.13564956 -0.030884204 -0.17351703 0.002080855
-0.09037039 0.01915091 -0.07934177 -0.113135256 -0.31762815 0.09322088 0.026553169 -0.023510434
0.027042013 0.0011355018 -0.013602611 0.039207295 -0.06920052 -0.010931012 -0.056979533 -0.028622882
-0.012298532 -0.013854083 -0.033407442 -0.06775491 -0.07530011 -0.004784094 -0.14025989 0.07360945
-0.4013776 0.007711295 0.06347133 -0.0025197805 0.07752549 -0.2145667 -0.16101113 -0.00500574
0.01571342 0.043599118 0.06417659 0.023210183 0.05662992 -0.020006863 0.11293607 0.053297557
-0.16822465 -0.48863775 0.018528977 0.042793762 -0.0035514112 -0.22319959 -0.030617772 0.07475798
-0.0054605403 0.0012475426 -0.061003525 0.0020746263 0.06224671 -0.0059985104 0.033565775 -0.03806656
-0.12180792 0.031084647 -0.15088344 -0.21729645 -0.08220618 0.19285549 0.0040806304 -0.12294436
-0.055773407 0.025464421 -0.0738833 0.09091459 -0.012644237 0.018922443 -0.07187105 -0.013426851
0.062461663 0.008522348 0.035365023 -0.26712784 0.055264864 -0.18601054 0.009835236 -0.14820434
00000000: cca0 50be 2c6c 2abe 1c8f f7bc dfa7 723d
00000010: 9f1f aabd 18e2 9d3c a139 563d 9e7f bfbc
00000020: c8a1 0fbc cff0 893c f5e1 25be a261 4c3d
00000030: 4ca7 c8bd 118b 723d 2aae 75bd 48a1 343d
00000040: 4181 8bbe 5580 acbd 7a06 84bd 6090 47bd
00000050: 2f5c 223d 735d dcbd 1c81 47bc bd16 11bb
00000060: 254c 07bc 23f0 8cba f9f5 61bd db1a 973d
00000070: 6484 b63d 725b 0ebe ebb5 a83d 9c44 81be
00000080: 977f 31bd 18c3 c03c 7e9b 68bd 5943 9abc
00000090: 3a19 603c c19d 96bd f6ee f53c 3946 293d
000000a0: 459c 73bd 4466 143c dd9e 143d f332 08be
000000b0: d73e 083d 4757 01be 6f61 e9bc 1d62 833d
000000c0: 9c65 993d 83c7 56bd dc61 94bc 7b98 533d
000000d0: 678f 333c 88bd a2bd 3eb6 103d a2b6 6dbd
000000e0: b00c 993d 6549 36bd c3f0 523e 2474 8d3d
000000f0: a171 47bb 3ac4 043d d129 1f3e ce6f 1fbc
00000100: 6444 703d 4866 88be cc16 0ebd 4f02 3d3c
00000110: 7144 eabe 11df acbc 6f6a 53bc bcad 5c3d
00000120: 477d d8bc 737a 9d3c 2e1d 46bd 3d1f 48bd
00000130: 767e e9bd 9986 1cbd 99d0 c8bc 9620 9a3c
00000140: fccd bd3d 893b 93bc cbc7 12be 3925 0a3e
00000150: 78e2 703c f8e8 6fbd bc2b 8fbd b071 61bd
00000160: 72b9 303d cda3 bfbb d269 50bd b3ce 4ebd
00000170: 65db 823c e4ad d0bd 2dd9 b83d 101d 26be
00000180: d097 b33d 4bd2 833c 7c73 5d3d d92a 31bd
00000190: a3cd 01be abae 3ebc 98f3 b23c 5800 88bd
000001a0: 67e0 903d 469c 48bd b9ad 46bb 8670 923d
000001b0: 1d21 9abd 305a 833d b5de 373d 64ef 703d
000001c0: 08c1 663b edeb b9be 7fa0 b1bd e904 39bd
000001d0: abf4 98bc 70b2 28be 6ca8 e5bd 8622 cbbd
000001e0: ca41 7c3c 430c ac3d 0d33 45be 5c2a d23d
000001f0: f620 33bc 4318 d5bd 7861 70bc d187 15be
00000200: 3bc3 ca3b 76da 4f3d de4e 54be 9f8b 3abe
00000210: 6ed7 a0be 2cbc acbd 4af2 9d3d aebe 70ba
00000220: ea43 98be 9fb2 1e3d 2ec6 82bd 236a 99bc
00000230: 815b 87bb a7d6 913d a9af 91bd ed57 bdbe
00000240: 96a6 6fbc 185c 8abe e8b3 7dbd 8848 0cbe
00000250: 881e 9cbc b5e9 a93d ddf4 e43c 76fc 873c
00000260: 56a4 4fbe a313 633c 53e9 953c 5ac0 71be
00000270: 6a90 af3d 04e3 e13c dd6f e53c eec5 19bd
00000280: ce86 98bd 70de 83be df03 f83a 6779 113c
00000290: dcfb 0d3d 6087 2fbe 245a 913c f936 d7bd
000002a0: 71d0 a73d 217b 123d ee53 c93d 9bbe 5ebd
000002b0: b8e7 0abe df00 fdbc 73ae 31be f45e 083b
000002c0: 1c14 b9bd 5fe2 9c3c f07d a2bd 75b3 e7bd
000002d0: 28a0 a2be 97ea be3d 0886 d93c f498 c0bc
000002e0: 3687 dd3c 1ed5 943a 7cdd 5ebc d497 203d
000002f0: 01b9 8dbd fd17 33bc 5f63 69bd 897a eabc
00000300: c87f 49bc 3cfc 62bc 3ed6 08bd 16c3 8abd
00000310: f236 9abd e4c3 9cbb 4aa0 0fbe 8dc0 963d
00000320: 5d81 cdbe 08af fc3b 42fd 813d e722 25bb
00000330: afc5 9e3d 5fb7 5bbe 1ae0 24be 3107 a4bb
00000340: 6eb9 803c fd94 323d 046f 833d 4823 be3c
00000350: c6f4 673d 6fe5 a3bc 074b e73d 8a4e 5a3d
00000360: 1543 2cbe ba2e fabe 15ca 973c 8348 2f3d
00000370: cbbe 68bb 6f8e 64be 1fd2 fabc b61a 993d
00000380: 55ee b2bb 9584 a33a d5de 79bd 74f6 073b
00000390: 68f6 7e3d 278f c4bb 447c 093d aeeb 1bbd
000003a0: 6e76 f9bd 3ba5 fe3c 3081 1abe f682 5ebe
000003b0: b75b a8bd e97b 453e cfb6 853b 41ca fbbd
000003c0: a872 64bd c39a d03c 2150 97bd 6e31 ba3d
000003d0: c629 4fbc 3d03 9b3c 2131 93bd 4bfc 5bbc
000003e0: cdd7 7f3d 51a1 0b3c eada 103d fbc4 88be
000003f0: 695d 623d 8c79 3ebe f823 213c e1c2 17be

fc.bias f4 [8]
-0.07056299 -0.0910992 -0.44350803 0.24133115 -0.48684996 -0.5721799 0.35850042 -0.13356197
00000000: 5483 90bd 3892 babd 7c13 e3be 831f 773e
00000010: 6644 f9be 627a 12bf 5e8d b73e 78c4 08be
