src/main/python/saved_models/java_1_28_CNNClassifier1_128embs_109id_16hd_0hl_Falsebid5kernel0.3dropout_1.pt (torch, 297163 bytes, 9 tensors)

emb.weight f4 [109, 128]
0	0xbfdd0db7	-1.726981
1	0xbfe3912b	-1.7778677
2	0xbfb0e5e2	-1.3820155
3	0x3f04f697	0.51938766
4	0xbe560f3e	-0.20904252
5	0x3ef57300	0.479393
6	0x3f7efa02	0.9960023
7	0x3fb6cdf1	1.4281598
8	0x4017a29d	2.3693001
9	0x3d3c398d	0.045953322
10	0xbeb0d8f9	-0.34540537
11	0xc009d7d6	-2.1537986
12	0x3db58527	0.088632874
13	0x3e808156	0.25098675
14	0xbf247b92	-0.64251053
15	0x3f44c4aa	0.76862586
16	0x3fd2c714	1.6467004
17	0x3ddf527f	0.10904407
18	0x3e9ea67e	0.30986398
19	0xbe81ea2e	-0.25373977
20	0xbfe8bceb	-1.8182653
21	0x3f782122	0.96925557
22	0xbdecab19	-0.11556072
23	0x3f65bb10	0.8973856
24	0xbf25f406	-0.64825475
25	0x3f25902e	0.64673126
26	0x3f68dd7b	0.9096295
27	0xc0239238	-2.5557995
28	0xbf29956e	-0.66243637
29	0xbd4cbe06	-0.049985908
30	0x3e415fdd	0.18884225
31	0xbf758eee	-0.9592122
32	0xbfbc044c	-1.4688811
33	0x3f9f9268	1.2466555
34	0x3fecd65c	1.8502917
35	0x3f586f7f	0.8454513
36	0x3fa22fca	1.2670834
37	0xbf0c28d6	-0.5474981
38	0x3f894311	1.0723592
39	0xbfb68530	-1.4259396
40	0xbd9afe44	-0.075680286
41	0xc03186df	-2.7738569
42	0x3fe987b5	1.824454
43	0xbffa62e3	-1.9561428
44	0xbd88c961	-0.06679035
45	0xbef9a40d	-0.48757973
46	0xbf2c3457	-0.67267364
47	0x3e82e519	0.25565413
48	0xbf7b64a3	-0.98200434
49	0x3fbf1d6d	1.4930855
50	0x3fbc2aa1	1.4700509
51	0xbf1189ea	-0.56851065
52	0x3eab0141	0.33399394
53	0xbf0bbbfc	-0.54583716
54	0xc01cab14	-2.4479418
55	0xbe4cbd56	-0.19994101
56	0xbfc6a11b	-1.5517915
57	0x3f5921e8	0.8481736
58	0xbf8f73e4	-1.1207242
59	0xbed8c735	-0.42339483
60	0xbed5eede	-0.41783804
61	0xbfe7ef81	-1.8119966
62	0x3ff00658	1.8751936
63	0x3fd523b8	1.6651525
64	0xbfcb649c	-1.5890079
65	0x3ff27cfd	1.8944393
66	0x3fd77fae	1.683584
67	0x3f9947f6	1.1975086
68	0x3f36cc3b	0.7140538
69	0x3db6df81	0.08929349
70	0xbf2d7da6	-0.6776985
71	0xc033ef55	-2.8114827
72	0x400aa37d	2.1662285
73	0x3f4d0e6e	0.8010014
74	0x3ee4d78b	0.44695696
75	0x3f19ce1b	0.60080117
76	0x3f284208	0.65725756
77	0xbecd91ce	-0.40150303
78	0xbe9c9c69	-0.3058808
79	0xbf86ccad	-1.0531212
80	0xbf9f98dd	-1.2468525
81	0x3e36f14d	0.17865486
82	0x3f384a50	0.7198839
83	0xbdbc3196	-0.09189145
84	0x4004201c	2.0644598
85	0x3f231b4a	0.63713515
86	0xbe0816d5	-0.1328996
87	0xbe390a51	-0.18070342
88	0xbf2598eb	-0.6468646
89	0x3f943c9c	1.1580997
90	0xbf5f1943	-0.8714792
91	0x3e98d84e	0.29852527
92	0x3fcd4ab2	1.603842
93	0xbf09f89b	-0.53894967
94	0x3fcff826	1.6247604
95	0x3f5d869b	0.86533517
96	0xbf623a9f	-0.883707
97	0x3f3ffb26	0.749926
98	0x3f8691f4	1.0513291
99	0xbf60fff6	-0.87890565
100	0xbfba20b5	-1.4541231
101	0x3fd95a1a	1.6980622
102	0xbf417ffe	-0.75585926
103	0xbe1ce67d	-0.153223
104	0x3f518da1	0.81856734
105	0x3fe99329	1.8248035
106	0xbda9bdad	-0.08288131
107	0x3dea3ed4	0.11437765
108	0xbfe75955	-1.8074137
109	0x3feaaafc	1.833343
110	0xbf7235ac	-0.94613147
111	0xbc2cb81f	-0.010541945
112	0xbfa8ad42	-1.3177874
113	0xbfea0f83	-1.8285984
114	0xbf5d7c2a	-0.86517584
115	0xbd98b059	-0.07455511
116	0xbffc1123	-1.969273
117	0x3ec50f75	0.38488355
118	0x3f5efb41	0.87102133
119	0xbef8921c	-0.48548973
120	0xbed85199	-0.42249754
121	0x3fcea8f3	1.6145309
122	0x3f5c5407	0.86065716
123	0xbdf4b0cb	-0.11947783
124	0xbf362dd6	-0.7116369
125	0x3d368da1	0.04456866
126	0xbf7f9d75	-0.99849635
127	0x3f70bdca	0.94039595
128	0xc005427e	-2.0821834
129	0xbeb4cced	-0.35312596
130	0xbef07feb	-0.46972594
131	0xbf837957	-1.0271405
132	0x3ec075b0	0.37589788
133	0x3fd183bb	1.6368326
134	0x400f9bd2	2.2438855
135	0xbf5286f0	-0.8223715
136	0xbfe071c3	-1.7534717
137	0x3f83b5d1	1.0289861
138	0x3e7d6e14	0.24749023
139	0xbf9953d1	-1.1978704
140	0x3de29f6e	0.11065565
141	0x3e536bd1	0.20646597
142	0xc00da2a8	-2.2130527
143	0xbf78e624	-0.97226167
144	0x3f939cde	1.1532247
145	0xbf90dbef	-1.1317118
146	0xbf81431a	-1.0098603
147	0xbfa7ccd3	-1.3109382
148	0x3eb11570	0.34586668
149	0xbfe8c5a3	-1.8185314
150	0x3d58590e	0.052819304
151	0xbecc4431	-0.39895776
152	0x3ed119d6	0.40840024
153	0xbf30e871	-0.6910468
154	0x3eb133e3	0.346099
155	0x3d6b25ee	0.05740922
156	0xbfcd7f6d	-1.6054512
157	0x3e7bbbc1	0.24583341
158	0xbf622bda	-0.8834816
159	0x3f0de382	0.55425274
160	0xbf4fdf0b	-0.8119971
161	0xbf1f9e73	-0.6235115
162	0x3f94892f	1.1604365
163	0xbe454e69	-0.19268192
164	0xbf40d7c7	-0.7532925
165	0x3f271845	0.6527141
166	0xbf82488f	-1.0178393
167	0x3f4cddbc	0.8002584
168	0x3f0bcee5	0.5461257
169	0xbea24704	-0.31694806
170	0xbf037912	-0.51356614
171	0x3e39f159	0.18158473
172	0xbf9b0a56	-1.2112529
173	0xbef817fa	-0.48455793
174	0xbf811e74	-1.0087419
175	0x3fc8eb87	1.5696877
176	0x3f27ea12	0.6559154
177	0x3e81e03c	0.2536639
178	0xbe94e0f4	-0.29077876
179	0x3f8b84ea	1.0899937
180	0x3f94dbda	1.1629593
181	0xbecf35da	-0.40470773
182	0xbf90396b	-1.1267523
183	0xbd6d2e8e	-0.057905726
184	0xc0002e31	-2.0028193
185	0xbea2ae03	-0.31773385
186	0xbf061139	-0.5237003
187	0x3e0d4188	0.1379453
188	0xbf5ce21f	-0.86282533
189	0x3fa57454	1.2926126
190	0xc015235a	-2.3302827
191	0xbf4820c0	-0.7817497
192	0xbc4bbf18	-0.012435697
193	0x3d5139d6	0.051080547
194	0xbf942090	-1.1572437
195	0xbedf19f9	-0.43574503
196	0xbf40f53b	-0.7537419
197	0xbf0b89cf	-0.54507154
198	0x3f8a6c98	1.081439
199	0xbfa270b3	-1.2690643
200	0xbe985f02	-0.29759985
201	0xbedcb234	-0.43104708
202	0xbfa73225	-1.3062178
203	0xbd95ed1f	-0.07320618
204	0xbe13e149	-0.14441408
205	0x3f1195af	0.56869024
206	0x3f27c561	0.6553555
207	0xbef3020e	-0.47462505
208	0x3e43e6aa	0.1913096
209	0x3feab114	1.833529
210	0x3f82aa0b	1.0208143
211	0xbf36f21d	-0.71463186
212	0x3ffee5d4	1.9913888
213	0x3d0b29ee	0.033975534
214	0xbce95d84	-0.028486975
215	0xbff6f8d5	-1.9294688
216	0x3e9dde89	0.30833843
217	0xbf623227	-0.88357776
218	0x3e64d75a	0.22347775
219	0x3efe638b	0.4968532
220	0xbe4b7d47	-0.19872008
221	0xbeac3c3a	-0.336397
222	0x3ef0b575	0.4701344
223	0xbf9b0b5c	-1.2112842
224	0x3dfa85eb	0.12232574
225	0x3ea88cd5	0.32919946
226	0x3f93d174	1.1548295
227	0x3fa552a3	1.2915844
228	0x3f12ca86	0.57340276
229	0xbe542493	-0.20717077
230	0xbf794416	-0.97369516
231	0x3f52ef11	0.82396036
232	0x3f31c022	0.69433796
233	0xbebb30c0	-0.3656063
234	0xbfbf7fb8	-1.4960852
235	0xbd5bc3ed	-0.053653646
236	0x3f276ea3	0.65403193
237	0x3fbae780	1.4601898
238	0xbfa8fe7f	-1.3202666
239	0x40252b4c	2.5807676
240	0x3f600aaf	0.875163
241	0xbe672b83	-0.22575192
242	0x3f0e3c6d	0.5556095
243	0x3f5262d6	0.8218206
244	0xbdd50215	-0.10400788
245	0xbeb5c534	-0.35502017
246	0x3fe6cb5b	1.8030809
247	0x3fe92004	1.8212895
248	0xbd366382	-0.04452849
249	0x3fd97093	1.698748
250	0xbfada50b	-1.3565992
251	0xbf97a832	-1.1848204
252	0xbfc7b86a	-1.5603154
253	0x3fd16f94	1.6362176
254	0xbfdd95ac	-1.7311301
255	0x3f2b69fa	0.6695858

conv1.weight f4 [16, 128, 5]
0	0xbd773a7b	-0.060358506
1	0xbdc0d373	-0.09415331
2	0xbe75eba8	-0.24015677
3	0xbd8187e4	-0.06324747
4	0xbdf5eb14	-0.12007728
5	0x3c69e77b	0.014276381
6	0x3dcbffa6	0.099608704
7	0x3c8f7874	0.017513491
8	0x3d99d173	0.075106524
9	0x3c258c55	0.010104259
10	0x3d8a6e6c	0.067593426
11	0x3dec12b7	0.11527007
12	0x3da3d2e0	0.079992056
13	0xbe3e2623	-0.18569236
14	0x3de42390	0.111395955
15	0x3e171a0b	0.14756028
16	0xbd51d655	-0.051229794
17	0xbd486143	-0.04892088
18	0xbdd449ff	-0.10365676
19	0x3de30809	0.11085517
20	0xbc8194ea	-0.015818078
21	0xbde20b74	-0.11037341
22	0xbd82d5f4	-0.063884646
23	0xbcb0030c	-0.021485828
24	0x3dfb952d	0.122843124
25	0xbd49d0da	-0.049271442
26	0x3e1676ba	0.14693728
27	0x3d955a12	0.0729257
28	0xbed3b277	-0.41347095
29	0x3bb9665a	0.005657953
30	0x3e68269c	0.22670978
31	0x3bf3dce0	0.007442102
32	0x3e1a07f5	0.15042098
33	0x3c23a69d	0.009988454
34	0x3ce5f35a	0.02807014
35	0xbd3e5c69	-0.046474848
36	0x3d81b2b7	0.06332915
37	0x3e2304a5	0.1591974
38	0xbd2d6f56	-0.042342506
39	0x3e17f032	0.14837721
40	0xbd8a3f80	-0.06750393
41	0xbd79e19e	-0.06100618
42	0xbd3bdc66	-0.045864485
43	0x3dd60430	0.104500175
44	0x3d92cee9	0.07168371
45	0xbdec3729	-0.115339585
46	0xbd1e0d76	-0.038587056
47	0x3e16a655	0.14711888
48	0xbe5cef37	-0.21575628
49	0xbc759e94	-0.014991421
50	0x3dbd43f6	0.09241478
51	0x3d9934c6	0.07480769
52	0xbe169089	-0.14703573
53	0x3d941bc8	0.07231861
54	0xbe19b0da	-0.1500887
55	0xbe474309	-0.19459166
56	0xbde15243	-0.11002018
57	0xbe83fcb0	-0.25778723
58	0xbdea6022	-0.11444117
59	0x3db11135	0.0864586
60	0xbde0db68	-0.109793484
61	0xbe298c77	-0.1655749
62	0xbd7cd1b0	-0.06172341
63	0x3d4d290a	0.050087966
64	0x3dfe14e2	0.12406327
65	0x3d595b38	0.05306551
66	0xbdf683dc	-0.12036869
67	0xbd0d0deb	-0.0344371
68	0x3db7e6d2	0.08979572
69	0xbd581dd2	-0.052762814
70	0x3e8de404	0.27713025
71	0x3b09ee63	0.002104663
72	0xbddff340	-0.10935068
73	0x3d8db552	0.0691935
74	0x3bc55337	0.006021883
75	0x3dff3f26	0.124632165
76	0xbea6eccb	-0.32602534
77	0xbe087c39	-0.13328637
78	0xbe43dd83	-0.19127469
79	0x3e0c7e0d	0.1371996
80	0x3e45a556	0.19301352
81	0xbcb93f7f	-0.022613285
82	0xbe161087	-0.14654742
83	0x3c1b1e01	0.009467603
84	0x3d960c41	0.07326556
85	0xbeb17967	-0.34662935
86	0xbd7f31ae	-0.062303238
87	0x3d8635ae	0.06553207
88	0xbe10dff0	-0.14147925
89	0xbdbbac77	-0.091637544
90	0x3e3e2252	0.1856778
91	0x3de055f8	0.10953897
92	0x3df57eb8	0.1198706
93	0xbe12ccb8	-0.14335907
94	0xbc6952bd	-0.014240918
95	0xbe1c2225	-0.152474
96	0xbc902ec6	-0.017600428
97	0xbd63f471	-0.05565304
98	0xbda623ca	-0.08112295
99	0x3df83abb	0.12120577
100	0x3e7a5fa6	0.2445055
101	0xba0563a0	-0.00050883926
102	0xbe12f8eb	-0.14352767
103	0x3c78118b	0.015140901
104	0xbda35062	-0.07974316
105	0x3e22702b	0.15863101
106	0x3c904272	0.017609809
107	0x3d80eeb2	0.062955275
108	0xbe3dabf2	-0.18522623
109	0x3c9e8833	0.019352054
110	0x3a43d1d1	0.0007469925
111	0xbe01c851	-0.12674071
112	0xbe2e07f1	-0.16995217
113	0xbdd85052	-0.10562195
114	0x3d9b6988	0.07588488
115	0x3e47807d	0.19482608
116	0x3da066a3	0.078320764
117	0x3e2d4e6b	0.16924445
118	0x3df5b0f6	0.11996643
119	0xbd07194a	-0.032983102
120	0xbb9410bc	-0.0045185965
121	0xbc5b5d99	-0.013389015
122	0x3d5b0e85	0.053480644
123	0x3c7b9e5e	0.015357582
124	0xbd2f870b	-0.042853396
125	0xbcfc2682	-0.03078008
126	0xbc6af0fb	-0.014339681
127	0xbdd14708	-0.10218626
128	0x3d4f712e	0.050645046
129	0xbb0094e6	-0.001962
130	0x3e3d2641	0.18471624
131	0x3e00fd94	0.12596732
132	0x3c77bea7	0.015121139
133	0x3e55ee9d	0.20891805
134	0x3c748ce8	0.014926173
135	0x3e11b4e6	0.14229164
136	0x3bbb6319	0.0057186005
137	0x3d8407a2	0.06446768
138	0x3e7dcb26	0.24784526
139	0x3d44c11f	0.048035737
140	0x3e26750e	0.1625559
141	0xbe5fdbad	-0.21861143
142	0xbe0cdc65	-0.13755949
143	0x3d52293c	0.051308855
144	0xbd8fe58e	-0.07026206
145	0x3c945f81	0.018111946
146	0xbe6a112c	-0.22858113
147	0xbe3fca9c	-0.18729633
148	0xbb5303b9	-0.0032198264
149	0x3e087a88	0.13327992
150	0x3d4494f3	0.04799361
151	0xbe0423fe	-0.12904355
152	0xbe761af0	-0.24033713
153	0xbe4a0a91	-0.19730593
154	0x3d46a751	0.04849941
155	0x3d9e8d03	0.077417396
156	0xbe0229a4	-0.12711197
157	0xbd2c08dd	-0.04200064
158	0x3dff85ed	0.12476716
159	0xbd048791	-0.03235585
160	0x3dfa8441	0.12232257
161	0xbdd1a3d6	-0.10236327
162	0x3d426281	0.047457222
163	0xbe041cac	-0.12901562
164	0x3d751420	0.059833646
165	0xbe0e257a	-0.13881484
166	0xbda01d0f	-0.078180425
167	0x3e310576	0.1728724
168	0xbdc2bf10	-0.095090985
169	0x3e0aabfc	0.1354217
170	0x3e2554b8	0.16145599
171	0x3ce9dfdb	0.028549125
172	0x3d5060cb	0.05087356
173	0x3ea878ac	0.32904565
174	0x3d5569bb	0.052102786
175	0x3c5291d7	0.012852154
176	0x3d3cd981	0.046105865
177	0x3e5b62b3	0.2142437
178	0xbdcb9728	-0.0994094
179	0x3e04b48f	0.12959503
180	0xbe0210be	-0.12701699
181	0x3e171f87	0.1475812
182	0x3dcde52f	0.10053479
183	0xbc4f41a6	-0.012649929
184	0xbd94fe5a	-0.07275076
185	0xbdeedf59	-0.11663694
186	0x3d25070b	0.04028992
187	0x3d3be690	0.04587418
188	0x3d82bf04	0.063840896
189	0xbd847929	-0.06468422
190	0xbe1a27a8	-0.1505419
191	0xbdfa9fbe	-0.122375
192	0x3d8c4172	0.0684842
193	0xbd14a266	-0.036287688
194	0x3d822770	0.06355178
195	0xbde4e7bb	-0.111770116
196	0xbdc10616	-0.09424989
197	0xbea0d810	-0.31414843
198	0x3d4e1bd6	0.050319515
199	0xbce81db5	-0.028334478
200	0x3e569354	0.20954639
201	0xbe21d708	-0.15804684
202	0xbe081d23	-0.13292365
203	0xbd834079	-0.064087816
204	0x3ddcf95e	0.107897505
205	0x3df438e5	0.11924914
206	0xbd23fb95	-0.04003485
207	0xbe0f8919	-0.14017142
208	0xbd191089	-0.037369285
209	0x3da5d6b4	0.08097592
210	0xbdf3aee0	-0.11898589
211	0xbcb51619	-0.022105264
212	0xbcd67be6	-0.026182126
213	0xbcec7bbc	-0.028867595
214	0x3d803b5b	0.06261321
215	0x3e992d86	0.29917544
216	0xbcc67797	-0.024226947
217	0x3d5fed10	0.05466944
218	0x3de43823	0.1114352
219	0xbdd939f6	-0.10606758
220	0xbc8aeb9f	-0.016958056
221	0xbd17497a	-0.036935307
222	0xbdd773e0	-0.10520148
223	0xbd0b5a6c	-0.03402178
224	0x3c831c69	0.016004758
225	0x3de868ef	0.113481395
226	0x3e140104	0.14453512
227	0x3db2ec7a	0.087365106
228	0xbe33c5c7	-0.17555915
229	0xbd434af4	-0.047678903
230	0x3df30c9f	0.11867642
231	0x3d737543	0.059438
232	0x3d2b0eed	0.04176228
233	0x3e8fa022	0.2805186
234	0x3e2c44e4	0.16823155
235	0x3df91c09	0.121635504
236	0xbce1750a	-0.027521629
237	0x3dab743c	0.08371779
238	0x3da0c788	0.078505576
239	0xbd90328c	-0.07040891
240	0x3e218b81	0.15775873
241	0xbc7fe3a4	-0.015618239
242	0xbcaed2c2	-0.021340732
243	0x3e53c4c6	0.20680532
244	0xbd6f032a	-0.058352627
245	0xbe81c826	-0.25348014
246	0xbd2e7cc7	-0.042599466
247	0x3df25c79	0.11834044
248	0xbe2b51a6	-0.16730365
249	0x3e35ef9f	0.1776719
250	0xbe11bd2a	-0.14232317
251	0x3da5177f	0.08061122
252	0xbe1b36af	-0.15157579
253	0x3dfb9741	0.12284709
254	0x3da7e524	0.08198002
255	0x3bc7c609	0.0060966057

conv1.bias f4 [16]
0	0xbda6ff08	-0.08154112
1	0xbe1e8d50	-0.15483594
2	0x3cfd9c6e	0.03095838
3	0xbe2533fc	-0.16133112
4	0xbe604518	-0.21901357
5	0xbe7a0914	-0.24417526
6	0xbe28f41e	-0.16499373
7	0xbe040ce4	-0.12895542
8	0xbdb16062	-0.08660962
9	0xbdd784d7	-0.10523384
10	0xbe119725	-0.14217813
11	0xbda31d51	-0.07964576
12	0xbe464416	-0.1936191
13	0xbdab5a70	-0.08366859
14	0xbea396b4	-0.31950915
15	0x3bc18a8d	0.005906409

conv2.weight f4 [16, 128, 3]
0	0xbe0f6eb0	-0.14007068
1	0xbb50d688	-0.0031866152
2	0x3de86e38	0.113491476
3	0xbce593e1	-0.028024616
4	0x3e2209e0	0.1582408
5	0x3d76e729	0.060279045
6	0x3e62b8f0	0.2214086
7	0xbd750c5a	-0.059826232
8	0xbe0f4165	-0.1398979
9	0x3e14b1c0	0.14520931
10	0x3e5e7614	0.2172473
11	0x3e1c134e	0.15241739
12	0xbbaf6c98	-0.0053535216
13	0x3e69a6c6	0.22817525
14	0xbdd7a8d3	-0.105302475
15	0xbebf5eaa	-0.3737691
16	0xbcc56796	-0.024097245
17	0xbd332736	-0.043738566
18	0x3d200afb	0.03907297
19	0x3dd4923a	0.10379453
20	0x3e4fb32e	0.20283195
21	0xbe01cd26	-0.12675914
22	0x3d945a57	0.072437935
23	0x3cf6764a	0.030085701
24	0x3e0306fe	0.12795636
25	0x3da14bc1	0.07875777
26	0x3e5db424	0.2165075
27	0xbceb13a8	-0.028695896
28	0x3c3f2919	0.011667513
29	0xbea63f0b	-0.32469973
30	0x3b97c7c1	0.004631967
31	0xbc3609d3	-0.011110741
32	0x3db08c89	0.08620555
33	0x3e2e21e4	0.17005116
34	0xbe6c3a01	-0.23069002
35	0xbe456182	-0.19275478
36	0x3dafebaf	0.08589875
37	0xbd7850bf	-0.06062388
38	0xbe1b85d1	-0.15187766
39	0x3dbb347e	0.091408715
40	0x3d0e3997	0.03472289
41	0x39c467e4	0.00037461438
42	0xbd6629b6	-0.056192122
43	0x3e1487a6	0.14504871
44	0x3cc3060d	0.023806596
45	0x3e666093	0.22497778
46	0x3c6f3e12	0.014602201
47	0xbd2581ce	-0.040406995
48	0xbe5072a1	-0.20356227
49	0xbd05e7d9	-0.03269181
50	0x3d18fcce	0.03735047
51	0xbe9dc93f	-0.308176
52	0x3d886b08	0.066610396
53	0x3c505e70	0.012717828
54	0xbd8e120e	-0.069370374
55	0x3c6a4837	0.014299444
56	0xbe98e43e	-0.29861635
57	0x3e71b011	0.2360232
58	0xbe3cfe0f	-0.1845629
59	0xbdfb250d	-0.12262926
60	0x3d8da104	0.06915477
61	0x3cce1442	0.025156144
62	0xbda819ba	-0.08208032
63	0xbb82fdcf	-0.0039975415
64	0x3ddace40	0.1068387
65	0x3d526273	0.05136342
66	0xbbb0845c	-0.005386872
67	0x3de21f3e	0.11041115
68	0xbda13a16	-0.07872407
69	0x3bd78e46	0.0065782396
70	0x3d2a2509	0.041539226
71	0xbe333f07	-0.17504512
72	0xbcffbe88	-0.031218782
73	0xbdbebe3e	-0.093136296
74	0xbdad3ef5	-0.08459274
75	0xbe8e84bf	-0.27835652
76	0xbe52912b	-0.2056319
77	0xbe98a32f	-0.29812
78	0xbda92a1f	-0.08259987
79	0x3dd88aa4	0.105733186
80	0xbe5e2c5e	-0.21696612
81	0xbe0162d9	-0.12635364
82	0xbd28607b	-0.041107636
83	0xbc30bc01	-0.010787011
84	0x3dd94860	0.106095076
85	0xbda36555	-0.07978312
86	0x3e02782f	0.12741159
87	0xbdd39669	-0.10331423
88	0x3e068f67	0.13140641
89	0xbea9af58	-0.3314159
90	0x3da1b5e8	0.07896024
91	0xbe194d4e	-0.14970896
92	0xbe78b88d	-0.2428915
93	0xbe2959d0	-0.16538167
94	0xbca5abf4	-0.020223595
95	0xbdcaac45	-0.09896139
96	0xbd77289d	-0.060341466
97	0x3d9146e0	0.070935965
98	0xbd669018	-0.056289762
99	0x3d51fe4f	0.05126792
100	0xbe93ecaa	-0.28891498
101	0xbd6ee45f	-0.05832326
102	0x3e378a14	0.17923766
103	0x3de4a218	0.111637294
104	0xbc1f963d	-0.009740409
105	0xbe5968d1	-0.2123139
106	0xbcb26052	-0.021774445
107	0xbdb93644	-0.090435535
108	0xbe337527	-0.17525159
109	0xbccc1122	-0.024910513
110	0xbe8032b1	-0.25038674
111	0x3e69840f	0.22804283
112	0xbb864150	-0.0040971413
113	0x3e0fcad7	0.14042221
114	0xbe47a5d8	-0.19496858
115	0x3dc51d21	0.096246965
116	0x3dc0cbc4	0.09413865
117	0xbea8d88c	-0.32977712
118	0x3e0919ce	0.1338875
119	0xbde25d9c	-0.11053011
120	0xbe0bf630	-0.13668132
121	0x3cba92c6	0.022775065
122	0xbeaeae23	-0.3411723
123	0x3d542872	0.051796384
124	0x3dafb9a6	0.085803315
125	0x3d870344	0.0659242
126	0x3e192404	0.14955145
127	0x3d956ff3	0.07296743
128	0xbd8e47a9	-0.06947262
129	0xbd690df6	-0.05689808
130	0xbce2f34a	-0.0277039
131	0xbd02ea22	-0.031961568
132	0xbd804126	-0.06262426
133	0x3d60eeb3	0.05491514
134	0x3e07f2f9	0.1327628
135	0x3b5d06b9	0.003372593
136	0x3dd8cb00	0.10585594
137	0xbd4d9846	-0.050194047
138	0xbe36cf9a	-0.17852631
139	0xbe21411c	-0.15747494
140	0x3e27fdd6	0.16405424
141	0x3e090395	0.13380273
142	0xbe0aa0c7	-0.13537894
143	0xbde0e27e	-0.109807
144	0x3d760572	0.060063787
145	0xbdda731a	-0.10666485
146	0xbd58721a	-0.05284319
147	0xbca609a3	-0.020268267
148	0xbd7e8511	-0.06213862
149	0xbe7a283d	-0.24429412
150	0xbe25b5ed	-0.1618268
151	0x3c025c30	0.0079565495
152	0x3e019e12	0.12657955
153	0xbd9683ea	-0.07349379
154	0xbd4f2d58	-0.050580353
155	0x3dbd5536	0.09244768
156	0xbd3ab59c	-0.045583352
157	0x3e44b1e3	0.19208483
158	0x3dad1ea4	0.0845311
159	0xbe6a225b	-0.22864668
160	0xbb9809a2	-0.00463982
161	0xbdcea63a	-0.10090299
162	0x3dabe1c3	0.0839267
163	0xbd9d651e	-0.07685302
164	0x3dc30b5f	0.09523653
165	0x3da82876	0.08210842
166	0xbe90b7e2	-0.2826529
167	0xbe93a4cc	-0.28836668
168	0x3b1ecfa8	0.002423266
169	0x3da0848c	0.07837781
170	0xbdce6c8a	-0.10079296
171	0xbdc907f7	-0.09815972
172	0xbdbd2274	-0.09235087
173	0x3d9828ca	0.07429655
174	0xbe93b7cc	-0.28851163
175	0xbe11f5f3	-0.14253978
176	0xbda7def2	-0.0819682
177	0xbd9dcb99	-0.07704849
178	0x3aa88938	0.0012858277
179	0x3e436634	0.19081956
180	0x3dd73698	0.1050846
181	0x3c8b0783	0.016971355
182	0xbe8d7f2e	-0.27636093
183	0xbdd4955d	-0.10380051
184	0xbd68b901	-0.05681706
185	0xbd062b02	-0.03275586
186	0xbe628fdd	-0.22125192
187	0x3dfaffad	0.122557975
188	0xbe663522	-0.22481206
189	0xbc323ce5	-0.010878776
190	0x3d7342f3	0.05939002
191	0x3e17f5be	0.14839837
192	0xbbaa4ffb	-0.0051975227
193	0x3d7a32f1	0.061083738
194	0x3df77bdd	0.12084172
195	0x3b15dae8	0.0022866074
196	0x3d78b76b	0.060721796
197	0x3d91939e	0.07108234
198	0x3e8e7a62	0.27827746
199	0x3c3b05b1	0.011414931
200	0xbdd32853	-0.103104256
201	0x3dd65b69	0.10466654
202	0x3d6b3a33	0.05742855
203	0x3e71d625	0.23616846
204	0xbcf4651a	-0.029833365
205	0xbd2c505a	-0.042068817
206	0xbd2b5bb1	-0.04183549
207	0x3e3f711a	0.18695489
208	0xb8f18a14	-0.000115174946
209	0xbada16b3	-0.0016638845
210	0xbe825f60	-0.2546339
211	0xbc96baef	-0.018399684
212	0xbcf62e61	-0.030051412
213	0x3df18bc8	0.11794239
214	0x3d5b770d	0.053580333
215	0x3cddf163	0.027092641
216	0x3d8a6078	0.06756681
217	0x3d160b22	0.03663171
218	0x3e17f2af	0.1483867
219	0x3da6a261	0.0813644
220	0x3e3f1bd9	0.18662967
221	0x3e2302d2	0.15919045
222	0xbccaa191	-0.024735244
223	0xbde15277	-0.11002057
224	0xbad4748f	-0.0016209054
225	0x3d88c83b	0.06678816
226	0xbdadfda0	-0.08495641
227	0xbddf21a2	-0.10895087
228	0x3e389abb	0.18027775
229	0xbdb6ffc3	-0.089355014
230	0xbe003821	-0.12521411
231	0xbdf6aa31	-0.1204418
232	0xbe2d9f98	-0.16955411
233	0x3db6e0d0	0.08929598
234	0x3ce90709	0.028445737
235	0x3ba5ac01	0.005055905
236	0xbe3c6b15	-0.18400224
237	0xbdda3268	-0.106541455
238	0xbc85ba2a	-0.016324122
239	0x3854eb96	5.0764145e-05
240	0x3e6e76aa	0.23287454
241	0x3da6b614	0.081401974
242	0x3d4b441a	0.049625494
243	0xbc51dbda	-0.012808764
244	0xbd5e841f	-0.05432522
245	0x3e9b774d	0.30364457
246	0xbe2130c6	-0.15741262
247	0x3d85a3e8	0.06525403
248	0x3e181f0e	0.14855596
249	0xbe489686	-0.1958867
250	0x3d7244f0	0.059147775
251	0x3d7bd3e2	0.061481364
252	0xbd4e3c02	-0.050350197
253	0xbd783f08	-0.060606986
254	0xbdf6b8e5	-0.120469846
255	0x3db714dc	0.089395255

conv2.bias f4 [16]
0	0xbe6f8827	-0.23391782
1	0xbdbafd19	-0.09130306
2	0x3e716570	0.23573852
3	0xbe5aa69a	-0.21352616
4	0xbe817adf	-0.25289056
5	0x3c25e07d	0.010124323
6	0xbe93d47a	-0.28873044
7	0x3e6f2e6d	0.23357554
8	0xbe3f49ce	-0.18680498
9	0xbddcf9db	-0.10789844
10	0xbcef46a1	-0.029208483
11	0x3d375bca	0.04476527
12	0xbc3f3980	-0.011671424
13	0xbce523ef	-0.027971236
14	0xbda9f2b8	-0.08298248
15	0xbdb62f2a	-0.088957146

conv3.weight f4 [256, 32, 5]
0	0xbe27a4ad	-0.16371413
1	0x3de7f721	0.11326433
2	0x3d9e434d	0.0772768
3	0xbe30f511	-0.17280985
4	0x3dca1a0b	0.098682486
5	0xbccd7ddd	-0.02508443
6	0x3e2dd843	0.16977029
7	0xbe04f6fc	-0.12984842
8	0x3e281698	0.16414869
9	0xbe8dd761	-0.27703384
10	0x3d74711b	0.05967818
11	0xbda060a4	-0.07830933
12	0xbe777727	-0.24166547
13	0x3e006cd1	0.1254151
14	0x3e2294c8	0.15877068
15	0x3e686e49	0.2269832
16	0xbdd1c8b5	-0.1024336
17	0xbdecd2d4	-0.1156365
18	0xb8ed4d73	-0.00011315467
19	0xbdf46085	-0.11932472
20	0x37670738	1.3770354e-05
21	0x3e1ef6b0	0.15523791
22	0xbd0faf6c	-0.035079405
23	0x3cefc3f5	0.029268244
24	0x3def3a03	0.11680987
25	0xbe06034a	-0.13087192
26	0xbdb6cf3d	-0.08926246
27	0x3e26903f	0.16265963
28	0x3db206f4	0.086927325
29	0xbe09cfba	-0.13458148
30	0xbeaeba26	-0.34126395
31	0x3d7f24a4	0.062290803
32	0x3d22bc96	0.03973063
33	0xbdcdb063	-0.10043409
34	0xbe5440f0	-0.20727897
35	0xbd321ded	-0.04348557
36	0x3dd7caf1	0.10536755
37	0x3cc3b5de	0.023890432
38	0x3cceb1aa	0.025231201
39	0xbe4ccde8	-0.20000422
40	0xbcaff115	-0.021477262
41	0xbe3bb506	-0.18330774
42	0xbd432ddd	-0.04765116
43	0x3dd6ba61	0.10484768
44	0x3dd2567f	0.10270404
45	0xbe7a1ddd	-0.24425454
46	0xbee00020	-0.43750095
47	0x3d876147	0.06610351
48	0xbe0b28b0	-0.1358974
49	0xbd976e79	-0.07394118
50	0x3d2512f2	0.04030127
51	0x3c3bea54	0.011469442
52	0x3daf2794	0.08552471
53	0xbdc1c492	-0.09461321
54	0xbe2836be	-0.16427132
55	0xbd25449f	-0.040348645
56	0xbde53f17	-0.11193674
57	0xbe509bba	-0.20371905
58	0x3c27eb51	0.010248975
59	0xbe7ea22f	-0.24866556
60	0xbdca3256	-0.09872882
61	0xbdd6c167	-0.10486107
62	0x3cbd6bc8	0.023122683
63	0xbb3709e3	-0.0027929477
64	0x3e1e57f6	0.15463242
65	0x3d6303b4	0.055423453
66	0x3b2e439c	0.0026590591
67	0x3e1a507c	0.15069765
68	0xbe41ff5a	-0.18945065
69	0xbd7ab8e9	-0.0612115
70	0x3d9d5d31	0.076837905
71	0x3e375168	0.17902148
72	0x3de67d97	0.11254423
73	0x3e3e5c08	0.18589795
74	0xbc0c0870	-0.0085469335
75	0x3d4379a3	0.047723424
76	0x3dd6e4ff	0.10492896
77	0xbe1510b5	-0.14557154
78	0xbe1d2759	-0.15347041
79	0xbe8a487c	-0.27008426
80	0xbdbde123	-0.09271457
81	0xbd968363	-0.07349279
82	0xbe192cdd	-0.1495852
83	0xbd2f71f3	-0.04283328
84	0x3da8bde7	0.08239346
85	0xbd10c0a3	-0.035339963
86	0xbe34ce7a	-0.1765689
87	0x3e863ef1	0.26219895
88	0xbda3f605	-0.08005909
89	0x3bd9f188	0.006651107
90	0x3d58ccd6	0.05292972
91	0xbda462cb	-0.08026656
92	0x3d77e922	0.060525067
93	0xbdd6f665	-0.10496215
94	0x3c2970eb	0.010341863
95	0xbe35f426	-0.17768916
96	0xbdbc62ce	-0.09198533
97	0x3b01313a	0.001971318
98	0xbd42e410	-0.04758078
99	0x3dc423b5	0.09577123
100	0x3e2fb4c5	0.17158802
101	0x3d85a712	0.06526007
102	0xbd6b00e7	-0.057373907
103	0x3e170e71	0.14751603
104	0xbe8c9242	-0.27455336
105	0x3d2c2bb8	0.04203388
106	0x3e95b636	0.29240578
107	0xbb38b838	-0.0028185975
108	0x3e2a714e	0.16644785
109	0xbdd70c7b	-0.10500427
110	0x3dadb63d	0.08482025
111	0x3d2e4472	0.042545743
112	0x3bdccf08	0.0067385472
113	0xbd23255d	-0.039830554
114	0xbe95cf80	-0.29259872
115	0x3e157c8a	0.14598289
116	0x3e44ce9d	0.19219442
117	0xbbc937cd	-0.006140685
118	0x3dbfa1df	0.09357046
119	0xbc359dab	-0.011084954
120	0x3e857fbe	0.26074022
121	0x3e2e6621	0.17031147
122	0x3db80510	0.089853406
123	0x3d91a2b3	0.071111105
124	0x3cf1984c	0.029491566
125	0xbde5c3f2	-0.11219014
126	0xbcce26d3	-0.025164997
127	0xbe946be7	-0.28988573
128	0x3dec2297	0.11530035
129	0xbea4d438	-0.3219316
130	0xbddb24fb	-0.10700413
131	0xbe792e16	-0.24333987
132	0xbca9c932	-0.02072582
133	0x3de8bf35	0.11364595
134	0xbec90f8b	-0.3926967
135	0x3ccbadb6	0.024863105
136	0x3af2fe6d	0.001853896
137	0x3d406f94	0.04698141
138	0x3af16716	0.0018417563
139	0x3dbc874b	0.092054926
140	0xb8937eba	-7.033111e-05
141	0x3dfaf085	0.12252907
142	0x3df12f8e	0.117766485
143	0x3c34f546	0.011044806
144	0x3e265d02	0.16246417
145	0xbe140e66	-0.14458618
146	0x3d0d51ab	0.034501713
147	0xbe434910	-0.1907084
148	0x3e2cd461	0.16877891
149	0xbe427b1b	-0.18992274
150	0xbda3102d	-0.0796207
151	0xbe3d6e3c	-0.18499082
152	0xbe5599a4	-0.2085939
153	0xbde725d5	-0.11286513
154	0xbe763430	-0.24043345
155	0x3ddde952	0.10835518
156	0xbcee8890	-0.029117852
157	0x3d3b8531	0.045781318
158	0x3e2bb1f0	0.16767097
159	0xb986a225	-0.0002567928
160	0x3d666de7	0.056257155
161	0xbda10e19	-0.07864017
162	0x3e3439d6	0.17600188
163	0xbcd13c60	-0.025541484
164	0xbd7640d2	-0.06012041
165	0xbe3aca27	-0.18241177
166	0xbd18fcd3	-0.037350487
167	0xbd474e3f	-0.048658606
168	0x3d1b9a8d	0.037989188
169	0xbe28488e	-0.16433927
170	0x3dbe9c5a	0.093071654
171	0xbdbd2ef3	-0.092374705
172	0x3e1ce744	0.15322596
173	0x3d2efd7e	0.042722218
174	0xbdd6bfd1	-0.10485805
175	0xbddf9b77	-0.109183244
176	0xbe1dbc28	-0.15403807
177	0xbd452db7	-0.0481393
178	0xbb96e6d2	-0.0046051526
179	0xbc317afa	-0.010832543
180	0x3cd66e25	0.026175568
181	0xbbfc8563	-0.0077063306
182	0xbd975afa	-0.07390399
183	0x3db8390d	0.089952566
184	0x3cf9bc23	0.030485218
185	0xbda27725	-0.07932881
186	0xbd34e7fc	-0.04416655
187	0xbe8996f6	-0.26872987
188	0xbe0cb89a	-0.13742295
189	0xbd32214c	-0.043488786
190	0x3de2f6e8	0.1108225
191	0x3e313e93	0.17309026
192	0xbe60e1a9	-0.21961083
193	0x3de1dc1f	0.11028313
194	0xbe6e3b08	-0.23264706
195	0xbbf6d776	-0.007533009
196	0x3ce4f506	0.027948868
197	0x3da3b43c	0.07993361
198	0x3e215859	0.15756358
199	0xbd879ffc	-0.066223115
200	0x3c2e4ed4	0.010638911
201	0xbda3de2e	-0.08001362
202	0xbdb7719b	-0.089572154
203	0x3dd2824e	0.1027876
204	0xbe153e33	-0.14574508
205	0xbe1a7050	-0.15081906
206	0x3d0d9b62	0.034572013
207	0x3da6ebb3	0.08150425
208	0x3db7c227	0.089725785
209	0xbd02ba36	-0.031915866
210	0xbe27f636	-0.16402516
211	0x3dd12ec8	0.10214001
212	0xbddd5445	-0.10807089
213	0xbdebef76	-0.11520283
214	0xbe50ba26	-0.2038351
215	0x3e32c311	0.17457224
216	0x3c9f7bf3	0.019468283
217	0x3b5858e5	0.003301197
218	0x3bbfacb7	0.0058494466
219	0x3e1ea234	0.15491563
220	0xbcf7f9d7	-0.0302705
221	0x3d334611	0.043767992
222	0x3d674023	0.05645765
223	0xbc9adddc	-0.018904619
224	0xbcef6ca3	-0.029226607
225	0xbe5a2d8c	-0.21306437
226	0xbdfcd134	-0.1234459
227	0xbe1f4c6f	-0.15556501
228	0xbcd4cc94	-0.025976457
229	0xbdb06bc6	-0.08614306
230	0xbe4800c7	-0.19531547
231	0xbda380e9	-0.07983572
232	0x3d69fa01	0.057123188
233	0xbe62fd37	-0.22166906
234	0xbd985b06	-0.07439236
235	0xbe4d9447	-0.20076095
236	0xba9cb221	-0.0011954942
237	0x3dc05bc9	0.09392507
238	0xbe3cb145	-0.18426998
239	0xbdd39650	-0.10331404
240	0xbe0d8898	-0.13821638
241	0xbe660914	-0.224644
242	0x3dba227d	0.09088609
243	0x3cac6d79	0.021048294
244	0xbddf78e8	-0.10911733
245	0x3d639d4b	0.05556993
246	0xbd4346c0	-0.047674894
247	0x3cc36ac7	0.023854626
248	0xbca4c8d7	-0.0201153
249	0xbe59afe2	-0.212585
250	0xbc8a8c9b	-0.016912749
251	0x3dad38c9	0.084580965
252	0xbcf681e5	-0.030091235
253	0x3b27fe86	0.0025633886
254	0xbd159079	-0.036514733
255	0xbd93cb51	-0.07216514

conv3.bias f4 [256]
0	0xbe08a289	-0.13343252
1	0xbe2c3bb6	-0.16819653
2	0x3debe1c2	0.11517669
3	0x3d99e656	0.07514636
4	0xbe7f3e91	-0.24926211
5	0xbee58a25	-0.44831958
6	0xbd86c0a8	-0.06579715
7	0xbba11763	-0.004916118
8	0xbdb67189	-0.08908374
9	0x3d3c5d34	0.045987323
10	0xbe862914	-0.26203215
11	0xbbee5b93	-0.0072741
12	0xbbd569b9	-0.0065128473
13	0xbda8002f	-0.0820316
14	0xbd31f76a	-0.043448843
15	0x3e4feb4d	0.20304604
16	0xbd540cf4	-0.051770166
17	0xbe7c441b	-0.24635355
18	0xbad6afbe	-0.001637928
19	0xbe6287ce	-0.22122118
20	0xbdc74afb	-0.09731098
21	0xbdf4c27e	-0.11951159
22	0xbe4ddf64	-0.20104748
23	0xbded3717	-0.11582773
24	0xbe2094fa	-0.1568183
25	0xbc467908	-0.012113817
26	0xbe0cd1dd	-0.13751931
27	0x3d8f8f71	0.07009781
28	0xbe43c46d	-0.19117899
29	0xbd41615f	-0.047212
30	0xbe454f5e	-0.19268557
31	0xbe2f0774	-0.17092687
32	0x3dbbdcfe	0.0917301
33	0xbde588b3	-0.11207714
34	0xbe46634d	-0.19373818
35	0x3d9fbe18	0.077999294
36	0x3c24454a	0.010026285
37	0x3de45fc0	0.11151075
38	0xbe1992c8	-0.14997399
39	0xbe1c03ad	-0.15235777
40	0xbe9cce63	-0.3062621
41	0xbde58bb7	-0.11208289
42	0x3b7a5037	0.0038194784
43	0xbd537091	-0.051621024
44	0xbe229fce	-0.15881273
45	0xbea1ff5b	-0.31640133
46	0xbe359758	-0.17733514
47	0xbe0cc841	-0.13748266
48	0x3993c1a0	0.00028182287
49	0x3df0902e	0.1174625
50	0xbe1edfc7	-0.15515052
51	0x3e0ee463	0.1395431
52	0x3e545851	0.20736815
53	0xbdbf2bef	-0.093345515
54	0x3de777cc	0.11302146
55	0xbdf84025	-0.121216096
56	0xbd80101a	-0.06253071
57	0xbce43016	-0.02785496
58	0x3e62775e	0.22115847
59	0x3dde8ffe	0.10867308
60	0xbe98ba84	-0.298298
61	0xbd1a434d	-0.03766184
62	0x3d808d16	0.0627691
63	0xbdb97535	-0.090555586
64	0xbe825d02	-0.25461584
65	0xbe53fea6	-0.2070261
66	0xbc491e2f	-0.012275263
67	0x3d43076e	0.047614507
68	0xbe1bc37f	-0.15211295
69	0xbe9dba6e	-0.30806297
70	0xbdca3f63	-0.09875371
71	0xbd69e252	-0.0571006
72	0xbdbde4c3	-0.092721485
73	0x3cdeda3c	0.027203672
74	0x3c827c4d	0.015928412
75	0xbea0a901	-0.3137894
76	0xbcddadea	-0.027060468
77	0xbe74be68	-0.23900759
78	0xbe0642fc	-0.1311149
79	0xbe7bcb0b	-0.24589173
80	0xbe86047d	-0.261753
81	0xbe2497c7	-0.16073523
82	0xbd8bcf1b	-0.068266116
83	0xbe670771	-0.22561432
84	0xbd8ebd94	-0.06969753
85	0xbdb7c849	-0.08973748
86	0x3db6a352	0.0891787
87	0xbe5f2bc7	-0.21794043
88	0xbe9c640c	-0.3054508
89	0xbda7927a	-0.08182235
90	0xbdf71027	-0.12063628
91	0xbda5f1c2	-0.08102752
92	0xbe21943b	-0.15779202
93	0xbe293204	-0.16522986
94	0xbe79b89c	-0.24386829
95	0x3dbaeabe	0.09126805
96	0xbe43a8ac	-0.19107312
97	0xbe4a8942	-0.19778922
98	0x3df3cfb4	0.119048506
99	0xbd928fef	-0.071563594
100	0xbe85130d	-0.25991097
101	0xbe9aaa39	-0.30207995
102	0x3c43b01c	0.011943843
103	0xbcc189ec	-0.023625337
104	0xbe176b98	-0.14787138
105	0xbe852198	-0.26002192
106	0xbe29cde5	-0.16582449
107	0xbe34261b	-0.17592661
108	0xbdb2a6de	-0.08723234
109	0x3e5d271f	0.21596955
110	0xbe861087	-0.26184484
111	0xbe275bf7	-0.16343676
112	0x3da852d0	0.0821892
113	0x3d36521a	0.044511892
114	0xbe29370c	-0.16524905
115	0x3ef54d62	0.479106
116	0xbe634f7b	-0.22198288
117	0xbb174de6	-0.0023087203
118	0xbe994fc1	-0.2994366
119	0xbd3cb044	-0.046066537
120	0xbd8763cb	-0.06610831
121	0xbe2b5fd4	-0.16735774
122	0xbea8327b	-0.32851014
123	0x3e37af89	0.17938055
124	0xbc3e240d	-0.011605275
125	0xbddbb53f	-0.10727929
126	0xbd98a186	-0.07452683
127	0xbe17f728	-0.14840376
128	0xbcb43405	-0.021997461
129	0x3d102a2a	0.03519646
130	0x3d77527b	0.060381394
131	0x3da5ac4b	0.08089503
132	0x3e35950a	0.17732635
133	0x3db73821	0.089462526
134	0xbe92cf3c	-0.28673732
135	0x3da5e2d9	0.080999084
136	0xbd6babe4	-0.057536975
137	0xbe0c5fc5	-0.13708408
138	0x3e09e2e7	0.13465463
139	0x3dd025c6	0.10163455
140	0x3d5b343a	0.053516604
141	0xbe505e46	-0.20348462
142	0xbe12f5b8	-0.14351547
143	0x3d849e52	0.0647551
144	0xbde1eff4	-0.110320956
145	0xbdc28766	-0.094984815
146	0xbd1437da	-0.036186077
147	0xbdab640e	-0.08368693
148	0xbd7c5131	-0.061600868
149	0xbd8bb4c4	-0.06821588
150	0xbe3723f8	-0.17884815
151	0xbe8d2533	-0.27567443
152	0xbe0404f7	-0.12892519
153	0xbc4b767d	-0.0124183865
154	0xbde047a7	-0.109511666
155	0x3e1b480d	0.15164204
156	0xbd761f7e	-0.060088627
157	0xbd9910cc	-0.07473907
158	0xbdcd79b2	-0.10032977
159	0xbe470b27	-0.19437848
160	0x3ce7a0b7	0.028274877
161	0xbdfe3d7f	-0.12414073
162	0xbd84ad47	-0.064783625
163	0x3d76282b	0.0600969
164	0x3cd7ed54	0.026358284
165	0x3dc026d0	0.09382403
166	0x3c425cd7	0.011862955
167	0xbeb98379	-0.36233118
168	0xbe45cb2b	-0.19315784
169	0xbddd6631	-0.10810507
170	0xbd423cc1	-0.04742122
171	0xbd765633	-0.0601408
172	0xbe67910d	-0.22613926
173	0xbe92cc6d	-0.2867159
174	0xbd97c915	-0.074114
175	0xbe4e4c83	-0.20146374
176	0xbe36fd7a	-0.17870131
177	0xbd81089b	-0.063004695
178	0xbea81a99	-0.32832792
179	0xbdcf5de4	-0.1012533
180	0xbdfd5275	-0.12369243
181	0xbec1575e	-0.37761968
182	0xbd69ded7	-0.057097282
183	0x3e0aadc9	0.13542856
184	0xbe1ca800	-0.15298462
185	0xbdc34fed	-0.09536729
186	0xba586d27	-0.0008256011
187	0xbc89089b	-0.016727736
188	0xbe0ae095	-0.13562234
189	0xbe4c2540	-0.19936085
190	0x3b9237e5	0.0044622296
191	0xbd4f0a95	-0.0505472
192	0xbdf9dc51	-0.12200225
193	0x398f6f92	0.00027358212
194	0xbe3d3c8b	-0.18480127
195	0xbe08fbab	-0.13377254
196	0xbd8690d7	-0.06570595
197	0xbe075a6d	-0.13218088
198	0xbe20c304	-0.15699393
199	0x3d7886b1	0.060675327
200	0xbd88bd7a	-0.06676765
201	0xbdba4b3c	-0.09096381
202	0x3de38165	0.111086644
203	0x3e4cb704	0.1999169
204	0xbe33742e	-0.17524788
205	0xbc941e44	-0.018080838
206	0xbe8bf3d1	-0.27334455
207	0xbe371a62	-0.17881158
208	0xbdb92c15	-0.09041611
209	0xbea9f053	-0.33191165
210	0x3c1bd217	0.009510539
211	0xbe7845d6	-0.2424539
212	0x3d574c5f	0.052563068
213	0xbc5c4635	-0.013444473
214	0xbe2a3024	-0.16619927
215	0xbddebf76	-0.10876362
216	0x3cc7c4b5	0.02438579
217	0x3ccd37a1	0.02505094
218	0x3d306379	0.043063615
219	0x3d95648b	0.07294568
220	0xbce0b43b	-0.02742969
221	0x3d37e82d	0.044899154
222	0xbe7cc08b	-0.24682824
223	0x3c6de1ef	0.014519199
224	0xbdb05f67	-0.086119466
225	0xbe85c579	-0.26127222
226	0x3d0b9b65	0.034083743
227	0xbe2349ec	-0.15946168
228	0x3ba7b61b	0.005118144
229	0xbd692cc4	-0.056927457
230	0xbdec7a0e	-0.115467176
231	0xbe6dd500	-0.23225784
232	0xbd45d86e	-0.048302107
233	0xbe499007	-0.19683848
234	0x3ba8adbc	0.005147664
235	0xbd59e0c0	-0.053192854
236	0x3d36c5b3	0.044622134
237	0xbdb8881b	-0.09010335
238	0xbe954464	-0.2915374
239	0xbdab5d1f	-0.08367371
240	0xbe78c6d6	-0.242946
241	0xbe5825ec	-0.21108216
242	0xbd727880	-0.05919695
243	0x3d9a352f	0.07529675
244	0xbe96133c	-0.2931155
245	0xbd315de0	-0.043302417
246	0xbdc0d188	-0.09414965
247	0xbe92c4eb	-0.2866586
248	0xbcb00d9d	-0.021490866
249	0xbd51a60f	-0.051183756
250	0x3b50583d	0.0031790875
251	0x3abd1fa7	0.0014428989
252	0x3c0a373b	0.0084360195
253	0x3dcf4de4	0.10122278
254	0xbe2b7afe	-0.16746137
255	0x3ca8787d	0.020565266

fc.weight f4 [8, 256]
0	0x3c0983be	0.008393226
1	0x3c61939c	0.013768103
2	0xbdb43a91	-0.08800233
3	0xbdfd4018	-0.123657405
4	0xbdd2a19d	-0.102847315
5	0xba2a552e	-0.0006497678
6	0x3cdc2e50	0.026877552
7	0x3dd1a1b7	0.10235923
8	0x3d152010	0.03640753
9	0x3cede5d5	0.029040257
10	0xbb68bd1f	-0.0035513116
11	0xbcd01df3	-0.025404906
12	0x3dfa48cc	0.12220916
13	0x3df6e1ff	0.12054824
14	0xbe01fd02	-0.12694171
15	0xbe1fada6	-0.15593585
16	0xbd75ac3e	-0.059978716
17	0x38ec2ca9	0.000112616755
18	0x3d483854	0.048881844
19	0x3c720b99	0.014773273
20	0x3d59de8f	0.053190764
21	0x3d51906e	0.05116313
22	0xbd8efc42	-0.06981708
23	0xbe54a122	-0.20764592
24	0xbd05f7fc	-0.0327072
25	0xbe4e8cc1	-0.20170881
26	0x3cef024e	0.029175904
27	0xbe23986e	-0.15976116
28	0xbe1edd9f	-0.15514229
29	0xbdca5117	-0.09878748
30	0xbd46b8bf	-0.04851603
31	0x3dd5a204	0.10431293
32	0x3cb2fa08	0.02184774
33	0x3d0b0921	0.033944253
34	0x3c2135a3	0.009839448
35	0xbd6dad50	-0.05802661
36	0x3d4a51c1	0.049394373
37	0x3da9c15e	0.08288835
38	0x3b1172b6	0.0022193617
39	0x3cb49ea0	0.022048295
40	0xbe08b8eb	-0.1335179
41	0x3d188d49	0.037244115
42	0x3d9cf4e9	0.076639004
43	0xbc66bd16	-0.014083168
44	0x3b9bd154	0.0047551785
45	0xbcd5514d	-0.026039744
46	0x3d544329	0.05182186
47	0x3d8d066b	0.0688599
48	0xbc27ed4e	-0.010249449
49	0xbdfeffad	-0.1245111
50	0x3d498814	0.04920204
51	0x3da87d50	0.082270265
52	0xbe821b0f	-0.2541127
53	0x3d8a44c7	0.067513995
54	0xbda637ec	-0.08116135
55	0xbda70975	-0.08156101
56	0xbdb1e734	-0.086866766
57	0x3dcf280b	0.101150595
58	0xbd1dd2a4	-0.03853096
59	0xbea31c0b	-0.31857333
60	0xbcb9c96a	-0.02267905
61	0x3c149317	0.009068272
62	0xbca2ed66	-0.019888591
63	0x3c8bb72b	0.017055115
64	0xbe0a8fac	-0.13531369
65	0xbdbb12f1	-0.09134472
66	0x3c8be93a	0.017078985
67	0x3db3dc16	0.087822124
68	0x3d47826d	0.048708368
69	0xbd92740b	-0.0715104
70	0x3a663882	0.0008782224
71	0x3d6ad358	0.05733046
72	0xbcb4c3c2	-0.022066
73	0xbc13c5be	-0.009019313
74	0x3cb77513	0.022394693
75	0xbddcb9c2	-0.10777618
76	0x3d7dc197	0.0619522
77	0x3cfbcbfc	0.030736916
78	0xbc531386	-0.012883073
79	0xbd5252ce	-0.0513485
80	0xba04a6a0	-0.00050602295
81	0xbc0183bb	-0.007904942
82	0x3af3b2b1	0.0018592683
83	0xbca1dd72	-0.019758914
84	0x3cd39145	0.025826106
85	0xbd55b621	-0.052175645
86	0xbcc18d72	-0.023627017
87	0xbcc39707	-0.023875726
88	0xbdbf9523	-0.093546174
89	0xbe02e2ed	-0.12781878
90	0xbe182b84	-0.1486035
91	0x3d7bb906	0.06145575
92	0xbd8c89db	-0.06862231
93	0xbd98b5d4	-0.07456556
94	0x3d4da4bb	0.050205927
95	0xba99a9b1	-0.0011723546
96	0xbcae4dd8	-0.021277353
97	0x3d196ee8	0.037459284
98	0xbe1d4d66	-0.15361556
99	0x3c342511	0.010995165
100	0x3cbea0af	0.02326998
101	0xbce7c3a7	-0.028291536
102	0xbdbdcfa8	-0.09268123
103	0xbd9f328e	-0.077733144
104	0x3cb9fc0c	0.022703193
105	0xbe20ca3e	-0.1570215
106	0x3c504cc0	0.012713611
107	0x3cace67d	0.021106
108	0x3d5b4911	0.05353648
109	0xbca7c5dd	-0.02048009
110	0xbdb50f92	-0.088408604
111	0xbda8f8f4	-0.08250609
112	0x3c680cb9	0.01416319
113	0x3e8f18fc	0.2794875
114	0x3cc601e7	0.024170829
115	0x3d34cf0e	0.044142775
116	0x3d9b7e2b	0.07592424
117	0x3c9b27d2	0.018939886
118	0x3cc2bb73	0.023771023
119	0x3c92e935	0.017933467
120	0xbc054292	-0.008133547
121	0x3c9838ac	0.01858171
122	0xbe1c343b	-0.152543
123	0x3d6566e1	0.056006316
124	0xbc735576	-0.014851918
125	0xbdab9bc8	-0.08379322
126	0x3d69e115	0.05709942
127	0x3d72dcc7	0.05929258
128	0x3dafd454	0.0858542
129	0x3db905b1	0.09034289
130	0xbc190f2e	-0.009341998
131	0xbd55326e	-0.052050047
132	0x3d58813c	0.052857623
133	0x3d24895c	0.04017006
134	0xbdbed2e0	-0.09317565
135	0x3d4a2520	0.04935181
136	0x3ba19f02	0.0049322853
137	0xbd0581da	-0.03259454
138	0xbdb5cd8b	-0.08877095
139	0xbd0e165a	-0.034689285
140	0xbdbd91f8	-0.09256357
141	0x3cbc4cd7	0.022985859
142	0xbda97895	-0.08274952
143	0xbd1848de	-0.037178867
144	0x3d3ff192	0.04686124
145	0x3cf24af4	0.029576756
146	0xbd577933	-0.05260582
147	0x3c89bce2	0.0168137
148	0x3d025cd9	0.031826828
149	0x3d553450	0.052051842
150	0x3de2ff06	0.11083798
151	0x3d029dad	0.031888653
152	0xbd216f46	-0.03941276
153	0x3d14a6d5	0.036291916
154	0xbceed64f	-0.029154925
155	0xbce2cc46	-0.027685296
156	0xbc82c913	-0.01596502
157	0x3d645128	0.05574146
158	0x3a711f1f	0.0009198058
159	0x3cc4b98b	0.024014255
160	0xbe256ae5	-0.16154058
161	0xbb7da6c2	-0.0038704132
162	0x3d05f664	0.03270568
163	0x3d45ef92	0.048324175
164	0xbca53676	-0.02016757
165	0x3d99134c	0.07474384
166	0x3d7e1eab	0.062040966
167	0x3c1d99de	0.009619204
168	0xbdf402fa	-0.1191463
169	0x3ce47823	0.027889317
170	0xbe08a0f6	-0.13342652
171	0x3d5017f7	0.050804105
172	0x3caa06ae	0.020755138
173	0xbe0126d0	-0.12612462
174	0xbc9bb646	-0.019007813
175	0xbcbeb47b	-0.02327942
176	0xbdbbd904	-0.09172252
177	0x3da4cc76	0.0804681
178	0xbd8aaa1a	-0.067707255
179	0xbc11af94	-0.008891959
180	0xbda104a6	-0.07862215
181	0xbd9e6438	-0.07733959
182	0x3daa8c4d	0.083275415
183	0xbb359365	-0.0027706262
184	0xbaaf34b5	-0.0013367148
185	0xbd879c07	-0.06621557
186	0x3e911b69	0.28341225
187	0xbd5baad4	-0.05362971
188	0x3d8824f1	0.06647671
189	0x3c26b787	0.010175592
190	0x3d69be02	0.05706597
191	0xbca1992a	-0.019726355
192	0x3c7e6d0a	0.015528927
193	0xbe3973f8	-0.18110645
194	0x3d86c3d0	0.06580317
195	0x3d14c311	0.036318842
196	0x3bcb2ff6	0.0062007857
197	0x3d423f8e	0.04742389
198	0x3cb6751a	0.022272635
199	0x3cd74d85	0.026282081
200	0x3baf1642	0.0053432295
201	0xbdc3189c	-0.09526178
202	0x3d33a21a	0.043855764
203	0x3b3a4e54	0.0028428035
204	0x3c8903bf	0.01672542
205	0x3c855d3f	0.016279815
206	0x3d1bd012	0.03804023
207	0xbd813ae4	-0.063100606
208	0xbdc8e6e3	-0.09809663
209	0xbd86e43c	-0.06586501
210	0xbd74f961	-0.05980814
211	0xbd2360bd	-0.03988718
212	0xbe21b3fb	-0.15791313
213	0x3d9cfb2b	0.07665094
214	0xbde9b7de	-0.11412023
215	0x3d867856	0.06565921
216	0xbe0ef7a4	-0.13961655
217	0xbd92efbf	-0.07174634
218	0xbe8e5bc8	-0.278044
219	0x3d9b182a	0.07572968
220	0x3d406bb4	0.046977714
221	0xbdaa12ce	-0.08304368
222	0xbddd851f	-0.108164065
223	0x3b17d623	0.0023168407
224	0x3d452c53	0.048137974
225	0x3d553192	0.052049227
226	0x3d9b9078	0.075959146
227	0xbdf1e79f	-0.11811756
228	0x3d20ea64	0.039286032
229	0xbd230b74	-0.039805844
230	0x3d22cb57	0.0397447
231	0xbd6a960e	-0.05727201
232	0x3b640566	0.0034793257
233	0xbbb692fa	-0.00557172
234	0x3cbaa4d6	0.022783678
235	0xbd971ad8	-0.07378167
236	0x3daf87b5	0.08570806
237	0xbe3b30c6	-0.18280324
238	0x3d8379b3	0.06419697
239	0xbd2edba0	-0.04268992
240	0xbdf1da0a	-0.11809166
241	0xbb97048b	-0.004608696
242	0xbd09469e	-0.03351461
243	0x3dc0b21f	0.09408974
244	0x3c9ad9a0	0.0189026
245	0xbd09a606	-0.033605598
246	0xbd8881db	-0.06665393
247	0xbd364a79	-0.044504616
248	0xbd7b2470	-0.061314046
249	0x3d422b19	0.047404382
250	0x3c40bf25	0.011764322
251	0xbd811e7a	-0.06304641
252	0x3d27a378	0.04092738
253	0xbcaaa73d	-0.020831699
254	0xbbce18b7	-0.0062895673
255	0x3c942fab	0.018089136

fc.bias f4 [8]
0	0x3c75418e	0.014969243
1	0xbea0d159	-0.3140972
2	0xbeae010d	-0.33985177
3	0xbe3c5b0f	-0.18394111
4	0xbe3fdd15	-0.1873668
5	0x3e456e45	0.19280346
6	0xbe0dd576	-0.1385096
7	0xbe2329a7	-0.15933858
