src/main/python/saved_models/kotlin_1_37_CNNClassifier1_128embs_178id_16hd_0hl_Falsebid5kernel0.3dropout_0.pt (torch, 332491 bytes, 9 tensors)

emb.weight f4 [178, 128]
00000000: c53d 82bf 17be 2cbf ca19 06bf 6494 f0bf
00000010: 744e 013e 593d 7fbf 95e3 9fbf 5543 acbf
00000020: b0cc e4be ceee 6dbe ac1e 0abf 3c2f 2fbf
00000030: 72dc b5bd ceef 0240 6d64 a13e fab3 473f
00000040: 8978 18bf 1979 ccbf ea19 a53f da99 a2bd
00000050: e456 9a3f 526e 43be 1b38 94bf 76cf ea3e
00000060: 98b1 473f 1f9d 6cbe 67ee 0ac0 f82f c8bf
00000070: e4f5 fcbc 50df d8be d70a 64bf 86fd f6be
00000080: 6280 d33f ae9d d0be addd 69be 6514 57bf
00000090: 6c03 1f3e d021 c73c 900e 66be 752f 61bf
000000a0: 32a0 bfbd b4d0 183f daf8 e03e f7f7 a93e
000000b0: 8637 1740 2ec5 8abf f5c3 a33f 82bf 53bf
000000c0: dcc6 08bf 5f99 6a3f 0928 c33e 0b12 9bbe
000000d0: 1da1 2d3f f776 ca3e 2ec8 7d3f 38fb 0b40
000000e0: 328e 203e 4f03 653f 9e9a 6dbe 7b37 43bf
000000f0: 4484 d53f 1b44 2ebf f772 46c0 459e 3fbf
00000100: 0c12 d7b8 9ef5 98bf 2f8f 11be 4683 b7bf
00000110: 20dc 0fbf 9628 85be 75d3 c03f be89 673e
00000120: ee60 0fbf 0e56 5dbe 269b 7cbf 5c56 17bf
00000130: c594 3abe e1b3 46bf 32b1 703e a780 0abf
00000140: 9255 69bf ae40 babe b58d ffbe 55cc 093f
00000150: 58e2 d6bf ae27 30be 2869 ac3e d745 d63d
00000160: 289c 813e e4b7 393e 8f87 8ebf de9e 893f
00000170: 4801 62bf c2d7 04be 2fc8 3f3f fa71 0540
00000180: 52bb 043f bcec 863f 59fa 913f 4a2b 83bf
00000190: 8047 e13f 5824 7dbf cdda 90bf c5db c83f
000001a0: 8b96 d93f 4a7b 693e 420e 013e ada6 0abf
000001b0: 42ba 10c0 1d69 c8be 0677 d9bf 8393 99bf
000001c0: c4dc 963f 2173 b5be 76ea e03f 4c00 a13f
000001d0: 4df9 dd3d 68ff 2f3e 87c1 343f b9f5 41bf
000001e0: 0191 1c40 9d55 1c3e 2520 253e 2034 0340
000001f0: db45 fabf dbcb be3f f896 853e a402 14be
00000200: 865d 363f 9764 e3bf bd2d b53e ed8c 993f
00000210: 7a22 9bbe 0784 e1bf 2d85 223f 7aea 4dbf
00000220: e938 cebf 0391 efbf 8707 0b3f 3c22 293f
00000230: bfe4 1240 a3c6 2c3f 1f4e db3f c0aa e5bf
00000240: 8a7f aebf 48b4 7bbf 3071 c13f a451 243f
00000250: 5028 f23e 2970 dbbe a226 0d3f 4010 c6bf
00000260: ffa2 043f 352f da3d edd9 893e ff91 a93f
00000270: 8e7d df3f a06f ed3f 9bd4 34bf 4da7 2340
00000280: 0ec7 d53e e8d2 59be 7d07 57bf 950c d7be
00000290: d8c0 1fbf 1430 7abf b3f5 5f3f 79be 7c3f
000002a0: ca80 9e3e f8a5 c23f 1b45 9a3f 4965 e8bf
000002b0: 8392 cebe 8a8a 75bf 63a5 aabb ff82 a1bd
000002c0: baf9 573f b335 953f 07e5 063f b143 cf3f
000002d0: 26c7 76bf b8ea 103e bd96 27be f368 b7be
000002e0: a673 dc3f 436e 9bbe 709b 743e 3b08 ac3f
000002f0: fe67 d33d 68d8 8c3f b5f0 aebe cd84 723f
00000300: 438a 11bf b46c 563f fe4e e43f 671d 48be
00000310: 8bd1 033f 257a ecbf e9ab 3ac0 883c 11bf
00000320: 5791 0abf 202a 653f fbeb 61bf c824 083f
00000330: 07dc c5bf 8275 31be 5a6e 3a3f d1b8 693d
00000340: facf 673f fdec 853f d845 05bf 8e69 ad3f
00000350: 78d6 703e ed05 f53f 850f eb3f 478a a93f
00000360: fc10 78bf 9f35 a03f e7eb 9a3f ce25 07bf
00000370: cecf 5f3e cd05 13bf 1383 ba3f adae e23f
00000380: 6030 d33f b42f ddbe 0ac4 8abe 7b36 b8bf
00000390: 059f 9f3f 8e0d a33f 802a c83e 7440 c63e
000003a0: 3d7d a3bd 7df6 ae3e 59e6 723f d024 b1bf
000003b0: dcae dc3f 5058 17c0 1ef3 6dbf 0e56 963e
000003c0: 924b 5c3e 283f 703f 4f9c bb3f 1b75 0ebf
000003d0: e3ad 3ebf 4d02 4fbe 102e 6bbe 3e80 ae3a
000003e0: 2a24 c03e dec0 14bf d582 12bf 6c3e 813f
000003f0: b55e d8bd 4700 97bf a7ea b9bd 4328 103f
-1.01751 -0.67477554 -0.523831 -1.8795285 0.12627584 -0.99702984 -1.2491328 -1.3458048
-0.44687414 -0.23235628 -0.5395305 -0.6843145 -0.08879937 2.0458865 0.3152193 0.78009
-0.5955892 -1.5974456 1.2898533 -0.07939501 1.2057767 -0.19085053 -1.1579622 0.45861405
0.7800536 -0.23106812 -2.170801 -1.5639639 -0.030878969 -0.42357874 -0.8907904 -0.48240298
1.6523554 -0.407453 -0.22838469 -0.84015495 0.15528649 0.024308115 -0.22466493 -0.8796304
-0.09356727 0.59693456 0.4393986 0.33196995 2.362764 -1.0841424 1.2794176 -0.8271409
-0.53428435 0.91640276 0.38116482 -0.30287203 0.67823964 0.39543888 0.99133575 2.1872082
0.15679243 0.89458174 -0.23203513 -0.7625653 1.6680989 -0.6807267 -3.100767 -0.74850875
-0.000102553604 -1.1949956 -0.14214776 -1.4336936 -0.5619526 -0.26007527 1.5064532 0.22611138
-0.5600728 -0.21614859 -0.9867424 -0.5911615 -0.18220814 -0.77618223 0.23505095 -0.5410256
-0.91146195 -0.36377472 -0.499128 0.5382741 -1.6787825 -0.17202637 0.33673978 0.1046254
0.2531445 0.18136555 -1.1135119 1.0751607 -0.88283205 -0.1297293 0.7491483 2.0850816
0.5184833 1.0540996 1.1404525 -1.0247586 1.7599945 -0.9888358 -1.1316773 1.5692068
1.6999067 0.22800937 0.12603095 -0.5416058 -2.2613683 -0.39142695 -1.6989448 -1.1998142
1.1786122 -0.354394 1.7571552 1.2578216 0.10838566 0.17187274 0.706078 -0.7576557
2.4463503 0.15267034 0.16125543 2.0500565 -1.9552568 1.4905962 0.26091743 -0.14454132
0.71236455 -1.7765073 0.35386458 1.1996132 -0.3029974 -1.7618417 0.6348446 -0.8043591
-1.6111118 -1.8716129 0.5430836 0.6606786 2.2952116 0.67490596 1.7133216 -1.7942734
-1.3632672 -0.9832196 1.5112667 0.64187074 0.4729638 -0.4285901 0.55137074 -1.5473709
0.5181121 0.10653535 0.26924077 1.324768 1.7460191 1.854969 -0.7063691 2.5570862
0.4175343 -0.2127186 -0.839958 -0.42001787 -0.6240363 -0.9772961 0.8748428 0.9872814
0.30957633 1.52069 1.2052339 -1.815591 -0.40346155 -0.9591452 -0.005207704 -0.07886314
0.8436543 1.1657013 0.5269322 1.6192533 -0.96397626 0.14152038 -0.16366096 -0.35822257
1.7222793 -0.3035756 0.2388742 1.3440012 0.10322569 1.1003542 -0.3416802 0.9473389
-0.56851596 0.8375962 1.7836607 -0.19542466 0.5149161 -1.8474776 -2.9167426 -0.5673299
-0.5412802 0.895174 -0.882507 0.53181124 -1.5457772 -0.17329982 0.72824633 0.05706102
0.9055172 1.0462948 -0.520597 1.3547838 0.23519313 1.9142433 1.8364111 1.3245324
-0.96900916 1.2516364 1.2103242 -0.5279206 0.21856615 -0.57430726 1.4571251 1.7709557
1.6499138 -0.43200457 -0.2710269 -1.4391626 1.2470404 1.2738512 0.39094925 0.3872105
-0.07982872 0.3417243 0.9488273 -1.3839359 1.7240863 -2.3647652 -0.9294909 0.2936253
0.21513203 0.9384637 1.4657077 -0.5564744 -0.7448408 -0.20215721 -0.2296679 0.0013313366
0.3752759 -0.5810679 -0.57230884 1.0097175 -0.10564939 -1.179696 -0.090779595 0.56311435

conv1.weight f4 [16, 128, 5]
00000000: aab0 a23d 9cdd 7cbd 0d2a 8ebe 0133 4abe
00000010: 02f7 753d 8c3c 8f3d 1383 293e bf51 d13c
00000020: 5aeb ea3d 0fbb 743c c070 87be 32a7 10be
00000030: 2cb5 c2bc e396 95be bb2c b1be 197b 193d
00000040: 6fb1 eabc 9d6a cebd 09a1 15bc b7a6 ca3d
00000050: 15ea 2abd 2968 0e3e 0f47 96bd 9d66 1b3d
00000060: a419 13bc 1354 0cbe 3c88 dcbc 6b32 72be
00000070: d6d2 1e3e 74f9 333c a069 8a3d 052e 91bb
00000080: 687d afbd 6a06 173d ceb1 d43c 411b 54be
00000090: 2413 fbbc 1dbd 543e 858e 9d3d 43e9 f73d
000000a0: 450e aebe 0884 23be 5dc3 fa3d 9507 81ba
000000b0: 6aff 933d ad7e 91bc 3f05 c03e aeef 44be
000000c0: ee75 a4bd d91e 58bd 778f 54be dfa4 d3bc
000000d0: 09f8 1e3d f7ca 25be 6eef 5c3d 2e23 e43d
000000e0: a0b7 aa3c a8f4 32be e268 8b3d 12f4 13be
000000f0: 6606 6bbd e7ce d0bd 8984 51bc 818e b0bd
00000100: b2ab 02bc a525 3ebd ff30 42be 2f27 003e
00000110: e164 58bd 74c2 d53d f383 b5bc e9f8 52bd
00000120: bf4e e03d 9fc6 b63d fa3a 693e dde5 313d
00000130: d1b3 e03c 4396 76bd 6819 7e3d 6d80 2dbe
00000140: 5760 003d 9ca7 093e 9695 60be 03d3 de3d
00000150: 6650 aebd 1494 323d 6db2 e5bd 553a 3fbe
00000160: da93 42bd 9640 0a3e 16f6 653d 55de 2cbd
00000170: 4fe2 783e 096c d0bd ea98 02bc 72c6 c5b9
00000180: 9ffd b3bd 4ed7 0dbe 30ad b73d e86d eebd
00000190: 2440 67bc 4568 863a c55e d5bd ac83 1abe
000001a0: eb0c 75bd 7ea1 12be e434 193e 4451 a7bd
000001b0: 7ed0 943d 7cf9 1d3c df3b 4c3d aa0c 903d
000001c0: 537c 19be 8845 023e 1d22 03be 6abf 033e
000001d0: ab74 673d 70b5 283d 7d5a 083d 4dd5 0e3e
000001e0: 1369 f7bc ea8c 51bc f012 2fbe c452 81bd
000001f0: 3626 f93c 0d16 9bbe 53d2 85bd c833 a6be
00000200: 250a 68be da74 0bbe 440f a73c 3f0d c93d
00000210: 99e8 803d 17dd b2bc b92f f8bd 0e72 6cbe
00000220: e072 723d bc9a 8fbe 8f0b 00bd e2c5 1fbe
00000230: 1a80 543e f12c 47be ef3d 1ebd bcdd 29be
00000240: f0e2 063e 315f 8cbd fa87 fd3d b751 dd3d
00000250: e7e7 de3c 1e73 d5bd 2567 58bc 8e67 2e3e
00000260: 781a 093d eec4 b03d af4a 213e 8d8f 11bd
00000270: 46ca d9bd 1ff3 ec3c 661f 2d3e c740 9e3d
00000280: 9408 1e3e 1687 b7bd f79d a53e 5232 e4bc
00000290: e097 d0bd 790f 0abe 03cc b83d 50b4 27be
000002a0: 20a9 34be 5d71 9e3c d927 dd3d 4f8c 5abd
000002b0: 89ff adbd 15f0 bc3d 4c98 77bd 94ec 46be
000002c0: 7bb2 2dbe 3716 e2bb 1ec7 c93c ad98 04be
000002d0: b25f 8bbc b43a 9bbc 2c86 c93d bdc6 0abd
000002e0: c678 373d 5c99 283e 23ea 92be fadd 00bd
000002f0: 769c f33c 9f9e cb3d 05b0 2c3e 4903 b9be
00000300: 517d 073e da7f 8f3d 088f a73c f384 d93d
00000310: 5db9 88be d5c5 a03d 58c0 cabd b53c d7bb
00000320: f1bc 7f3e fd57 6bbe 2e87 3b3e 97fc 533c
00000330: d740 08be e44f 793c 6327 56bd 4a96 223e
00000340: a46b 2ebb 553c 493d 1061 333c 54c0 183e
00000350: 0527 773e a95e 9ebc 0a3f 1f3e 4c45 aa3b
00000360: 8a7f 323c 1744 01bd e064 053e c651 9ebd
00000370: 4a88 1cbb 045a bebe 4366 313e 932c b53d
00000380: 2952 2cbe 592a 0bbe abbf b83d cda2 2cbe
00000390: 5338 67be 3338 96bc b591 cbbd 5c71 883e
000003a0: 89f9 f1bc 92c3 d1bc d595 323e be16 f83c
000003b0: 2d99 e0bb 3b3b dabd 225d 123e 3dbb e63d
000003c0: b105 d8bd c80b 183e 7630 43bd c367 46bc
000003d0: da19 543e 2ff7 05be 1349 2b3e ab7a 183e
000003e0: 0267 b6bd 3a4c df3d f3dd 8abe 57f9 7f3e
000003f0: 105d 4ebe fa15 d8bd 4e2b 583e c584 f93d
0.07943852 -0.06173478 -0.27766457 -0.19746019 0.060050018 0.0699397 0.16553907 0.025551675
0.11470671 0.014937176 -0.2645321 -0.1412628 -0.02376803 -0.2921668 -0.3460444 0.03747091
-0.02864906 -0.100789286 -0.009132632 0.098950796 -0.041727144 0.13906921 -0.07337772 0.037939657
-0.008978281 -0.13703947 -0.02692043 -0.23652045 0.15510115 0.010984767 0.067584276 -0.004430535
-0.08568841 0.03687135 0.02596369 -0.20713522 -0.030648775 0.20775266 0.07693199 0.12105038
-0.33995262 -0.15968335 0.12244294 -0.0009844179 0.07226451 -0.017760599 0.37504002 -0.19232056
-0.08030306 -0.052763794 -0.20757852 -0.025835453 0.038810764 -0.16190706 0.053939275 0.111395225
0.020839512 -0.17476141 0.06807114 -0.14448574 -0.05737915 -0.101957135 -0.0127879465 -0.086209305
-0.007975506 -0.04642262 -0.18964003 0.12514947 -0.05283058 0.104374796 -0.022157645 -0.05150691
0.109525196 0.08924603 0.22776404 0.043432105 0.027429493 -0.060201894 0.062035948 -0.16943522
0.031341877 0.13442844 -0.21932063 0.10880091 -0.085114285 0.04359825 -0.11215673 -0.18674596
-0.047504283 0.135012 0.05614289 -0.04220422 0.2430508 -0.10176856 -0.007971028 -0.0003772262
-0.08788609 -0.13851663 0.0896858 -0.11642057 -0.014114413 0.0010254463 -0.104184665 -0.15089291
-0.059826773 -0.14319417 0.14961582 -0.08169797 0.07266329 0.009642001 0.049861785 0.070336655
-0.14988832 0.12721837 -0.12805982 0.12865987 0.056507748 0.041188657 0.03328942 0.13948555
-0.03020147 -0.012789944 -0.17097068 -0.063146144 0.030413728 -0.3029026 -0.06534257 -0.3246138
-0.2266012 -0.13618794 0.020393021 0.098169796 0.062943645 -0.02183394 -0.121184774 -0.23090383
0.059191585 -0.2804774 -0.031261023 -0.1560283 0.20751992 -0.19450738 -0.038633283 -0.16588491
0.13172507 -0.06854094 0.12379451 0.108066015 0.027210189 -0.104223475 -0.013208185 0.1703169
0.03347251 0.08631311 0.15751146 -0.03553729 -0.10634284 0.028924523 0.16906509 0.07727199
0.1543296 -0.089613125 0.3234708 -0.027856026 -0.10185218 -0.13482465 0.09023287 -0.16377378
-0.17642641 0.019341165 0.10798616 -0.053356465 -0.08496005 0.092254795 -0.060447976 -0.19426185
-0.16962616 -0.006899621 0.02463108 -0.12948866 -0.017013405 -0.01894889 0.098400444 -0.033880938
0.044792913 0.16464752 -0.28694257 -0.031461693 0.029737692 0.09942364 0.16864021 -0.3613532
0.13231398 0.070068076 0.020453945 0.10621061 -0.2670392 0.078502335 -0.09899968 -0.006568516
0.24974419 -0.22982784 0.18313286 0.01293864 -0.13305984 0.015216801 -0.052283656 0.15877643
-0.0026614452 0.049129803 0.0109484345 0.14917117 0.24135979 -0.019332247 0.15551391 0.005196249
0.0108946655 -0.031559076 0.13026762 -0.07730441 -0.0023884946 -0.3717805 0.17324166 0.088463925
-0.16828217 -0.13590373 0.09020933 -0.16858979 -0.2258008 -0.018337345 -0.09939901 0.26648986
-0.029537933 -0.02560595 0.17439969 0.030284282 -0.0068541975 -0.106558286 0.1429334 0.112661816
-0.105479605 0.14848244 -0.047653638 -0.0121097 0.20712987 -0.13082574 0.16727094 0.14890544
-0.08906366 0.10903211 -0.2712246 0.2499746 -0.20152688 -0.10551067 0.2111027 0.12183527

conv1.bias f4 [16]
00000000: 0dbe 06be 69f3 a8bd e503 f1bb e00c 96bc
00000010: fc8c 12be b183 3dbe f5cb 90be e6fb b7be
00000020: aeaa 80bd be74 3d3e d80b 49be 1682 38be
00000030: ed0f a9bd d06d f5bd 43d9 7abe 9c57 21be
-0.13158436 -0.08249552 -0.0073552006 -0.018316686 -0.14311594 -0.18507268 -0.28280607 -0.3593437
-0.062825546 0.18501565 -0.19633424 -0.18018374 -0.08254991 -0.11983836 -0.24496941 -0.15756077

conv2.weight f4 [16, 128, 3]
00000000: f020 1b3e 9ff6 0cbe 7348 62be a46d 51bd
00000010: ef23 bf3d 83b7 333e f106 66be 2f67 6dbd
00000020: b601 b7bd e1e3 9a3e 8dcb 60bd 1065 4b3e
00000030: 8ae7 fcbc 51ac fd3c 8f34 4ebe 2547 4dbd
00000040: 1162 12bb 4e00 5f3e 3015 af3b 0579 2bbe
00000050: c584 053e 5be9 80be e499 143e 9694 30bd
00000060: aab4 173e 33ef 783d 3fb3 9e3e dc19 4b3e
00000070: 8638 fcbc f6e7 b33d bcc9 a23d 0f9d 833e
00000080: 3909 66be b94a 263c deec 373d 3c60 143e
00000090: e774 1bbe 0c53 d43c 8696 61be fab7 843d
000000a0: 47b0 0dbe b4d6 c53d 4071 ef3d 5d81 1bbd
000000b0: fab8 c23d 144d 6abd e3dd c93d f266 e4bd
000000c0: 8da3 f2bd a0be bd3b 7e85 b53d 1ebc 253e
000000d0: 4f33 f53a cca4 0a3e d23e 79bd ab5e 38bd
000000e0: 1ac1 87be 90a8 65bd ae0f 58bd 8c58 563d
000000f0: 66f3 7a3e cbb0 63bc 68a0 e8bc d0df e13d
00000100: 34a8 023e 6645 843e e1f5 a23d 8aea 96bd
00000110: 4e36 3f3e 9b84 c6bb b641 a53e cd71 233c
00000120: d576 f1bc c5dc 54bd 6d30 0fbd d6da 4d3e
00000130: 2b6f 983d e86b a23e 800f 4abe f9d4 60bc
00000140: 70a0 2ebe 71a5 d4bc cdfa 053e 64bb 473e
00000150: 55fc 33bd 73d0 d5bd 4321 52be d6a2 363e
00000160: 4027 8fbc c56f febc 35d1 24bd d07c 733e
00000170: a9c2 7ebc 1425 a33e 046c fe3d 119b 623e
00000180: ce26 223e dcce 83bd 76dc 04bc fbec 61be
00000190: 659d 15bc 92bc c53d 4016 1e3e 66f1 89bd
000001a0: 55b0 273e 9e4a cf3d 7c13 2b3c 0c2f cfbd
000001b0: cc25 2c3e c3c9 09be 3edb 303e e5f9 7b3e
000001c0: aed3 57be 9406 1e3e 4b88 e03d 08cb 8bbc
000001d0: e148 6f3e 3a3e edbd e303 e9bb b897 cebc
000001e0: 68e2 843b 8f48 a43d 6ee2 ddbe 0679 883e
000001f0: 8c32 df3c 38a7 cbbd 4ed8 8a3c c03b 64be
00000200: 4faa 62be 5e94 c1bd d69a 0d3e b98b f1bd
00000210: 036a 893e c172 73be 4741 7c3e 37c8 f83d
00000220: 03ab c8bd a8e2 7f3d 5efb e2bc 3f87 3d3e
00000230: cb90 5d3d 7ec4 c9bc 4341 eabd 8a92 6c3e
00000240: e36a 07be a24e 4abd 66f5 42be 939b 143d
00000250: 703a 28be ac8a 29be a486 84be 0340 23be
00000260: efb1 233e bc9e eebd 11e3 77bd 98ec d43d
00000270: ad11 4a3d b5e9 2ebe df5e 833e 2d72 8dbd
00000280: baeb d3bd 50a8 ae3d fc48 3fbd c5ad 293d
00000290: be72 f83c bb5b 403d 9155 36bd 3f9c 44be
000002a0: 0629 cdbd 0231 c7bb e0b9 9cbc babf 833e
000002b0: 20e8 113d 8c07 14be c0f1 85bd c62b 04be
000002c0: a273 02bc 7018 debd b846 253e 2936 64bd
000002d0: 7c8a 8dbe 831e d23d 0442 91be 885e de3d
000002e0: beb9 643e 10db b83c 78aa 49be 7789 7cbd
000002f0: 9e6e 0bbd 7b6d 8abd 94ba c73d acdb 67be
00000300: 75d2 f7bb e733 c2bb f24e 89bd bdf3 b33d
00000310: c7e7 673d 07ca 643c 0d3a 193d a34e 873e
00000320: b141 ae3d 568e cf3d 84a4 3cbe 4511 903e
00000330: 1ef0 373d d52f b5bc fbb7 26bd c6e3 863e
00000340: 1d9b 1bbe ca5f 9d3e 85ac 483e 4cfd bc3d
00000350: eb5f 2a3e c02d 16be 6c11 3dbd 19d7 be3c
00000360: 7caf 3c3e d1cf d6bd 5058 8e3b 413f 0b3e
00000370: 8e88 3bbe fc60 303e b5cd 4c3e 267f 52bc
00000380: 39c3 213e 7725 67bd 3eb3 bbbc 38ce 05be
00000390: 2d59 0ebe 78e2 353e 5f92 61be 155e c33e
000003a0: 1e6a 183e bc94 213e 4e84 233e 4bfa 883e
000003b0: fbd7 d53d 1289 13bd 9971 573b fe5e 09be
000003c0: 97b7 3b3e cfef a5bc 6d74 933e 3d35 2ebc
000003d0: 6411 063e 1352 5d3e 08b8 20be 38fe c23d
000003e0: 6509 203e e835 a8bd 8adc 25be 02f1 85bd
000003f0: a15b 61bc 8377 003e f96f 72bd 28de 2cbc
0.15149283 -0.13765953 -0.2209795 -0.051129952 0.09333026 0.17550473 -0.22463585 -0.05795973
-0.08935873 0.30251983 -0.05488162 0.19862771 -0.030872125 0.030965956 -0.20137237 -0.050116677
-0.0022336284 0.2177746 0.005343102 -0.16745384 0.13038929 -0.25178036 0.1451183 -0.043110453
0.14815012 0.060774993 0.3099613 0.19834083 -0.030788671 0.087844774 0.07948634 0.25705764
-0.22464456 0.010149651 0.04490363 0.14489836 -0.15181313 0.025918506 -0.22030076 0.06480403
-0.13836776 0.09660092 0.116915226 -0.037965167 0.09507938 -0.057202414 0.09856775 -0.11152448
-0.11847601 0.0057905465 0.08863352 0.16185042 0.0018707308 0.13539428 -0.060850926 -0.045012157
-0.26514512 -0.056068957 -0.05274933 0.05233054 0.24506912 -0.013897131 -0.0283968 0.11029017
0.12759477 0.25834197 0.07957054 -0.073689535 0.1867306 -0.0060582883 0.32276696 0.009975863
-0.029475609 -0.051968355 -0.03495829 0.2010301 0.074430786 0.3172295 -0.19732475 -0.013722652
-0.1705339 -0.025957795 0.13083954 0.19505078 -0.043941814 -0.10440149 -0.20520501 0.17835554
-0.01747477 -0.031059155 -0.040238578 0.23778081 -0.01554934 0.31864226 0.12422946 0.22129466
0.15835115 -0.0643594 -0.008109203 -0.22063057 -0.009131764 0.096551076 0.15438175 -0.06735496
0.16375859 0.10121654 0.010441657 -0.10116395 0.16811293 -0.13455872 0.17271134 0.24607046
-0.21076843 0.15432197 0.10963496 -0.017064586 0.23367645 -0.115841344 -0.007111059 -0.02521883
0.00405531 0.08021652 -0.43336815 0.26654834 0.027245782 -0.09944004 0.016948845 -0.22288418
-0.2213528 -0.09452127 0.13828596 -0.11794228 0.26838693 -0.23774244 0.24634276 0.12147563
-0.09798243 0.062472016 -0.027707752 0.18508624 0.054093163 -0.024629828 -0.11438229 0.23102775
-0.13224368 -0.049391396 -0.19038925 0.03628118 -0.16428542 -0.16556805 -0.25883973 -0.15942387
0.15985845 -0.1165137 -0.06051928 0.10396689 0.049333263 -0.1708134 0.25658318 -0.06906543
-0.10347696 0.08528197 -0.046700463 0.041425485 0.03032815 0.04696248 -0.044515196 -0.19200228
-0.1001759 -0.0060788402 -0.0191316 0.25732213 0.035621762 -0.14456004 -0.06540251 -0.12907323
-0.007962139 -0.10844505 0.16140258 -0.055715714 -0.27644718 0.10259726 -0.28370678 0.10857874
0.2233648 0.022565395 -0.19693935 -0.061654534 -0.03404104 -0.06759163 0.09752384 -0.22642392
-0.00756293 -0.0059265974 -0.06704511 0.08786724 0.056617524 0.013964183 0.037408877 0.26427183
0.085086234 0.1013457 -0.18422133 0.28138176 0.044906728 -0.022117535 -0.0407028 0.26345652
-0.1519589 0.30737144 0.19597061 0.09228 0.16638152 -0.1466589 -0.046159193 0.023295926
0.18426317 -0.104888566 0.0043440238 0.13598348 -0.1831381 0.17224497 0.20000346 -0.012847697
0.15797128 -0.056432214 -0.022912618 -0.13066947 -0.13901205 0.17762172 -0.22028492 0.38157716
0.1488423 0.15779394 0.15968439 0.26753458 0.10441586 -0.036019392 0.0032874106 -0.13415143
0.18331753 -0.020255951 0.28799763 -0.01063281 0.13092571 0.2161334 -0.15695202 0.09521145
0.15628584 -0.08213407 -0.1619741 -0.06540109 -0.013754756 0.1254559 -0.059188817 -0.010551013

conv2.bias f4 [16]
00000000: aaaf 743e bd77 72be 6db7 bdbe cf65 8cbe
00000010: 0021 d7bd 28af b1be ade3 c4bd afe9 a7be
00000020: 3993 dfbe 660c 1cbd ce51 9abd 9558 8ebd
00000030: 978b b7be 1837 83be 11df 5dbe 1b9d 52be
0.23895136 -0.23678489 -0.37054005 -0.27421424 -0.10504341 -0.34703946 -0.09613738 -0.32795474
-0.4366701 -0.03809776 -0.07535134 -0.069504894 -0.35848686 -0.2562797 -0.21667124 -0.20567743

conv3.weight f4 [256, 32, 5]
00000000: f927 aebd 52f9 db3d 55ec 113e f912 863d
00000010: 0ed4 00be bdda f6bd dc5f 06be a6c5 05bc
00000020: cef9 8e3d ad25 693e 4f03 00bd 9661 7f3d
00000030: ad10 743d 27d8 40be ddbf 24be 5b17 ba3c
00000040: 3de2 3b3e f1e2 163d 5eb3 5abe 7c9b 063d
00000050: ed73 93bd c99c dfbd 6872 ddbd 913b c2bb
00000060: b8ab fcbd b107 c5bc 6d6e fb3d 6028 22be
00000070: 376e 243d 5a14 a5bd 9147 303d 7151 82bd
00000080: 7702 da3d 5dc3 5e3e 2753 f83d 9c81 8c3d
00000090: 1f79 e33c daa6 20bd 3f9c 143e ec99 60bb
000000a0: b489 72bb 51de 2c3d 4276 5cbd 618f b9bd
000000b0: 1d6b 01be e116 e1bd d956 373d 1702 42bd
000000c0: 776c faba aa2c c93d d1c4 1fbd eb4e 61be
000000d0: 4cee dbbd db78 bdbd 95e4 ffbd 8845 8dbe
000000e0: 75fb fcbd 482d 8fbe af21 f2bd f684 0abe
000000f0: 0f04 c83d d998 1f3e 0200 9c3e 7920 11be
00000100: a0ed f3bc 813f 62bd 99ad 25be 0b63 9a3e
00000110: 34d6 c1bd ad63 d8bc 83e4 0dbe 9626 92bd
00000120: dad9 e33d b0b5 533d 739b dabd 9159 7fbc
00000130: 8c6d 9a3d 8cc7 25bd 1407 c7bd 823a 3fbe
00000140: 84f1 e23d d8e3 04bf 596e 0f3d fb53 3abe
00000150: 7902 223e 1df2 34be 1b93 123d 78f7 4c3e
00000160: 15c6 773c 97a5 9b3c a73b 83bc 1a43 b23c
00000170: 6307 b43e 16c4 543e b8e9 4dbb 212e 0abe
00000180: b803 41be 4f83 47bd 4ce4 f23d 0635 cbbd
00000190: 6abc 5b3e eebf 9c3d 2312 4abe c48b df3d
000001a0: e51e 7abd 409a 65be 5105 01be 403c e63d
000001b0: b962 e8bc a68c a53d ed40 19bd 612d 18bf
000001c0: 5667 a33d 106d e1bd f24b d63d 2ba9 62bc
000001d0: ee01 21be 8255 13be ffd0 503d cbaa ff3d
000001e0: e4e2 ec3d 4549 e23d 2d71 c83d b94e 273e
000001f0: 84c9 143e 03b2 96bd fbe4 303e d30e 84bd
00000200: 7b1f ac3d 2b03 50be f73d bfbd e0be 6dbe
00000210: c668 4abd dd21 8bbe 8133 7bbd c881 953d
00000220: d604 cd3d b5f2 183d af28 c1be 030e 953b
00000230: 8ed0 0b3d 926e dd3d 7a14 903e ba76 b9bd
00000240: 0596 283e 3fce 45be 32a2 103e 79d5 9ebd
00000250: 9ec5 8a3e a580 0f3d 719d 18be 78f0 98bd
00000260: 8b21 dcbd cf1a e53d e953 fdba ee02 84bc
00000270: 5ff6 243d e903 35be ffb1 163d 3000 103e
00000280: 9f11 18be 19d4 34bc fe54 823e 7278 89bd
00000290: 673d d83d 89ca a33d 3d7b 3f3e b7cc 9cbd
000002a0: d0b6 0bbe ae41 cbbc 4df8 32bd 53b2 533b
000002b0: 4887 253e 395d 10be 31e2 0f3e f035 2abe
000002c0: e4e2 003d 304f 3ebe c8b1 89be c213 c0bd
000002d0: 19c3 cbbd c72c 3f3e aa6a 17bd bc83 e4bd
000002e0: 3981 113d 5812 5f3e 355f 8bbd a99b 3a3e
000002f0: 30b7 4a3d dd90 6a3d 82f8 c13c c2d2 243d
00000300: 9e48 c0bd b6a9 d4bd 6860 1c3b b7e9 27bd
00000310: 7d55 dc3d 83f8 87be f7d2 89be 08ba b83d
00000320: 38da ecbd 33ad a23d 9651 28be e0fe 1c3e
00000330: 239a 87bd 1aae 4c3d 8bae 6bbb 127e 0b3d
00000340: 13fd f23c 16cb 08be 55e1 bdbd e69a 53be
00000350: 566d 333e cb63 32be 6d93 6d3c be01 be3d
00000360: 70ca d93d 8b22 423d 1a1b d9bd 042d 1ebe
00000370: 8bd6 5e3e 9830 e7bc 4dfe 463d 4213 3c3d
00000380: 47ab a1bd ffa7 2c3d af1e adbd d104 4f3d
00000390: 55c7 503d 888d a2ba 0a03 9a3e 85f0 debb
000003a0: 0455 563d abf3 81bd c63f 8c3d 3a7c 36be
000003b0: 02db a0bd 2106 38be a2fd 65bd 5fb0 95be
000003c0: 7586 0dbe 798f 58be 4d89 50be 472e 833d
000003d0: 2fd0 f9bd 302d 0e3d fd55 1fbd 2866 9e3e
000003e0: 8ed0 373d c8ec 343e 9c7c b63d 30fc babd
000003f0: c5d0 713e bc06 fdbc 9715 90bd b787 16be
-0.08503718 0.107409135 0.1425031 0.065465875 -0.12580892 -0.1205344 -0.13122505 -0.008164799
0.0698124 0.22768278 -0.031253155 0.062348925 0.059586216 -0.18832456 -0.16088815 0.022716215
0.18348022 0.036837522 -0.21357486 0.032863125 -0.071998455 -0.10918576 -0.10812837 -0.005927511
-0.1233744 -0.02405152 0.122769214 -0.15835714 0.04014417 -0.080605224 0.043037 -0.0636319
0.106450014 0.21754213 0.12125235 0.068606585 0.027767716 -0.039221622 0.14512728 -0.0034271432
-0.0037008347 0.042204205 -0.053823717 -0.090605505 -0.12638517 -0.10990692 0.04476056 -0.047365274
-0.0019105811 0.09822972 -0.039006058 -0.22002761 -0.10738811 -0.09251567 -0.124947704 -0.2759211
-0.12352649 -0.27964234 -0.11822831 -0.13527283 0.09766399 0.1558565 0.30468756 -0.14172544
-0.029776394 -0.055236343 -0.16179504 0.3015369 -0.09464684 -0.026414717 -0.13856702 -0.07136266
0.11125536 0.051686943 -0.10674181 -0.015585319 0.07540426 -0.040473506 -0.09718147 -0.18674663
0.11081222 -0.5191016 0.035017345 -0.18196099 0.15821256 -0.17670484 0.035784822 0.20016277
0.01512291 0.018999858 -0.016019655 0.021760512 0.35161886 0.20777926 -0.0031419825 -0.1349416
-0.18849075 -0.04870921 0.118599504 -0.09922223 0.21458593 0.07653795 -0.19733481 0.1091533
-0.06106462 -0.22422123 -0.12599684 0.112419605 -0.028367387 0.08083467 -0.037415434 -0.5944424
0.07978694 -0.1100713 0.10463704 -0.013834278 -0.15723392 -0.14388087 0.050980564 0.12483748
0.115667135 0.11049131 0.097872116 0.16338624 0.14529997 -0.07358172 0.17274849 -0.0644814
0.08404442 -0.20313708 -0.09337991 -0.23217344 -0.049416326 -0.27174273 -0.061328415 0.073001444
0.10010688 0.03734084 -0.37726352 0.0045487895 0.03413444 0.10812105 0.28140622 -0.090558484
0.16463478 -0.19316958 0.14124373 -0.077555604 0.27103895 0.035034794 -0.14903809 -0.07467741
-0.10748585 0.11186754 -0.0019327375 -0.016114678 0.04027402 -0.17677273 0.036790844 0.14062572
-0.14850472 -0.011036896 0.2545547 -0.06712426 0.105585866 0.07997615 0.18699355 -0.07656234
-0.13643956 -0.024811592 -0.04369383 0.0032302334 0.16164887 -0.14098062 0.14051129 -0.16622138
0.03146638 -0.18584895 -0.2689345 -0.093787685 -0.09949321 0.18669425 -0.036966957 -0.11157939
0.035523627 0.21784341 -0.06805269 0.18223442 0.049491107 0.05726706 0.023678068 0.040240057
-0.09388851 -0.10383932 0.0023861174 -0.040994372 0.10758493 -0.26556787 -0.26918766 0.09019858
-0.115650594 0.079431914 -0.16437373 0.15331602 -0.06621196 0.049970724 -0.003596219 0.034055777
0.02966169 -0.13358721 -0.09271494 -0.20664558 0.17522177 -0.1742088 0.014500481 0.09277676
0.10634315 0.047396224 -0.10600872 -0.1544686 0.21761529 -0.028221413 0.048582364 0.045916803
-0.07893997 0.0421524 -0.08453118 0.050541703 0.050971348 -0.0012401799 0.30080444 -0.0068035745
0.05232717 -0.06345304 0.06848101 -0.17820826 -0.078542724 -0.17971088 -0.056150086 -0.29236123
-0.13820823 -0.2114848 -0.20364876 0.06405311 -0.12197911 0.034711063 -0.038900364 0.30937314
0.044876628 0.1766845 0.08910486 -0.09130132 0.23614796 -0.030887 -0.07035368 -0.14700209

conv3.bias f4 [256]
00000000: 83e4 25be 4743 ebbd 1664 50bc d933 27be
00000010: 54e7 7bbd 6b7e 323d f6a2 d83d a857 3fbd
00000020: 23c6 b6bc 51e7 04be 7d64 02be 6db3 afbd
00000030: 0166 94bb 5a13 1cbd 592a 42be 1401 b2bd
00000040: e626 bfbd c850 01be cd83 09be 89ca 13be
00000050: d11d 18bd a7fe 4dbd 3e0e 0fbe 0599 14be
00000060: bc09 9abd 889d 2fbe 27d9 03be d83b a7bd
00000070: 8857 abbc e098 e23c 321d 5bbd a938 b4bd
00000080: 825c 623b 1d66 52be 04a8 03be f17f 35be
00000090: 2951 0cbe e9ab 42bd 4406 58be 59eb afbd
000000a0: 4734 d2bb 046c e43d 8bbd 99bc 6479 c1bc
000000b0: 9c8a 153d 8e16 79bd 54cc 0dbd 57d7 8abd
000000c0: 8d1a 4dbe 81b4 fdbd dee8 c4bd 8208 14be
000000d0: 9cf8 3ebe d100 c83b ecc1 debd abd4 143c
000000e0: 8d7a efbd 4e04 c0bd 156f b1bd dc98 eebd
000000f0: cc2a 183e eb70 353d ca0f 14be ed0c d8bc
00000100: 024e b2bd 3cfb f6bc ee24 ecbd bad4 b6bd
00000110: d4f5 d83c 4020 4a3c 2abd 7bbe 40d6 28be
00000120: e24f ccbd c90a ad3d 20fc 2ebe 6f06 0c3d
00000130: f491 00bd 8bd9 edbd fbf3 ccbc f9cd 63bc
00000140: af4c 3bbd 399d 9a3d 0ad6 51be 949a 0cbd
00000150: 5462 bcbd 2539 dbbd c461 08be ad41 06be
00000160: 4c69 1abe e7d7 64be 842c 423b 38d2 88be
00000170: 5484 2abe c59b 303b a93d 70bd 448b 9ebd
00000180: 8ded a6bd f929 57bd 5012 6abe d7b0 e2bd
00000190: af2c a3bd 2af8 5abe 3dfb 17be 6075 afbd
000001a0: 8d48 3ebe f45b 8bbe 6ca3 a5bc 6ca6 0bbd
000001b0: 8e40 09be f094 28be b522 82be 052c d4bc
000001c0: c464 dbbd 3299 02bd 1cfc 13be 495f ebbd
000001d0: 9f20 543e 0fc3 5fbe bb05 b33d 257e 6bbc
000001e0: 85c7 3cbe 42a8 70bd 7981 7cbd baf5 43be
000001f0: 2e29 0dbe e318 0bbe 30bb 34be d104 06be
00000200: 8ee7 d2bd 1037 123e d73b 23bd 84ae b13d
00000210: f21c 01be f719 4bbe 2059 9c3d 32de 94bc
00000220: 3f19 15be 5bcc e5bc 5b7d 843e c148 16be
00000230: f531 dabc 3019 37be dbed b33d e4f9 b1bc
00000240: b2be 08be 0496 84be b7a3 14be 91fb 09be
00000250: 9777 19be 1fc5 22be eed3 973d 3e40 18be
00000260: 6aca 853e f9d3 cc3d 817c 70be 6b13 58bd
00000270: 23a5 4fbe 45c3 8ebd ed8c a1bc 818a 20bc
00000280: 56ba 29be 7e2a 18bd 9ac0 cebc e1d2 75bd
00000290: 2a8d eebd 365c 543c 0a94 413d f345 07bd
000002a0: b119 a13c 61ae 153d 294d a63c af32 4f3d
000002b0: d249 51be 37f9 e83d 8fba 03bc bb9c 6dbc
000002c0: a9fb acbd 2462 5bbc 8199 e2bc 8521 aebd
000002d0: 6097 2abe 1f8d 13bd c375 b0bd ad25 be3d
000002e0: 5c85 d3bd 95cf e4bd 70b0 3dbe 4ff7 77bd
000002f0: 5b48 a4bd 532e bcbb 9335 1abe 7de0 01be
00000300: e739 0e3e ef5c b4bd fc73 1dbe 4405 df3d
00000310: c239 e0bd 14df 813c bc1d 99bc e1d4 b1bd
00000320: c94f 89bd 6849 c8bd 5287 cf3d fe3a 92bd
00000330: 1b2f 28be 9ed0 4abc a9c4 dabd 26d9 2ebd
00000340: 154b 86bd 4306 d3bd 62ef eabd 4753 03be
00000350: 10d2 933c 5385 4abd 1291 15be 261c 41be
00000360: e52c 36be ba55 19be 3350 483c 3691 83bd
00000370: 12c0 be3a 1541 7bbd c53c 62be d4e0 bdbd
00000380: c38e 56bd 4bb3 06bd 16a0 cabd c6ae 2abe
00000390: 0262 8cbe 035f 0bbe 31bc 19be 401c 3a3d
000003a0: ca1c 09bd 435a 87be 94b1 f83d 7785 6dbd
000003b0: 3210 0bbd b791 843d 4a8b 243c 1de8 a0bd
000003c0: 5744 1c3e 997e a4bc 3d7d 00be bb1a 753d
000003d0: 7b48 6bbd bb30 4dbd df93 cfbd fbfc 65bd
000003e0: 2fc8 2dbe b957 5ebe 98c7 0c3a 7212 2ebe
000003f0: c43f 92bd 00a9 0abd 55da 72bc f6e1 00bd
-0.16200452 -0.114874415 -0.012719175 -0.16328372 -0.06149991 0.043577593 0.10577957 -0.046714455
-0.022311276 -0.12978865 -0.12733646 -0.085791446 -0.0045287614 -0.038104393 -0.18961467 -0.08691612
-0.09333591 -0.12628472 -0.13429184 -0.1443273 -0.03713781 -0.050291684 -0.13970277 -0.14511497
-0.07521388 -0.17149937 -0.12875806 -0.08165711 -0.020915762 0.027660787 -0.05349464 -0.087998696
0.0034540002 -0.20546766 -0.12857062 -0.17724587 -0.13702835 -0.047527228 -0.2109614 -0.08589811
-0.0064149234 0.11153415 -0.018767139 -0.023617454 0.03650914 -0.060812525 -0.03461869 -0.06779354
-0.2002966 -0.12387944 -0.096147284 -0.1445637 -0.18649524 0.006103613 -0.108768314 0.009083907
-0.116932966 -0.09375821 -0.08663765 -0.11650249 0.14860076 0.04429714 -0.14459148 -0.026373351
-0.08706285 -0.030149095 -0.11530481 -0.08927293 0.026484407 0.012336791 -0.24583879 -0.1648798
-0.09976174 0.08449323 -0.17088366 0.034185823 -0.03138919 -0.11613759 -0.025018683 -0.013904088
-0.045727428 0.07549519 -0.20491806 -0.034327105 -0.09198442 -0.10704259 -0.13318545 -0.13110991
-0.1507923 -0.22347985 0.0029628584 -0.26722884 -0.16652042 0.0026948315 -0.058652554 -0.077414066
-0.08150778 -0.052530263 -0.22858548 -0.11068886 -0.07967507 -0.2138373 -0.14841934 -0.085673094
-0.18582363 -0.27218592 -0.020219527 -0.03409426 -0.13403532 -0.16463065 -0.25417104 -0.025899896
-0.10712579 -0.03188438 -0.14451641 -0.114927836 0.20715569 -0.21851753 0.087413274 -0.014373337
-0.18435486 -0.058754213 -0.061646912 -0.19136706 -0.1378524 -0.13583712 -0.17649531 -0.13087775
-0.10298072 0.14278817 -0.03985199 0.08675864 -0.12608698 -0.19834124 0.07634187 -0.018172357
-0.14560412 -0.028051546 0.2587689 -0.14676191 -0.02663515 -0.17880702 0.08785602 -0.021725602
-0.13353994 -0.25895703 -0.14515577 -0.13474871 -0.14987026 -0.15895508 0.07413469 -0.14868256
0.26130992 0.10001368 -0.23484994 -0.052752893 -0.20277838 -0.069708385 -0.019720519 -0.009798647
-0.16574988 -0.0371499 -0.025238324 -0.060015563 -0.11648019 0.012961438 0.04726032 -0.033025693
0.01966557 0.036543254 0.020300465 0.050585445 -0.20438316 0.11375659 -0.0080400845 -0.0145026995
-0.08446438 -0.013390098 -0.027661087 -0.08502487 -0.16659307 -0.036023255 -0.08616211 0.0928453
-0.10328171 -0.11172406 -0.18524337 -0.060538586 -0.08021613 -0.005742827 -0.150595 -0.12683292
0.13889275 -0.08806788 -0.15376276 0.10889676 -0.109485164 0.015853442 -0.018690936 -0.086831816
-0.06704671 -0.09779626 0.10133232 -0.07140158 -0.1642422 -0.01237884 -0.10682041 -0.042687558
-0.065572895 -0.10303929 -0.1147144 -0.12824737 0.018044502 -0.049443554 -0.14606121 -0.18858394
-0.17790563 -0.14974108 0.012226152 -0.06424181 0.0014553091 -0.061341364 -0.22093494 -0.09271398
-0.052382242 -0.03288583 -0.09893815 -0.16668233 -0.27418524 -0.13610463 -0.15013196 0.045437098
-0.03347472 -0.26436052 0.12143245 -0.05798861 -0.033950992 0.064731054 0.010042975 -0.07856772
0.15260445 -0.020079898 -0.12547775 0.059839945 -0.05744217 -0.0500953 -0.10135626 -0.056149464
-0.16970895 -0.21713151 0.0005370318 -0.16999224 -0.071410686 -0.033852577 -0.014822562 -0.031465493

fc.weight f4 [8, 256]
00000000: d381 163d 961d b83c f0e5 9f3d 0094 05be
00000010: 2533 58bd c966 49be e434 533d a608 2dbe
00000020: 3337 bb3c 5b00 de3c ef11 8cbc 925b e2bd
00000030: d248 c33d a9bc 55be e019 c5bc 0ee7 27bc
00000040: d50a 193d 3e3a 33bd 5bfa 573c 52a8 353d
00000050: d61d 00be 5fbe 46be 151b bebd 8e88 f6bd
00000060: 9e80 3fbe f8e2 b13d 771d f43d 222c c03d
00000070: b25a a43c 2d74 873d bbb6 ad3c 5820 aa3d
00000080: 8e01 cb3d d7ea 12bd 3efb 80bc 99b2 ab3c
00000090: 7866 0c3c c6f7 9b3c 896f 03bd 58c2 e23c
000000a0: cf06 403e 8147 e13d dad2 d9bc 2729 823d
000000b0: 9a1f b7bd 9390 66bd 092e a7bc affe 8fbd
000000c0: 04f5 b03c 457e 3e3d 1a0f 633d a667 903c
000000d0: bdee 7abd 8706 d3bd 9a8e 863c 2d19 2c3d
000000e0: bdf3 82be a1c7 b2bd 3e11 21be fdaf 063d
000000f0: 5674 d63d 57a8 a83c bc1b 9dbb 9121 ad3d
00000100: ac3e 4f3d 8e4c 493d 762f 13bd a4b6 4a3c
00000110: 4939 a8bc 5547 6ebc 94ae 293d f76e 373d
00000120: fc66 9d3c 80e5 c7bd 340c 32bc e978 40bc
00000130: 3169 11be 7e45 293c eb1a 2b3d f71f 3ebd
00000140: 2b24 ebbb 169f 10bd e9e5 1f3d 925b b5bd
00000150: 1c28 dcbd e5c9 56bc 56e6 ed3c bde2 c6bc
00000160: d3d5 833d a89c 9a3c 30f7 a5bc 8f40 3dbe
00000170: 514e ae3d a667 7e3d 6495 0f3c a068 ffbd
00000180: bdb3 1bbd 6c5e 453d c9d7 983d 9bd6 e03d
00000190: cbc0 e6bc 8a34 5d3e de95 52bb 7532 c8bd
000001a0: 972e b63c 5628 11be e68c f2bd 6406 eab9
000001b0: 2796 6fbc 1c9b 3dbe 7288 4abd c86b 893b
000001c0: 8bd2 23be 1522 31be b9cb 94be 6af0 693c
000001d0: 6ae8 a8bd 4c0d 76be 22ee d23d 15ca 60bc
000001e0: d3fe 9f3d e500 af3d 9315 c1bd b561 5ebd
000001f0: 8507 563d 9cb6 d23c dbff f03d 460f f5bc
00000200: 0b6d 5c3d 1887 c3bd dba5 8abc 25d0 c9bc
00000210: 6927 bbbc 2ca5 71bc 81d3 cabc 4c24 843c
00000220: 9a5e 70bd 3cac 4fbe 45f9 473e d6a8 dd3b
00000230: 4849 5d3d 3ef1 d5be 70ff 963d b5e3 93bd
00000240: 81db c83d d50e 95bd 1085 833d 8f60 31be
00000250: 4d1c a7bc 6a2f c4bb 5e9c 943d 4035 89bc
00000260: 934a 643e e581 b0bd ddd3 043e 69cc 1d3d
00000270: d78c e73c edf6 6cbd 1f8d a7bc 09dc 86be
00000280: a546 24bd c067 fbbc 4d86 56bd b3f8 04bd
00000290: 86a1 9b3d b899 533d 2238 7fbd 71dc d9bc
000002a0: b761 633c a03a 09be 8c61 a3bc fd3a 2d3d
000002b0: 05ba a0bd 7945 20be 605f 643d eece 1ebd
000002c0: 8327 f33d 1c88 04bc 7936 d93d 27b7 153c
000002d0: 3917 25be ec2c e33d 3f85 b03d 9ab1 a13d
000002e0: e9c3 50bd 0301 9bbd 34f7 bdbd 7f82 b7bd
000002f0: 58fa 30bc 64bd 333d 4305 9ebd 217e ee3d
00000300: d893 00be aa4b 173c 1868 7dbd 0175 d63d
00000310: 98f2 453a 70ef 86bc e3a5 8abe 6b51 17bd
00000320: 6505 c5bd 91a1 553d 9bd1 643d f051 8bbd
00000330: 9b10 b93c 05ac 813d 52bc 6e3d 9e71 4bbd
00000340: bbc0 74bd 302a 8ebd 4746 b8bd 4ce5 f9bc
00000350: 77d9 213c fa8e 30be 1f09 a83d 028e e33b
00000360: 23c8 863d 0d34 273d 3794 2e3d 14ed 83bd
00000370: 1a34 0abe 2762 45bd 1b48 da3c 8c19 0cbe
00000380: ad47 6ebd 4a39 b43c b185 73bd e336 503c
00000390: 19f5 fb3c 276d 1cbe 4c12 3abd 0e28 e73d
000003a0: e588 99bc e3ab be3c 9b20 22bc 4453 85bc
000003b0: 76fa 60bc 10cc 0ebe cdc9 a7bc c989 e5bd
000003c0: 359a 733b dcce efbc 4900 2b3a 7169 db3c
000003d0: 5d89 9d3d 2754 c3bd d2da c23c 1d0f 043b
000003e0: 4acc b6bb 57f5 c83d 3fa0 863d 9eb3 c5bd
000003f0: c555 10be 72c4 19be ebac 063d a200 9e3c
0.036744904 0.022475045 0.07807529 -0.13044739 -0.05278315 -0.19668116 0.051564112 -0.1689783
0.02285347 0.027099779 -0.017098395 -0.11052622 0.09535374 -0.2087275 -0.02406019 -0.010247959
0.037363846 -0.043756716 0.013182248 0.044349976 -0.12511382 -0.19408558 -0.09282509 -0.120377645
-0.18701407 0.08685869 0.119196825 0.09383418 0.020062778 0.06613956 0.021205297 0.0830695
0.09912406 -0.035868492 -0.015744802 0.020959185 0.008569352 0.019039046 -0.03208879 0.027680561
0.18752597 0.109999664 -0.0265898 0.063555054 -0.089415744 -0.05629022 -0.020407693 -0.07030999
0.021601208 0.04650714 0.055434324 0.017627548 -0.061262835 -0.10303979 0.01642542 0.042016197
-0.25576583 -0.087294824 -0.15729234 0.03288268 0.10471408 0.020588083 -0.004794566 0.08453668
0.050596878 0.049145274 -0.035933934 0.0123726465 -0.020535128 -0.014543374 0.041426256 0.04478356
0.019214146 -0.097605705 -0.010867167 -0.011747577 -0.14200284 0.01033151 0.041773718 -0.046417203
-0.0071759424 -0.035307966 0.03903762 -0.08855356 -0.10749838 -0.013109659 0.029040497 -0.02427804
0.06437268 0.018873528 -0.02025947 -0.18481658 0.085110314 0.062110566 0.008763645 -0.124711275
-0.03801321 0.04818575 0.07463033 0.10978433 -0.028168103 0.21602073 -0.0032132785 -0.09775249
0.022239013 -0.14175543 -0.118432805 -0.0004463672 -0.014623201 -0.18516201 -0.04944653 0.0041937567
-0.15998285 -0.17298158 -0.29061678 0.014278511 -0.082474545 -0.2402851 0.102993265 -0.013720055
0.07812276 0.085450925 -0.09427943 -0.0542924 0.052253265 0.02572184 0.117675506 -0.02991451
0.05381493 -0.095472515 -0.01692479 -0.024635384 -0.02284594 -0.014748853 -0.024759056 0.016130589
-0.05868397 -0.20280546 0.19528683 0.0067645116 0.054024965 -0.41785616 0.073729396 -0.07221166
0.09807492 -0.072782196 0.06421864 -0.1732199 -0.020399237 -0.0059870975 0.07256387 -0.016749024
0.22294073 -0.086185254 0.12971444 0.03852502 0.0282654 -0.057852674 -0.020453034 -0.26339749
-0.040106434 -0.03068912 -0.052374173 -0.03246374 0.075991675 0.05166027 -0.06230939 -0.026594372
0.0138782775 -0.1340127 -0.019943975 0.042292584 -0.078479804 -0.15651502 0.05575502 -0.038771562
0.11872771 -0.008089092 0.10606093 0.009137905 -0.1612214 0.110925525 0.08619165 0.07895203
-0.050968084 -0.07568552 -0.09275666 -0.08960437 -0.010801874 0.04388179 -0.07715847 0.11645151
-0.12556398 0.009234348 -0.06186685 0.104715355 0.0007551103 -0.016471595 -0.27079687 -0.03694288
-0.096201696 0.052156035 0.055863958 -0.06802738 0.022590926 0.06331638 0.058285065 -0.0496689
-0.059754115 -0.069416404 -0.08997779 -0.030504845 0.009878508 -0.17242041 0.08204865 0.006944419
0.06581142 0.040821124 0.042621817 -0.064417034 -0.13496438 -0.04818931 0.02664571 -0.1368162
-0.058173824 0.021999974 -0.05945367 0.0127083985 0.03075652 -0.15276013 -0.045427606 0.11286937
-0.018742034 0.023275321 -0.009895469 -0.016275056 -0.01373159 -0.13945031 -0.020481968 -0.11207921
0.0037170772 -0.029273443 0.0006523175 0.026783677 0.076922156 -0.09537535 0.023785982 0.002015061
-0.0055785524 0.0981242 0.06573533 -0.096534 -0.14095218 -0.15016344 0.03287975 0.019287411

fc.bias f4 [8]
00000000: cca4 1f3e f71d 1cbe d5fd aebd 3796 2fbe
00000010: fa53 5bbd 9af4 85be a73d d23d 5142 53bd
0.15590209 -0.15245806 -0.08544508 -0.17147146 -0.053546883 -0.2616318 0.102656655 -0.051576916
