src/main/python/saved_models/kotlin_1_55_CNNClassifier1_128embs_178id_16hd_0hl_Falsebid5kernel0.3dropout_1.pt (torch, 335563 bytes, 9 tensors)

emb.weight f4 [178, 128]
-0.5924075 0.83427054 -1.2326276 0.69184065 -0.08588326 -0.056933485 0.23123057 0.64518064
-0.3434478 1.0917947 -0.27138373 -0.29626912 -0.12805906 1.2528833 0.7521937 1.8228334
-1.2185488 -0.9680071 -1.2514268 0.23546267 -0.43343118 0.055229466 1.6137549 -0.03753465
0.007192562 -0.28158474 0.14244188 0.9907954 -0.1793285 0.75518525 0.86066365 0.90029067
0.34913662 -0.97420937 -1.2660165 0.54245704 0.38198814 -2.8335233 -2.3308864 0.85658246
1.1355362 -1.5024123 -0.04576564 -0.979861 -0.41676828 -0.09010211 0.75581396 -0.2847953
1.5248079 0.53360033 -0.5455047 1.1032406 -0.42537266 1.9137288 -0.4143529 1.0022439
0.2988076 0.47522938 -0.043847412 -0.22873469 -0.4582368 1.8373888 0.24856053 -0.8725566
0.24048279 1.0474721 1.418506 -0.25183827 0.7274868 -0.41896823 -1.2473468 1.4135677
0.0775549 0.80168515 2.7597988 1.425178 0.07342279 -0.87751293 3.128738 0.16940776
2.5357828 1.3987591 -0.28255492 -1.2379038 1.0828702 0.3042527 0.09012385 0.2340972
0.10493715 -1.2715607 0.008921597 -1.3278726 -1.3177131 -1.70188 0.35126776 0.17311811
0.08752045 -0.083998576 -2.0188882 0.41227457 -1.5657812 0.14644842 1.1609154 0.7160694
-0.8196962 -1.2971882 0.17174305 0.07172869 -1.1822876 -1.3572006 0.8708932 -0.15203238
1.7500491 -0.4199409 -1.3916432 0.5486035 -1.2942272 -0.79198676 0.76321805 0.3108113
-0.9742718 -1.0413874 -0.6486695 2.1736283 0.829744 1.3083472 -0.07578641 -0.54029423
0.53076315 -0.27798593 0.25120357 -0.5040375 0.80003273 -0.71586764 -0.8956501 -0.6826084
-0.8015924 0.14367066 -0.7024671 -1.0355967 0.13406004 0.34624878 0.20780307 -0.2791789
0.47693178 0.8141916 0.5693913 -1.9122291 1.6877991 0.37111 -0.25990108 -1.3037374
-2.092835 -0.44179437 -2.9511607 1.2040801 1.5395281 -0.126028 0.53490716 0.10838813
-1.5184674 -1.8574045 -0.40074965 -0.050374866 0.3424002 -0.91930306 -2.1674151 -0.71522033
-1.41757 0.24620827 0.47073886 0.0076503605 -0.5345866 0.59594786 -1.7566053 -0.6509387
-1.0858313 0.50202423 0.28942814 -1.8410242 -0.85077894 -1.4013236 -2.085509 -0.8384031
-0.3772891 1.475983 -0.31187657 -0.44906485 0.92086893 0.19689389 0.4111591 0.56520027
1.2791041 0.04079078 0.5135127 1.7616729 -1.6659936 -1.0897169 1.3642589 -0.42786145
0.43274507 1.7572039 -1.9143378 0.39972317 -0.71287155 -1.0683388 0.61658996 0.9856614
-1.6782727 -0.26570967 -0.45163646 1.6068745 -0.10215798 -1.6349822 -1.3795996 -1.3717505
0.18817526 0.49351734 0.4781054 -0.013081638 -1.3300222 -1.7895545 0.7237359 -0.7080438
0.79169995 0.91838396 -1.1681607 -1.4721041 -0.15976305 1.4383051 1.0295165 0.9873719
0.7355329 0.484821 -0.5880648 0.53197694 -1.612245 1.1233522 1.7689611 -0.71455324
-0.42397478 2.3210962 0.6983962 0.9157535 1.0318135 -1.4341149 0.3572692 0.89347386
-1.1101819 0.36718592 -0.15399833 -0.77532333 1.1532131 -0.61329085 0.837772 2.5403647
00000000: 05a8 17bf c192 553f bec6 9dbf 781c 313f
00000010: 90e3 afbd 1633 69bd b5c7 6c3e 8f2a 253f
00000020: 64d8 afbe eebf 8b3f cff2 8abe 96b0 97be
00000030: ea21 03be 7b5e a03f c48f 403f 9b52 e93f
00000040: 68f9 9bbf 50cf 77bf c12e a0bf 201d 713e
00000050: b1ea ddbe 4b38 623d 858f ce3f efbd 19bd
00000060: 95af eb3b e02b 90be 49dc 113e c4a4 7d3f
00000070: e4a1 37be d253 413f 7454 5c3f 7379 663f
00000080: 09c2 b23e c965 79bf d40c a2bf 77de 0a3f
00000090: f393 c33e 7258 35c0 3e2d 15c0 fd48 5b3f
000000a0: 4059 913f 0c4f c0bf c074 3bbd 2cd8 7abf
000000b0: a762 d5be 7487 b8bd 067d 413f b1d0 91be
000000c0: e82c c33f 089a 083f 32a6 0bbf fd36 8d3f
000000d0: 72ca d9be 11f5 f43f 1026 d4be 8749 803f
000000e0: 4ffd 983e 4451 f33e 5899 33bd 6d39 6abe
000000f0: 049e eabe 8e2f eb3f a786 7e3e df5f 5fbf
00000100: 1f41 763e 9113 863f 9b91 b53f f2f0 80be
00000110: 933c 3a3f 0183 d6be 0fa9 9fbf c9ef b43f
00000120: 1ad5 9e3d 3d3b 4d3f 8ba0 3040 3c6c b63f
00000130: b05e 963d b0a4 60bf 3e3d 4840 3a79 2d3e
00000140: 444a 2240 8a0a b33f 0aab 90be a273 9ebf
00000150: 7e9b 8a3f 03c7 9b3e da92 b83d 2db7 6f3e
00000160: 4ae9 d63d 80c2 a2bf e42b 123c bbf7 a9bf
00000170: d3aa a8bf 34d7 d9bf 5ed9 b33e e045 313e
00000180: ec3d b33d 7207 acbd 7735 01c0 a715 d33e
00000190: 856b c8bf 93f6 153e e098 943f 5350 373f
000001a0: 9cd7 51bf 430a a6bf 69dd 2f3e 7ee6 923d
000001b0: 3355 97bf c0b8 adbf dbf2 5e3f 60ae 1bbe
000001c0: 9c01 e03f 7e02 d7be 5d21 b2bf 4771 0c3f
000001d0: 3da9 a5bf a5bf 4abf 4262 433f a922 9f3e
000001e0: e069 79bf 2f4c 85bf 340f 26bf ba1c 0b40
000001f0: 1a6a 543f ec77 a73f e835 9bbd b950 0abf
00000200: 18e0 073f 2c54 8ebe c19d 803e 9a08 01bf
00000210: f2ce 4c3f 1a43 37bf 5349 65bf 6dbf 2ebf
00000220: 2935 4dbf 671e 133e e2d4 33bf 6f8e 84bf
00000230: 0947 093e 8547 b13e 54ca 543e 89f0 8ebe
00000240: 6730 f43e dc6e 503f a1c3 113f ecc3 f4bf
00000250: cd09 d83f 2102 be3e c111 85be dee0 a6bf
00000260: 02f1 05c0 df32 e2be d1df 3cc0 4c1f 9a3f
00000270: 420f c53f 7c0d 01be adef 083f 99fa dd3d
00000280: 245d c2bf 6ebf edbf 0f2f cdbe e055 4ebd
00000290: 144f af3e 7257 6bbf eeb6 0ac0 ae18 37bf
000002a0: ef72 b5bf 051e 7c3e af04 f13e e0af fa3b
000002b0: abda 08bf 0a90 183f 71d8 e0bf eba3 26bf
000002c0: 85fc 8abf a984 003f ed2f 943e aea6 ebbf
000002d0: a6cc 59bf 925e b3bf fb78 05c0 96a1 56bf
000002e0: 092c c1be 03ed bc3f 49ae 9fbe d4eb e5be
000002f0: 11be 6b3f 8d9e 493e 7283 d23e f7b0 103f
00000300: afb9 a33f 3c14 273d 9175 033f 7f7e e13f
00000310: 473f d5bf d87b 8bbf 09a0 ae3f a810 dbbe
00000320: c390 dd3e 0fec e03f 0509 f5bf 84a8 cc3e
00000330: c07e 36bf 53bf 88bf d7d8 1d3f 4e54 7c3f
00000340: a4d1 d6bf 190b 88be e53c e7be 10ae cd3f
00000350: 3438 d1bd 1947 d1bf b896 b0bf 8595 afbf
00000360: 04b1 403e 4eae fc3e 3bca f43e 5e54 56bc
00000370: 2b3e aabf 1f10 e5bf c246 393f 5c42 35bf
00000380: d9ac 4a3f 361b 6b3f 4a86 95bf e86d bcbf
00000390: ed98 23be 621a b83f 32c7 833f 68c4 7c3f
000003a0: e24b 3c3f 753a f83e 6a8b 16bf a42f 083f
000003b0: 0b5e cebf 01ca 8f3f 516d e23f f6ec 36bf
000003c0: 3913 d9be d78c 1440 18ca 323f d26e 6a3f
000003d0: 7712 843f 1491 b7bf fdeb b63e b4ba 643f
000003e0: 711a 8ebf cbff bb3e bdb1 1dbe 977b 46bf
000003f0: 7d9c 933f a100 1dbf 3a78 563f 5695 2240

conv1.weight f4 [16, 128, 5]
0.008087369 0.2847828 0.18351957 0.0651393 0.025791349 -0.2685281 -0.13886587 -0.20637424
-0.04685142 0.21966133 0.104186706 0.05678273 0.0033240945 0.21204202 0.18284354 -0.0423943
0.08181376 -0.22397573 -0.17744438 -0.1504254 -0.037509136 0.12203095 0.11967975 0.13846317
0.12201855 0.071668394 0.055450063 -0.16026528 0.033699352 0.0503945 0.08407234 0.019591248
0.2125565 -0.08325895 0.010030949 -0.0025796057 0.24269103 -0.038209856 0.14244518 0.09401305
0.07441461 -0.058032285 0.2536698 0.007264321 0.21776949 -0.12876175 -0.20644723 0.0023521162
0.13978454 -0.028600492 -0.17061365 0.03798221 0.17964607 -0.049714707 0.048990157 0.11512806
0.14646411 -0.13471614 0.13588297 -0.045911256 -0.06717472 0.15374245 0.06915412 -0.1173988
-0.23247918 -0.30402353 -0.13612631 0.11210785 -0.01428716 0.12670621 -0.26326975 0.04546744
0.015038372 0.21800601 0.0031264098 0.11521845 -0.005519428 -0.013808609 0.15469438 -0.117329516
-0.10259627 -0.075078495 -0.030939814 -0.041381884 -0.019444922 -0.057177834 -0.07317638 -0.17473362
-0.10161301 -0.018301768 0.13444214 -0.3131003 0.11683237 0.013735777 -0.0647168 -0.24692631
0.07000983 -0.10480139 0.18283153 0.081197515 -0.12977687 0.08463277 -0.1368222 -0.05292755
-0.16608064 -0.086723074 0.11646676 -0.06314636 0.19408125 0.05561964 0.07546369 0.13125518
-0.012011966 -0.07382702 -0.30182314 0.031152083 0.01475915 0.16510282 0.120491095 -0.0339365
-0.2592822 -0.038725983 -0.15063952 -0.20718117 -0.081169955 0.4064852 0.028263682 0.15555333
0.076078504 0.14317082 -0.23554571 0.3936112 -0.15800259 0.083173536 -0.054907974 0.0067205345
0.021505225 0.07752023 0.05988061 0.09418644 -0.23980102 -0.048069134 0.07917701 0.03515454
0.12062655 -0.079263 -0.034632646 -0.13292918 -0.11286402 0.04083414 -0.28322175 -0.05854761
-0.033005256 0.06671048 0.110050246 -0.21886547 -0.15031464 -0.1460794 -0.0535771 -0.17574827
-0.048834935 0.13527365 -0.16901627 -0.16554557 -0.0806763 0.17873523 -0.017302116 -0.0009383964
-0.046692066 0.10886999 -0.0061577223 -0.026304642 0.18147533 -0.03235116 -0.038763102 -0.09051978
-0.22284271 -0.033298187 0.04531374 0.00059691886 0.0075520976 0.09212441 0.09110614 0.11163002
0.058142014 0.050670408 0.31318006 -0.04138448 0.07310409 0.08812817 -0.22554812 0.046190377
0.3092226 -0.007195893 0.073575884 0.13057932 0.23505819 -0.0010560433 0.20066012 0.01803805
0.07101006 -0.058230553 -0.07222982 -0.037403084 -0.032133944 0.09273037 0.09081053 -0.2840494
0.04467754 0.11075513 -0.023389779 -0.003203578 0.1344458 -0.016826425 0.038089342 -0.23139352
0.019037502 -0.3946234 0.061923184 -0.1301037 -0.228556 0.03754536 -0.048591554 -0.06957228
-0.04323797 0.048099034 0.009177834 -0.1631224 0.10014629 0.08642937 0.07324113 0.03231694
0.18419668 0.04365076 -0.06347922 0.21774782 0.15584797 0.13982572 0.18455322 0.07038156
0.3583641 -0.013366185 0.19225211 -0.008878659 -0.044830903 0.16382465 -0.17962192 -0.110074446
-0.051367152 0.042998057 -0.23382935 -0.007903196 0.095927134 -0.030290492 0.34270307 -0.06328413
00000000: e280 043c 0dcf 913e 8eec 3b3e c167 853d
00000010: 6148 d33c 847c 89be db32 0ebe c553 53be
00000020: 46e7 3fbd e6ee 603e d75f d53d 0295 683d
00000030: 0dd9 593b 8b21 593e 563b 3b3e a5a5 2dbd
00000040: f98d a73d e559 65be fbb3 35be 1e09 1abe
00000050: 2ea3 19bd 5deb f93d a81a f53d 4ac9 0d3e
00000060: dde4 f93d e1c6 923d 9b1f 633d 951c 24be
00000070: 5508 0a3d 776a 4e3d 1e2e ac3d d37d a03c
00000080: 69a8 593e ab83 aabd d958 243c 9a0e 29bb
00000090: ff83 783e f081 1cbd 26dd 113e ea89 c03d
000000a0: b066 983d 43b3 6dbd 02e1 813e 8b09 ee3b
000000b0: f7fe 5e3e 1fda 03be e766 53be f625 1a3b
000000c0: ae23 0f3e 944b eabc 58b5 2ebe 3c93 1b3d
000000d0: 24f5 373e a6a1 4bbd e7a9 483d 43c8 eb3d
000000e0: b0fa 153e 07f3 09be e824 0b3e 710d 3cbd
000000f0: e692 89bd a96e 1d3e ada0 8d3d c86e f0bd
00000100: 060f 6ebe f9a8 9bbe b264 0bbe cd98 e53d
00000110: b114 6abc 46bf 013e 4bcb 86be 113c 3a3d
00000120: 8163 763c f83c 5f3e 74e4 4c3b a7f7 eb3d
00000130: 51dc b4bb 813d 62bc 3468 1e3e 754a f0bd
00000140: fe1d d2bd c1c2 99bd 7e75 fdbc 0d80 29bd
00000150: f54a 9fbc 4e33 6abd 7fdd 95bd 5fed 32be
00000160: 7b1a d0bd 97ed 95bc 33ab 093e af4e a0be
00000170: cf45 ef3d 060c 613c 3e8a 84bd 40da 7cbe
00000180: 5061 8f3d 1ca2 d6bd 3038 3b3e e24a a63d
00000190: 3ae4 04be f253 ad3d 1e1b 0cbe 8fca 58bd
000001a0: 0b11 2abe de9b b1bd 2086 ee3d e152 81bd
000001b0: 3cbd 463e 6bd1 633d b58c 9a3d c267 063e
000001c0: d6cd 44bc 9f32 97bd 9088 9abe a732 ff3c
000001d0: 5dd0 713c b710 293e 09c4 f63d 0001 0bbd
000001e0: a3c0 84be 239f 1ebd 3f41 1abe 4d27 54be
000001f0: 6f3c a6bd d41e d03e 3d89 e73c 5f49 1f3e
00000200: 0ccf 9b3d 5f9b 123e e532 71be 6887 c93e
00000210: 6ecb 21be e356 aa3d 2fe7 60bd ee37 dc3b
00000220: ba2b b03c edc2 9e3d 5f45 753d d2e4 c03d
00000230: 668e 75be 24e4 44bd 8e27 a23d 35fe 0f3d
00000240: 0d0b f73d a454 a2bd f6da 0dbd 961e 08be
00000250: 4025 e7bd b341 273d 7102 91be 9ecf 6fbd
00000260: 8530 07bd 819f 883d 0662 e13d 451e 60be
00000270: 15ec 19be d795 15be a973 5bbd 5bf7 33be
00000280: 2407 48bd 2d85 0a3e 9a12 2dbe c784 29be
00000290: 9e39 a5bd 5e06 373e 2bbd 8dbc b7fe 75ba
000002a0: 2e40 3fbd 3bf7 de3d b8c6 c9bb d57c d7bc
000002b0: abd4 393e a682 04bd 0fc6 1ebd 6f62 b9bd
000002c0: e130 64be ae63 08bd e69a 393d 8c7a 1c3a
000002d0: 9677 f73b b9ab bc3d db95 ba3d 489e e43d
000002e0: 5226 6e3d c68b 4f3d 2359 a03e c682 29bd
000002f0: 99b7 953d 8b7c b43d 16f6 66be 1f32 3d3d
00000300: 6d52 9e3e 87cb ebbb f4ae 963d 96b6 053e
00000310: 18b3 703e ef6a 8aba d979 4d3e 88c4 933c
00000320: b96d 913d 2983 6ebd 3aed 93bd fa33 19bd
00000330: e29e 03bd 6ce9 bd3d dffa b93d ec6e 91be
00000340: ccff 363d 96d3 e23d ec9b bfbc 1ff3 51bb
00000350: 29ac 093e 92d7 89bc 9203 1c3d 6cf2 6cbe
00000360: 89f4 9b3c 140c cabe 2aa3 7d3d e839 05be
00000370: 960a 6abe 2ac9 193d f007 47bd e97b 8ebd
00000380: 4c1a 31bd 7e03 453d a05e 163c 8f09 27be
00000390: 8019 cd3d e201 b13d 72ff 953d c55e 043d
000003a0: 0e9e 3c3e 24cb 323d 6501 82bd 49f9 5e3e
000003b0: 9c96 1f3e 792e 0f3e 85fb 3c3e 3524 903d
000003c0: 807b b73e d8fd 5abc bddd 443e cc77 11bc
000003d0: 9ca0 37bd a6c1 273e cfee 37be b66e e1bd
000003e0: 5d66 52bd bb1e 303d f670 6fbe 687c 01bc
000003f0: 7275 c43d c423 f8bc c776 af3e 1c9b 81bd

conv1.bias f4 [16]
-0.23951924 -0.09091734 0.03830998 -0.091398776 -0.12650326 -0.03516001 -0.14485207 -0.18581417
-0.27085647 -0.058605287 -0.120036654 -0.16581659 -0.2493259 -0.07592506 -0.20105854 -0.23476887
00000000: 8844 75be df32 babd edea 1c3d 482f bbbd
00000010: 128a 01be f103 10bd 1a54 14be 1246 3ebe
00000020: b3ad 8abe 190c 70bd c7d5 f5bd d3cb 29be
00000030: 4a4f 7fbe 997e 9bbd 4ae2 4dbe 4067 70be

conv2.weight f4 [16, 128, 3]
-0.0073949588 0.15456316 -0.018553896 -0.15578285 0.10741748 -0.17318252 -0.021131996 0.13339102
0.025284264 0.0652257 0.11015576 0.02918986 0.112710826 0.044487525 0.069330424 -0.09403166
-0.12121755 -0.1233265 0.12480007 0.013692263 0.0039126836 -0.16059154 -0.11387433 0.023318036
0.28815395 -0.039764438 0.036508814 0.0032874949 0.046591707 0.0024665606 -0.18097165 0.02479873
0.0970289 -0.006359643 0.41120794 -0.082590304 -0.25823426 -0.05814529 0.11493053 0.26281682
0.08342556 0.045681003 0.1295454 0.33257648 -0.030964691 -0.32168287 0.06355734 -0.14507116
-0.06369165 0.12043665 -0.1772328 -0.059895225 0.045586884 0.06896577 0.21374473 -0.17934354
0.09839566 0.11639826 0.05228928 -0.03450705 -0.080132544 -0.31629503 -0.07618353 -0.14941818
0.030976359 0.052346345 0.17866425 0.19236292 0.14691535 0.07992056 -0.24255691 -0.069432974
0.015804302 0.21504216 -0.053259633 -0.11989927 -0.17735672 -0.07576465 0.10130108 -0.028330754
-0.17887871 0.18079735 0.01727171 0.18232638 0.119899236 -0.012199872 0.11950292 0.010834631
0.12715593 0.07271915 -0.124819025 0.20018695 0.09704489 0.10365419 0.20135465 -0.07078803
-0.055897117 0.03370988 0.0073025078 -0.025575679 0.06353533 -0.08291504 0.18214752 0.0018666317
-0.03389786 0.05864195 -0.19430605 -0.1902037 0.019704433 0.26302946 -0.09527489 0.0062024076
-0.15405264 0.0017130962 -0.10479423 -0.26759332 0.11165334 -0.05680158 0.28268057 0.07847574
0.08507338 0.05135093 0.09020198 -0.05215341 0.029749708 -0.01842073 0.22921652 0.006283171
-0.13185808 -0.036641274 -0.077918164 -0.041020803 -0.024722537 -0.1126609 -0.16057974 0.10681808
0.19897395 -0.14340025 0.10408055 -0.0028230688 0.11891679 -0.099077255 -0.042705495 0.111717306
0.10124422 0.148006 0.05919499 0.05492798 0.36523432 0.07382666 0.06266698 -0.09124093
0.16354468 -0.16449898 0.12260933 0.11113346 0.12195118 -0.14273866 -0.20363592 -0.20664775
0.21693599 0.051094662 -0.11887184 -0.26114357 -0.04714832 -0.1340441 -0.06721346 -0.06552164
-0.17194042 0.15895799 -0.10551565 -0.28956425 0.13898602 -0.1250551 0.029166218 -0.12128145
0.006556175 0.04474213 -0.0826298 0.08343322 0.09909268 -0.08011683 -0.1300882 0.0666386
-0.103496626 -0.17590538 -0.038919054 0.119479954 -0.13914101 0.093576215 0.068331115 0.21058118
-0.14446694 -0.012764102 -0.17914557 0.08619603 0.07728548 0.00093602715 -0.13128798 -0.045366257
-0.01907611 0.10019281 -0.35030255 -0.15150839 -0.05439553 0.25109202 0.036790527 -0.123111896
-0.027244983 0.067127354 0.26625222 -0.08285575 0.08576806 0.09819501 -0.13939448 0.013186508
-0.15561977 0.029195748 0.24630558 0.05776329 0.14388774 -0.03864544 -0.032860745 0.010190116
-0.021930626 -0.09666293 0.028400393 -0.095726214 -0.28411168 -0.10927722 -0.031815473 0.26496103
-0.06080272 -0.05932899 -0.05331338 0.07300119 -0.14725637 -0.16616249 -0.05824171 -0.168696
-0.015697902 -0.0646792 0.03465972 -0.09187888 -0.0050295945 0.0859291 -0.0010688867 0.023315923
0.11749185 -0.06938253 0.11875072 -0.008183625 0.014395729 -0.014351733 -0.022537563 0.097236104
00000000: 6951 f2bb ce45 1e3e 57fe 97bc 8a85 1fbe
00000010: b2fd db3d c256 31be 021d adbc a897 083e
00000020: f220 cf3c 0d95 853d 5899 e13d 931f ef3c
00000030: efd4 e63d 8d38 363d 1cfd 8d3d ac93 c0bd
00000040: e840 f8bd 9b92 fcbd 2e97 ff3d 8355 603c
00000050: f835 803b 1c72 24be f236 e9bd 7705 bf3c
00000060: ea88 933e 09e0 22bd 448a 153d 0373 573b
00000070: f2d6 3e3d 05a6 213b a250 39be b526 cb3c
00000080: 17b7 c63d 8d64 d0bb d989 d23e 1b25 a9bd
00000090: 4837 84be c129 6ebd b360 eb3d ed8f 863e
000000a0: 05db aa3d 011c 3b3d 8da7 043e 7747 aa3e
000000b0: aaa9 fdbc 9eb3 a4be 5a2a 823d 898d 14be
000000c0: c570 82bd 7ea7 f63d 847c 35be b254 75bd
000000d0: 50b9 3a3d ed3d 8d3d e6df 5a3e d5a5 37be
000000e0: aa83 c93d 3662 ee3d 492d 563d 4457 0dbd
000000f0: 881c a4bd 6cf1 a1be 1c06 9cbd 1401 19be
00000100: 22c2 fd3c 1f69 563d c3f3 363e c9fa 443e
00000110: fa70 163e 64ad a33d d760 78be e032 8ebd
00000120: 0678 813c 0334 5c3e c626 5abd c08d f5bd
00000130: 009d 35be 7f2a 9bbd f176 cf3d e615 e8bc
00000140: fb2b 37be f122 393e 677d 8d3c c4b3 3a3e
00000150: bb8d f53d f9e1 47bc f2bd f43d bc83 313c
00000160: 2a35 023e c7ed 943d 1ea1 ffbd cffd 4c3e
00000170: 79bf c63d a648 d43d ea2f 4e3e 51f9 90bd
00000180: 60f4 64bd 5f13 0a3d e049 ef3b 1684 d1bc
00000190: d01e 823d 5ccf a9bd e184 3a3e c4a9 f43a
000001a0: 7cd8 0abd 8b32 703d 2af8 46be c2c4 42be
000001b0: 316b a13c ccab 863e 7b1f c3bd 913d cb3b
000001c0: fabf 1dbe f889 e03a 5b9e d6bd fe01 89be
000001d0: 82aa e43d c6a8 68bd 82bb 903e e4b7 a03d
000001e0: f43a ae3d 5a55 523d d1bb b83d d09e 55bd
000001f0: a9b5 f33c 12e7 96bc bcb7 6a3e 0fe3 cd3b
00000200: ce05 07be 2915 16bd 8f93 9fbd 6e05 28bd
00000210: eb86 cabc c2ba e6bd 046f 24be 70c3 da3d
00000220: d4bf 4b3e 84d7 12be 2f28 d53d 3c03 39bb
00000230: a58a f33d 04e9 cabd f5eb 2ebd 0bcc e43d
00000240: 2159 cf3d e38e 173e 7276 723d 29fc 603d
00000250: feff ba3e 6f32 973d 8c57 803d 86dc babd
00000260: 4278 273e 6c72 28be 9a1a fb3d f199 e33d
00000270: 8ac1 f93d 152a 12be ef85 50be 789b 53be
00000280: 7824 5e3e a348 513d 1473 f3bd 9cb4 85be
00000290: 991e 41bd db42 09be 36a7 89bd 3630 86bd
000002a0: 2611 30be e2c5 223e 9718 d8bd c441 94be
000002b0: 5a52 0e3e 720e 00be feed ee3c 6962 f8bd
000002c0: 2fd5 d63b 8643 373d d039 a9bd 09df aa3d
000002d0: 1af1 ca3d 4b14 a4bd d735 05be d179 883d
000002e0: 0af6 d3bd 8a20 34be 9669 1fbd e8b1 f43d
000002f0: fb7a 0ebe e3a4 bf3d 2ff1 8b3d 98a2 573e
00000300: 24ef 13be 8620 51bc f071 37be 8b87 b03d
00000310: da47 9e3d b85f 753a 5b70 06be f8d1 39bd
00000320: 8145 9cbc e331 cd3d db5a b3be 0425 1bbe
00000330: d9cd 5ebd 228f 803e aab1 163d 1722 fcbd
00000340: df30 dfbc 117a 893d 3652 883e 47b0 a9bd
00000350: 2aa7 af3d 771a c93d 6dbd 0ebe 390c 583c
00000360: ca5a 1fbe ec2b ef3c 8837 7c3e 3399 6c3d
00000370: 4f57 133e ae4a 1ebd fd98 06bd 72f4 263c
00000380: dba7 b3bc 37f7 c5bd f1a7 e83c 1b0c c4bd
00000390: 1677 91be bccc dfbd f150 02bd f9a8 873e
000003a0: 460c 79bd f402 73bd 215f 5abd a681 953d
000003b0: 60ca 16be 8026 2abe dc8e 6ebd a5be 2cbe
000003c0: e398 80bc 8776 84bd 5af7 0d3d ff2a bcbd
000003d0: 4ccf a4bb 99fb af3d e319 8cba 0901 bf3c
000003e0: 919f f03d 6e18 8ebd 9433 f33d 9c14 06bc
000003f0: 10dc 6b3c 8823 6bbc b2a0 b8bc b923 c73d

conv2.bias f4 [16]
-0.15229215 0.09776437 -0.24210596 -0.43328276 0.06243859 -0.53357726 -0.35374835 -0.26350152
-0.5085462 -0.35857022 -0.27343446 -0.39048713 -0.13026698 -0.09094496 -0.1964919 -0.39049125
00000000: 79f2 1bbe b038 c83d a0ea 77be 3dd7 ddbe
00000010: 9bbf 7f3d 8598 08bf 811e b5be ace9 86be
00000020: 1530 02bf 8496 b7be 9aff 8bbe eeed c7be
00000030: b564 05be 5a41 babd 2c35 49be 78ee c7be

conv3.weight f4 [256, 32, 5]
-0.060595497 -0.1414299 -0.16893351 -0.13861056 0.026961755 0.2224183 -0.0892898 -0.10006645
-0.0029178204 0.27074602 0.064211935 -0.007387122 -0.20690322 0.036847603 -0.074982725 -0.0244133
-0.26802868 0.102512255 0.066676356 0.088873364 -0.023725994 0.092101425 0.06548141 0.025513303
-0.03659675 -0.048970833 -0.0073629315 0.1643603 -0.02574651 0.12451299 -0.2872585 0.19508947
-0.0057461527 -0.007560368 0.20056936 0.08554769 0.07716025 -0.060353775 -0.08298975 0.030845014
-0.106412254 -0.06412449 -0.09615461 0.042692147 0.082208805 0.1086757 -0.24253137 0.07252782
0.010800994 -0.009973308 0.16451442 -0.23022714 -0.034272347 0.1490496 0.065278985 -0.012211233
-0.003304303 0.11167741 0.038811885 -0.16904314 -0.18738271 -0.15333378 0.09641185 0.17267543
-0.11380545 0.0013391923 -0.3311653 0.10716862 -0.2570651 -0.3094395 0.15466088 -0.2551463
0.19826393 0.1169408 0.13715005 -0.17974631 -0.12972076 -0.28128773 0.069035664 -0.16733673
-0.06981138 -0.06849859 -0.2839243 -0.1950916 -0.42369503 0.105764024 -0.05307145 -0.10218624
0.10365236 0.18878798 -0.24935642 0.13970897 -0.33869195 0.18249305 -0.26524514 -0.19195089
-0.12164531 -0.09623914 -0.49198762 0.06009259 0.22173606 0.027512541 0.2073264 -0.37812024
0.30499688 -0.031539783 -0.14347966 -0.090732075 -0.288361 -0.33653802 -0.042576384 -0.14328617
-0.34659305 -0.29019183 -0.25645414 -0.31899312 -0.20862167 -0.09735322 -0.5578278 -0.013722163
-0.061872546 -0.15740626 0.049457196 -0.11477403 -0.33264098 -0.00921014 -0.029098677 -0.18099117
0.17894782 -0.5402611 -0.16133378 0.3256882 -0.30710685 -0.1138713 0.07617292 0.04131356
0.012809415 0.057925675 -0.41291192 0.010637605 0.011174974 0.25113863 0.18750213 -0.01655149
0.05863602 0.02780866 -0.17641212 -0.050988648 0.1328734 -0.21839824 -0.25000203 -0.19135952
-0.23096041 0.16788514 -0.5881365 -0.26222992 -0.20786673 0.2130589 0.011882707 0.017986828
-0.010932718 0.13962181 -0.43626574 0.16548231 0.010994854 -0.014250647 0.11760748 -0.23386495
-0.112270094 0.3554255 0.15991303 0.20106395 0.1134768 0.22770613 -0.07734652 0.05385446
0.1397488 -0.11076488 0.20098223 0.09437572 -0.07211987 0.019063594 0.045661584 -0.014281577
0.27119657 0.12512597 -0.2432672 0.32046685 -0.2098389 0.20852637 -0.21597631 -0.067418694
-0.16250938 0.13126911 -0.106186114 -0.016382048 0.12762813 0.14636463 -0.04124619 0.3386132
0.016681753 -0.31044263 -0.045140125 -0.092902504 -0.032322366 -0.22177063 0.19133411 -0.20801775
0.1165312 0.032378614 -0.042205106 0.04269782 0.30317643 0.0040458557 0.13822456 0.09098916
-0.10510735 0.1308706 0.054039624 -0.14292958 -0.064892955 -0.07559729 -0.03202582 0.0888222
0.043403685 -0.08335095 0.23873584 -0.08703996 -0.14245607 -0.030017085 0.13620803 0.12952907
-0.0373936 -0.23902778 0.08181332 0.1375779 -0.079214506 -0.23984116 0.1889573 -0.002219669
0.022745008 -0.21726099 0.6451168 -0.10215647 -0.016353363 -0.04274551 -0.15530504 -0.14757726
-0.11958762 -0.03345757 0.018439185 -0.09728331 -0.39147443 0.16793391 0.009524185 -0.028690897
00000000: fc32 78bd 00d3 10be e8fc 2cbe edef 0dbe
00000010: e6de dc3c 9fc1 633e 92dd b6bd a4ef ccbd
00000020: e738 3fbb 399f 8a3e 8c81 833d ac0f f2bb
00000030: 70de 53be 83ed 163d 8b90 99bd 67fe c7bc
00000040: 0e3b 89be f2f1 d13d 9d8d 883d 3d03 b63d
00000050: 045d c2bc ac9f bc3d 1e1b 863d 4601 d13c
00000060: 79e6 15bd a495 48bd bf44 f1bb 114e 283e
00000070: 58ea d2bc ab00 ff3d 8c13 93be 89c5 473e
00000080: 394a bcbb f7bc f7bb 0e62 4d3e a133 af3d
00000090: 3106 9e3d 8535 77bd 88f6 a9bd afae fc3c
000000a0: abee d9bd b353 83bd b5ec c4bd f6dd 2e3d
000000b0: 175d a83d 5e91 de3d 255a 78be 7789 943d
000000c0: a7f6 303c 1667 23bc 7876 283e aac0 6bbe
000000d0: 2961 0cbd 75a0 183e fdb0 853d a011 48bc
000000e0: 018d 58bb 20b7 e43d 36f9 1e3d a519 2dbe
000000f0: 41e1 3fbe 8803 1dbe 9373 c53d d4d1 303e
00000100: d512 e9bd d687 af3a 808e a9be 397b db3d
00000110: 099e 83be db6e 9ebe 6c5f 1e3e 89a2 82be
00000120: b305 4b3e a87e ef3d 1071 0c3e 6b0f 38be
00000130: 85d5 04be f204 90be 9262 8d3d 525a 2bbe
00000140: 45f9 8ebd fd48 8cbd 875e 91be 18c6 47be
00000150: 8eee d8be cf9a d83d 7361 59bd 0547 d1bd
00000160: b047 d43d a351 413e 4a57 7fbe de0f 0f3e
00000170: 0869 adbe 75df 3a3e 36ce 87be c68e 44be
00000180: 2d21 f9bd 0719 c5bd cde5 fbbe a623 763d
00000190: c70e 633e fb61 e13c 5f4d 543e fa98 c1be
000001a0: 8d28 9c3e dc2f 01bd 55ec 12be bdd1 b9bd
000001b0: 0ea4 93be b64e acbe 9364 2ebd 9cb9 12be
000001c0: a574 b1be 0694 94be f54d 83be 1153 a3be
000001d0: eba0 55be 2061 c7bd cdcd 0ebf ecd2 60bc
000001e0: 116e 7dbd 1b2f 21be a193 4a3d a60e ebbd
000001f0: eb4f aabe 21e6 16bc 5960 eebc c055 39be
00000200: 193e 373e 8d4e 0abf af34 25be 9bc0 a63e
00000210: 1c3d 9dbe 5b35 e9bd 8c00 9c3d 6838 293d
00000220: 95de 513c 7943 6d3d 3169 d3be 5949 2e3c
00000230: 3d17 373c 3e95 803e 8f00 403e fe96 87bc
00000240: 532c 703d fdce e33c 61a5 34be 79d9 50bd
00000250: f70f 083e caa3 5fbe 4400 80be c0f3 43be
00000260: e380 6cbe 15ea 2b3e 1d90 16bf 0043 86be
00000270: 04db 54be 1d2c 5a3e afaf 423c 1d59 933c
00000280: 251f 33bc 05f9 0e3e 395e dfbe 3274 293e
00000290: c323 343c 8c7b 69bc 31dc f03d 4b7a 6fbe
000002a0: dded e5bd 55fa b53e 3ec0 233e b5e3 4d3e
000002b0: 8666 e83d cc2b 693e da67 9ebd 7f96 5c3d
000002c0: 4f1a 0f3e b3d8 e2bd 49ce 4d3e 0f48 c13d
000002d0: 95b3 93bd 412b 9c3c a407 3b3d 47fd 69bc
000002e0: 47da 8a3e 0621 003e 091b 79be 3b14 a43e
000002f0: 02e0 56be f087 553e e528 5dbe d012 8abd
00000300: dc68 26be 696b 063e 1b78 d9bd a533 86bc
00000310: f3b0 023e 9ce0 153e c4f1 28bd b65e ad3e
00000320: 2ca8 883c 56f2 9ebe dae4 38bd ab43 bebd
00000330: 7564 04bd d717 63be 17ed 433e 9b02 55be
00000340: e9a7 ee3d 709f 043d 43df 2cbd e9e3 2e3d
00000350: f139 9b3e 1993 843b bd8a 0d3e 8658 ba3d
00000360: 8642 d7bd f102 063e a758 5d3d 225c 12be
00000370: 99e6 84bd c1d2 9abd 822d 03bd 6ae8 b53d
00000380: 10c8 313d e7b3 aabd 2b77 743e 0242 b2bd
00000390: 01e0 11be 64e6 f5bc 1e7a 0b3e 45a3 043e
000003a0: 082a 19bd b3c3 74be be8d a73d 39e1 0c3e
000003b0: 373b a2bd ec98 75be 067e 413e de77 11bb
000003c0: bd53 ba3c aa79 5ebe 6026 253f 6937 d1bd
000003d0: 7df7 85bc ea15 2fbd 4908 1fbe 7e1e 17be
000003e0: 5bea f4bd ce0a 09bd c60d 973c 793c c7bd
000003f0: 566f c8be def6 2b3e 540b 1c3c 2c09 ebbc

conv3.bias f4 [256]
-0.18737897 -0.08074003 0.16943774 0.11672519 -0.23998705 -0.22151907 -0.041314762 -0.1975961
-0.0076625925 0.26347873 -0.02172264 0.122801796 -0.013305823 -0.18688874 -0.05170223 -0.27155083
0.060571555 -0.18457486 0.07796441 -0.03921589 -0.026354136 -0.11995263 -0.0069786585 -0.17871834
-0.29826137 -0.12347395 0.019397834 -0.09090644 -0.1282247 -0.13477546 -0.18348902 -0.1112323
-0.038432445 -0.096023515 -0.105369784 -0.2633088 -0.11405806 0.008847664 -0.15241659 0.07206157
-0.03392567 -0.18901272 -0.045832604 0.21142183 0.027021876 -0.11758659 -0.23106779 -0.12129997
-0.1389994 -0.21459803 -0.028664894 -0.037087064 -0.024116848 -0.17135923 -0.06320626 0.06625285
-0.22806208 -0.031853106 0.13029481 0.051727515 -0.05367593 -0.23153816 -0.26769087 -0.019058578
0.05639394 -0.25190598 -0.08097091 -0.016431982 -0.04623123 -0.13014719 0.0020761339 0.16841835
-0.10694266 -0.16425613 -0.08781101 -0.039263513 -0.12831497 -0.17882685 0.061607923 -0.115885146
-0.2597886 -0.06864875 -0.26231068 0.033417 -8.427889e-05 0.012656935 -0.1258844 -0.20044877
-0.002918988 -0.0022657684 -0.18733354 -0.2558096 0.09458394 -0.06852015 0.016792445 -0.10043452
-0.052042905 0.012412047 -0.062673315 -0.1095309 -0.026758788 -0.023201227 0.027728762 -0.0042996504
-0.21141097 -0.11798348 -0.14131984 0.016883127 -0.14298035 -0.2155849 -0.18792263 -0.17560756
-0.01074064 -0.15444046 -0.06325794 -0.1122628 0.118922666 -0.2632995 -0.05904162 -0.21501659
-0.12239246 -0.0031965873 -0.010278754 -0.011818972 -0.051894184 -0.03410873 -0.08163425 -0.113585964
-0.12794158 -0.08294165 0.0045888126 0.022166401 0.090572186 -0.0444507 -0.17154239 -0.09891781
-0.053641945 0.03430832 -0.13620007 -0.019064968 -0.19209978 -0.25504988 -0.11158165 -0.07548534
-0.12891015 -0.08816969 0.1444602 0.048624896 -0.23311393 0.024229098 -0.108463496 -0.18777321
0.008189076 -0.05633114 -0.094776385 -0.12569794 -0.119606785 -0.09056535 -0.15836167 -0.058167305
0.065957226 -0.1405287 -0.08671559 0.100100264 0.10491083 -0.13665919 -0.18236601 -0.108026624
-0.30367997 -0.20321393 -0.18862434 0.13929169 -0.109139785 -0.090822086 -0.13312067 -0.19305412
0.10989324 -0.089289844 0.15635867 -0.2202332 -0.12892413 -0.02160357 -0.06161849 -0.05350224
-0.009895778 -0.05652743 -0.096244514 -0.10891327 -0.12372175 -0.23116897 -0.12091864 -0.08100518
-0.21879081 -0.013077424 -0.1352885 -0.31192997 -0.2073812 -0.05071395 -0.04368535 -0.12360479
-0.10625094 0.121088326 -0.18025388 -0.040839866 -0.13833866 -0.04357879 -0.066695824 -0.15986992
0.0727653 -0.10936215 0.1550202 -0.07529821 0.15994827 0.2605996 -0.08382294 -0.004467471
0.16148476 0.014428749 -0.0379922 -0.09878675 -0.14902478 -0.32754907 -0.016079964 -0.07998529
-0.21488047 -0.14274356 -0.18975663 -0.15603086 0.050809264 -0.09445002 -0.052231483 -0.11398146
-0.01456173 0.04678006 -0.21497947 -0.21806958 -0.2017014 -0.14122087 -0.11719353 -0.04083205
-0.13583884 -0.12872297 -0.14758042 -0.14299835 0.026205964 0.08068693 -0.12043336 -0.1185638
-0.18930815 -0.035169933 -0.098155044 -0.020182148 -0.1951627 -0.12364551 0.01817079 0.04440692
00000000: 46e0 3fbe 075b a5bd 1681 2d3e 9e0d ef3d
00000010: 2abf 75be e5d5 62be ab39 29bd a256 4abe
00000020: 7c16 fbbb afe6 863e aef3 b1bc 827f fb3d
00000030: ab00 5abc c35f 3fbe b8c5 53bd b608 8bbe
00000040: e119 783d 3101 3dbe ceab 9f3d d7a0 20bd
00000050: a1e4 d7bc b9a9 f5bd 3bad e4bb f101 37be
00000060: b7b5 98be e9df fcbd 35e8 9e3c 282d babd
00000070: 564d 03be 9402 0abe 8ce4 3bbe c3cd e3bd
00000080: 576b 1dbd faa7 c4bd 1dcc d7bd 69d0 86be
00000090: 4697 e9bd cbf5 103c 1813 1cbe 0495 933d
000000a0: a5f5 0abd 8d8c 41be f8ba 3bbd f77e 583e
000000b0: fb5c dd3c 3dd1 f0bd 099d 6cbe 1e6c f8bd
000000c0: dc55 0ebe 96bf 5bbe a4d2 eabc 9be8 17bd
000000d0: b290 c5bc cb78 2fbe 4972 81bd 93af 873d
000000e0: 1b89 69be 6778 02bd 016c 053e 3be0 533d
000000f0: 4bdb 5bbd 5718 6dbe c70e 89be bc20 9cbc
00000100: 55fd 663d d2f9 80be 14d4 a5bd 5d9c 86bc
00000110: f55c 3dbd 4e45 05be bf0f 083b dc75 2c3e
00000120: c104 dbbd c232 28be 42d6 b3bd c7d2 20bd
00000130: 0065 03be 631e 37be 9758 7c3d 3155 edbd
00000140: 0303 85be b797 8cbd 964d 86be 44e0 083d
00000150: e2be b0b8 085f 4f3c d7e7 00be 7142 4dbe
00000160: 7e4c 3fbb 497d 14bb 5dd4 3fbe 7af9 82be
00000170: 3ab5 c13d 4b54 8cbd 4f90 893c 9db0 cdbd
00000180: f12a 55bd e65b 4b3c de5a 80bd bd51 e0bd
00000190: 3f35 dbbc 8010 bebc 6e27 e33c 15e4 8cbb
000001a0: 1e7c 58be 53a1 f1bd 26b6 10be 7c4e 8a3c
000001b0: 7169 12be 4ac2 5cbe ca6e 40be 78d2 33be
000001c0: 82f9 2fbc a425 1ebe 618d 81bd 0aea e5bd
000001d0: ba8d f33d 31cf 86be a0d5 71bd 4f2d 5cbe
000001e0: e6a8 fabd d67d 51bb 3868 28bc 5da4 41bc
000001f0: ff8e 54bd 98b5 0bbd dc2f a7bd c29f e8bd
00000200: 1e03 03be 50dd a9bd c05d 963b 5096 b53c
00000210: e97d b93d f011 36bd cfa8 2fbe 6c95 cabd
00000220: a8b7 5bbd e286 0c3d 0878 0bbe 232e 9cbc
00000230: ceb5 44be e695 82be ec84 e4bd 0f98 9abd
00000240: 0601 04be 4f92 b4bd 60ed 133e e62a 473d
00000250: 6bb5 6ebe 1a7c c63c 1c22 debd 9f47 40be
00000260: 792b 063c 7bbb 66bd 1f1a c2bd f6b6 00be
00000270: 67f4 f4bd 547a b9bd 9029 22be d740 6ebd
00000280: 9514 873d c1e6 0fbe f197 b1bd 5e01 cd3d
00000290: 7ddb d63d 63f0 0bbe 28be 3abe 103d ddbd
000002a0: f17b 9bbe 5017 50be bd26 41be 7ba2 0e3e
000002b0: ae84 dfbd ee00 babd c950 08be fbaf 45be
000002c0: b50f e13d 98dd b6bd 7d1c 203e d084 61be
000002d0: b004 04be f8f9 b0bc ab63 7cbd 2a25 5bbd
000002e0: e721 22bc 4e89 67bd d81b c5bd ec0d dfbd
000002f0: d461 fdbd 8fb7 6cbe 31a4 f7bd 0be6 a5bd
00000300: b30a 60be b142 56bc 1289 0abe 49b5 9fbe
00000310: bd5b 54be 6eb9 4fbd 69ef 32bd 8224 fdbd
00000320: 189a d9bd 28fd f73d 7994 38be b447 27bd
00000330: a6a8 0dbe ac7f 32bd d297 88bd f1b4 23be
00000340: f905 953d 43f9 dfbd 9ebd 1e3e f335 9abd
00000350: 7bc9 233e 506d 853e 5dab abbd dd63 92bb
00000360: 435c 253e 8f66 6c3c b69d 1bbd b550 cabd
00000370: f499 18be 83b4 a7be 21ba 83bc 54cf a3bd
00000380: a009 5cbe 5e2b 12be 904f 42be 8ec6 1fbe
00000390: 601d 503d 036f c1bd aef0 55bd 1d6f e9bd
000003a0: 5394 6ebc 739c 3f3d 9423 5cbe a24d 5fbe
000003b0: d08a 4ebe 349c 10be 2903 f0bd 823f 27bd
000003c0: 5619 0bbe f4cf 03be 521f 17be 296e 12be
000003d0: e4ad d63c 303f a53d c4a5 f6bd 94d1 f2bd
000003e0: ffd9 41be 590e 10bd 8305 c9bd 0855 a5bc
000003f0: bbd8 47be db39 fdbd e9da 943c 08e4 353d

fc.weight f4 [11, 256]
-0.17279474 0.1915111 0.02155703 0.0924763 0.052260168 0.029168373 0.024236772 -0.14553931
0.046302807 0.19399107 0.00064103864 0.076630145 0.056688394 -0.027229214 0.049390018 -0.013683637
-0.24946326 -0.0035556636 -0.12253868 -0.04930956 0.037636984 -0.1226688 -0.09952875 -0.0045022173
0.050316468 -0.07786392 -0.012811283 -0.071764365 0.00898562 -0.029141283 -0.11762877 0.082586356
0.08458718 -0.021735117 -0.06951886 -0.08105152 0.05860374 -0.27725947 -0.07975556 -4.9142404e-06
-0.06807875 0.042847235 0.023945004 0.08584302 -0.121362306 -0.071036875 -0.12796205 0.0073910425
0.10627383 -0.25149953 0.05620459 -0.017747011 0.09448863 0.017385606 0.056782447 0.06701644
-0.11825244 -0.16860946 0.025483198 0.11736985 -0.04944416 0.061849244 -0.11418848 0.090698026
0.07047984 -0.14197803 0.019184027 -0.18512315 0.009935378 0.0860698 0.024690688 0.06731977
0.004981411 -0.119564235 0.010312395 0.06298298 0.0029206374 -0.05553958 -0.27345848 -0.30352
0.03966316 0.052104153 -0.044307437 0.025773989 -0.011739761 0.00021885119 -0.07273611 -0.0997067
0.07467251 -0.023453316 -0.09366757 -0.21887715 0.07243336 -0.061971534 0.060959365 0.02621352
0.103937805 0.04096845 0.028058337 -0.11617657 0.026271032 -0.21063189 -0.058048587 0.049239315
0.039710406 -0.1674044 -0.051411636 -0.21726926 -0.123528086 0.033290282 0.049336407 -0.025186667
0.016549334 0.0046472717 0.06810112 -0.02780171 0.020090897 0.048827175 -0.15319759 -0.0971665
-0.10754221 0.060848348 -0.029249674 0.0490028 -0.00811991 -0.06863961 -0.054158047 -0.042877235
-0.07423657 0.029832236 -0.042274356 0.007022748 -0.052004263 0.03807589 -0.19276321 -0.01343895
-0.044811286 -0.12352276 0.007184358 -0.11575797 -0.07219502 0.0271897 -0.00056110084 -0.003423933
-0.08803986 -0.2332338 0.08806554 0.08379957 0.0032659157 0.0057550804 0.010014959 -0.09161206
-0.022503795 0.032370403 -0.23983495 -0.01656171 -0.14207543 -0.0030499662 -0.35536763 0.0871367
0.096255586 -0.07136336 0.0001358737 0.08261842 0.07824517 -0.164327 -0.05831921 -0.019042036
-0.016478403 -0.06239001 -0.09034535 0.087062724 -0.044075735 0.117474444 -0.18331532 0.019320296
0.14492418 -0.022347039 0.030861614 0.008956884 -0.00882554 0.0021611191 -0.0044854637 -0.26855823
0.019411542 0.025972392 0.11769444 -0.04556541 -0.12614459 -0.1379575 0.022507017 0.0024221882
-0.19021438 -0.15903163 -0.010566148 0.022318996 -0.04362799 0.057431035 -0.025005577 0.013169091
0.042719103 -0.22378743 0.0226282 -0.23377213 -0.13707776 0.023922876 -0.04449172 -0.008456664
0.0872631 0.033483233 0.0032113704 -0.04093322 0.03609588 0.1211038 0.031451788 0.05249256
0.05624908 -0.03882682 -0.021503547 0.0002937492 -0.0022152234 -0.088236764 -0.13780431 0.0041646366
-0.119284794 -0.048316076 -0.039351895 0.027551768 0.03915165 -0.3308748 -0.086385645 0.00846875
-0.15572713 -0.1876199 -0.030610379 0.06332309 -0.097139575 0.07538232 0.017437724 -0.16146408
0.01719631 -0.030635227 -0.05539629 0.018882222 -0.023702092 0.07977575 -0.012052144 -0.05473039
-0.006385938 -0.15754206 -0.052431982 0.0037830444 -0.044631593 0.07575731 -0.005355473 -0.30078888
00000000: 1bf1 30be 7c1b 443e 5e98 b03c 3764 bd3d
00000010: c20e 563d 83f2 ee3c 328c c63c 4208 15be
00000020: 03a8 3d3d 98a5 463e 600b 283a 44f0 9c3d
00000030: 1732 683d cd0f dfbc 304d 4a3d 5531 60bc
00000040: 4c73 7fbe 2306 69bb 8ff5 fabd d2f8 49bd
00000050: 3d29 1a3d c839 fbbd bbd5 cbbd 5687 93bb
00000060: a418 4e3d 1e77 9fbd 6ae6 51bc 32f9 92bd
00000070: 6c38 133c b3b9 eebc 5ae7 f0bd 0923 a93d
00000080: 0b3c ad3d d80d b2bc e75f 8ebd 57fe a5bd
00000090: 7a0a 703d f4f4 8dbe e256 a3bd 01e5 a4b6
000000a0: df6c 8bbd 9580 2f3d 5028 c43c 77ce af3d
000000b0: cd8c f8bd c87b 91bd 7c08 03be 8f30 f23b
000000c0: 18a6 d93d 8cc4 80be c936 663d 2e62 91bc
000000d0: 4183 c13d 426c 8e3c b694 683d ea3f 893d
000000e0: 562e f2bd f5a7 2cbe 24c2 d03c 9b5f f03d
000000f0: f685 4abd a255 7d3d a6db e9bd e3bf b93d
00000100: bc57 903d b062 11be d227 9d3c ec90 3dbe
00000110: ffc7 223c 5d45 b03d 2044 ca3c f3de 893d
00000120: 1b3b a33b 18de f4bd 52f5 283c 38fd 803d
00000130: 2a68 3f3b 787d 63bd c002 8cbe f966 9bbe
00000140: d675 223d 2a6b 553d b77b 35bd f923 d33c
00000150: 2058 40bc 6b7b 6539 abf6 94bd 0733 ccbd
00000160: e7ed 983d 2b21 c0bc c8d4 bfbd 5521 60be
00000170: f157 943d ddd5 7dbd 87b0 793d bcbd d63c
00000180: 58dd d43d 89ce 273d 99da e53c fbed edbd
00000190: 5936 d73c e3af 57be 5bc4 6dbd 2aaf 493d
000001a0: 61a7 223d 0f6c 2bbe 0295 52bd d57b 5ebe
000001b0: 4bfc fcbd 645b 083d f914 4a3d 4554 cebc
000001c0: 7892 873c 2448 983b 9a78 8b3d 69c0 e3bc
000001d0: aa95 a43c 01ff 473d d4df 1cbe 3bff c6bd
000001e0: 173f dcbd 1e3c 793d 039d efbc 29b7 483d
000001f0: 5f09 05bc ed92 8cbd d4d4 5dbd 0aa0 2fbd
00000200: 5809 98bd bc62 f43c e027 2dbd 141f e63b
00000210: 6c02 55bd 77f5 1b3d b863 45be 0b2f 5cbc
00000220: 0a8c 37bd 80f9 fcbd c36a eb3b 8412 edbd
00000230: fcda 93bd efbc de3c d716 13ba 1064 60bb
00000240: 3e4e b4bd d7d4 6ebe b55b b43d 1c9f ab3d
00000250: f908 563b 1d95 bc3b c815 243c 1b9f bbbd
00000260: e159 b8bc d496 043d 4b97 75be 6cac 87bc
00000270: 397c 11be f1e1 47bb bff2 b5be ba74 b23d
00000280: a621 c53d f426 92bd 5279 0e39 d933 a93d
00000290: 013f a03d 5645 28be 20e0 6ebd 0bfe 9bbc
000002a0: b7fd 86bc ab8c 7fbd fc06 b9bd f14d b23d
000002b0: c288 34bd 7196 f03d 03b7 3bbe 9945 9e3c
000002c0: 0167 143e 2311 b7bc 7fd1 fc3c e5bf 123c
000002d0: ff98 10bc 90a1 0d3b ccfa 92bb 7780 89be
000002e0: f404 9f3c 0ec4 d43c c809 f13d cca2 3abd
000002f0: 0c2c 01be bb44 0dbe a360 b83c 93bd 1e3b
00000300: 8fc7 42be 30d9 22be a31d 2dbc 54d6 b63c
00000310: 43b3 32bd ce3c 6b3d 7fd8 ccbc 2cc3 573c
00000320: 3afa 2e3d 8828 65be c65e b93c f661 6fbe
00000330: 1d5e 0cbe e8f9 c33c f33c 36bd d28d 0abc
00000340: ffb6 b23d b725 093d db75 523b 98a9 27bd
00000350: 46d9 133d 4505 f83d 97d3 003d 7002 573d
00000360: 6f65 663d df08 1fbd 3528 b0bc 5a02 9a39
00000370: 482d 11bb 7ab5 b4bd 931c 0dbe 8177 883b
00000380: 964b f4bd 14e7 45bd 742f 21bd 3fb4 e13c
00000390: 7b5d 203d 6c68 a9be f5ea b0bd 83c0 0a3c
000003a0: ef76 1fbe 6e1f 40be 9ec2 fabc 89af 813d
000003b0: 1df1 c6bd 0c62 9a3d 8fd9 8e3c d756 25be
000003c0: 47df 8c3c baf6 fabc 38e7 62bd e4ae 9a3c
000003d0: e42a c2bc 7861 a33d 5b76 45bc f92c 60bd
000003e0: 2141 d1bb b552 21be ebc2 56bd f4ec 773b
000003f0: 9ecf 36bd a626 9b3d f77c afbb 0001 9abe

fc.bias f4 [11]
0.46170828 -0.17406978 -0.23100166 -0.20254447 -0.055071127 -0.058109347 -0.23289165 -0.1367898
-0.2952686 0.114477 -0.17317092
00000000: 0765 ec3e 593f 32be b38b 6cbe d167 4fbe
00000010: 4392 61bd 1104 6ebd 267b 6ebe a012 0cbe
00000020: 722d 97be eb72 ea3d b853 31be
