src/main/python/saved_models/python3_1_28_CNNClassifier1_128embs_102id_16hd_0hl_Falsebid3kernel0.3dropout_2.pt (torch, 277195 bytes, 9 tensors)

emb.weight f4 [102, 128]
0	0x3cca9013	0.024726903
1	0x3eda5d1f	0.4264917
2	0x3fb87eeb	1.4413732
3	0xbe8fc742	-0.2808171
4	0x3f631dec	0.8871753
5	0xbf9165de	-1.1359212
6	0xbef68a76	-0.48152512
7	0xbd75e46e	-0.0600323
8	0xbf543ff1	-0.82910067
9	0xbf8198d1	-1.0124761
10	0xb953f5eb	-0.0002021414
11	0x3fb4ade1	1.4115564
12	0xbf21e142	-0.6323434
13	0xbfee64f6	-1.8624561
14	0xbf7ff791	-0.9998713
15	0xbee9db1b	-0.45674977
16	0xbfa08e37	-1.25434
17	0xbde883a3	-0.11353233
18	0x3e98493d	0.29743376
19	0x3f92dd60	1.1473808
20	0xbf05ad6a	-0.52217734
21	0xbd87e3b4	-0.06635228
22	0x3f4dee6b	0.8044192
23	0x3d299b78	0.041408032
24	0x3f0c7aa7	0.5487465
25	0xbf3693f6	-0.7131952
26	0xbe0161c0	-0.12634945
27	0xbfc02473	-1.5011123
28	0x3d9eb3f5	0.07749168
29	0x3f505f6d	0.8139561
30	0x3f0e4bf3	0.5558464
31	0xbd0840df	-0.03326499
32	0x3f243d85	0.6415637
33	0x3f3b6da0	0.7321415
34	0x3ffbb177	1.9663533
35	0xbf284c83	-0.6574175
36	0x3fa4c6df	1.2873191
37	0xbf877fa6	-1.058583
38	0x3f0e0a63	0.554846
39	0x3ffaa397	1.9581174
40	0x3f9672a0	1.1753731
41	0xbfd0e5e3	-1.6320156
42	0x3f956601	1.1671754
43	0xc017b7d2	-2.3705945
44	0xbe5ded7d	-0.21672626
45	0xbecccc93	-0.39999828
46	0xbf01f2dc	-0.507612
47	0xbee9b89f	-0.45648667
48	0xbf841d58	-1.0321455
49	0x3f176fd8	0.59155035
50	0x3ef3e2fd	0.47634116
51	0x3e263cc2	0.16234115
52	0x3ec7fc44	0.3905965
53	0x3e45e905	0.19327171
54	0x3febb743	1.8415302
55	0xbe56baba	-0.20969668
56	0xbe2f7c1b	-0.17137186
57	0x3fa1c97f	1.2639617
58	0x40067c4c	2.1013365
59	0x3fa39a11	1.2781392
60	0x3e788959	0.24271144
61	0x3e9a5b7c	0.30147922
62	0x3e9049b6	0.28181237
63	0x3d08725b	0.033312183
64	0x3f97c891	1.1858083
65	0x3f24a416	0.64312875
66	0xbfa19082	-1.2622225
67	0xbf36add5	-0.71358997
68	0x3f2f3b8c	0.68450236
69	0x400080bb	2.007857
70	0xbf1537a8	-0.5828805
71	0xbeb25673	-0.3483158
72	0xbed00907	-0.40631887
73	0xbe82d377	-0.2555196
74	0x3e8f96ec	0.28044832
75	0x4029b89b	2.6518924
76	0xc03a6bb8	-2.9128246
77	0x3eef0141	0.46680644
78	0xbfdd5df6	-1.72943
79	0x3feb56aa	1.8385823
80	0x402a04ce	2.6565433
81	0xbc4afe74	-0.012389768
82	0x3f8475bf	1.0348433
83	0x3f1b96f3	0.60777205
84	0xbea2aaee	-0.31771034
85	0xbecc5167	-0.39905855
86	0xbebe41f5	-0.37159696
87	0xbf8a6bcd	-1.0814148
88	0x3f4de236	0.80423295
89	0x3fbe410b	1.48636
90	0x3e0e52da	0.13898793
91	0x3ea42fe3	0.32067785
92	0x3f4b5311	0.79423624
93	0x3eb9d2e3	0.36293706
94	0x3e61bbc4	0.22044283
95	0xbfc805b1	-1.5626737
96	0xbf50dd2a	-0.8158747
97	0x3f9427c9	1.1574641
98	0xbc0999f0	-0.008398518
99	0xbfe08dbd	-1.7543255
100	0x3ff7542a	1.932256
101	0x3f9f0b18	1.242526
102	0xbf38146f	-0.7190618
103	0xbebcae64	-0.368518
104	0x3df785de	0.1208608
105	0xbf31d85b	-0.6947076
106	0x3e29d5f1	0.16585518
107	0xbf9c0a12	-1.2190573
108	0xbf9300bb	-1.1484598
109	0x3ffe52d1	1.9869024
110	0xbc8b00ad	-0.016968096
111	0x3fb986e1	1.4494287
112	0xbeb0e383	-0.34548578
113	0x3f994bb2	1.1976225
114	0x3f3b88ea	0.7325579
115	0x3f55fe26	0.83590925
116	0xbf371dc4	-0.71529794
117	0x3fd698e7	1.6765412
118	0x3ee19d37	0.44065258
119	0xc00a4b83	-2.1608589
120	0x3f25097f	0.64467615
121	0xbe856bb9	-0.26058748
122	0xbf6670fb	-0.90016145
123	0xbfc62f02	-1.5483096
124	0xbe392db6	-0.18083844
125	0x3c85ae73	0.016318535
126	0x3edef1e2	0.43543917
127	0xbf0b011f	-0.54298586
128	0x3e9540f3	0.29151115
129	0x4021e288	2.5294514
130	0xc0123ade	-2.284843
131	0xbf9e3c4c	-1.2362151
132	0xbe66d777	-0.22543131
133	0xbec90ed4	-0.39269125
134	0x3d86965b	0.06571647
135	0x3fa023e7	1.2510957
136	0x3f187193	0.595483
137	0x3f22eed1	0.63645655
138	0xc0035180	-2.0518494
139	0xbe87b880	-0.2650795
140	0xbe80e6fe	-0.25176233
141	0x3f97d175	1.1860796
142	0xbdfc38eb	-0.12315544
143	0xbfa343d8	-1.2755079
144	0xbeb68b90	-0.35653353
145	0x3fb33b2f	1.4002436
146	0x3f936a99	1.1516906
147	0x3f297e1c	0.6620805
148	0xbf036639	-0.51327854
149	0x3f821670	1.0163097
150	0x3f682dde	0.9069499
151	0x3f0b2fb3	0.5436966
152	0x3e4b444c	0.19850272
153	0xbf4e031b	-0.8047349
154	0xbf467bde	-0.77532756
155	0x3fe279af	1.7693385
156	0x3ef210d8	0.47278476
157	0xbf533ffd	-0.82519513
158	0xbf4f3d27	-0.80952686
159	0x3eb1644d	0.34646836
160	0xbbfc7260	-0.0077040642
161	0x3f0b86aa	0.54502356
162	0x3cd3356f	0.025782315
163	0xbf4087b7	-0.75207084
164	0xc00a2b0f	-2.158878
165	0xbdb0a3b2	-0.086249724
166	0xbe92139f	-0.28530595
167	0xc016c9f5	-2.3560765
168	0x3f8257dc	1.0183063
169	0x3f87e1b6	1.0615757
170	0x3e20d28a	0.15705314
171	0x3e3d1142	0.18463615
172	0x3f5aaaf4	0.85417104
173	0x3f134a1f	0.57534975
174	0x3f296488	0.66169024
175	0x3fb0affc	1.3803706
176	0xbf044292	-0.5166408
177	0xbe0435d0	-0.12911153
178	0xbddd0759	-0.10792417
179	0x3d5cbd2b	0.053891342
180	0xbf4c8e18	-0.7990432
181	0xbe3d2cf9	-0.18474187
182	0xbfa5d5f7	-1.2955922
183	0x3ec5f697	0.38664696
184	0x3f11728c	0.5681541
185	0xbf93c291	-1.1543752
186	0x3e3e9033	0.18609695
187	0xbdefbf2b	-0.11706384
188	0xbf2a8c69	-0.666205
189	0xbd3f8f9c	-0.046767816
190	0xbf80eff2	-1.0073225
191	0xbc83e45b	-0.0161001
192	0x3fa7ca0e	1.3108537
193	0xbf95430c	-1.1661086
194	0x3fa97c64	1.3241086
195	0xbf8ef327	-1.1167954
196	0x3f345668	0.70444345
197	0x4005c6e1	2.0902636
198	0x3c94883e	0.018131372
199	0xbf0cbdf3	-0.5497734
200	0x3f05f271	0.5232306
201	0x3fd9589e	1.6980169
202	0xbee32bf8	-0.44369483
203	0x3e6ee888	0.23330891
204	0xbc87e2a7	-0.016587568
205	0x3f9e42ce	1.2364137
206	0xbdab6f03	-0.08370783
207	0x3ed462dd	0.41481677
208	0xbf0461de	-0.51711833
209	0x3e47bd00	0.19505692
210	0xbd2634b4	-0.040577605
211	0x3f82aabb	1.0208353
212	0x3e1f70e3	0.15570407
213	0xbee47faa	-0.4462865
214	0xbe8edf16	-0.27904576
215	0xbc819a37	-0.015820606
216	0x3f94f3b5	1.1636873
217	0x3f9dcaed	1.2327553
218	0xbedeb260	-0.43495464
219	0x3d7c668c	0.061621234
220	0x3f3145b0	0.6924696
221	0x3d7fdd5e	0.06246697
222	0xbf34531f	-0.7043933
223	0xbe9d8eda	-0.3077305
224	0xbf00398f	-0.5008783
225	0x3fc936d5	1.5719858
226	0x3f39bfb6	0.7255815
227	0x3e4447f0	0.19168067
228	0x3fdbad19	1.71622
229	0xc0018e07	-2.0242937
230	0x3eefa002	0.46801764
231	0x3f252017	0.6450209
232	0x3f24bcb6	0.6435045
233	0x3ffc80b0	1.9726772
234	0xbed7d81f	-0.42157075
235	0x3cfa0dea	0.030524213
236	0x3ea47ef5	0.3212811
237	0xbe711e8d	-0.2354681
238	0xbfc5f9fe	-1.5466917
239	0xbe059115	-0.13043626
240	0x3f193c1f	0.5985736
241	0x3fba241a	1.4542267
242	0x3d4681bb	0.048463564
243	0x3f25d68b	0.6478049
244	0xbf7ca2d4	-0.98685956
245	0xbf6ebffb	-0.9326169
246	0xbf0efc7c	-0.5585401
247	0xbe762785	-0.24038513
248	0x3f6b522b	0.91922253
249	0x3f8de33c	1.1084971
250	0x40069a78	2.103178
251	0xbe2a781e	-0.16647384
252	0x3e5f6bb5	0.2181843
253	0x3f28d83a	0.65954936
254	0x4009af37	2.1513193
255	0x3e6b07e8	0.22952235

conv1.weight f4 [16, 128, 3]
0	0x3e61b041	0.22039892
1	0xbe1f244c	-0.1554119
2	0x3e74ebfd	0.23918147
3	0xbdb3c638	-0.087780416
4	0x3e877521	0.2645655
5	0x3e226116	0.15857348
6	0xbe38c900	-0.18045425
7	0xbdc24fb5	-0.09487859
8	0x3dd8454c	0.10560092
9	0xbe084695	-0.13308175
10	0xbd0c0f4d	-0.03419428
11	0x3d9e071c	0.077162
12	0xbe5d583c	-0.2161569
13	0x3dca8c01	0.09889985
14	0x3dfaf48a	0.122536734
15	0x3dd4da46	0.10393195
16	0xbd72a080	-0.059235096
17	0xbe184f1b	-0.14873926
18	0x3dce6932	0.10078658
19	0x3dded774	0.10880938
20	0x3c68fe97	0.014220855
21	0x3d126cc1	0.035748247
22	0xbe035f14	-0.12829238
23	0x3d9dc1bf	0.0770297
24	0x3e47c3c6	0.19508275
25	0x3de9e7d9	0.114211746
26	0xbd9e9ed1	-0.077451356
27	0xbd34d1b0	-0.044145286
28	0xbe180b12	-0.14847973
29	0x3c29a146	0.010353392
30	0x3cdbaead	0.02681669
31	0xbd5ca575	-0.05386873
32	0xbc2488fa	-0.010042423
33	0xbd895369	-0.06705362
34	0xbd4c6241	-0.04989839
35	0x3e34f7d5	0.17672665
36	0x3e1d03b9	0.15333451
37	0x3cde6dc0	0.027151942
38	0xbb4f3210	-0.0031615533
39	0x3c8c5061	0.017128171
40	0xbdc68667	-0.09693604
41	0xbd6a76a8	-0.057242066
42	0x3dded3db	0.10880252
43	0xbe0e7442	-0.13911536
44	0xbdc12e44	-0.094326526
45	0xbd99f7fa	-0.07518001
46	0xbe36c86c	-0.17849892
47	0xbdb7b804	-0.08970645
48	0x3e5c06fa	0.21487036
49	0x3d550c0d	0.052013446
50	0x3d66e5bb	0.05637143
51	0xbda00dfe	-0.07815169
52	0x3e324e19	0.17412604
53	0xbc3052c4	-0.01076192
54	0x3ddbb03c	0.107269734
55	0x3e1394e9	0.14412273
56	0x3e1ed0cd	0.15509339
57	0xbcc0a14c	-0.023514412
58	0x3e828a00	0.2549591
59	0x3e1bd903	0.15219502
60	0xbe90a4d3	-0.2825075
61	0xbe9a9c1d	-0.3019723
62	0x3d9de6de	0.0771005
63	0xbe46cdb6	-0.1941441
64	0xbe862a72	-0.26204258
65	0xbe6dc4e1	-0.23219635
66	0xbe0774cd	-0.1322815
67	0xbe8f8874	-0.28033793
68	0xbe0dd4fc	-0.13850778
69	0xbe50734e	-0.20356485
70	0x3ca5de17	0.020247502
71	0x3e976e7b	0.29576477
72	0xbba6da1a	-0.0050919177
73	0x3df12d39	0.11776204
74	0x3dae5ede	0.08514188
75	0xbe10093e	-0.14066026
76	0x3e389fe0	0.18029737
77	0xbd0fb813	-0.035087656
78	0x3ce83e79	0.028350102
79	0x3d66df65	0.05636539
80	0x3dd132fe	0.10214804
81	0x3e397a4b	0.18113057
82	0x3e54f5e0	0.20796919
83	0x3da560d1	0.08075107
84	0x3d665367	0.056231882
85	0xbc81c0af	-0.015838949
86	0x3e1c5b11	0.15269114
87	0x3e5c6880	0.21524239
88	0x3d62b36f	0.055346902
89	0xbd5ffcac	-0.054684326
90	0xbdbf1693	-0.093304776
91	0xbcd8b7f9	-0.026454912
92	0x3d8c9be1	0.06865669
93	0x3e3cf72e	0.18453667
94	0x3e7af486	0.24507341
95	0xbd24babf	-0.040217157
96	0xbe3e9ff2	-0.18615702
97	0x3d637053	0.055527043
98	0x3db52905	0.088457145
99	0xbe1a7833	-0.15084915
100	0xbd573d7f	-0.05254888
101	0xbe1c1847	-0.15243636
102	0xbe29e6d5	-0.16591962
103	0xbe219588	-0.15779698
104	0x3d1b94c4	0.03798367
105	0xbcfb96c1	-0.030711534
106	0xbd3a5bd9	-0.04549775
107	0xbddd0c22	-0.1079333
108	0xbe2ed288	-0.17072499
109	0x3da78b15	0.08180825
110	0xbdaf5885	-0.08561806
111	0xbd3503af	-0.044192966
112	0x3e23217b	0.1593074
113	0xbd016248	-0.03158787
114	0xbddf7e1d	-0.10912726
115	0xbc29c26a	-0.010361293
116	0x3e5580c6	0.20849904
117	0xbdac52b9	-0.084142156
118	0xbdf25552	-0.1183268
119	0x3d4485f3	0.047979306
120	0x3e074efe	0.13213727
121	0xbcd960ff	-0.02653551
122	0x3e28fbda	0.16502324
123	0xbdcb1e68	-0.09917909
124	0x3dddb8bd	0.10826252
125	0x3be88b85	0.00709671
126	0x3d8c5bb7	0.06853431
127	0x3d5fe04e	0.054657273
128	0xbd8e9d6c	-0.069636196
129	0x3e1f3d88	0.15550816
130	0xbe15136c	-0.1455819
131	0x3d81dd7e	0.063410744
132	0xbdf88597	-0.12134855
133	0x3c86eafd	0.016469473
134	0x3e162189	0.1466123
135	0x3e0cb275	0.13739951
136	0xbde93459	-0.11386938
137	0x3bc97719	0.0061482308
138	0x3dad8813	0.0847322
139	0xbde085da	-0.1096303
140	0xbe0e35d9	-0.13887729
141	0x3e0c2a48	0.13688004
142	0xbde2eb6b	-0.11080059
143	0xbe26e5e0	-0.16298628
144	0x3d02e9bd	0.03196119
145	0xbd201bb7	-0.03908893
146	0xbc59daa8	-0.013296761
147	0xbccd53c9	-0.025064366
148	0x3d256994	0.04038389
149	0x3e071139	0.13190164
150	0xbc9ba967	-0.019001676
151	0xbe75f247	-0.24018203
152	0x3e24675f	0.16055058
153	0xbcb8d1f8	-0.022561058
154	0x3e7f0129	0.24902786
155	0x3d3d3f38	0.04620287
156	0x3db847cf	0.089980714
157	0xbd31a435	-0.04336949
158	0x3cfde072	0.030990813
159	0x3e27cb6a	0.1638619
160	0x3eb5de3c	0.35521114
161	0x3d85d4cd	0.06534729
162	0x3da8c7c4	0.08241227
163	0x3dccb037	0.09994548
164	0xbdae7b99	-0.08519668
165	0xbe22c756	-0.15896353
166	0x3d4d0ec6	0.050062917
167	0xbab8e2c7	-0.0014105671
168	0xbcc63e50	-0.024199635
169	0x3e42c747	0.19021331
170	0xbd8ba423	-0.06818416
171	0x3e2afdcb	0.16698377
172	0x3db2449b	0.08704492
173	0x3e098feb	0.13433807
174	0xbded3fc6	-0.115844294
175	0x3e014cc8	0.12626946
176	0x3e1045bb	0.140891
177	0x3e3b2f6c	0.18279809
178	0x3e695538	0.22786415
179	0x3c934e02	0.017981533
180	0x3cb4786c	0.022030078
181	0xbd384084	-0.044983402
182	0xbe478f6f	-0.1948831
183	0x3c09f63e	0.008420525
184	0x3e73eb29	0.23820175
185	0xbdb6e8f6	-0.089311525
186	0x3d3ab05d	0.04557835
187	0xbdf8b61d	-0.1214411
188	0x3db99b0e	0.090627775
189	0x3da41427	0.08011656
190	0x3e362036	0.17785725
191	0xbbfad91c	-0.007655276
192	0xbd2bab8d	-0.04191165
193	0xbd917559	-0.071024604
194	0xbdae5f81	-0.0851431
195	0xbe6f0bfa	-0.23344412
196	0x3de9102d	0.113800384
197	0x3e137f84	0.14404112
198	0x3e360588	0.17775548
199	0x3d3705b4	0.044683173
200	0xbd0b4d7e	-0.03400945
201	0x3db33932	0.087511435
202	0x3ba4a102	0.0050240764
203	0xbdfffca2	-0.12499358
204	0x3d7173d0	0.058948338
205	0x3b0292cd	0.0019923926
206	0x3dcb4053	0.09924378
207	0x3ddfd71f	0.10929703
208	0xbde90853	-0.11378541
209	0xbde7d327	-0.11319571
210	0xbdf532c0	-0.119725704
211	0xbc409fd5	-0.011756857
212	0xbd55d7a3	-0.0522076
213	0x3db5a981	0.08870221
214	0xbd2c4972	-0.04206223
215	0x3e00c4e5	0.1257511
216	0x3e955971	0.291698
217	0xbdeef97b	-0.116686784
218	0xbe4cd940	-0.2000475
219	0x3e65e457	0.22450386
220	0x3dd3c025	0.10339383
221	0xbd4c3436	-0.04985448
222	0x3db63d4e	0.08898412
223	0xbd33a3aa	-0.043857254
224	0x3de8d7fb	0.1136932
225	0xbd699c3e	-0.05703377
226	0x3d0effa2	0.03491176
227	0x3e171c0d	0.14756794
228	0x3de6c96e	0.112688884
229	0xbe34b428	-0.17646849
230	0xbe17f32b	-0.14838855
231	0x3d8fd4bb	0.07022997
232	0x3d658dbb	0.056043368
233	0xbe0f0234	-0.13965684
234	0x3d2b9a29	0.041895065
235	0x3ba1f35d	0.0049423412
236	0x3d997498	0.074929416
237	0x3de3fd86	0.1113234
238	0x3e0e8443	0.13917641
239	0x3e648930	0.22317958
240	0xbe5b6b24	-0.2142759
241	0x3d94f2ba	0.07272859
242	0x3df0b766	0.117537305
243	0xbd17b9ac	-0.037042305
244	0x3d8b1e92	0.0679294
245	0x3de9d6ef	0.114179485
246	0xbe01fa78	-0.12693202
247	0xbd30c738	-0.04315874
248	0xbe92a70d	-0.28643075
249	0x3d0567b1	0.03256959
250	0x3da5353f	0.080667965
251	0x3d8f7dfa	0.0700645
252	0xbe0241d3	-0.12720422
253	0xbd5837d1	-0.052787606
254	0x3db98591	0.09058679
255	0x3ce468a8	0.027881935

conv1.bias f4 [16]
0	0x3cfcabdb	0.030843666
1	0xbdc7e912	-0.097612515
2	0xbe313c07	-0.17308055
3	0xbcf7eb02	-0.030263428
4	0xbd477865	-0.0486988
5	0x3cea9fd9	0.028640674
6	0xbcf6e325	-0.030137608
7	0x3e03c392	0.12867573
8	0xbd334e71	-0.04377598
9	0xbe1a65f7	-0.15077959
10	0x3c9556c3	0.018229848
11	0x3da735ca	0.08164556
12	0xbdb6d76c	-0.08927807
13	0xbd93956d	-0.07206235
14	0xbe3deed9	-0.18548144
15	0xbe3a6436	-0.1820229

conv2.weight f4 [16, 128, 3]
0	0x3dacc62b	0.08436235
1	0x3e02db92	0.12779072
2	0x3cccba04	0.024991043
3	0x3db1a6b1	0.08674372
4	0x3d333ce7	0.043759253
5	0x3d7bb072	0.06144757
6	0xbd84ba0e	-0.064807996
7	0xbd1f2fb6	-0.03886386
8	0x3e3da152	0.1851857
9	0xbdfb95c6	-0.122844264
10	0xbe02c542	-0.1277056
11	0x3dc9773e	0.09837197
12	0x3d7e5211	0.062089983
13	0xbe3d002c	-0.18457097
14	0x3c39a08d	0.011329782
15	0xbd8e82dc	-0.06958553
16	0x3d5c129e	0.053728692
17	0xbdb95e14	-0.09051147
18	0x3d8ee86d	0.069779254
19	0x3df9b010	0.121917844
20	0xbc72cc2b	-0.014819185
21	0x3c7fb4bf	0.015607058
22	0x3d87a1f1	0.06622685
23	0xbd0b03c8	-0.033939153
24	0x3dfbb6f4	0.12290755
25	0x3d8bc5c3	0.068248294
26	0xbda1d8b8	-0.07902664
27	0x3ccd6947	0.025074614
28	0xbe8fe411	-0.28103688
29	0xbca4b6e6	-0.020106744
30	0xbd041895	-0.032250006
31	0x3d618a5a	0.055063583
32	0x3d6077ee	0.054801874
33	0x3dc4c938	0.09608692
34	0xbe091aa4	-0.13389069
35	0xbd809c1f	-0.06279778
36	0x3e31b4ff	0.17354201
37	0x3e752963	0.23941569
38	0x3db63620	0.08897042
39	0xbc9987d9	-0.018741535
40	0xbd3b9b9d	-0.0458027
41	0xbdd5f84c	-0.104477495
42	0x3e09b42a	0.13447633
43	0x3d59dac5	0.05318715
44	0xbdda489c	-0.106583804
45	0xbdab7243	-0.08371403
46	0xbd1ded6c	-0.0385565
47	0xbdab42b0	-0.08362329
48	0x3dc11f13	0.09429755
49	0x3d3f6a4e	0.04673224
50	0xbe2dea34	-0.16983873
51	0xbdbf9d8e	-0.09356223
52	0xbda1aa21	-0.07893778
53	0x3e294da9	0.16533531
54	0x3e361b68	0.17783892
55	0x3df76a1e	0.12080787
56	0x3da98a12	0.08278288
57	0x3e0f5a2a	0.13999239
58	0x3d7882de	0.06067168
59	0x3d82e70f	0.06391727
60	0xbd8100c2	-0.06298973
61	0xbd7d5cd9	-0.061856125
62	0x3d28de55	0.041227657
63	0xbe21a788	-0.15786564
64	0xbe830c2a	-0.25595218
65	0xbe1a441c	-0.15065044
66	0xbdd88111	-0.105714925
67	0xbe16288f	-0.1466391
68	0x3d80a857	0.06282108
69	0x3d863b76	0.0655431
70	0xbe2fac3d	-0.17155547
71	0x3e4b316c	0.19843072
72	0x3df5be5c	0.11999199
73	0xbddb3113	-0.107027195
74	0xbc39ec41	-0.011347831
75	0xbd95b900	-0.073106766
76	0xba14add2	-0.0005671653
77	0x3d884e21	0.06655527
78	0x3cad3f09	0.021148222
79	0x3ca56ff7	0.02019499
80	0x3c96ca5c	0.01840704
81	0x3e41df1c	0.18932766
82	0x3d80bea7	0.06286364
83	0xbe556318	-0.20838583
84	0x3be8d33a	0.0071052583
85	0xbd454744	-0.048163667
86	0x3e2950a6	0.16534671
87	0x3dc02f55	0.09384028
88	0x3db9579e	0.09049915
89	0xbe048774	-0.12942296
90	0xbd415546	-0.047200464
91	0xbcbff275	-0.023431042
92	0x3b631c63	0.003465437
93	0x3ca1a5d3	0.019732391
94	0x3e02d667	0.127771
95	0x3d7f3b3d	0.062312353
96	0xbe0d8b16	-0.13822588
97	0xbe179bd7	-0.14805542
98	0x3d7e2273	0.062044572
99	0xbd3dc9f5	-0.04633518
100	0xbe0c1f26	-0.13683757
101	0xbe3b3a6a	-0.18284002
102	0xbe256dbd	-0.16155143
103	0xbe0ff874	-0.14059621
104	0xbd397e81	-0.04528666
105	0x3e3cd5fb	0.18441002
106	0xbe57e22a	-0.21082368
107	0xbe56cd5a	-0.20976773
108	0xbe68afa1	-0.22723247
109	0x3ca41819	0.020031022
110	0xbc99d5f7	-0.018778784
111	0x3e19f27d	0.15033908
112	0xbc978c05	-0.018499384
113	0xbc4a20a4	-0.012336884
114	0x3bebdc2a	0.0071978765
115	0xbdd7aa0d	-0.105304815
116	0xbde44262	-0.11145474
117	0xbe220c23	-0.15824942
118	0xbe0961a2	-0.1341615
119	0x3d988154	0.074465424
120	0x3d8fc902	0.07020761
121	0xbd7b7552	-0.061391182
122	0x3e12241e	0.1427159
123	0x3d8d94de	0.0691316
124	0x3c595ada	0.01326629
125	0x3e1b4874	0.15164357
126	0xbdf22d09	-0.11824996
127	0x3d561fcc	0.052276418
128	0x3cf8d8f7	0.030376894
129	0x3e1f4391	0.15553118
130	0xbca19826	-0.01972587
131	0xbe14fcb6	-0.14549527
132	0x3e3f861f	0.18703507
133	0xbe1e001b	-0.15429728
134	0xbe4e1b49	-0.20127596
135	0xbd422f50	-0.047408402
136	0x3e71e663	0.23623042
137	0x3d9fc340	0.07800913
138	0x3e0a2623	0.1349111
139	0x3e4c9b78	0.19981182
140	0x3dbd5b1d	0.09245894
141	0xbe3b9f55	-0.18322499
142	0x3e3be8c3	0.1835051
143	0xbe18f0c7	-0.149356
144	0x3ca83575	0.020533303
145	0x3e86ef35	0.26354375
146	0x3d1b7c3d	0.03796028
147	0x3d6f6f0e	0.05845552
148	0xbd6abb86	-0.057307743
149	0x3d2a1c06	0.04153063
150	0xbdc773c9	-0.09738881
151	0xbe4eff34	-0.2021454
152	0xbcb9515b	-0.022621801
153	0x3c9a0294	0.018800057
154	0x3de0e95c	0.1098201
155	0x3d3b48ef	0.04572385
156	0xbda8ad02	-0.082361236
157	0xbd012169	-0.031526003
158	0xbd41cf77	-0.047316995
159	0x3e036f52	0.12835434
160	0x3e94135f	0.2892103
161	0x3e48ed81	0.1962185
162	0xbd8221b5	-0.06354085
163	0x3e20d6cc	0.15706939
164	0xbdb5e342	-0.088812366
165	0x3d77ae19	0.060468767
166	0xbb96a40f	-0.004597194
167	0x3c7b0ac5	0.015322392
168	0xbd5bf159	-0.053696964
169	0x3e72a7d0	0.23696828
170	0xbea86db0	-0.32896185
171	0x3dda2010	0.10650647
172	0xbd637d47	-0.055539396
173	0x3e8a4d57	0.2701213
174	0x3bbd6329	0.005779643
175	0xbd505ff7	-0.05087277
176	0x3da77328	0.08176261
177	0x3d9b8c39	0.07595105
178	0x3b7f1461	0.003892206
179	0x3de93899	0.11387748
180	0xbde34e89	-0.11098964
181	0xbd6038a3	-0.054741513
182	0x3d07317d	0.03300618
183	0x3de4cd78	0.111720026
184	0x3de41d96	0.111384556
185	0x3e54df2d	0.2078826
186	0x3d4a5be2	0.049404033
187	0xbe24a191	-0.16077258
188	0xbe25bf17	-0.16186176
189	0x3cdb89fd	0.026799196
190	0x3ce664d0	0.028124243
191	0xbe21a80f	-0.15786766
192	0xbe4c5eb3	-0.19958
193	0x3e54e6dd	0.20791192
194	0x3d990495	0.07471577
195	0x3d120a3a	0.035654284
196	0xbe34e3d2	-0.17665032
197	0x3d551342	0.05202032
198	0x3df9a9be	0.12190579
199	0x3e059429	0.130448
200	0x3e2b0b06	0.16703424
201	0x3cbb0623	0.022830075
202	0x3ea2b760	0.3178053
203	0x3e8e654e	0.27811664
204	0xbcbb26a8	-0.022845581
205	0xbe43d0c6	-0.1912261
206	0x3d2eb0f9	0.042649243
207	0xbe5bd960	-0.2146964
208	0x3d9d3a95	0.07677189
209	0xbd6efeb5	-0.058348376
210	0xbe1fe016	-0.15612826
211	0xbe0245a2	-0.12721875
212	0xbe10c8be	-0.14139077
213	0xbe3ca756	-0.18423209
214	0xbe704908	-0.23465359
215	0xbe25ba7a	-0.16184416
216	0x3e838b51	0.25692227
217	0xbdada958	-0.084795654
218	0xbe170e86	-0.14751634
219	0x3e0b32d8	0.13593614
220	0xbddbc19d	-0.10730288
221	0xbdf73e40	-0.1207242
222	0xbcc7414c	-0.024323128
223	0xbe09f9fd	-0.13474269
224	0xbe1b095e	-0.15140292
225	0x3dca2e69	0.09872133
226	0x3cfa3493	0.030542647
227	0x3da7c6f8	0.08192247
228	0x3d772606	0.060338996
229	0xbd17ed09	-0.03709129
230	0xbdb88607	-0.09009939
231	0xbe0c0ea5	-0.13677461
232	0xbd22495e	-0.03962075
233	0xbe5154eb	-0.2044255
234	0xbd51b1bb	-0.051194888
235	0x3d24d187	0.040238883
236	0xbe0db9b4	-0.13840371
237	0x3e0c9bf5	0.13731368
238	0xbcab5f15	-0.020919362
239	0x3d6bd714	0.05757816
240	0xbd740ff4	-0.059585527
241	0xbda06c12	-0.07833113
242	0xbc99ac32	-0.018758867
243	0x3dbf2bdf	0.093345396
244	0xbe082e57	-0.13298927
245	0x3c73cf5b	0.01488098
246	0xbd9e8854	-0.07740846
247	0xbe1f0de1	-0.15532638
248	0xbe290f99	-0.16509856
249	0x3d60ce98	0.054884523
250	0x3e609244	0.21930796
251	0x3cffd7f8	0.031230912
252	0xbe042021	-0.12902881
253	0xbe1fb052	-0.15594605
254	0xbd7f3a4c	-0.062311456
255	0xbdbca4c4	-0.09211114

conv2.bias f4 [16]
0	0xbd4be11b	-0.049775224
1	0x3da7706f	0.08175742
2	0xbe25b0fa	-0.16180792
3	0xbe592bb5	-0.21208079
4	0x3da5569a	0.080731586
5	0x3c28075a	0.010255659
6	0x3ca4f9e6	0.020138692
7	0x3de9603d	0.11395309
8	0xbd516a79	-0.05112693
9	0xbe19edb1	-0.15032078
10	0xbe2908e5	-0.16507299
11	0xbdc4dc37	-0.09612315
12	0xbcaefbf0	-0.021360368
13	0xbe044e69	-0.12920536
14	0xbdc3fe62	-0.09570004
15	0xbda4ec56	-0.0805289

conv3.weight f4 [256, 32, 5]
0	0x3c43ca62	0.011950107
1	0x3dada7d1	0.08479274
2	0xbe8b2114	-0.27173674
3	0xbe5c499d	-0.21512456
4	0xbd40b350	-0.047046006
5	0xbd330623	-0.043707024
6	0x3dba742f	0.091041915
7	0xbdca27af	-0.0987085
8	0x3cb7b4f5	0.022425154
9	0xbc828f7e	-0.015937563
10	0x3e73300a	0.23748794
11	0x3d4820b6	0.04885932
12	0x3e46a779	0.19399823
13	0xbd459a25	-0.048242707
14	0x3df85608	0.12125784
15	0x3dcc129e	0.099644884
16	0x3e23ebf4	0.16007978
17	0xbe313308	-0.17304623
18	0x3e40ebb8	0.1883992
19	0xbbec39e7	-0.007209051
20	0x3da5ae74	0.08089915
21	0xbb06bf83	-0.0020560927
22	0x3de8f0cd	0.11374054
23	0x3e421e4d	0.18956871
24	0x3cc0ee68	0.023551181
25	0xbe10b825	-0.14132746
26	0xbe00bd6c	-0.12572259
27	0xbe26ef39	-0.16302194
28	0xbd1d95d9	-0.038472984
29	0xbdc0fbc5	-0.09423021
30	0x3b942a58	0.0045216493
31	0xbd923fe7	-0.07141095
32	0xbe56dba6	-0.20982227
33	0x3d6987cb	0.057014268
34	0xbcda294e	-0.026631024
35	0x3dc2a036	0.09503214
36	0xbd738def	-0.05946153
37	0x3e0c3b5a	0.13694516
38	0xbd5500cb	-0.05200271
39	0x3c093d14	0.008376379
40	0xbd4678ca	-0.048455037
41	0x3dd91d76	0.10601322
42	0x3e490f68	0.19634783
43	0xbe551ad6	-0.20811018
44	0x3d182a39	0.03714964
45	0x3db15fad	0.08660827
46	0xbd418e5d	-0.04725491
47	0x3d4ac105	0.049500484
48	0x3e78b909	0.24289335
49	0x3d8ca3ab	0.06867155
50	0xbda8a146	-0.082338855
51	0x3d3fe386	0.046847843
52	0xbe7da7a3	-0.2477098
53	0xbd0e1592	-0.03468854
54	0x3ce5aa48	0.028035298
55	0xbc05252f	-0.008126541
56	0xbe104b28	-0.1409117
57	0x3cede470	0.029039592
58	0xbd8a637b	-0.06757256
59	0xbdcd6597	-0.10029142
60	0x3cc38d87	0.023871196
61	0xbe831d26	-0.25608176
62	0xbe11927a	-0.14216033
63	0x3dc07e34	0.09399071
64	0xbe5afa58	-0.21384561
65	0x3ce2de1d	0.027693802
66	0x3d6b2ae5	0.057413954
67	0x3cd9748c	0.026544832
68	0x3e408bf4	0.18803388
69	0xbd8cd802	-0.06877138
70	0x3d909768	0.070601285
71	0xbe9d9880	-0.3078041
72	0xbcff2086	-0.031143438
73	0xbd5009f4	-0.050790742
74	0x3c4bb2ec	0.012432795
75	0x3d9f28d4	0.07771459
76	0x3d94401c	0.072387904
77	0xbd6de17b	-0.058076363
78	0x3e085c7b	0.13316528
79	0x3dc5dc05	0.09661106
80	0xbcd670fb	-0.02617692
81	0xbe52a10d	-0.20569248
82	0xbe26fc22	-0.16307119
83	0x3d84e70a	0.0648938
84	0xbc97a925	-0.018513272
85	0xbcc27a06	-0.023739826
86	0xbe66bcf9	-0.22533025
87	0x3e067649	0.1313106
88	0x3dd5570e	0.10416995
89	0x3df935a7	0.121684365
90	0x3b987810	0.0046529844
91	0x3e62c90a	0.22147003
92	0xbe2b0784	-0.16702086
93	0xbe3c07f9	-0.18362416
94	0xbd78ba0a	-0.060724296
95	0xbdb40f6f	-0.08792006
96	0xbe530198	-0.20606077
97	0xbe629848	-0.22128403
98	0x3dbba2fc	0.09161946
99	0xbd9f8ddf	-0.07790732
100	0xbc944ae6	-0.01810212
101	0x3e33da70	0.17563796
102	0xbd20aab3	-0.03922529
103	0x3c4147d4	0.01179691
104	0xbd9c4c2d	-0.07631717
105	0x3d158346	0.036502145
106	0x3b3fc2ce	0.00292604
107	0xbe61c7c6	-0.22048864
108	0xbd55a3b1	-0.05215806
109	0xbc832d50	-0.016012818
110	0xbd9f10e0	-0.077668905
111	0xbddebb7a	-0.10875602
112	0x3dbfb9e6	0.09361629
113	0xbe80b72f	-0.25139758
114	0x3d145a05	0.03621866
115	0xbd9d205d	-0.076721884
116	0xbeca288f	-0.3948407
117	0xbeb46331	-0.35231927
118	0xbde0bb8d	-0.109732725
119	0xbe25ae11	-0.16179682
120	0x3d4dbdb2	0.050229736
121	0x3d2610bc	0.040543303
122	0xbe67e7fd	-0.2264709
123	0x3db0827c	0.08618638
124	0xbe12651c	-0.14296383
125	0xbc83fd47	-0.016111983
126	0xbdff28b3	-0.12458935
127	0x3e765d3e	0.24059007
128	0x3c777232	0.01510291
129	0x3d93c356	0.07214992
130	0x3ddebe4c	0.1087614
131	0x3e493b67	0.19651566
132	0x3c6d9025	0.014499699
133	0xbd07618a	-0.033052005
134	0xbddacebc	-0.10683963
135	0x3d5b62d9	0.053561065
136	0x3e843b0b	0.25826296
137	0xbe1384c8	-0.14406121
138	0xbe11bdad	-0.14232512
139	0xbc3ec39f	-0.011643319
140	0x3d46366c	0.048391744
141	0x3d358940	0.044320345
142	0x3dcd3ab1	0.1002096
143	0x3d1689ad	0.03675239
144	0x3d7547b5	0.05988284
145	0x3b466e5a	0.0030278177
146	0xbe4aa1a9	-0.19788231
147	0x3e10ba7d	0.1413364
148	0xbe9f792a	-0.31147128
149	0x3dfb29d5	0.12263838
150	0xbd4c5b92	-0.049892016
151	0x3e4ca330	0.19984126
152	0x3d345816	0.044029318
153	0x3e3825dc	0.17983192
154	0x3d267892	0.04064233
155	0x3d062ae1	0.032755736
156	0xbe71061c	-0.23537487
157	0xbe85c653	-0.26127872
158	0xbd8b50c5	-0.06802515
159	0xbe0265e4	-0.1273418
160	0xbc1cd45e	-0.009572117
161	0xbe80c026	-0.25146598
162	0x3deaf42b	0.114723526
163	0xbda01a75	-0.07817546
164	0x3c3d999d	0.011572269
165	0xbcb6a6bc	-0.022296302
166	0xbd97ed58	-0.074183166
167	0xbdad31dd	-0.08456776
168	0xbe0d48f0	-0.13797355
169	0x3d55d60b	0.05220608
170	0x3bd0472e	0.0063561415
171	0xbe5fc72f	-0.21853326
172	0x3d4b86a1	0.04968894
173	0xbdcc27b7	-0.099685125
174	0x3d09850d	0.033574153
175	0x3dfa4d0c	0.12221727
176	0xbc7517f3	-0.014959323
177	0xbe40837e	-0.1880016
178	0xbdc7ff7f	-0.09765529
179	0xbd4b6377	-0.049655404
180	0xbe16f5cb	-0.147422
181	0xbc0aecae	-0.00847928
182	0xbe40b13e	-0.18817613
183	0x3e12457f	0.14284323
184	0xbdc21426	-0.09476499
185	0xbd24e653	-0.040258717
186	0xbe4c57ae	-0.19955322
187	0x3e38216a	0.17981496
188	0xbcaca09e	-0.021072682
189	0x3dac38d6	0.08409278
190	0xbd3ffaaf	-0.04686993
191	0x3e632691	0.2218268
192	0xbe2d1396	-0.16902003
193	0x3e74235b	0.23841612
194	0x3d8a4740	0.06751871
195	0xbdd3a693	-0.10334506
196	0xbe550d7a	-0.20805922
197	0x3de8fa70	0.11375892
198	0xbd80634a	-0.06268938
199	0xbd458c7e	-0.048229687
200	0x3c3ca6b5	0.011514355
201	0xbba952d9	-0.005167347
202	0xbd07e3f7	-0.03317639
203	0x3e247234	0.1605919
204	0x3d265977	0.040612664
205	0xbdd6ffaf	-0.104979865
206	0x3da3b19d	0.079928614
207	0xbc06d287	-0.008228905
208	0xbe88d19d	-0.26722422
209	0xbdf988a4	-0.12184265
210	0xbe2f16c3	-0.17098527
211	0xbe1437ae	-0.14474365
212	0xbe4b34e0	-0.19844389
213	0x3c89fcbf	0.016844152
214	0xbcccd76f	-0.02500507
215	0xbd84dd69	-0.06487543
216	0xbd3599a9	-0.044335995
217	0xbdcd589c	-0.100266665
218	0x3dd1df15	0.10247628
219	0x3e0c224c	0.13684958
220	0x3d6bc7f5	0.05756374
221	0xbd9c117b	-0.07620522
222	0xbe0f7a74	-0.14011556
223	0x3d4ee181	0.050508026
224	0xbc0ab4c9	-0.008465954
225	0xbe3c3354	-0.18378955
226	0x3e23d265	0.15998228
227	0x3ddd3808	0.10801703
228	0x3cf8337a	0.030297983
229	0xbcde01d2	-0.027100477
230	0xbc6cd101	-0.014454127
231	0xbe0449e5	-0.12918814
232	0xbe4a99c2	-0.19785216
233	0xbda517f1	-0.08061207
234	0xbd20a78e	-0.039222293
235	0xbbf6662e	-0.007519505
236	0x3d924142	0.07141353
237	0xbe87377c	-0.2640952
238	0x3e8e8b02	0.2784043
239	0xbe1838b9	-0.14865388
240	0x3e0b2a07	0.13590251
241	0xbd3b7903	-0.045769703
242	0x3d815709	0.06315429
243	0x3cd95d09	0.02653362
244	0x3d44f8d5	0.048088867
245	0xbe873d17	-0.26413795
246	0x3df69cbc	0.120416135
247	0x3d2b2ab5	0.041788775
248	0xbe092290	-0.13392091
249	0x3d6eeb65	0.05832996
250	0xbbef00d5	-0.0072938004
251	0xbdf63acd	-0.12022934
252	0xbde4f247	-0.11179023
253	0xbdf960c2	-0.12176658
254	0xbd1475eb	-0.036245268
255	0xbda21af2	-0.07915296

conv3.bias f4 [256]
0	0xbdcdb0bb	-0.10043474
1	0xbd890142	-0.06689693
2	0xbcece348	-0.02891697
3	0x3d77ec10	0.06052786
4	0xbdff76b3	-0.12473812
5	0xbd0017d6	-0.03127273
6	0x3b9f6c4a	0.004865204
7	0x3e29d355	0.16584523
8	0x3c26ac98	0.0101729855
9	0xbe07af4c	-0.13250464
10	0xbe29eea6	-0.16594943
11	0x3d892c0c	0.066978544
12	0xbe2f818c	-0.17139262
13	0xbded0de3	-0.11574914
14	0x3cef5e35	0.029219726
15	0xbe45bb10	-0.1930964
16	0x3db04203	0.08606341
17	0xbd1cfc02	-0.03832627
18	0xbc97713f	-0.018486617
19	0x3c9f6232	0.019456003
20	0xbdea6873	-0.11445703
21	0x3c759b30	0.014990613
22	0x3daf5830	0.08561742
23	0x3d75a928	0.059975773
24	0x3c4d9f40	0.012550175
25	0xbdaae553	-0.083445214
26	0xbb3d1988	-0.002885433
27	0xbd25a446	-0.040439866
28	0x3c9db786	0.01925255
29	0xbd2aed8a	-0.04173044
30	0x3dd4f21f	0.103977434
31	0x3e0a7015	0.13519318
32	0x3ca3b6ee	0.019984689
33	0xba00ac98	-0.0004908531
34	0x3d44eb8e	0.048076205
35	0xbd3782ac	-0.044802353
36	0xbe3f8d31	-0.18706204
37	0x3d0c7eb9	0.03430054
38	0xbcdb4718	-0.026767299
39	0xbe12d9d8	-0.14340913
40	0xbe222cb5	-0.15837367
41	0xbc1761f9	-0.009239667
42	0x3cadcf43	0.021216994
43	0x3da57a59	0.080799766
44	0x3dbb6395	0.09149853
45	0xbd4f788b	-0.050652068
46	0x3e05435a	0.13013974
47	0x3d77adad	0.060468365
48	0xbd870cb5	-0.065942205
49	0x3d413075	0.047165353
50	0xbda8c44c	-0.08240566
51	0x3c2be423	0.010491404
52	0x3e01aa0a	0.12662521
53	0xbdf4e50b	-0.11957749
54	0x3d06149e	0.032734506
55	0xbdf3736f	-0.118872516
56	0x3bfd99e2	0.0077392915
57	0xbd93845e	-0.072029814
58	0x3dc92f04	0.09823421
59	0x3ba38c1d	0.004991068
60	0xbce3ff32	-0.027831648
61	0x3de53ebd	0.11193607
62	0xbd31c48c	-0.043400332
63	0xbe4c4990	-0.19949937
64	0xbceaf7c8	-0.028682604
65	0xbc51178c	-0.012761962
66	0xbb877913	-0.004134306
67	0xbe0a9927	-0.13534985
68	0xbd19894f	-0.037484463
69	0xbe093e6e	-0.13402721
70	0xbe2883f6	-0.16456589
71	0x3db3beda	0.087766364
72	0x3d22a261	0.039705638
73	0x3db5c4fd	0.08875463
74	0xbe009252	-0.12555817
75	0x3cab39c1	0.020901563
76	0xbe0e4903	-0.1389504
77	0xbcb4447e	-0.022005316
78	0x3cc692c2	0.024239901
79	0xbd317e14	-0.043333128
80	0x3d2eb6ea	0.04265491
81	0xbe355233	-0.17707138
82	0xbe3771f3	-0.17914562
83	0x3c7c040b	0.015381823
84	0xbd868be7	-0.06569653
85	0xbc15e999	-0.009149932
86	0xbd58a968	-0.052895933
87	0xbc129351	-0.008946256
88	0x3bb909aa	0.005646904
89	0xbe263671	-0.16231705
90	0x3b62f8d8	0.0034633186
91	0x3c0d74d4	0.008633811
92	0x3e1d1824	0.1534124
93	0xbe01116c	-0.12604302
94	0x3d126218	0.03573808
95	0xbdb6a46e	-0.08918081
96	0x3d8e297d	0.06941507
97	0x3e50d095	0.20392068
98	0xbcf6df18	-0.030135676
99	0x3d6d79c4	0.057977453
100	0xbdee6c3c	-0.11641738
101	0xbc6d8c09	-0.014498719
102	0x3cd1af71	0.025596352
103	0xbd152b9e	-0.03641855
104	0x3d6df79e	0.058097474
105	0xbe2272cf	-0.15864109
106	0xbb5c5376	-0.0033619083
107	0xbe154dae	-0.14580414
108	0xbe1d8910	-0.15384316
109	0xbe015a09	-0.12632002
110	0xbcd09640	-0.02546227
111	0xbd2ff1de	-0.042955272
112	0x3d21a0f9	0.039460156
113	0x3e7921d3	0.24329309
114	0xbd855da4	-0.06512001
115	0xbe143dcd	-0.144767
116	0x3dddcaf6	0.10829727
117	0x3dd51f0c	0.10406312
118	0xbd3b6545	-0.045750875
119	0x3e298770	0.16555572
120	0x3c4692ae	0.012119932
121	0xbd630056	-0.055420242
122	0x3de938a0	0.113877535
123	0x3d125fb4	0.0357358
124	0x3cd22feb	0.025657615
125	0xbdb210fd	-0.086946465
126	0xbc96d995	-0.018414298
127	0xbd57a6c9	-0.052649293
128	0xbe2b841f	-0.16749619
129	0x3bedf13a	0.0072614225
130	0xbe1e6968	-0.15469897
131	0xbdcb94c2	-0.09940483
132	0xbdf42b50	-0.11922324
133	0xbdd67734	-0.10471955
134	0x3cbc6b14	0.023000278
135	0xbd350040	-0.04418969
136	0xbd3d859b	-0.046269994
137	0x3ab7939e	0.0014005785
138	0xbd0d2af4	-0.03446479
139	0xbcae7fb2	-0.021301124
140	0x3d194c8f	0.037426528
141	0xbe030658	-0.12795389
142	0xbd330697	-0.043707456
143	0xbcfb18e9	-0.030651527
144	0x3c3e7c19	0.011626267
145	0xbc6c32d9	-0.01441642
146	0xbd8f7847	-0.07005363
147	0xbe444c32	-0.19169691
148	0xbd08ba2a	-0.033380665
149	0xbd2e68f9	-0.04258058
150	0xbd62b296	-0.055346094
151	0xbe32dfce	-0.17468187
152	0xbd0400f4	-0.03222747
153	0x3d90472d	0.07044826
154	0x3cc9861a	0.024600077
155	0xbd3e9492	-0.046528406
156	0xbd82391a	-0.063585475
157	0xbdf3bd87	-0.11901384
158	0xbcd5111f	-0.02600914
159	0xbc830be6	-0.015996885
160	0xbcde03ff	-0.027101515
161	0xbd626d4e	-0.055280022
162	0xbd332f52	-0.0437463
163	0x3d25828e	0.04040771
164	0xbe0a2f97	-0.13494717
165	0xbd984263	-0.07434537
166	0xbdaab5eb	-0.08335479
167	0xbd8635ff	-0.06553268
168	0x3d544583	0.051824104
169	0xbe176be2	-0.14787248
170	0x3b968efa	0.004594681
171	0xbe03f145	-0.12885006
172	0x3e0cf644	0.13765818
173	0xbd7f7117	-0.06236371
174	0xbe0a5848	-0.13510239
175	0xbdbad87d	-0.09123323
176	0xbcfee6f2	-0.031115983
177	0xbe1f23cd	-0.15541
178	0xbc46ebae	-0.012141151
179	0xbd318fb0	-0.04334992
180	0xbd8fb883	-0.07017615
181	0xbcd6c167	-0.026215268
182	0xbdf63b6d	-0.12023053
183	0xbe81761b	-0.2528542
184	0x3da9f6d7	0.08299034
185	0x3c18f9b8	0.009336881
186	0x3d0bd843	0.03414179
187	0xbdd72b42	-0.10506298
188	0x3d4e5ad3	0.050379585
189	0x3e2b475a	0.16726437
190	0xbe212aff	-0.15739058
191	0x3c5c8a00	0.013460636
192	0xbd565000	-0.052322388
193	0xbcbcb05b	-0.023033312
194	0xbd10fd14	-0.035397604
195	0x3da6aded	0.081386425
196	0xbc873e61	-0.016509237
197	0x3d5a9536	0.053364955
198	0xbd535bc8	-0.0516012
199	0x3bd81330	0.006594084
200	0xbdb19190	-0.08670342
201	0xbdc80875	-0.09767238
202	0x3d906c2d	0.07051883
203	0xbdbecf78	-0.09316915
204	0xbba84c38	-0.005136039
205	0xbe03f322	-0.12885717
206	0xbd86992a	-0.065721825
207	0xbdb60637	-0.08887904
208	0x3c5c6308	0.013451345
209	0x3dcd5937	0.10026782
210	0xbc22a8df	-0.009927957
211	0xbdd9bd18	-0.1063177
212	0x3cc1ab6b	0.023641309
213	0xbdc02673	-0.093823336
214	0xbe25fa82	-0.16208842
215	0xbe0af00d	-0.13568135
216	0x3c935eed	0.0179896
217	0x3c8c6a74	0.017140605
218	0x3cca5e00	0.024703026
219	0xbbb413a4	-0.0054955054
220	0xbdfdcaed	-0.12392221
221	0x3cc83ef4	0.02444408
222	0xbc839c4e	-0.016065743
223	0x3b934910	0.0044947937
224	0xbbd23d84	-0.0064160246
225	0xbc6677be	-0.014066635
226	0x3cd34799	0.025790976
227	0x3c1ab719	0.009443068
228	0xbd99ab43	-0.07503369
229	0xbd6c2086	-0.057648204
230	0xbdd67ba3	-0.104728006
231	0xbd9a5c96	-0.075371906
232	0xbc4e4cbc	-0.012591537
233	0xbdc8790c	-0.09788713
234	0xbd9d093c	-0.07667777
235	0xbcd84702	-0.026401047
236	0xbe3582fa	-0.17725745
237	0xbe86198a	-0.2619136
238	0xbda62261	-0.08112026
239	0x3d5c03d4	0.05371459
240	0xbcd9e00b	-0.02659609
241	0xbdacb7af	-0.08433472
242	0xbe1f57e0	-0.15560865
243	0xbdab15ee	-0.08353792
244	0xbdbaac1b	-0.09114858
245	0xbd6e60bb	-0.058197718
246	0xbcffa853	-0.031208193
247	0x3d1200e4	0.03564538
248	0xbd11ccdc	-0.03559576
249	0x3e01051a	0.12599602
250	0xbe14fcaa	-0.14549509
251	0xbba3eaff	-0.005002379
252	0xbdd58e4c	-0.104275316
253	0xbd033089	-0.03202871
254	0xbd8666de	-0.06562589
255	0xbd879dcb	-0.066218935

fc.weight f4 [8, 256]
0	0xbc8c4d8f	-0.017126827
1	0xbd017568	-0.031606108
2	0xbd7028bb	-0.058632594
3	0x3d06f075	0.03294416
4	0xbd8aed5c	-0.06783554
5	0x3ca22ea5	0.019797632
6	0x3dcdb261	0.10043789
7	0xbe4e8325	-0.20167215
8	0x3d2a1a04	0.041528717
9	0xbd1ecc84	-0.03876926
10	0x3b2919a9	0.0025802648
11	0x3d5c29fc	0.053750977
12	0x3caf93c6	0.021432769
13	0xbcf3b0f7	-0.02974747
14	0x3d95e38e	0.07318793
15	0x3d4e35b4	0.050344184
16	0xbdd211a8	-0.10257274
17	0xba1230f8	-0.0005576755
18	0xbe31df3f	-0.17370318
19	0xbde090a1	-0.10965086
20	0xbd668d0e	-0.056286864
21	0x3bd236aa	0.006415208
22	0xbcc1c18f	-0.023651866
23	0xbd9398b4	-0.0720686
24	0xbc634972	-0.013872491
25	0x3d202b50	0.039103806
26	0x3e008bf2	0.12553385
27	0x3d4f479a	0.050605394
28	0x3ddfa496	0.10920064
29	0x3dc4245f	0.0957725
30	0xbe04f6de	-0.12984797
31	0xbd93d70a	-0.0721875
32	0x3dac1db6	0.084041044
33	0x3bd705a9	0.006561954
34	0x3d88b9b7	0.06676047
35	0xbc4a5609	-0.012349614
36	0x3d8e966a	0.06962283
37	0x3e2505ef	0.16115545
38	0x3d9c844c	0.07642421
39	0xbc0271a8	-0.007961668
40	0x3d74188e	0.05959373
41	0xbc9fc8c9	-0.019504922
42	0xbd3cd162	-0.04609812
43	0xbdb65398	-0.08902663
44	0xbe394464	-0.18092495
45	0x3db6a693	0.0891849
46	0xbd186307	-0.037203815
47	0x3d39a6a1	0.045324925
48	0xbda38e43	-0.07986119
49	0x3deda9a8	0.11604625
50	0x3d23b075	0.039963204
51	0x3c01fa8b	0.007933269
52	0x3da1956f	0.0788983
53	0x3d06e3b2	0.03293199
54	0xbd29e25f	-0.04147565
55	0x3c1906ac	0.00933997
56	0x3d9a5a36	0.075367376
57	0x3ce7a1d7	0.028275413
58	0x3d2f8414	0.04285057
59	0x3dbeafd2	0.09310879
60	0x3d424ad4	0.047434643
61	0x3c2940a0	0.010330349
62	0x3b54fe6e	0.0032500285
63	0xbb3dc8a4	-0.0028958702
64	0xbcf638f9	-0.030056464
65	0xbd271639	-0.040792678
66	0xbcdfffb5	-0.02734361
67	0xbd34a01f	-0.044098016
68	0xbd7533ed	-0.059863973
69	0xbe0c8ba7	-0.13725148
70	0xbdb24265	-0.0870407
71	0x3da98454	0.08277193
72	0x3d3e0b96	0.046397768
73	0xbe312f77	-0.17303263
74	0x3cb57653	0.022151148
75	0x3d2fd12c	0.04292409
76	0x3d92e6a2	0.07172896
77	0x3df51ea0	0.11968732
78	0x3d23eab2	0.040018745
79	0xbd59088b	-0.052986663
80	0xbd0118d6	-0.031517826
81	0xbe0df2f1	-0.13862206
82	0x3c87da84	0.016583689
83	0xbd5ab8de	-0.05339896
84	0xbe507950	-0.20358777
85	0xbdb666e6	-0.08906345
86	0xbc0aa849	-0.008462974
87	0x3e14237d	0.14466663
88	0x3dadadc3	0.08480408
89	0xbe19bfaa	-0.1501452
90	0x3d69551d	0.056965936
91	0xbc8e6649	-0.017382758
92	0x3db7d01d	0.08975241
93	0xbcdfe478	-0.027330622
94	0xbd241790	-0.040061533
95	0xbd9a6321	-0.075384386
96	0x3cf2f7b6	0.029659133
97	0x3da0aabc	0.07845065
98	0x3d749f94	0.059722498
99	0x3e1234d6	0.14277968
100	0xbd1b0193	-0.0378433
101	0x3b443e03	0.0029944188
102	0x3df58e77	0.11990064
103	0xbe0ac39e	-0.13551185
104	0x3e17a367	0.14808427
105	0xbd3456db	-0.044028144
106	0x3c7bfbd5	0.015379866
107	0xbdb1eb4f	-0.0868746
108	0xbd32f880	-0.04369402
109	0xbab115fa	-0.0013510578
110	0xbd8a117b	-0.067416154
111	0xbdd76663	-0.105175756
112	0xbdee2ce8	-0.11629659
113	0xbec90b30	-0.39266348
114	0xbd0076f0	-0.031363428
115	0x3c7d7941	0.015470804
116	0xbd6e7509	-0.058217082
117	0xbe09a996	-0.13443598
118	0x3d92b50c	0.07163438
119	0x3d5fae09	0.054609332
120	0xbb7fefbb	-0.0039052803
121	0xbd9a2eea	-0.075284794
122	0xbd2d7832	-0.042350955
123	0x3d6ab39c	0.057300195
124	0x3dde667d	0.10859392
125	0xbcbfc97d	-0.023411507
126	0x3d2e4634	0.04254742
127	0x3c813b48	0.015775338
128	0x3d2af408	0.041736633
129	0xbd2df93b	-0.042474013
130	0xbcca2ab8	-0.024678573
131	0xbdc76f8e	-0.09738074
132	0x3cdf4d27	0.027258469
133	0x3d2c2be3	0.04203404
134	0xbe1d8e03	-0.15386204
135	0x3ce7dce0	0.028303564
136	0xbd3399f8	-0.043848008
137	0xbe04d472	-0.12971666
138	0x3c658eea	0.014011124
139	0xbdbe0b73	-0.092795275
140	0xbd80fd23	-0.06298282
141	0x3dc74f6c	0.097319454
142	0xbd378396	-0.044803225
143	0x3caeff1e	0.021361884
144	0xbdabaf0b	-0.08382996
145	0x3d13939e	0.03602945
146	0x3d96c143	0.073610805
147	0x3c148e55	0.009067138
148	0xbd0b3c9e	-0.033993356
149	0xbd183af6	-0.037165605
150	0x3ca2f2ab	0.019891104
151	0xbc8ef40d	-0.017450357
152	0xbd4bd5b6	-0.049764358
153	0xbd0a3ac1	-0.03374744
154	0xbdcc1761	-0.09965397
155	0xbcf94bd2	-0.030431662
156	0x3c18295c	0.009287205
157	0xbbcabdfa	-0.0061871978
158	0x3bc06420	0.005871311
159	0x3d8d6de0	0.069057226
160	0x3dd134a5	0.10215119
161	0x3de5a4ef	0.11213099
162	0xbdccf4aa	-0.100076035
163	0x3dde80cf	0.10864412
164	0x3dacbf60	0.084349394
165	0xbdccb0a8	-0.09994632
166	0xbceb9964	-0.028759666
167	0xbcdc3cb9	-0.026884424
168	0x3c42db8d	0.011893165
169	0x3daba137	0.08380359
170	0x3da14530	0.078745246
171	0xbd1e113d	-0.03859066
172	0xbe565e46	-0.209344
173	0xbd934bdd	-0.07192204
174	0x3e1f8c50	0.15580869
175	0x3da2e33f	0.079535
176	0x3d96d5e3	0.073650144
177	0xbddeb204	-0.108737975
178	0xbdcedc05	-0.10100559
179	0xbc3fa38a	-0.011696706
180	0x3bb6c69a	0.0055778744
181	0x3da3a9a8	0.07991344
182	0x3d283349	0.041064534
183	0xbbd87b2b	-0.0066064796
184	0xbd7a03c0	-0.061038733
185	0x3d1faa4d	0.03898077
186	0x3c939c73	0.018018937
187	0xbe1650d2	-0.14679268
188	0x3c8e17c3	0.017345315
189	0xbecc6bd3	-0.39926013
190	0xbde52ed4	-0.111905724
191	0x3dc83b6e	0.0977696
192	0xbd519477	-0.051166978
193	0xbc4329f8	-0.011911862
194	0x3d2b2482	0.041782863
195	0x3def41e2	0.11682488
196	0x3dc0893c	0.094011754
197	0x3dcd73cf	0.10031854
198	0xbde8cb69	-0.113669224
199	0x3e08ba5f	0.13352345
200	0x3d7ebb43	0.062190305
201	0x3d54a3b1	0.05191392
202	0x3db38933	0.08766403
203	0x3d2640ae	0.040589027
204	0x3d6b0045	0.057373304
205	0x3d3c547c	0.045979008
206	0x3cb6bde6	0.022307348
207	0x3d84df27	0.064878754
208	0x3b02265e	0.0019859294
209	0xbe3202a6	-0.17383823
210	0xbcb97649	-0.02263941
211	0x3d20239a	0.039096452
212	0xbe73082c	-0.23733586
213	0x3d8f2333	0.069891356
214	0xbc9c960d	-0.019114519
215	0xbb36a4bf	-0.0027869192
216	0x3d99c047	0.07507377
217	0xbb988f0e	-0.0046557253
218	0x3d5f59a0	0.054528832
219	0x3d994d55	0.07485453
220	0xbda24a37	-0.079243116
221	0x3d8bc23b	0.06824156
222	0x3da5350b	0.08066758
223	0x3dbcb9ba	0.09215112
224	0x3d9862ae	0.07440697
225	0x3e02fc32	0.12791517
226	0x3dabe9ad	0.083941795
227	0xbdce3a6e	-0.10069738
228	0x3de3c8b9	0.11122269
229	0x3d462122	0.04837144
230	0xbd3f176d	-0.0466532
231	0x3cae2f25	0.021262715
232	0xbe0db3e1	-0.1383815
233	0xbb821126	-0.0039693294
234	0x3ddb52d4	0.107091576
235	0x3df6dd9c	0.120539874
236	0xbb2e5f4d	-0.0026607097
237	0x3c43b56e	0.011945112
238	0x3db378fd	0.08763311
239	0x3d88e0a4	0.06683472
240	0x3d6a1c9f	0.0571562
241	0xbe3dc154	-0.1853078
242	0x3d66a38b	0.05630831
243	0xbd24ce18	-0.04023561
244	0xbd76c652	-0.060247727
245	0xbd4a1108	-0.04933265
246	0xbd8db175	-0.06918613
247	0x3dc62e32	0.0967678
248	0xbe643ebc	-0.22289556
249	0xbe0ba874	-0.13638479
250	0xbc4897c0	-0.012243211
251	0xbd9ff9d8	-0.07811326
252	0xbe63b832	-0.22238234
253	0x3d1f0a91	0.038828436
254	0x3d3c985a	0.04604373
255	0x3d3d2925	0.046181817

fc.bias f4 [8]
0	0x3dd41575	0.10355655
1	0x3d389fa4	0.04507412
2	0xbdef1458	-0.11673802
3	0xbd1d28cb	-0.03836898
4	0xbd5e1599	-0.054219816
5	0x3db80aa3	0.08986404
6	0x3b811985	0.0039398097
7	0xbd7e3c0d	-0.062068988
